Homeworks/HW1/cnn_5-model.pt (torch, 53371 bytes, 14 tensors)

conv1.weight f4 [8, 1, 3, 3]
-0.107693225 0.006596859 -0.21471441 -0.22675392 -0.24361016 0.17222628 -0.33800745 -0.086928174
-0.21023811 -0.22621639 0.059956923 -0.25432044 -0.23417702 0.32165015 -0.065571986 0.02351326
0.3812143 -0.040127784 -0.3720466 0.01074508 0.24611306 -0.3907563 0.12632822 0.077774465
-0.055778317 0.10920791 0.067259386 -0.31978333 -0.027722336 0.23056741 -0.3008875 0.1899253
-0.034843907 0.07991338 -0.23574005 0.34913206 -0.025731053 -0.05959269 0.6198869 -0.35860178
-0.11859025 0.20769832 -0.261871 -0.27738938 -0.17254601 -0.32456374 0.058347005 -0.0053902455
0.03907321 0.3040933 0.18114792 -0.36425933 0.3403654 0.3765484 0.16863962 -0.36115608
-0.012595125 -0.0098421 0.08562826 -0.2258821 -0.20874645 0.3070195 0.20675893 -0.17496173
0.45180324 -0.18490712 -0.18676706 0.12331235 -0.0623317 -0.24265417 0.09307898 -0.28183353
00000000: 448e dcbd 772a d83b 18de 5bbe 2e32 68be
00000010: f174 79be 165c 303e 500f adbe 6607 b2bd
00000020: a948 57be 45a5 67be 6495 753d 4a36 82be
00000030: 1acc 6fbe 54af a43e 9b4a 86bd e19e c03c
00000040: 852e c33e 085d 24bd e47c bebe 220c 303c
00000050: 1005 7c3e 3611 c8be 2f5c 013e 3848 9f3d
00000060: ce77 64bd 66a8 df3d 4abf 893d a4ba a3be
00000070: f419 e3bc dd19 6c3e ed0d 9abe c77b 423e
00000080: 7cb8 0ebd a0a9 a33d d765 71be 70c1 b23e
00000090: eec9 d2bc 7717 74bd e8b0 1e3f a79a b7be
000000a0: 72df f2bd deae 543e f513 86be fb05 8ebe
000000b0: e7af 30be 382d a6be 45fd 6e3d a8a0 b0bb
000000c0: 3b0b 203d 1eb2 9b3e d77e 393e 3380 babe
000000d0: 6044 ae3e f4ca c03e ddaf 2c3e 73e9 b8be
000000e0: c85b 4ebc c240 21bc df5d af3d a34d 67be
000000f0: a1c1 55be a931 9d3e 9db8 533e 2b29 33be
00000100: c152 e73e 4b58 3dbe dd3f 3fbe 2f8b fc3d
00000110: 864f 7fbd 567a 78be 31a0 be3d 7c4c 90be

conv1.bias f4 [8]
-0.37726188 0.16292766 0.30522114 0.01612428 0.16758211 -0.28226674 0.0035642667 -0.23449637
00000000: 7828 c1be 82d6 263e f245 9c3e 1117 843c
00000010: a59a 2b3e 4485 90be 7996 693b d11f 70be

conv2.weight f4 [16, 8, 3, 3]
0.14519571 0.16577342 0.079959534 0.10362546 0.12106802 -0.041242 0.104787216 -0.006125766
-0.083655305 -0.16500744 -0.04788228 -0.009921656 0.05528257 -0.008654684 0.0793854 -0.057927754
0.12117478 0.053591635 0.056812383 0.048566546 0.063421994 0.04372192 0.011342168 0.07552383
0.043627266 0.004584426 -0.040477507 -0.15213224 -0.048166018 -0.06798693 -0.09301963 0.091582
-0.07722377 0.056308992 0.005826737 0.04147392 0.11248693 0.109077185 -0.105601214 0.050365545
0.10869146 -0.06277357 -0.026425509 -0.007092337 -0.12107086 0.017679725 -0.23605207 -0.08063345
0.13970925 0.04493131 -0.09178721 0.21050878 0.14335401 -0.006938601 -0.2582494 0.018877672
0.1406091 0.05168591 0.16432261 0.19634241 0.27675056 0.15249449 0.018300252 -0.061843995
-0.05022026 0.004245468 -0.13892573 -0.06141466 -0.04939692 -0.30104247 -0.095779 -0.0776307
0.08179646 -0.033350218 -0.013116933 0.029837862 0.17800568 0.04896588 0.124272004 -0.10345197
-0.08476511 -0.13257405 -0.07056821 -0.18700825 -0.037277203 0.09939037 0.06548524 0.009223607
0.0796193 0.07499942 -0.18576616 -0.032964796 0.06665951 -0.1331225 0.1913749 0.22215483
0.08503874 0.13058707 -0.08052803 -0.25655228 -0.2538438 0.0029520118 -0.11222042 -0.04223614
0.1093889 0.020845123 -0.08189663 -0.15577465 0.04094781 -0.04483412 0.059830274 0.045817245
-0.058040127 -0.06781064 -0.036614098 -0.0668378 -0.04692501 -0.20529853 -0.076469414 -0.08934562
0.11280942 0.03227674 0.068018444 0.051716603 0.1009791 0.013622825 0.024370154 0.20753801
0.010179791 0.17439662 0.3142964 0.20872313 0.03639954 0.15661342 0.23078384 0.13472787
0.09653224 0.10741521 0.029247513 0.040749356 -0.1545385 -0.11594576 -0.07239123 -0.2636012
-0.13883586 0.095633395 0.012704334 0.034406524 0.115745015 0.020467104 0.040219188 -0.072608456
-0.055851813 0.10046457 -0.06002028 -0.073429435 -0.043782342 -0.13707896 0.00874741 0.111094974
0.014664 0.24246423 -0.03582024 -0.080820695 -0.13653514 0.0208844 0.13027011 0.13650173
-0.16211022 0.13000137 0.18053629 0.16124132 0.036151115 -0.089145884 -0.07609377 -0.04195136
0.12154675 -0.0058917394 0.117331505 0.18877871 -0.01871366 -0.1157751 -0.1316707 0.03666116
0.1209945 0.1232106 -0.1658054 0.110424966 -0.048263308 -0.18232748 -0.025873194 -0.019652618
-0.12006876 -0.11090336 0.05890005 0.16451032 0.051723003 -0.05142775 -0.19386835 -0.09869828
0.33055827 0.2217522 0.121200055 0.12417252 0.5415606 0.31203225 0.20397595 0.1652414
-0.008639832 0.055361282 0.121664464 0.07306642 0.1768967 0.14125977 -0.05491987 0.11443177
-0.12818705 0.049736843 0.0017917661 -0.10461036 0.07808068 0.18776788 0.046671692 0.11742648
0.00085466314 -0.05571977 -0.15118216 0.016307699 0.026349403 -0.03404528 0.023043606 0.122557804
-0.01060264 0.11243828 0.007072172 0.059369314 0.19466713 -0.24641903 0.10879982 0.109257124
-0.23757382 0.0025819265 0.014139106 -0.118228056 0.06648501 0.14487763 -0.013580229 0.02248575
0.13471451 -0.08221102 0.01678901 0.025742086 -0.090139374 0.02403935 0.09540439 -0.26296923
00000000: 2fae 143e 82c0 293e d3c1 a33d 9639 d43d
00000010: 83f2 f73d 5fed 28bd ae9a d63d a6ba c8bb
00000020: 7953 abbd b6f7 28be 3620 44bd 718e 22bc
00000030: fa6f 623d 60cc 0dbc d094 a23d a745 6dbd
00000040: 7c2a f83d e782 5b3d 1ab4 683d b7ed 463d
00000050: 64e3 813d c215 333d 80d4 393c 3dac 9a3d
00000060: 81b2 323d f438 963b becb 25bd 8ec8 1bbe
00000070: bb49 45bd bb3c 8bbd 1381 bebd 588f bb3d
00000080: 7f27 9ebd 42a4 663d 36ee be3b 8fe0 293d
00000090: 8c5f e63d dc63 df3d 7345 d8bd 1a4c 4e3d
000000a0: a199 de3d 6e8f 80bd 4f7a d8bc d666 e8bb
000000b0: 00f4 f7bd 12d5 903c a2b7 71be 2623 a5bd
000000c0: f10f 0f3e e509 383d effa bbbd 9d8f 573e
000000d0: 65cb 123e 345d e3bb 4439 84be 59a5 9a3c
000000e0: d5fb 0f3e 9bb4 533d 3044 283e fc0d 493e
000000f0: 40b2 8d3e 8427 1c3e 69ea 953c 2150 7dbd
00000100: c2b3 4dbd 911d 8b3b 8c42 0ebe f08d 7bbd
00000110: 6d54 4abd 3d22 9abe c827 c4bd d8fc 9ebd
00000120: e784 a73d 3d9a 08bd 68e8 56bc 886e f43c
00000130: 1f47 363e 7290 483d 5282 fe3d a0de d3bd
00000140: 5499 adbd 7ec1 07be 1186 90bd 177f 3fbe
00000150: fbaf 18bd 2e8d cb3d 201d 863d 9d1e 173c
00000160: 720f a33d 4c99 993d 7c39 3ebe 1806 07bd
00000170: c884 883d 4451 08be c8f7 433e 8e7c 633e
00000180: ca28 ae3d 9eb8 053e e1eb a4bd d25a 83be
00000190: d1f7 81be 8a76 413b d2d3 e5bd ceff 2cbd
000001a0: 4a07 e03d 64c3 aa3c 6cb9 a7bd 6483 1fbe
000001b0: e4b8 273d fba3 37bd 9710 753d ddaa 3b3d
000001c0: 7cbb 6dbd 4ee0 8abd aaf8 15bd 42e2 88bd
000001d0: 7034 40bd c739 52be ff9b 9cbd d6fa b6bd
000001e0: a008 e73d 9d34 043d 414d 8b3d cad4 533d
000001f0: 21ce ce3d 4532 5f3c eba3 c73c d884 543e
00000200: 23c9 263c 0795 323e 75eb a03e 84bb 553e
00000210: af17 153d 455f 203e 9952 6c3e 1af6 093e
00000220: b2b2 c53d 81fc db3d 7b98 ef3c cce8 263d
00000230: 573f 1ebe f874 edbd da41 94bd bdf6 86be
00000240: fd2a 0ebe 71db c33d d725 503c dbed 0c3d
00000250: b90b ed3d a1aa a73c e0bc 243d beb3 94bd
00000260: dfc4 64bd 5ec0 cd3d d3d7 75bd 2c62 96bd
00000270: 1d55 33bd 6d5e 0cbe 4c51 0f3c c385 e33d
00000280: 4641 703c 8b48 783e 3eb8 12bd 5285 a5bd
00000290: decf 0bbe c315 ab3c 8765 053e 1cc7 0b3e
000002a0: 3900 26be 141f 053e 81de 383e 721c 253e
000002b0: 3113 143d 1e92 b6bd 0dd7 9bbd 30d5 2bbd
000002c0: 81ed f83d 7e0f c1bb 804b f03d 354f 413e
000002d0: 644d 99bc 7f1b edbd afd4 06be 032a 163d
000002e0: f7cb f73d d755 fc3d e4c8 29be 7c26 e23d
000002f0: bfaf 45bd 0eb4 3abe 05f4 d3bc 87fe a0bc
00000300: 9ce6 f5bd 4d21 e3bd 2e41 713d 6575 283e
00000310: 80db 533d e8a5 52bd 6d85 46be 5322 cabd
00000320: ef3e a93e 0213 633e bc37 f83d 2a4e fe3d
00000330: b7a3 0a3f b1c2 9f3e 12df 503e 0b35 293e
00000340: 158e 0dbc 83c2 623d 382b f93d d9a3 953d
00000350: 6924 353e 67a6 103e a8f3 60bd 345b ea3d
00000360: 7743 03be dcb8 4b3d b2d9 ea3a f53d d6bd
00000370: c3e8 9f3d 3946 403e d12a 3f3d 4b7d f03d
00000380: 790b 603a 6a3a 64bd 7fcf 1abe b997 853c
00000390: b4da d73c 1073 0bbd f2c5 bc3c 96ff fa3d
000003a0: b2b6 2dbc 0a46 e63d aebd e73b 3d2d 733d
000003b0: d256 473e 4555 7cbe 71d2 de3d 33c2 df3d
000003c0: 8d46 73be 8a35 293b b5a7 673c 8d21 f2bd
000003d0: 4b29 883d cd5a 143e 9c7f 5ebc 0934 b83c
000003e0: 9af2 093e 405e a8bd 1b89 893c 11e1 d23c
000003f0: fe9a b8bd 2cee c43c 6063 c33d e7a3 86be

conv2.bias f4 [16]
-0.00808881 0.09207478 -0.029770166 0.044255037 0.04216576 0.13775696 0.034960017 0.11537499
0.034857832 0.024813304 0.013861087 -0.09407611 0.10551041 0.039959397 -0.0022415973 0.07352451
00000000: ee86 04bc b491 bc3d 90e0 f3bc c544 353d
00000010: 01b6 2c3d 2910 0d3e 3c32 0f3d b949 ec3d
00000020: 16c7 0e3d 4545 cb3c 9d19 633c faaa c0bd
00000030: d815 d83d 77ac 233d c3e7 12bb 0594 963d

conv3.weight f4 [8, 16, 3, 3]
0.031151747 -0.0093533825 0.063814856 0.10515497 0.09005956 0.023216644 0.032793134 0.10333186
0.026949467 0.039161216 0.1028744 -0.016346077 0.052555498 -0.06330164 -0.012384797 -0.090626456
-0.10917108 0.06599907 -0.11601769 -0.5151043 -0.070416346 -0.2683473 -0.47183096 -0.20030177
-0.04143906 -0.083626874 0.06843507 -0.05159225 -0.24191049 0.021402977 -0.35372937 -0.3150738
-0.1320081 -0.23637833 -0.31929025 0.0066246144 0.04410334 -0.20985386 0.0487102 -0.051467188
-0.38147888 -0.22503066 -0.0019310635 -0.23529284 -0.022451114 0.08510156 -0.037223823 0.023841172
0.02268922 -0.07262551 -0.0635979 0.018935846 0.06939498 -0.026345102 -0.03968525 -0.18599409
-0.06283055 0.01682509 0.13243538 0.019072603 0.05578398 0.027601054 0.092615016 0.03447523
0.04133705 0.016862823 0.060792737 0.11648857 0.06848057 -0.020927047 0.11773929 0.062235028
0.1328708 0.08441349 0.027564432 0.13006003 0.07468191 -0.056448057 0.043561313 0.08952173
0.06600586 0.08195209 0.08290707 0.11310606 0.057709195 0.10777544 0.083440594 0.060039286
0.024427913 0.041991908 0.112059176 0.13852529 -0.039144073 0.041966964 0.14486368 0.0703339
0.031767033 0.06853206 0.11343969 0.09533898 -0.10957627 -0.2740306 0.10924414 -0.08976637
-0.29042676 0.07722954 0.014675636 -0.14669216 0.049290795 0.16365613 0.035046175 0.11080903
0.108347304 0.026023667 -0.0050858995 0.14011282 0.12087329 0.081053466 0.05352007 0.054868102
0.043676693 -0.04368927 -0.008131369 0.13480173 0.040116854 -0.014389965 0.044234466 0.030876856
0.09339153 -0.028147113 -0.10847788 0.07693594 0.14783023 -0.11367737 -0.024077896 0.16539249
-0.04594344 0.12135383 0.09012007 -0.13483989 -0.079905555 0.01918221 -0.110261016 0.020652266
-0.013159995 -0.0063296775 -0.060122196 -0.008235672 -0.019215655 -0.025718624 -0.1276384 -0.022928784
-0.100322776 0.015363579 0.13054164 0.046509713 -0.07137938 -0.13260242 -0.13153893 -0.2427822
-0.11280838 -0.12060375 0.076923475 0.014931906 -0.0755417 0.06853319 -0.038456503 -0.018075649
-0.27950165 -0.13316862 -0.2080669 0.10408871 -0.026355293 -0.045954045 -0.062368292 0.008748754
-0.07762944 -0.23637986 -0.13374841 -0.14956938 -0.0631634 0.036639914 -0.04662859 -0.0042384206
0.04011607 0.031005422 -0.16482829 -0.09961011 -0.17504695 0.010428189 0.000938688 -0.05601609
0.13173637 0.040590815 0.13966031 -0.1903049 -0.13067915 -0.15988575 0.090783104 0.22697333
0.12874517 0.23971745 0.2678617 0.19492745 -0.14442739 -0.13275242 -0.24691193 0.10796723
-0.01685126 0.05343127 -0.046260994 -0.051027145 -0.088862285 0.005963078 -0.116001055 0.005631444
0.076032124 0.052910436 0.12965016 0.036740195 0.10036683 0.016704625 -0.11429698 -0.05609704
-0.14407413 -0.007890355 0.03903059 -0.056626074 0.019270321 -0.016374769 -0.08167877 -0.19185382
-0.081523366 -0.070709266 0.05600752 0.16731304 0.04026405 0.103402406 0.0946722 0.14236489
-0.04095067 -0.114777505 -0.064132914 0.13987738 0.2135277 0.1944124 0.01799657 0.10687994
0.10162056 -0.032419033 -0.067823224 -0.1851794 -0.05265663 -0.023221096 0.05307024 0.011994622
00000000: f331 ff3c ee3e 19bc 5db1 823d 7d5b d73d
00000010: 2671 b83d d530 be3c 1852 063d a79f d33d
00000020: 21c5 dc3c 8367 203d d0af d23d 35e8 85bc
00000030: 6f44 573d 4aa4 81bd 9be9 4abc 5d9a b9bd
00000040: 1695 dfbd 852a 873d af9a edbd e0dd 03bf
00000050: 7236 90bd d164 89be d493 f1be e81b 4dbe
00000060: 01bc 29bd 9144 abbd b027 8c3d 6552 53bd
00000070: 62b7 77be 4c55 af3c 041c b5be 5a51 a1be
00000080: 222d 07be 290d 72be 037a a3be 4b13 d93b
00000090: b4a5 343d eee3 56be 5984 473d 42cf 52bd
000000a0: 3351 c3be 706e 66be bd1b fdba 9bf0 70be
000000b0: 66eb b7bc ba49 ae3d 0278 18bd 904e c33c
000000c0: bede b93c afbc 94bd 9e3f 82bd 591f 9b3c
000000d0: f51e 8e3d afd1 d7bc 008d 22bd 3c75 3ebe
000000e0: 4ead 80bd c5d4 893c 249d 073e 263e 9c3c
000000f0: be7d 643d 9b1b e23c f1ac bd3d e635 0d3d
00000100: 0a51 293d e723 8a3c ce01 793d 8f91 ee3d
00000110: 8b3f 8c3d 336f abbc 4c21 f13d 28ea 7e3d
00000120: 480f 083e fbe0 ac3d cece e13c 752e 053e
00000130: d4f2 983d 1436 67bd 596d 323d 2b57 b73d
00000140: 152e 873d 7fd6 a73d 2fcb a93d 26a4 e73d
00000150: 7a60 6c3d 5fb9 dc3d e7e2 aa3d c1eb 753d
00000160: 0c1d c83c b5ff 2b3d 487f e53d 93d9 0d3e
00000170: 8955 20bd 8de5 2b3d 2557 143e 380b 903d
00000180: 261e 023d 895a 8c3d 1153 e83d 1541 c33d
00000190: 8669 e0bd bd4d 8cbe 64bb df3d 6ed7 b7bd
000001a0: d1b2 94be 852a 9e3d 1472 703c 7836 16be
000001b0: 25e5 493d 7995 273e 948c 0f3d d8ef e23d
000001c0: 31e5 dd3d 962f d53c 9ea7 a6bb bc79 0f3e
000001d0: 6a8c f73d 5cff a53d dc37 5b3d 60bd 603d
000001e0: 55e6 323d 85f3 32bd 6f39 05bc 7709 0a3e
000001f0: 9251 243d e3c3 6bbc 332f 353d 76f1 fc3c
00000200: 0f44 bf3d c694 e6bc a729 debd 9790 9d3d
00000210: cf60 173e aecf e8bd 023f c5bc a65c 293e
00000220: 302f 3cbd 5b88 f83d df90 b83d 7813 0abe
00000230: 86a5 a3bd 0324 9d3c 87d0 e1bd f12e a93c
00000240: 059d 57bc 2f69 cfbb b142 76bd e9ee 06bc
00000250: 266a 9dbc ddaf d2bc a4b3 02be 25d5 bbbc
00000260: 0776 cdbd 85b7 7b3c b5ac 053e f880 3e3d
00000270: 5a2f 92bd eec8 07be 24b2 06be e69b 78be
00000280: 1408 e7bd 19ff f6bd 0e8a 9d3d f4a4 743c
00000290: 9bb5 9abd 215b 8c3d 9184 1dbd 6213 94bc
000002a0: d71a 8fbe 5b5d 08be 7d0f 55be 762c d53d
000002b0: 0ee7 d7bc 4f3a 3cbd e575 7fbd ef56 0f3c
000002c0: 2ffc 9ebd 900d 72be 58f5 08be b728 19be
000002d0: d05b 81bd bc13 163d 9ffd 3ebd 73e2 8abb
000002e0: c050 243d 15ff fd3c bfc8 28be 6300 ccbd
000002f0: 823f 33be ffda 2a3c 4912 763a 2171 65bd
00000300: e6e5 063e 8e42 263d 1d03 0f3e 4adf 42be
00000310: c1d0 05be 17b9 23be 7eec b93d b26b 683e
00000320: c6d5 033e 7e78 753e 2b25 893e 109b 473e
00000330: c6e4 13be 40f0 07be 7bd6 7cbe ec1d dd3d
00000340: a70b 8abc bfda 5a3d 2b7c 3dbd d701 51bd
00000350: 6efd b5bd ec65 c33b f691 edbd fa87 b83b
00000360: bbb6 9b3d 9db8 583d 03c3 043e e37c 163d
00000370: 208d cd3d 23d8 883c 8914 eabd 03c6 65bd
00000380: 2b88 13be 8c46 01bc 8ade 1f3d bef0 67bd
00000390: cbdc 9d3c 6124 86bc 3347 a7bd 5475 44be
000003a0: b9f5 a6bd 05d0 90bd 2468 653d 1c54 2b3e
000003b0: ebeb 243d a4c4 d33d 80e3 c13d 1ac8 113e
000003c0: e4bb 27bd 7810 ebbd 1e58 83bd 043c 0f3e
000003d0: 01a7 5a3e 0b14 473e 8b6d 933c dfe3 da3d
000003e0: 711e d03d d2c9 04bd e7e6 8abd ab9f 3dbe
000003f0: 7aae 57bd 2b3a bebc 2e60 593d 1785 443c

conv3.bias f4 [8]
0.11006345 0.04672702 0.03394524 0.058782846 -0.04979088 0.049116686 0.052978836 0.14295733
00000000: f268 e13d d564 3f3d 2a0a 0b3d 48c6 703d
00000010: 86f1 4bbd 942e 493d 5600 593d 6863 123e

conv4.weight f4 [16, 8, 3, 3]
0.00429151 0.03361915 0.13002129 -0.01887696 -0.18356363 -0.038727626 0.0061499667 -0.13342099
-0.26228225 0.08271056 0.0025584844 -0.11288689 -0.0030636932 0.25209862 0.24820805 -0.14690934
0.027697995 0.03167639 0.097143956 -0.09467018 -0.022756048 0.056208186 -0.09107945 -0.05679411
-0.046405546 -0.0809845 0.11311312 0.11358695 -0.14237745 0.015200899 0.006641159 -0.009439265
-0.014221335 -0.040217623 0.057785712 0.071741 0.1265287 0.023998873 -0.06598235 -0.06254346
-0.09467295 -0.020468915 0.063594885 0.058574785 0.10192072 0.06680036 -0.084155485 -0.13900438
0.118834846 0.11818665 0.081347845 0.10146091 0.1543729 0.10472446 -0.098246425 -0.13953185
-0.09729141 -0.04359854 0.13464676 0.10451423 -0.034538545 0.017935837 -0.010294249 -0.12689808
-0.085199766 -0.030770715 -0.11554816 -0.19515304 -0.33470276 -0.066558786 -0.019584453 -0.24578656
0.16825491 0.00070973515 -0.20997755 0.2692358 -0.09911616 -0.16886385 0.105452165 0.055407263
-0.1942623 -0.10411427 -0.18852744 -0.19091485 -0.08137135 -0.084078245 -0.08108799 0.08750994
0.18200594 0.19301225 0.10767857 -0.03649282 0.04145829 -0.058314085 0.10376709 -0.07357812
0.05538013 0.016114797 -0.029161321 -0.17429736 0.032830287 0.114849195 -0.21967997 -0.013620521
0.0775278 -0.15831544 -0.105295934 -0.03749691 0.043383393 0.028494317 0.15244728 -0.04901591
0.043444663 0.1987482 -0.076009095 0.07117263 -0.04760086 -0.09074139 -0.033865687 0.16290852
-0.063170984 0.11390488 -0.061189905 -0.09059733 0.019858588 0.03654165 -0.097641386 0.087014936
0.13778366 -0.051994618 0.108894385 0.06548874 0.016159644 0.028084341 0.11992945 0.016091194
0.060223117 -0.03428372 0.10270287 -0.0315226 -0.04762677 0.1713434 0.104949884 -0.19324446
-0.066389635 -0.09874625 0.110192694 -0.125503 0.056498207 -0.020183643 -0.08568482 0.10371836
0.1143155 0.13376264 0.05910576 0.00044304007 0.06615636 0.05017472 -0.019040573 -0.05269516
-0.057973683 0.01792445 0.0034091768 0.01741097 0.11587501 0.1080757 -0.097646415 -0.08353529
-0.07350399 0.096324615 0.07037134 -0.17199685 -0.004927694 0.024171295 -0.05645811 -0.119299404
-0.087252505 0.011320449 -0.051658124 0.093851484 0.043136515 0.0492013 0.108766176 -0.011153923
-0.019537669 0.00031127542 -0.11669101 0.05111892 0.02028966 -0.02693976 -0.053461034 0.13883844
-0.054343887 0.07747562 -0.11688518 0.01920478 0.060230087 0.11971526 -0.19126293 -0.25867176
-0.23647857 -0.094826534 -0.03718942 -0.2618724 0.1384766 0.08810652 -0.012025071 0.115113586
0.08722366 0.013830529 0.1158305 0.096553594 0.097349845 0.12035823 0.07345003 0.025292339
0.04154904 -0.06866837 -0.0068986556 -0.028131813 0.055291932 -0.021662515 0.018290607 0.0130562
-0.09553801 -0.057038926 0.10802571 -0.11380495 -0.082024485 0.06309116 0.0378781 -0.02096352
-0.0536736 0.080201566 0.080270715 -0.059785955 0.010785369 -0.022957424 0.073098615 0.001088492
0.021399232 0.012819957 -0.08658038 -0.029109744 -0.11591099 -0.10646907 -0.10449169 -0.03173134
-0.026955128 -0.07754065 -0.008617952 0.089726634 -0.06611961 -0.02805328 -0.105584554 0.058183275
00000000: cc9f 8c3b 3cb4 093d 4d24 053e dba3 9abc
00000010: 1bf8 3bbe dca0 1ebd a985 c93b 839f 08be
00000020: dc49 86be 2764 a93d 3fac 273b 3e31 e7bd
00000030: 3ec8 48bb 1213 813e 402a 7e3e 676f 16be
00000040: e8e6 e23c 1abf 013d 69f3 c63d 70e2 c1bd
00000050: e46a babc 8e3a 663d dd87 babd f1a0 68bd
00000060: be13 3ebd 34db a5bd daa7 e73d 46a0 e83d
00000070: 65cb 11be 310d 793c 149e d93b 26a7 1abc
00000080: 9a00 69bc 3cbb 24bd b6b0 6c3d f2ec 923d
00000090: bd90 013e 4999 c43c c121 87bd c916 80bd
000000a0: e4e3 c1bd 6dae a7bc 093e 823d 1dec 6f3d
000000b0: cfbb d03d a1ce 883d b659 acbd 2a57 0ebe
000000c0: af5f f33d d80b f23d b399 a63d bdca cf3d
000000d0: ee13 1e3e c779 d63d 6c35 c9bd 70e1 0ebe
000000e0: b840 c7bd 6294 32bd d7e0 093e 8e0b d63d
000000f0: 4a78 0dbd 2dee 923c 36a9 28bc 92f1 01be
00000100: 377d aebd de12 fcbc 84a4 ecbd 33d6 47be
00000110: 295e abbe f94f 88bd 936f a0bc 79af 7bbe
00000120: 044b 2c3e 850d 3a3a 5b04 57be 46d9 893e
00000130: 6afd cabd a5ea 2cbe 4ef7 d73d baf2 623d
00000140: b2ec 46be dd39 d5bd 560d 41be 2f7f 43be
00000150: 06a6 a6bd 3731 acbd 7611 a6bd 6938 b33d
00000160: c45f 3a3e 01a5 453e 9586 dc3d 7f79 15bd
00000170: 2bd0 293d c0da 6ebd d783 d43d 20b0 96bd
00000180: 46d6 623d 2e03 843c b9e3 eebc 027b 32be
00000190: 0d79 063d 0e36 eb3d c9f3 60be 9b28 5fbc
000001a0: e5c6 9e3d 711d 22be 65a5 d7bd 5c96 19bd
000001b0: c9b2 313d ea6c e93c 241b 1c3e e8c4 48bd
000001c0: 08f3 313d a684 4b3e a8aa 9bbd f5c2 913d
000001d0: 1ff9 42bd 9fd6 b9bd bfb6 0abd 7ed1 263e
000001e0: ca5f 81bd f646 e93d 44a2 7abd 188b b9bd
000001f0: 7aae a23c b2ac 153d 35f8 c7bd e334 b23d
00000200: 2917 0d3e 4ff8 54bd 0504 df3d f61e 863d
00000210: 3b61 843c 2211 e63c 929d f53d aed1 833c
00000220: 84ac 763d 166d 0cbd e255 d23d d81d 01bd
00000230: 4a14 43bd a574 2f3e f7ef d63d e0e1 45be
00000240: 4af7 87bd 793b cabd b5ac e13d dc83 00be
00000250: aa6a 673d 2b58 a5bc 867b afbd 4b6a d43d
00000260: 3f1e ea3d 13f9 083e e218 723d d547 e839
00000270: fc7c 873d 0284 4d3d fafa 9bbc e1d6 57bd
00000280: d075 6dbd 4cd6 923c 7f6c 5f3b 73a1 8e3c
00000290: e14f ed3d cb56 dd3d d8fa c7bd 8d14 abbd
000002a0: 4389 96bd d745 c53d d91e 903d f11f 30be
000002b0: 7e78 a1bb e102 c63c 9f40 67bd 3f53 f4bd
000002c0: 71b1 b2bd 6879 393c 7897 53bd 3535 c03d
000002d0: eaaf 303d 4d87 493d cdc0 de3d f2be 36bc
000002e0: 760d a0bc ae32 a339 b2fb eebd 1362 513d
000002f0: 8036 a63c c6b0 dcbc f5f9 5abd aa2b 0e3e
00000300: b297 5ebd 8aab 9e3d 7f61 efbd 5853 9d3c
00000310: d3b3 763d 462d f53d 6eda 43be a070 84be
00000320: 7027 72be 6a34 c2bd ef53 18bd 2414 86be
00000330: cfcc 0d3e 3171 b43d ce04 45bc acc0 eb3d
00000340: 51a2 b23d 7199 623c 8b38 ed3d e4bd c53d
00000350: 5b5f c73d 607e f63d f86c 963d e131 cf3c
00000360: 532f 2a3d 01a2 8cbd 1e0e e2bb b074 e6bc
00000370: cb79 623d 9675 b1bc 2fd6 953c ace9 553c
00000380: 6fa9 c3bd a6a1 69bd 953c dd3d 9212 e9bd
00000390: 74fc a7bd f035 813d 1126 1b3d b0bb abbc
000003a0: d9d8 5bbd b840 a43d f964 a43d 1ee2 74bd
000003b0: 1eb5 303c 3511 bcbc bab4 953d bbab 8e3a
000003c0: 714d af3c cc0a 523c 0e51 b1bd 8f77 eebc
000003d0: be62 edbd 750c dabd bdff d5bd b9f8 01bd
000003e0: 00d1 dcbc a2cd 9ebd 4f32 0dbc 99c2 b73d
000003f0: b869 87bd fecf e5bc b73c d8bd 9651 6e3d

conv4.bias f4 [16]
0.08656245 0.0438642 0.09534234 -0.06904315 -0.10306217 -0.080553114 0.05584854 0.14479579
-0.066645846 -0.057821237 0.021208132 0.16013318 0.050860707 -0.07285878 0.17061943 0.09484522
00000000: a747 b13d f3aa 333d d842 c33d 7f66 8dbd
00000010: 4212 d3bd 08f9 a4bd 70c1 643d 5945 143e
00000020: 9e7d 88bd f6d5 6cbd adbc ad3c f4f9 233e
00000030: 5153 503d fc36 95bd dcb6 2e3e 363e c23d

conv5.weight f4 [16, 16, 3, 3]
0.055751305 0.04021701 -0.02535685 -0.007166022 -0.04494841 -0.017061885 -0.11747249 -0.04521049
-0.07755694 -0.010827038 0.0115600815 0.013826895 -0.108843945 -0.11785992 -0.080693975 -0.06798891
0.034404863 -0.07096347 -0.10293102 -0.06451606 -0.06728418 0.012585755 -0.079675294 0.04858148
0.012985633 -0.056775678 0.016142623 -0.05401821 0.04170058 -0.083980516 0.057775125 0.023644594
-0.082382835 -0.073030256 -0.078825764 -0.046583205 -0.016702667 -0.019914942 -0.0719387 0.03199752
0.04181447 -0.028120177 0.028690122 -0.021644086 -0.028072035 -0.02276579 0.011600999 -0.074200355
-0.082966745 0.04274576 0.030939305 0.061048158 0.013858265 -0.07836417 -0.01574125 -0.08627298
0.046545237 0.041892346 -0.061123088 0.026986104 -0.007453851 -0.11171863 -0.010785503 0.009835235
-0.08243973 -0.07369778 0.005284624 0.026271135 -0.05590167 0.019974526 0.027563177 -0.07964145
-0.004479895 0.009498818 -0.006837124 -0.030041225 -0.07360935 0.043853723 -0.038011305 0.025352996
0.054397523 0.09480638 0.00047690384 0.06928202 0.03280909 -0.09888817 -0.030965257 -0.024910491
0.07404414 0.074141696 -0.10691485 -0.019906443 0.008378586 -0.053012513 -0.009563964 -0.09589286
0.013974203 -0.05340004 -0.016701983 -0.07252549 0.046032146 -0.039681602 0.049033485 -0.0917306
-0.039724607 -0.008089741 -0.040056165 -0.05544058 -0.02931734 -0.035148554 -0.09185222 -0.01757615
0.012304824 -0.011958278 -0.09545652 -0.06218752 -0.025787555 -0.0549189 -0.05660462 -0.010528846
0.047015164 0.04800676 0.0066691847 0.016277945 -0.059578937 -0.05378073 -0.038692288 0.025593597
-0.030015526 0.055840503 -0.008364514 0.0018664261 0.0633603 -0.06023101 0.008543817 0.032548536
0.012478674 0.039145377 0.008327706 -0.12016514 -0.032661255 0.040088076 -0.037143853 -0.0452778
0.06810103 0.07462806 0.03350495 -0.06969173 0.074500166 0.1149009 0.032702163 0.069987856
0.07818764 0.117005266 0.060115233 0.043295592 0.18258178 0.15442605 -0.19100733 0.010285948
0.2693632 -0.024320634 -0.062433198 -0.0073168343 -0.11106864 0.052928545 -0.13338831 -0.09185282
0.08231435 -0.05730054 -0.046299208 -0.073480695 0.046302464 0.047555752 -0.028306426 -0.030669464
0.04377329 -0.0042098747 -0.02339813 0.024577469 -0.055951983 0.047216173 0.036151975 0.063959815
0.14238119 0.00334624 0.03865647 0.08243419 0.034611132 0.04058473 -0.0745015 -0.051302038
-0.17244592 0.0006087628 0.101838775 -0.14017665 0.07621994 0.19658476 0.050832067 0.08294247
0.0956765 0.18422931 0.079206474 0.01676373 0.16294529 0.07855068 -0.20138714 0.078136906
-0.032219 0.015852366 0.098916076 -0.017739426 -0.02902281 0.044570226 -0.036483563 -0.055635884
-0.13960017 0.0123036215 -0.15842205 -0.17855524 0.015091712 0.046812564 0.14782608 -0.017305614
-0.19766857 0.11067882 -0.13682665 -0.013786474 0.1054675 0.10047615 -0.12272944 -0.14720826
0.13905625 0.07568567 0.036683347 0.03882117 0.07099981 -0.09093244 0.121154554 -0.023335526
-0.06741504 -0.034002084 0.06408614 0.072125085 -0.010767814 -0.051784977 0.1411188 -0.13792734
0.10551689 0.15219067 0.007521088 0.07606126 0.021432275 -0.23399615 -0.021196544 0.067880556
00000000: 7b5b 643d 97ba 243d 2bb9 cfbc f3d0 eabb
00000010: d31b 38bd 5ec5 8bbc 6b95 f0bd a22e 39bd
00000020: 2cd6 9ebd e463 31bc 7f66 3d3c 338a 623c
00000030: 93e9 debd 8b60 f1bd e242 a5bd c53d 8bbd
00000040: 1dec 0c3d 4c55 91bd 80cd d2bd ff20 84bd
00000050: 4acc 89bd 7c34 4e3c cd2c a3bd 60fd 463d
00000060: b1c1 543c 9d8d 68bd 893d 843c 3342 5dbd
00000070: 3ace 2a3d fafd abbd 9ca5 6c3d 4fb2 c13c
00000080: 55b8 a8bd e390 95bd 676f a1bd 08ce 3ebd
00000090: 08d4 88bc a924 a3bc 9954 93bd d50f 033d
000000a0: a645 2b3d 495c e6bc 8c07 eb3c f04e b1bc
000000b0: 53f7 e5bc 527f babc 1e12 3e3c 5bf6 97bd
000000c0: 78ea a9bd 2e16 2f3d 6d74 fd3c a20d 7a3d
000000d0: c70d 633c 657d a0bd cbf3 80bc e3af b0bd
000000e0: 38a6 3e3d 4f97 2b3d 345c 7abd f611 dd3c
000000f0: 6f3f f4bb bdcc e4bd aeb5 30bc f723 213c
00000100: 29d6 a8bd ddee 96bd a42a ad3b 9036 d73c
00000110: 26f9 64bd 9ea1 a33c 2ccc e13c 0e1b a3bd
00000120: 15cc 92bb eea0 1b3c f409 e0bb 0419 f6bc
00000130: 80c0 96bd f69f 333d beb1 1bbd 16b1 cf3c
00000140: f0cf 5e3d d929 c23d f308 fa39 bbe3 8d3d
00000150: d362 063d e285 cabd daaa fdbc 1611 ccbc
00000160: 74a4 973d 9ad7 973d 2cf6 dabd d612 a3bc
00000170: 5646 093c a623 59bd 2cb2 1cbc 7a63 c4bd
00000180: 0ef4 643c 00ba 5abd 99d2 88bc 3e88 94bd
00000190: 348c 3c3d 2d89 22bd 56d7 483d 41dd bbbd
000001a0: 45b6 22bd d58a 04bc ef11 24bd a915 63bd
000001b0: eb2a f0bc eef7 0fbd 041d bcbd dcfb 8fbc
000001c0: 2c9a 493c a7ec 43bc b57e c3bd 57b8 7ebd
000001d0: 6c40 d3bc a4f2 60bd 3fda 67bd 2e81 2cbc
000001e0: f992 403d bda2 443d 2d89 da3b 5359 853c
000001f0: 0b09 74bd 2f49 5cbd ce7b 1ebd aaa9 d13c
00000200: 1fe3 f5bc 03b9 643d 510b 09bc dea2 f43a
00000210: 0cc3 813d cbb4 76bd 5efb 0b3c 9d51 053d
00000220: 5a73 4c3c e756 203d ee70 083c 2419 f6bd
00000230: cfc7 05bd 6533 243d 2724 18bd 3775 39bd
00000240: 8e78 8b3d 99d6 983d 7d3c 093d 8aba 8ebd
00000250: 8b93 983d 2a51 eb3d b4f2 053d cb55 8f3d
00000260: d720 a03d 75a0 ef3d 643b 763d b856 313d
00000270: b8f6 3a3e dd21 1e3e 6d97 43be 6586 283c
00000280: f9e9 893e 113c c7bc f4b9 7fbd 0ec2 efbb
00000290: f577 e3bd 9acb 583d f296 08be 551d bcbd
000002a0: 6d94 a83d f9b3 6abd 3da4 3dbd 0c7d 96bd
000002b0: a7a7 3d3d d2c9 423d e1e2 e7bc 873e fbbc
000002c0: 9f4b 333d fdf2 89bb 6fad bfbc b056 c93c
000002d0: e82d 65bd bf65 413d 1814 143d 5dfd 823d
000002e0: 60cc 113e 974c 5b3b 3f56 1e3d 42d3 a83d
000002f0: 67c4 0d3d 2d3c 263d 3e94 98bd 1622 52bd
00000300: aa95 30be 6195 1f3a d990 d03d 788a 0fbe
00000310: 3319 9c3d 844d 493e 4935 503d bedd a93d
00000320: 0af2 c33d 9ca6 3c3e 0137 a23d 1754 893c
00000330: 21db 263e 2edf a03d 6e38 4ebe 3e06 a03d
00000340: 12f8 03bd d2dc 813c 8394 ca3d 4652 91bc
00000350: 3ec1 edbc 458f 363d ca6f 15bd 74e2 63bd
00000360: 59f3 0ebe 2195 493c 6439 22be 2fd7 36be
00000370: 3a43 773c 88be 3f3d b85f 173e 81c4 8dbc
00000380: a169 4abe 94ab e23d 491c 0cbe aae0 61bc
00000390: 58ff d73d 71c6 cd3d 9359 fbbd c3bd 16be
000003a0: c364 0e3e 1701 9b3d 4741 163d f202 1f3d
000003b0: 5968 913d c93a babd e11f f83d 252a bfbc
000003c0: e610 8abd c545 0bbd 983f 833d 51b6 933d
000003d0: 7c6b 30bc 7c1c 54bd 7281 103e d33c 0dbe
000003e0: 3d19 d83d dfd7 1b3e 7573 f63b 02c6 9b3d
000003f0: bd92 af3c b09c 6fbe 60a4 adbc f604 8b3d

conv5.bias f4 [16]
-0.06775903 -0.037021153 0.03483358 0.09603879 -0.024548853 -0.08135081 -0.062616676 -0.097297214
-0.042249113 -0.043187723 0.15580136 0.010537916 -0.093106 0.008652143 0.16427693 -0.024380561
00000000: 3fc5 8abd 7ea3 17bd a8ad 0e3d fcaf c43d
00000010: ad1a c9bc 419b a6bd 2c3d 80bd c343 c7bd
00000020: 680d 2dbd 9ce5 30bd 648a 1f3e 39a7 2c3c
00000030: 5cae bebd b8c1 0d3c 3638 283e beb9 c7bc

conv6.weight f4 [8, 16, 3, 3]
-0.005040325 -0.0782377 -0.051810157 -0.046516806 0.07349055 0.046694644 -0.059576236 0.011042394
-0.047136806 -0.04423487 -0.011530699 -0.06458424 -0.10629281 -0.028856784 0.01606272 0.002406312
-0.058740422 -0.07640643 -0.022077601 -0.008903706 0.010458512 0.0046457327 -0.014440013 -0.05998963
-0.020495843 -0.09610753 0.036271393 0.0045212274 0.019249924 -0.06012828 -0.03564339 -0.04421688
0.049974892 0.01748533 -0.07446541 0.055941593 0.061929233 0.061154895 0.010854453 -0.029653788
-0.04449662 -0.0344403 0.034893185 0.052101918 -0.06935867 0.04348678 -0.10989007 -0.016484642
-0.10423291 0.01472047 -0.091081165 0.04064423 0.012783312 -0.01709603 0.01648369 -0.053912204
-0.09286369 -0.07999336 0.019113466 0.035202812 0.03739582 0.040655177 -0.010824415 0.0015302318
0.0012757507 -0.033350043 -0.030606281 0.0044185594 -0.021621466 -0.013489641 0.010502033 -0.052962452
-0.072554156 -0.078848965 0.060305327 -0.012783968 0.0079945205 0.021023367 -0.103643134 -0.058573436
-0.08812411 -0.068972394 0.010330357 0.050409697 -0.028459882 0.051729687 0.045164354 -0.061025824
0.078826524 0.052529164 -0.05929222 -0.10660502 -0.059686508 -0.03851493 -0.03914519 -0.09515523
0.03513726 0.001832584 -0.030946448 0.03218627 -0.037498355 0.00878448 -0.0037882328 -0.075147286
-0.035536967 0.046349846 0.017968446 -0.06645548 -0.08766625 -0.07361912 0.014642279 -0.016592782
0.0039072847 -0.03589325 -0.08525211 -0.022087807 -0.008505945 -0.098641396 0.043408558 0.019366082
-0.10346944 -0.047886025 0.010363533 -0.04597009 0.0046510044 -0.015020635 -0.0029953422 0.038062934
0.035762746 0.07585787 -0.028646352 0.037623055 -0.040176563 -0.07221973 0.034628447 0.0021925196
-0.08175882 0.026212811 -6.3568354e-05 0.01017949 -0.003929548 -0.06396674 -0.011312015 0.024673194
-0.03293093 0.04289335 0.04639558 -0.029704098 0.020268712 0.041945577 -0.023026891 0.06569423
-0.061865322 0.09021073 0.06880464 0.063004196 0.07657602 0.09630296 0.051691305 -0.018988732
-0.09990788 -0.12497191 -0.16435917 -0.11250886 -0.1889422 -0.13794555 -0.16451888 -0.16363184
-0.049087614 -0.22920743 -0.19161049 0.06547992 0.053834967 -0.034750886 -0.08274357 -0.03473184
-0.07410686 -0.0713281 0.03569155 0.10509636 0.051623687 -0.0012638866 0.042614732 0.0015670076
0.0068464945 0.040023375 0.04079484 0.08515159 0.07135697 0.0022547618 0.05488782 0.1411745
0.057453815 0.13663697 -0.005665574 0.033845145 -0.019076006 -0.14044777 -0.022370966 0.13835564
-0.0074195517 0.15172406 -0.02679728 -0.14570905 -0.03512089 0.017165402 -0.16851757 0.065575786
0.039225668 -0.06788903 0.009293701 0.017383302 0.05074962 0.0013533508 -0.053092733 0.033381205
-0.021153208 -0.053010732 -0.007424546 0.000762153 0.03905191 -0.11638653 -0.09924949 -0.1408115
-0.10723949 0.006678802 -0.029128108 0.034509912 -0.015128169 -0.056845162 -0.012610672 -0.019599918
0.035632405 0.017837811 -0.11628938 -0.14770226 -0.19072717 0.040154472 -0.094992295 -0.020834355
0.10644261 0.12518226 0.2124594 0.012552157 -0.05243064 -0.07546225 -0.013012476 0.0320456
-0.0049191546 0.056651976 0.074815124 0.07141669 -0.069256626 -0.13572115 -0.010378902 0.00948411
00000000: 5029 a5bb 163b a0bd e336 54bd 6888 3ebd
00000010: 3782 963d e242 3f3d 3606 74bd 28eb 343c
00000020: 8612 41bd 9f2f 35bd 42eb 3cbc be44 84bd
00000030: 0bb0 d9bd 1065 ecbc f795 833c 37b3 1d3b
00000040: cc99 70bd f97a 9cbd 16dc b4bc dae0 11bc
00000050: 2e5a 2b3c 3b3b 983b ce95 6cbc b0b7 75bd
00000060: e6e6 a7bc 06d4 c4bd 5091 143d ce26 943b
00000070: 04b2 9d3c 1249 76bd cefe 11bd c21c 35bd
00000080: 79b2 4c3d 653d 8f3c 5281 98bd 0323 653d
00000090: 82a9 7d3d 8e7d 7a3d e0d6 313c 80ec f2bc
000000a0: 1642 36bd 4611 0dbd 28ec 0e3d d268 553d
000000b0: eb0b 8ebd 321f 323d 0c0e e1bd cd0a 87bc
000000c0: 1078 d5bd 202e 713c c388 babd 907a 263d
000000d0: 1971 513c f90c 8cbc ce08 873c 0bd3 5cbd
000000e0: 512f bebd 8fd3 a3bd d893 9c3c d330 103d
000000f0: 5c2c 193d 0b86 263d e358 31bc 0f92 c83a
00000100: 1737 a73a 0e9a 08bd 06ba fabc 90c9 903b
00000110: 801f b1bc a803 5dbc b810 2c3c 28ef 58bd
00000120: 4697 94bd 917b a1bd b802 773d d973 51bc
00000130: 73fb 023c 3239 ac3c da42 d4bd b3ea 6fbd
00000140: 6a7a b4bd 6641 8dbd a840 293c 667a 4e3d
00000150: b324 e9bc 82e2 533d 42fe 383d 37f6 79bd
00000160: cd6f a13d d228 573d 66dc 72bd bc53 dabd
00000170: d779 74bd d5c1 1dbd b556 20bd bfe0 c2bd
00000180: 16ec 0f3d 5133 f03a 6883 fdbc c0d5 033d
00000190: e097 19bd c8ec 0f3c 0044 78bb d2e6 99bd
000001a0: 368f 11bd 56d9 3d3d 9032 933c d019 88bd
000001b0: 5d8a b3bd 9fc5 96bd 2be6 6f3c 96ed 87bc
000001c0: ae08 803b cd04 13bd a998 aebd 7df1 b4bc
000001d0: 855c 0bbc 8004 cabd 2ccd 313d 9ea5 9e3c
000001e0: c9e7 d3bd 2324 44bd cfcb 293c 224b 3cbd
000001f0: 7467 983b 1c19 76bc 814d 44bb e1e7 1b3d
00000200: f57b 123d 5f5b 9b3d c1ab eabc a21a 1a3d
00000210: 2e90 24bd f0e7 93bd 8fd6 0d3d 60b0 0f3b
00000220: 2b71 a7bd 40bc d63c 0050 85b8 e0c7 263c
00000230: 70c3 80bb ff00 83bd 0856 39bc 701f ca3c
00000240: 95e2 06bd f0b0 2f3d 4b09 3e3d 0256 f3bc
00000250: 920a a63c 20cf 2b3d e4a2 bcbc b28a 863d
00000260: 7e66 7dbd 67c0 b83d 72e9 8c3d 5808 813d
00000270: e3d3 9c3d 7c3a c53d 43ba 533d 428e 9bbc
00000280: 819c ccbd 46f1 ffbd c54d 28be 0c6b e6bd
00000290: 107a 41be 9941 0dbe a377 28be 1b8f 27be
000002a0: 1810 49bd 5ab5 6abe 8a35 44be 561a 863d
000002b0: 0e82 5c3d f256 0ebd 7675 a9bd f942 0ebd
000002c0: 56c5 97bd 7814 92bd 4d31 123d c33c d73d
000002d0: 5c73 533d ffa8 a5ba c98c 2e3d 0d64 cd3a
000002e0: 8f58 e03b 8def 233d 7d18 273d f563 ae3d
000002f0: 9a23 923d a0c4 133b 0dd2 603d 0c90 103e
00000300: b154 6b3d 90ea 0b3e 48a6 b9bb 35a1 0a3d
00000310: 4945 9cbc 8ad1 0fbe 5143 b7bc 1aad 0d3e
00000320: b61f f3bb 8d5d 1b3e f885 dbbc c134 15be
00000330: ecda 0fbd 759e 8c3c df8f 2cbe 994c 863d
00000340: 18ab 203d 6709 8bbd 9b44 183c 6d67 8e3c
00000350: d5de 4f3d eb62 b13a c477 59bd bbba 083d
00000360: 7e49 adbc c821 59bd 9b49 f3bb 39cb 473a
00000370: e5f4 1f3d 105c eebd 5143 cbbd e430 10be
00000380: 61a0 dbbd dad9 da3b 129e eebc 445a 0d3d
00000390: 24dc 77bc 79d6 68bd fe9c 4ebc 0290 a0bc
000003a0: 49f3 113d 9a20 923c 2029 eebd 433f 17be
000003b0: fc4d 43be 0479 243d 528b c2bd cfac aabc
000003c0: 95fe d93d c72f 003e f58e 593e 90a7 4d3c
000003d0: 83c1 56bd f48b 9abd 4832 55bc 3f42 033d
000003e0: dc30 a1bb e70b 683d ac38 993d ea42 923d
000003f0: 6bd6 8dbd 7cfa 0abe 450c 2abc 3e63 1b3c

conv6.bias f4 [8]
-0.093429565 0.085213825 0.015793772 -0.14958595 0.17647013 -0.13470376 0.014084867 0.19366375
00000000: 0058 bfbd 9684 ae3d f161 813c 0f2d 19be
00000010: 96b4 343e c8ef 09be 37c4 663c ca4f 463e

prediction_layer.weight f4 [10, 512]
-0.037119724 -0.0130214635 -0.059442118 -0.032046188 -0.0044895476 -0.029070064 -0.013803996 0.0028841011
0.030623486 0.00036542257 -0.021614792 0.006163756 0.031190751 -0.015694445 0.027152047 0.014826672
0.02854051 0.0121113695 0.032130077 0.01089106 0.049467303 0.0031284692 -0.036941078 -0.04155772
0.057467952 0.008574404 0.0074389605 0.009611048 0.014282933 -0.033638835 0.02814215 0.032423235
0.035652377 -0.01693428 -0.03268084 0.0094392905 -0.04577239 -0.010663811 0.01930817 -0.04132148
-0.07432431 -0.05999089 -0.037943326 -0.029205307 -0.049052555 -2.3748837e-05 0.01755697 -0.00052052364
0.0125352675 0.016282473 0.011580187 -0.0036760308 0.04409068 -0.039956026 -0.033549793 -0.02642097
-0.022830067 -0.032981947 -0.000680799 -0.035409886 0.02211383 -0.0330658 0.027646624 -0.029967014
-0.023487782 -0.063428156 -0.0467681 -0.044432968 -0.028222771 -0.024925787 -0.011617908 -0.0040004724
-0.09725924 -0.11598571 -0.11418223 -0.10397587 0.01380768 0.066536345 0.0776979 -0.09305572
-0.1886864 -0.1486016 -0.16817097 -0.020573664 0.012193872 0.07846081 0.046141025 -0.009924497
-0.19841903 -0.13364363 -0.029061412 -0.0015774369 0.024781834 0.03472483 0.044490136 -0.06632225
-0.09305335 -0.043357737 -0.01457956 0.023868792 0.04342634 -0.03841829 -0.0248045 -0.02326203
-0.08132296 -0.047073096 -0.017668776 0.04782921 0.021149294 0.0037235192 -0.11897475 -0.13032158
-0.04382696 -0.03311116 0.03493557 0.06974693 -0.0073883557 -0.026357254 -0.16280144 -0.12579022
0.037160896 -0.027275335 -0.023802938 -0.003585144 -0.028018693 -0.10886294 -0.07798267 0.063995175
-0.055475373 -0.027233569 -0.008478836 0.04748023 0.012914207 -0.09122504 -0.13222341 -0.1998252
0.083470985 0.12550995 0.11337 0.09777851 0.07721414 -0.052945904 -0.20058309 -0.20472787
0.0062777256 0.15855907 0.108578406 -0.026356822 -0.0732489 -0.11542042 -0.13358912 -0.121339716
-0.0058982098 0.067634575 0.05593683 0.037279412 0.00694959 -0.03743166 -0.12373921 -0.09835567
-0.048573498 0.04420421 0.0127291465 0.03731407 0.07305899 0.020567697 -0.103204064 -0.021481218
0.012084524 -0.13451976 -0.08218258 0.038389828 -0.018669 0.029448884 0.06539356 0.021678993
0.018559923 -0.010712663 -0.061407384 -0.010468354 0.01876637 0.047003783 0.09672954 0.072456636
0.023674669 -0.1588912 -0.08788538 -0.10094928 -0.06428416 0.09498654 0.15631832 0.029930906
-0.0648487 -0.052006718 -0.0447807 -0.06247209 -0.015526621 -0.026252665 -0.02686505 -0.011939132
0.03518749 0.018724807 -0.08585694 -0.068406366 0.032454755 -0.022385325 0.07746808 0.02954718
0.013494604 0.007853435 0.024754887 -0.0011746063 0.035182815 0.08430154 0.11034353 0.006374594
-0.0383416 0.11067182 0.13174683 0.04257113 0.08000401 0.14441675 0.14170977 -0.01761939
0.041400056 0.07528118 0.10216365 0.075562514 0.049994648 0.05640181 0.030936852 0.09801238
0.05651734 0.011657098 -0.020288434 0.006811477 2.2870916e-05 -0.017122842 -0.046077337 0.048189145
0.025559448 -0.010726109 -0.048771665 -0.019548258 -0.04983389 -0.09039014 -0.011762901 0.08780191
0.1041219 0.055327266 -0.015910111 -0.02520306 0.047887668 -0.017251637 0.015830237 0.03433168
00000000: da0a 18bd fa57 55bc 9479 73bd dd42 03bd
00000010: 0e1d 93bb 5824 eebc 282a 62bc 3003 3d3b
00000020: 1bde fa3c 3096 bf39 8111 b1bc 55f9 c93b
00000030: bf83 ff3c a391 80bc f86d de3c 92eb 723c
00000040: cacd e93c c46e 463c d49a 033d 6b70 323c
00000050: 3a9e 4a3d 0107 4d3b 874f 17bd 6e38 2abd
00000060: 8463 6b3d a87b 0c3c 86c2 f33b a877 1d3c
00000070: f702 6a3c e0c8 09bd 5e8a e63c 3ace 043d
00000080: 3a08 123d c2b9 8abc 58dc 05bd 41a7 1a3c
00000090: d47b 3bbd 44b7 2ebc 2b2c 9e3c b640 29bd
000000a0: 5837 98bd 02b9 75bd 766a 1bbd f83f efbc
000000b0: 55eb 48bd 3d38 c7b7 a2d3 8f3c c073 08ba
000000c0: b960 4d3c d262 853c d3ba 3d3c 90e9 70bb
000000d0: 6e98 343d eea8 23bd 826b 09bd ca70 d8bc
000000e0: 1f06 bbbc 1418 07bd a677 32ba f509 11bd
000000f0: 1028 b53c 0170 07bd 2c7b e23c 627d f5bc
00000100: 7369 c0bc 9fe6 81bd e88f 3fbd 58ff 35bd
00000110: 7133 e7bc 2a31 ccbc 0a59 3ebc 6516 83bb
00000120: da2f c7bd ea89 edbd 5fd8 e9bd 4df1 d4bd
00000130: 9c39 623c 3544 883d 1420 9f3d ff93 bebd
00000140: 0237 41be 052b 18be 0335 2cbe 1a8a a8bc
00000150: cec8 473c 10b0 a03d 5ffe 3c3d 5c9a 22bc
00000160: 5c2e 4bbe e0d9 08be 3312 eebc 00c2 ceba
00000170: 4603 cb3c a03b 0e3d 4a3b 363d f6d3 87bd
00000180: c192 bebd e297 31bd 1bdf 6ebc 7c88 c33c
00000190: d1df 313d 7f5c 1dbd cf32 cbbc 0390 bebc
000001a0: a78c a6bd b8cf 40bd 1cbe 90bc 90e8 433d
000001b0: 4941 ad3c 4906 743b 09a9 f3bd 0573 05be
000001c0: e683 33bd 919f 07bd 9a18 0f3d 7ad7 8e3d
000001d0: 051a f2bb 2beb d7bc 6cb5 26be 27cf 00be
000001e0: 0636 183d 8670 dfbc 61fe c2bc bcf4 6abb
000001f0: 7587 e5bc 88f3 debd 61b5 9fbd e70f 833d
00000200: 253a 63bd ef18 dfbc d1ea 0abc a17a 423d
00000210: 1c96 533c 32d4 babd 9365 07be fa9e 4cbe
00000220: d6f2 aa3d ae85 003e 882e e83d 1940 c83d
00000230: 7222 9e3d cedd 58bd a765 4dbe 2fa4 51be
00000240: 61b5 cd3b 4f5d 223e 5b5e de3d 43ea d7bc
00000250: 8503 96bd 8b61 ecbd 96cb 08be f580 f8bd
00000260: c545 c1bb ff83 8a3d 041e 653d 4cb2 183d
00000270: 63b9 e33b f151 19bd fc6a fdbd b36e c9bd
00000280: 01f5 46bd 790f 353d e98d 503c a3d6 183d
00000290: f49f 953d 967d a83c a75c d3bd 61f9 afbc
000002a0: 2bfe 453c 8cbf 09be 574f a8bd a73e 1d3d
000002b0: bbef 98bc c93e f13c 0fed 853d 2598 b13c
000002c0: fb0a 983c 2a84 2fbc 4f86 7bbd 7683 2bbc
000002d0: eebb 993c 0a87 403d 231a c63d 2564 943d
000002e0: 61f1 c13c 60b4 22be 40fd b3bd 7fbe cebd
000002f0: 6aa7 83bd 4e88 c23d e911 203e a931 f53c
00000300: 65cf 84bd ff04 55bd f86b 37bd bce2 7fbd
00000310: 5e63 7ebc d40f d7bc 1814 dcbc 599c 43bc
00000320: c220 103d c464 993c c3d5 afbd a318 8cbd
00000330: 47ef 043d 6e61 b7bc 96a7 9e3d ed0c f23c
00000340: 7918 5d3c b2ab 003c c3ca ca3c 3ff5 99ba
00000350: db1b 103d 49a6 ac3d cafb e13d f8e1 d03b
00000360: 150c 1dbd e8a7 e23d a4e8 063e 115f 2e3d
00000370: 24d9 a33d fce1 133e 5e1c 113e 8a56 90bc
00000380: 1b93 293d 052d 9a3d 2d3b d13d 85c0 9a3d
00000390: 30c7 4c3d 9605 673d 486f fd3c b7ba c83d
000003a0: ba7e 673d 6afd 3e3c ee33 a6bc cf32 df3b
000003b0: ebda bf37 3445 8cbc 97bb 3cbd fb61 453d
000003c0: 0c62 d13c 90bc 2fbc ccc4 47bd ab23 a0bc
000003d0: 9f1e 4cbd 771e b9bd 2fb9 40bc 7dd1 b33d
000003e0: dd3d d53d d89e 623d ec55 82bc a676 cebc
000003f0: dc25 443d 4e53 8dbc 6aae 813c 609f 0c3d

prediction_layer.bias f4 [10]
-0.019902539 -0.1695704 0.060326166 -0.044195402 0.23122443 -0.09628008 0.1785213 -0.045895938
0.15624467 -0.043412495
00000000: a60a a3bc dda3 2dbe 9218 773d 3d06 35bd
00000010: 19c6 6c3e 7e2e c5bd 4ace 363e 61fd 3bbd
00000020: 9afe 1f3e 4dd1 31bd
