Homeworks/HW1/empty.pt (torch, 134035 bytes, 4 tensors)

fc.0.weight f4 [32, 1024]
00000000: 14f0 ea3c 085d 8f3c 6efa c93c fcc7 babc
00000010: 3207 813c 1a00 debc 664e a53c 209e b5bb
00000020: e838 c5bb e49c 643c 1cec 94bc 8c36 1e3c
00000030: fc05 7c3c 60b3 f73b 1077 2d3b 3a30 ca3c
00000040: 5837 e53c 965f d9bc f825 1cbc 34ef d2bc
00000050: a4e7 4c3c 5074 413c 84c9 52bc 70ea 323c
00000060: 7a87 d93c 26e6 853c 505f 553c f093 c33b
00000070: a8f9 cebb 209f 72bb d00b eb3b 6e93 c63c
00000080: 74fa 703c fcf0 c1bc fac7 bc3c 22e3 e2bc
00000090: 78ef 9dbb 1847 c5bc e8a9 ed3c fce9 9cbc
000000a0: fc7d c5bc 7833 28bc 3415 14bc 3a50 99bc
000000b0: 76d7 b7bc 40d9 10bc 94c5 a8bc 60d4 ef3c
000000c0: cc28 d93c 1cf4 55bc 8823 58bc a212 c43c
000000d0: 6a34 893c 78b7 7dbc 8caf 053c 220f e13c
000000e0: 36e9 983c d88f cdbb 0030 ea39 74a0 a43c
000000f0: 80cc f3ba c000 5abc 8063 a039 d4c1 f8bc
00000100: 442f 00bc cee8 8c3c c0e9 14bb 4ab9 a73c
00000110: 80ef 2f3b 20f3 cebc c036 bbba 6209 ce3c
00000120: 4642 87bc 7ce9 3ebc 302a 7fbb 780d 073c
00000130: b4b7 cd3c 780c 5dbc 08c2 8f3b ccd2 31bc
00000140: 8c4c 8d3c d425 9e3c 485a b93b c4ad b0bc
00000150: 14cf 873c 74e4 303c 7045 a4bb 1444 ddbc
00000160: c827 103c 3077 be3b 20b7 d1bc c076 b03c
00000170: e442 403c 383c e13b a04c 4e3c 40ae eabb
00000180: 00b7 95bb 88b1 fc3c de3a fdbc 1806 a7bb
00000190: 00ff fe3c 504d cebc 0080 93b5 e8dc fbbc
000001a0: 0079 b8bc a041 833c ec90 15bc d8ab 03bc
000001b0: f079 14bc aa53 bdbc 3091 af3b b491 b2bc
000001c0: 44f2 13bc ce11 f5bc 70b2 213c 7ac8 fb3c
000001d0: 38a3 00bc ec42 7ebc 3c2f 92bc 1cc8 a4bc
000001e0: 001a c6b9 a4be 11bc b058 5a3b 0002 f9bc
000001f0: 98e4 0c3c c8ad d73b b81a bc3c 3893 debb
00000200: bcb7 febc 8470 d13c 5607 f0bc 2e49 833c
00000210: d06a 48bc 16dd 8d3c 081e ef3c daf9 e13c
00000220: b83e 0a3c 0ac4 f13c 5c8e b63c c4ab c43c
00000230: bc87 54bc e4af 2ebc d0e7 bb3c b2fe b83c
00000240: 787f 8d3b b866 a53b 900d 283b 50e5 37bb
00000250: c47b 873c c0a5 c7bb d0d4 903b 10e4 a53c
00000260: 8ce9 e3bc be87 d6bc 7254 90bc 1646 fabc
00000270: ec2a f23c 10ef bc3b d81f 0e3c 8077 b8b9
00000280: d833 c73b 7ac5 fbbc bc4a 6b3c ee45 93bc
00000290: 80a4 923c 80e0 7bba 4c2e debc 56f8 a13c
000002a0: aca6 d83c 1886 97bc 7812 dd3c f449 273c
000002b0: 8203 f63c fa06 9fbc 78f4 e53c c0b1 a6ba
000002c0: a8a1 62bc 4898 6b3c 5ef5 e53c 08ae e2bb
000002d0: 7419 92bc 58fc ee3b 6404 d13c 102b ddbb
000002e0: b015 83bc f65b f83c 7cc5 9ebc 9840 a73b
000002f0: 4099 f13a 8008 9139 e010 7dbc 3425 813c
00000300: 048f 12bc 58dc fabc b0f6 db3c 0084 c938
00000310: 7857 c73b 1022 47bb f8e1 8bbc 6894 493c
00000320: 90ae 88bb 9e7b e93c 64b9 823c 702f c43b
00000330: a23f bebc 40f4 b63b e0f4 50bc a428 2fbc
00000340: c858 f8bc 1875 8fbc 9a1f cdbc 1012 413c
00000350: 90f5 393b 68d5 633c 00bd 8aba a0e4 b43a
00000360: 3050 6bbb 2673 83bc b6f0 cabc 5ce9 68bc
00000370: 3ee8 9abc de6c cdbc 5027 8ebc 007b c8bc
00000380: b04e e7bb 48ad b7bc 1028 923c acd4 9b3c
00000390: 3437 68bc 0444 dfbc 00d8 9c39 eaae b73c
000003a0: 6877 a5bb 3488 aa3c baf7 e83c e82e edbb
000003b0: 96bc f63c 5093 69bc b285 893c e28d c43c
000003c0: 78c8 ebbc f8c5 eebc 4880 9bbb 4047 09bc
000003d0: 6cab cbbc b0d6 26bb f0fe 053c 1a17 a1bc
000003e0: a458 35bc 389f 703c 004f ee3b a0c7 25bb
000003f0: 6871 743c d8c0 703c 20f7 a13c f2ba f7bc
0.028678931 0.017500415 0.024655547 -0.022800438 0.015750501 -0.027099658 0.020178985 -0.0055425316
-0.0060187466 0.013953421 -0.018178992 0.00965656 0.015382286 0.007559225 0.0026468672 0.0246812
0.027980492 -0.026534837 -0.009530537 -0.025748827 0.012506399 0.011807516 -0.012865428 0.010920152
0.026553858 0.016345095 0.013023213 0.0059685633 -0.0063163824 -0.0037021115 0.007173039 0.024240222
0.01470815 -0.02367448 0.023044575 -0.027696196 -0.0048198067 -0.024081752 0.029011682 -0.019154541
-0.024107926 -0.010266177 -0.009038258 -0.018715013 -0.022441607 -0.008840859 -0.020602025 0.029276073
0.026508711 -0.0130586885 -0.013192065 0.023934666 0.016748626 -0.015485637 0.008159529 0.027473036
0.018665891 -0.006273251 0.0004466772 0.020096041 -0.0018600374 -0.013305843 0.0003059171 -0.030365862
-0.007823769 0.017200854 -0.0022722334 0.020474095 0.0026845634 -0.025262415 -0.0014283285 0.025150958
-0.016511094 -0.011652347 -0.0038935058 0.008242957 0.02511201 -0.013491742 0.004387144 -0.010853481
0.017248414 0.019305147 0.0056565143 -0.021567233 0.016578235 0.010796655 -0.0050131604 -0.027010001
0.008798547 0.005812548 -0.025600016 0.021541 0.011734698 0.0068736337 0.012591511 -0.0071618855
-0.0045689344 0.030846372 -0.03091186 -0.005097162 0.031127453 -0.02518335 -1.0989606e-06 -0.030744985
-0.022518635 0.016022503 -0.00912879 -0.008036576 -0.009062275 -0.023111183 0.005357884 -0.021797992
-0.009029929 -0.029915716 0.009869203 0.030735243 -0.007851414 -0.015518885 -0.017844789 -0.02011495
-0.00037784874 -0.00889555 0.0033317022 -0.030396461 0.008599423 0.0065819956 0.02296196 -0.006792452
-0.03109347 0.025566347 -0.029300373 0.016026106 -0.012232497 0.017317336 0.029189125 0.027584959
0.008437805 0.029512424 0.02228468 0.024007685 -0.012971815 -0.010662053 0.022937685 0.022582386
0.004318174 0.0050476454 0.002564285 -0.0028060265 0.016538508 -0.006092757 0.0044199005 0.02025035
-0.027821325 -0.026187774 -0.017618392 -0.030550998 0.029561482 0.005765803 0.008674584 -0.0003518425
0.0060791783 -0.030733813 0.01436108 -0.017977681 0.017900705 -0.0009608343 -0.027121685 0.019771736
0.026446663 -0.018496558 0.026986346 0.010210503 0.03003097 -0.019412506 0.028070673 -0.0012717769
-0.013832487 0.014379568 0.028071102 -0.006917719 -0.017834403 0.0072932653 0.025514789 -0.006749518
-0.016001552 0.030317288 -0.019381277 0.0051041357 0.0018432513 0.00027662888 -0.015445918 0.01576481
-0.00894523 -0.030622646 0.026851028 9.609014e-05 0.006083425 -0.0030385293 -0.017075524 0.012303449
-0.0041712 0.028501328 0.015957542 0.0059871003 -0.023223702 0.005583316 -0.012753695 -0.010690842
-0.030315772 -0.01751189 -0.025039483 0.011784092 0.0028375126 0.0139058605 -0.0010584891 0.0013801046
-0.003590595 -0.016046118 -0.024772983 -0.014215793 -0.01890957 -0.025076326 -0.01735273 -0.024472713
-0.007058941 -0.022421494 0.017841369 0.019022308 -0.014173318 -0.027254112 0.0002991557 0.022422273
-0.0050496347 0.0208169 0.028438438 -0.0072382577 0.030119222 -0.014256313 0.016787384 0.023993436
-0.028782114 -0.029147133 -0.004745517 -0.008378804 -0.024862014 -0.0025457554 0.008178458 -0.019664336
-0.011068497 0.014686398 0.007272601 -0.0025295988 0.014919616 0.014694415 0.019771159 -0.03024051

fc.0.bias f4 [32]
00000000: 2049 a2ba 9cd0 833c 462f a2bc dce9 b5bc
00000010: 1c94 3c3c c4f7 e83c 98dd 5abc 2aa5 e93c
00000020: e05d f6bb 30c3 073b 480a c63c 5861 fabb
00000030: 00f0 213b 3031 7c3b c4c0 1ebc 7ebb c23c
00000040: 0cc9 e8bc 7c8c d5bc 5429 e13c dc99 9b3c
00000050: da1f b1bc 40ac bebc d0e0 343b fe10 adbc
00000060: 6021 cdba f0fc c9bb 9059 10bb 201e d63c
00000070: 2ce6 983c d8dd e23c a22d f43c 80d1 e5bb
-0.0012381412 0.016090684 -0.019797932 -0.02220624 0.011509921 0.028438456 -0.013358496 0.02852114
-0.007518515 0.0020715706 0.024174824 -0.007640999 0.0024709702 0.0038481466 -0.009689514 0.023771044
-0.02841618 -0.026067965 0.027485527 0.018994264 -0.021621633 -0.023275495 0.002759982 -0.021126267
-0.0015650205 -0.0061641857 -0.002202604 0.026137412 0.018664442 0.027693674 0.029806916 -0.0070134997

prediction_layer.weight f4 [10, 32]
00000000: ae77 883d 33d8 ccbd 4033 733c 6247 23be
00000010: 3aa1 a03d 282d 2bbd 1d26 233e c09f cebc
00000020: c0c8 173d fc17 0ebe b8f6 333d 8058 ad3a
00000030: 0879 15be 67ae 1e3e 184e 6b3d da0f aa3d
00000040: def0 dc3d 6c1f 27bd 433e e5bd 3844 863d
00000050: 3483 073d ac1c 84bd 9897 c2bd aeed d33d
00000060: e1c3 23be 8d38 a5bd cd18 2d3e 5ecc 9bbd
00000070: 7ee7 13be ea66 31be 5921 05be 0037 5ebc
00000080: f3e3 173e 0b70 2d3e a217 bb3d 88d0 8bbd
00000090: 828c 0dbe 55d1 0fbe 2bc4 25be c4c3 1dbe
000000a0: 81c7 063e c2c7 d43d 6090 f1bb 9e03 6dbd
000000b0: edd6 0f3e 0257 95bd f0bf 8b3d 80a0 a4bc
000000c0: 762a 0cbe 3255 a6bd f6c8 8d3d 6cf1 c6bd
000000d0: 2f68 063e d1ff 20be 1fdc 343e 17da 05be
000000e0: e299 9c3d f833 683d 0083 23ba 9046 473c
000000f0: 67e4 d1bd c08a fe3c 8394 343e f327 30be
00000100: b09e 2bbe b8a2 16be c240 973d c02d 72bd
00000110: 3b1d a7bd 2342 203e fe88 f73d 8c6c 453d
00000120: 6a5f 34be 3e43 853d 925f 57bd 4626 e93d
00000130: 9e22 ec3d c693 f0bd 8841 efbd d491 803d
00000140: cb51 343e e01c 9f3c f8c8 c53c 42bd 973d
00000150: 37ed 0f3e a305 aebd 6976 2cbe 8bfc a1bd
00000160: eec6 23be 1268 d93d cd41 98bd 7814 04bd
00000170: 7c1a 5dbd 4e3c 9b3d f696 31be 91c3 2abe
00000180: 9846 9bbc 3aa2 ce3d 6a66 e03d ec85 0c3d
00000190: 6850 c93c 9bc2 343e fcc1 b0bd 300a 28bc
000001a0: b494 1ebe 50e1 fcbd b299 c63d 6f45 09be
000001b0: 5c8f 9bbd 08f8 36bd 28f4 30bd a3b8 a3bd
000001c0: 00e0 74bd f05e ddbc 60fd 1cbe beac 7fbd
000001d0: 1ba4 133e 68b3 26be 5238 bcbd 1d57 e0bd
000001e0: 31f9 253e c098 52bb c0c1 273b 0024 873c
000001f0: 7711 0b3e 8891 30be 991d 013e 4fed e2bd
00000200: 244e 92bd 3d1b 153e 4d58 cebd d0b8 c43c
00000210: a015 693c 5843 bfbc d88e f0bd 7836 3e3d
00000220: a42b 29bd 34ee 213d e0fe 0a3d 5439 f0bd
00000230: 7c2e 18be 9e07 ee3d 0026 00be e6a6 d23d
00000240: 304b 063c 1ac9 fe3d 9f66 203e 3493 65bd
00000250: c2ec fe3d 00e7 e13c abb6 17be 3a24 803d
00000260: b0e9 5cbc 7aa4 1abe a931 0b3e 6d4e 0c3e
00000270: bf42 18be e0db 0abc 6d27 293e 5ba3 123e
00000280: 404a 2b3b f43a 02bd 38fc ae3c 60e2 b83c
00000290: 91bb 073e 550d 233e a02a 323d e68d d73d
000002a0: c056 583d f68b 833d 7ad9 db3d a0c0 35bd
000002b0: 996b 003e 4e4a 05be e046 55bc 9cb1 2a3d
000002c0: eee4 22be ac5a 27bd a3fb 96bd e2fc d63d
000002d0: fb00 06be 9e84 c93d 0908 bfbd e3d6 303e
000002e0: 84c0 1cbd e995 dcbd fffb 053e 1c40 613d
000002f0: 15f8 33be f128 223e 2025 583c d8b8 d43c
00000300: 4045 3b3c 20c9 f1bc 9111 293e 506f 1dbe
00000310: cb0b 333e 48fd 09be 8ac7 983d 4aab d13d
00000320: bd30 20be 31e6 233e be84 c7bd 0005 07bc
00000330: 426b ffbd 73f5 093e b620 e13d 306d 3ebc
00000340: 7a4e f03d 7b2c 1a3e 78cf 323d 3850 dcbd
00000350: 467e a8bd 9ce1 57bd adfa 23be 00e6 1d3c
00000360: fd0e 043e f2af 963d eba7 1e3e 7de9 183e
00000370: a111 043e 560d 8d3d 1a1c dc3d 5059 0f3d
00000380: 2ed3 c13d 886a edbc e089 bb3b cd90 343e
00000390: 202c 04be 91f0 303e dcb7 8a3d b8f9 6cbd
000003a0: e079 4f3c 90cf f63c 409c ac3c 80c8 95bb
000003b0: b34d cfbd 018a afbd 0500 2f3e fbb4 033e
000003c0: 70bd e8bc 143c 0cbe acb5 433d 7a84 26be
000003d0: 2af8 ee3d d37b c9bd 0b8f 1c3e 0ed7 f43d
000003e0: 2a6c a93d 6aec f0bd 005c 4f39 5ac6 853d
000003f0: 30b9 1ebc 0e11 c83d de24 87bd 7ebb ea3d
0.06663452 -0.10002174 0.014843762 -0.15945199 0.078432515 -0.04179111 0.15932508 -0.02522266
0.037056684 -0.13876337 0.04393646 0.0013225228 -0.14596951 0.15496217 0.057447523 0.08303805
0.10788129 -0.04080145 -0.11193516 0.065559804 0.03308411 -0.06450781 -0.095015705 0.10348068
-0.1599269 -0.08067427 0.16903992 -0.07607339 -0.14443776 -0.17324415 -0.13001002 -0.013562918
0.1483305 0.16937272 0.09135367 -0.068268836 -0.1382313 -0.14044698 -0.16188113 -0.1540671
0.13162042 0.10389663 -0.007371947 -0.057864778 0.14046831 -0.07291986 0.068237185 -0.020096064
-0.13688073 -0.081217185 0.06923096 -0.09714016 0.1312568 -0.15722586 0.17662095 -0.13071476
0.07646538 0.056690186 -0.0006237477 0.0121628195 -0.102486424 0.03107202 0.17634778 -0.1720274
-0.16759753 -0.1471051 0.073853984 -0.05912566 -0.08159872 0.15650229 0.12086676 0.04819922
-0.17614523 0.06506966 -0.052581377 0.11384253 0.1153004 -0.117469355 -0.11682421 0.062778145
0.17609327 0.019422948 0.02414368 0.07409145 0.14055334 -0.08497169 -0.16842045 -0.07909497
-0.15993854 0.10615553 -0.074344255 -0.032246083 -0.053980336 0.075798616 -0.17342743 -0.16676165
-0.01895456 0.10089536 0.10957034 0.034307405 0.024574474 0.17652361 -0.086307496 -0.010256335
-0.15486413 -0.123476624 0.09697284 -0.13405393 -0.07595703 -0.044670135 -0.043201596 -0.07994201
-0.059783936 -0.027022809 -0.1533103 -0.0624206 0.1441807 -0.16279376 -0.0919043 -0.109541155
0.1620834 -0.0032134503 0.0025597662 0.016496658 0.13580881 -0.17243016 0.12608947 -0.11080419
-0.071438104 0.14561172 -0.10075436 0.024013907 0.014226347 -0.023347542 -0.11745995 0.046438664
-0.041301385 0.03953381 0.033934474 -0.117296845 -0.14861482 0.116225466 -0.12514496 0.102857396
0.008196637 0.12440701 0.15664147 -0.056048587 0.12447502 0.02757597 -0.14815776 0.0625691
-0.01348345 -0.15101805 0.13593163 0.13701792 -0.14869212 -0.008475274 0.16518946 0.14320128
0.0026136786 -0.031794503 0.021360502 0.022568882 0.13255145 0.15923055 0.04349768 0.10525112
0.052817106 0.0642318 0.1073484 -0.044373155 0.12541045 -0.13016626 -0.013017386 0.041673288
-0.15907642 -0.040857956 -0.07372215 0.10497452 -0.13086312 0.09839748 -0.093277045 0.17269473
-0.038269535 -0.107707806 0.1308441 0.05499278 -0.17575105 0.1583593 0.013192445 0.025967047
0.011430085 -0.02951485 0.16510607 -0.15374494 0.17484967 -0.13475525 0.07459934 0.10237749
-0.15643592 0.1600578 -0.097421154 -0.008240938 -0.1247163 0.13472538 0.10992567 -0.011622712
0.11733718 0.1505603 0.04365489 -0.10757488 -0.0822721 -0.052705392 -0.16013594 0.009637356
0.12896343 0.07357778 0.15493743 0.14932819 0.1289735 0.06887309 0.107475474 0.034997284
0.094641075 -0.028981462 0.005723223 0.17633362 -0.12907457 0.17279269 0.0677335 -0.057855338
0.012663335 0.03012827 0.0210706 -0.0045710206 -0.10122242 -0.08571244 0.17089851 0.12862007
-0.028410643 -0.13694793 0.047780678 -0.16261473 0.11668427 -0.09838071 0.15288942 0.11955081
0.08272584 -0.117638424 0.00019775331 0.06531973 -0.009687707 0.09768878 -0.06598829 0.114615425

prediction_layer.bias f4 [10]
00000000: 3a80 8e3d 64f8 25bd b64e bf3d c6ad 00be
00000010: c1b3 9fbd 2674 d93d 2fa9 273e e256 babd
00000020: 6485 003d 7c33 63bd
0.06958051 -0.040520087 0.09341185 -0.1256629 -0.07797957 0.10617857 0.16373132 -0.09098603
0.03137721 -0.05546902
