Homeworks/HW1/empty.pt (torch, 134035 bytes, 4 tensors)

fc.0.weight f4 [32, 1024]
00000000: 74a6 d8bc 6890 a6bc f851 8bbc e0d5 7a3b
00000010: 048d 613c 84d3 363c ba6b cebc 0c0f afbc
00000020: 481e f5bc 0039 d03a c46c a9bc 780d 50bc
00000030: 6c38 c33c aaae 80bc a4d1 c03c 400e 193a
00000040: 4a4b 83bc c0b2 e23a 86ef b43c 8ea6 a23c
00000050: c6b2 f3bc 6e75 d7bc a0f0 4c3b 70ad c63c
00000060: 5642 e83c c8f4 b5bc 1cfe 4dbc 3a8a b53c
00000070: 80e6 d4b9 80d9 f33c f8c2 b8bc 0617 913c
00000080: 18d3 b0bc c0eb b63c 402a f2bc 6012 653b
00000090: e21f ac3c 3a33 a53c 4851 fbbc 28da ecbb
000000a0: 7c5c 77bc 2264 d33c 2000 6fbc 8021 c5bb
000000b0: 96c7 bc3c 56aa ee3c be49 c9bc 6801 4b3c
000000c0: 2cd2 bd3c c6ae a33c 528b 87bc 4072 61bc
000000d0: 3035 c43c c049 353c 5a1a a83c e4f6 25bc
000000e0: c0ca daba 0cc0 ff3c 2411 07bc 8268 a6bc
000000f0: a04e 4bbc b034 c3bb 800b 67bc f08c d2bc
00000100: e835 f9bc 00a9 123b 2c31 bcbc 6839 46bc
00000110: e0d3 ed3b 0062 c2bb fc17 9d3c 8ce3 49bc
00000120: 60f9 a2ba b246 9a3c f062 9bbb 361b b33c
00000130: 4090 10bb 204f bcba 321e 92bc 049c c93c
00000140: 12c4 a53c 207d f73c 54a5 17bc dcb4 013c
00000150: 6081 bbbb 545f 5fbc e2c2 b83c 4a0a f5bc
00000160: 2855 d43b 7e94 893c f8bc 8c3b f03e f5bc
00000170: 788b 823c 8076 8e39 b8fc bd3c 603e 46bc
00000180: f827 eebc c453 313c c835 e4bb a899 e73b
00000190: a861 a8bc 8e7d a33c 7884 84bc 2267 eabc
000001a0: 44d2 2ebc 00b1 bab9 7835 d63c 605d f33a
000001b0: 507f 133c 8088 a5ba 20ea 623b 7406 50bc
000001c0: 009d dabc c6e5 cebc 6077 b03c 802e e039
000001d0: 586b 483c 38dc 8a3c 30e2 9dbc 22e4 b63c
000001e0: dedb ae3c 5836 76bc 28a3 2fbc d2f9 b63c
000001f0: 8e25 883c d8bc 8abc 909c 08bb 969a 993c
00000200: fc31 cfbc 1a80 df3c 8c02 213c 40fe 61bb
00000210: 20d4 5c3c 006a 8cb8 00bb 77b9 2ae0 dbbc
00000220: c0de 273b e0d9 d23a 0416 28bc 2ece c8bc
00000230: 80a5 b33b 50f3 e53b 7e95 c7bc 2839 88bb
00000240: 507f 9ebb 907d e8bb b41f 173c 987d ff3c
00000250: c8e4 ecbb 6032 7abc ba53 f4bc ecde 23bc
00000260: 7027 88bc 2ce3 173c e0b1 89ba 9225 82bc
00000270: 5039 aebc 125d d5bc 18f1 923b 901c 61bb
00000280: 1c18 38bc 78ef 8f3c 8848 58bc b09a 41bc
00000290: e849 913c e838 e33c b04e 94bc e05b f53b
000002a0: 7c89 da3c 744a bc3c 6623 ffbc dc58 ae3c
000002b0: 143f d0bc a436 31bc a016 46bc d8cb 44bc
000002c0: fc15 d6bc f89e ec3c d803 96bb 6cd7 fabc
000002d0: e2ad f23c 00ab 40bc 0ce9 81bc 18d8 063c
000002e0: 602c 3a3b 9ca6 25bc 12b7 f2bc d828 2ebc
000002f0: 323c 98bc 403d a0bb c8c5 8cbb 56ba 8a3c
00000300: 70a4 10bb d027 e03c 2cdc ea3c 0c67 3abc
00000310: 646b 2bbc 2e6d cdbc 3adc d5bc e880 4a3c
00000320: 1ccd 803c 2060 a73c 5880 92bc 3833 fb3c
00000330: 4c3c 1c3c 7813 c4bb 720f d1bc 080e 90bc
00000340: 689f 27bc 60ea 24bc 726e 9a3c a0eb 02bb
00000350: 605e 2f3c 3813 15bc 1096 17bc 24a8 663c
00000360: 0018 283a c078 083a 1616 b53c 70d0 e0bb
00000370: 18a5 ddbc 7208 da3c 984c 6c3c 504d 203c
00000380: 42be cd3c 04d9 793c 52ca d5bc 5ce2 1bbc
00000390: 646d ff3c 5090 863c d0f5 73bc 9c18 253c
000003a0: 24f9 693c 2cfa b8bc e46d 513c 7655 8a3c
000003b0: 0077 e939 f036 09bc 3c14 48bc 46a2 c8bc
000003c0: 2653 fdbc 36ea ac3c ec1b 12bc 987b 993c
000003d0: ccbd ddbc a86f 983c c025 43bb 5e08 b4bc
000003e0: d4ca 76bc 5ad3 acbc 74a5 763c da88 813c
000003f0: b8de 363c f028 fdbb 500c b33b e090 3cbb
-0.026446559 -0.02033253 -0.01700686 0.0038274452 0.013766531 0.011158828 -0.025197852 -0.02136948
-0.029921666 0.0015886128 -0.020681746 -0.012698524 0.023830615 -0.015708286 0.023537464 0.000583861
-0.016027112 0.0017295703 0.02208687 0.01985481 -0.029748332 -0.026301112 0.0031271353 0.024252623
0.028351944 -0.022211447 -0.012572791 0.022160638 -0.00040607527 0.029766798 -0.022553906 0.017711174
-0.021585032 0.022329211 -0.029561162 0.003495358 0.021011297 0.020166028 -0.030678406 -0.0072281547
-0.015097734 0.025804583 -0.014587432 -0.0060159564 0.023044389 0.029133957 -0.024571296 0.012390472
0.023171507 0.0199808 -0.016545925 -0.0137601495 0.023951143 0.011064947 0.020520378 -0.010129664
-0.0016692504 0.031219505 -0.008243833 -0.020313505 -0.012408882 -0.0059572086 -0.014101863 -0.02570197
-0.030421212 0.0022378564 -0.022972666 -0.012098648 0.0072579235 -0.0059320927 0.019176476 -0.012322318
-0.0012433939 0.018832538 -0.004742019 0.021863561 -0.0022058636 -0.0014366843 -0.017836664 0.024610527
0.020235095 0.030211031 -0.009255726 0.007916655 -0.00572221 -0.013633568 0.022553865 -0.029912133
0.006479878 0.01679444 0.004294988 -0.029937238 0.015935645 0.0002717264 0.023191795 -0.012099832
-0.029071793 0.010823194 -0.006964419 0.007067878 -0.020554379 0.01995733 -0.016176447 -0.02861363
-0.010670248 -0.0003560856 0.026148543 0.0018567257 0.009002522 -0.0012629181 0.0034624413 -0.012696851
-0.026686192 -0.025256049 0.021541297 0.00042759255 0.012232624 0.016950712 -0.019272894 0.02232558
0.021345075 -0.015027605 -0.010720052 0.02233592 0.01661947 -0.01693575 -0.0020845272 0.01875047
-0.02529239 0.027282763 0.009827267 -0.003448382 0.013478309 -6.695464e-05 -0.00023625419 -0.026840288
0.0025614947 0.001608666 -0.010259155 -0.024512377 0.0054823756 0.0070175305 -0.024363276 -0.004157204
-0.004836954 -0.0070950463 0.009223867 0.031187817 -0.0072294213 -0.015270799 -0.02982508 -0.010001879
-0.016620368 0.009270471 -0.0010505281 -0.015887056 -0.021267563 -0.026045356 0.004484307 -0.00343493
-0.011236217 0.017570242 -0.013200887 -0.0118166655 0.017735437 0.027737096 -0.018103927 0.007487759
0.026676886 0.02298472 -0.031144809 0.021282606 -0.025420703 -0.01081625 -0.012090355 -0.012011491
-0.02613353 0.028884396 -0.004578095 -0.0306203 0.02962393 -0.01175952 -0.015858196 0.008230232
0.0028407797 -0.010110524 -0.02962831 -0.010629855 -0.01858339 -0.004890114 -0.0042960383 0.016934555
-0.0022070669 0.027362734 0.02866944 -0.011377107 -0.010462616 -0.025076475 -0.026105989 0.012359835
0.015722804 0.020431578 -0.017883465 0.030664071 0.00953586 -0.005983766 -0.02552006 -0.017584816
-0.0102308765 -0.010065645 0.018851493 -0.001997687 0.010703653 -0.00909882 -0.009252086 0.014078174
0.00064122677 0.00052059814 0.022105258 -0.006860785 -0.027056262 0.026615355 0.014422558 0.009784058
0.025115136 0.015249494 -0.02609745 -0.0095144175 0.031180091 0.016426235 -0.014890149 0.010076668
0.014280591 -0.022580229 0.012782548 0.016886454 0.00044529885 -0.0083749145 -0.0122118555 -0.02449144
-0.030923437 0.021107774 -0.00891779 0.018735692 -0.027068041 0.01860793 -0.002977714 -0.021976646
-0.015063006 -0.021096874 0.015054096 0.015812326 0.011161499 -0.0077258274 0.0054641142 -0.0028772876

fc.0.bias f4 [32]
00000000: 64d2 eebc f862 1ebc 0495 bfbc 5807 cb3c
00000010: 988d 903c 4077 b3bb 908e 663c d833 9fbc
00000020: 20e3 f53a 228e df3c 60f7 faba 4251 ce3c
00000030: e071 e2bb 40ab ac3c 8c2a 643c 18db 81bb
00000040: 1829 acbb 90e4 653b ce7e 983c 1af3 ed3c
00000050: a06c 93ba 6415 38bc 2c99 48bc 8051 d2b9
00000060: 6cf9 d73c 804f e339 2abd cd3c 1056 77bc
00000070: 5857 fa3b c015 ceba 7ca7 3b3c 2c44 c2bc
-0.029153056 -0.009667151 -0.023386486 0.024783775 0.017645642 -0.005476862 0.0140720755 -0.0194339
0.0018759705 0.027289454 -0.001914721 0.025185231 -0.0069105476 0.021077752 0.01392616 -0.0039628856
-0.005253922 0.003507886 0.018615153 0.029046584 -0.0011247583 -0.011235569 -0.01224355 -0.00040115044
0.02636405 0.00043356046 0.025114615 -0.0150962025 0.0076398067 -0.0015723035 0.011453506 -0.023714148

prediction_layer.weight f4 [10, 32]
00000000: 22bc c93d 8a13 8c3d a8b6 f8bd 89e8 00be
00000010: b93f 9fbd f080 5e3d 521d 16be 22f4 f53d
00000020: 820d b23d 2c7f 67bd a878 e2bd 50fa f13c
00000030: 1484 593d c22d 923d e943 d3bd 6abf f9bd
00000040: c5f2 103e 6f43 84bd 81ac 2f3e 72ca 93bd
00000050: 7970 d9bd d8b8 41bd 8253 56bd b701 12be
00000060: 5012 ddbc 2887 d63c 503e 1e3c e82c 873c
00000070: b0d3 c8bd a6a2 31be 3a6f ddbd 167f d83d
00000080: 25f4 003e 00ba 89ba a9fa 313e cdfa 2c3e
00000090: ac2c 2abe fa2d c43d fb24 273e ba41 e93d
000000a0: 0105 b3bd ee47 ca3d 47d3 1c3e 0312 fcbd
000000b0: 0b09 debd f855 a4bc 1a46 03be 9a21 dcbd
000000c0: e043 dcbd 2525 c6bd 08c7 bcbc 46af a53d
000000d0: 9b98 d8bd 4842 10be 30c7 a13c 8aac 20be
000000e0: f0d7 d3bc b5d4 133e 4893 04be fec8 fbbd
000000f0: 1671 a93d daec 09be 7e9f 06be 36b4 e33d
00000100: 77e0 1d3e dbcb 073e 900e 533d e05e 04be
00000110: 40cf 06bd e220 cebd 8019 0bbb b899 ca3c
00000120: eefc bf3d d0d3 1bbc b82a cfbc 2473 013d
00000130: 7a0b ad3d 10f7 bb3c ee61 f43d 74e9 47bd
00000140: 5683 e1bd 1d8f 203e b05b e63c 25b3 133e
00000150: b408 1ebe 1cb5 11be a255 96bd b95b 1b3e
00000160: b68e a43d 28d6 87bc 080a f7bc 3866 89bd
00000170: 893d 203e 61aa 153e b270 d03d 2071 643d
00000180: 640c 033d cc88 58bd 30b6 ab3c 90d1 6abc
00000190: 0ef6 c83d 121c fc3d 5d4a e0bd d7fb 003e
000001a0: 1865 b13c 3e78 1fbe 6bac debd 0ca0 193d
000001b0: 3876 d83c 9584 9abd 60b4 b0bc e08a 58bd
000001c0: 12ad 73bd 98c9 443d 4865 d4bc 1759 09be
000001d0: 182f 863d 20a6 24bc 6856 eabc 1e1e ac3d
000001e0: d2e3 d83d 41da 313e 104f 143d 3108 183e
000001f0: 9c10 a1bd d67b e93d ded4 d03d 882d 833d
00000200: 9860 2bbe 79f8 24be 43b1 09be 9a7d da3d
00000210: d071 803d 91b6 ddbd 2807 4c3d 2a72 eb3d
00000220: 8009 7dbc f837 6f3d 20ee c1bb 1043 813d
00000230: 206e b0bb 70c6 00be b86f 983c 14a6 04bd
00000240: 582c 92bc 1de2 0cbe 006d 083c 50eb b93c
00000250: ec5c 86bd b0a1 6bbc 00f5 f0bd ad7e 243e
00000260: 86b4 fabd 46ac 9fbd 3f48 0dbe b087 44bd
00000270: 0c75 04bd 3611 b43d 9f71 253e bf40 253e
00000280: 8f7a 053e 0e3b f43d f0ed 66bc 2aa0 a43d
00000290: bcf0 17bd 5897 313d 2462 1a3d 62a3 1ebe
000002a0: 9248 9dbd 8028 f5ba db55 073e f153 053e
000002b0: e739 253e 0b72 073e 345c 653d 2b86 a9bd
000002c0: d45d 49bd 957d 183e 1054 34bd d007 68bc
000002d0: 1d6d 1a3e 44fd 3abd f480 75bd a5dd 1a3e
000002e0: cd3d 98bd 6041 d7bc 9466 1dbe c054 9abb
000002f0: 58f3 6f3d 280a 1bbe 020e d53d 64a0 693d
00000300: 478c efbd db46 0fbe 795d 17be 941d 8dbd
00000310: 6016 19bd 1e2f b53d 2004 4a3d d6ca 55bd
00000320: ec7e 5f3d 7b1c 0d3e 785c 99bd c968 183e
00000330: a289 a93d 2abb b83d 9790 ffbd 8422 78bd
00000340: d8a9 dabd 788e 693d 9092 93bc a0d2 523d
00000350: 18ce 0fbd 0e4f d03d f2b6 803d b5eb a7bd
00000360: f1fe 023e 80bb 2fbb 00bb 4a3a 26b3 fa3d
00000370: 2c5c 22bd 5855 873c 0b4d 313e 003c 0ebd
00000380: d464 303d d454 29bd caf3 b63d d809 14bd
00000390: 9098 6c3d 9c22 30bd d821 28be be4d ad3d
000003a0: 1b9b 11be c0cd 623d b31d 0a3e 54e2 153d
000003b0: 6fad 1b3e 5bb8 25be 943e 603d eccf 693d
000003c0: 9882 9cbd ffeb 0c3e 9f39 05be e8a2 be3c
000003d0: 47bc 1b3e c82b 4e3d 1aa9 803d 5d08 303e
000003e0: 6634 f83d bcc8 cbbd 65c8 f9bd 181a a7bc
000003f0: ab5f 113e fb68 2f3e ff1b 0b3e b67d 5bbd
0.098503366 0.06839664 -0.12144214 -0.12588705 -0.07775826 0.054322183 -0.14659622 0.12009455
0.08693983 -0.056517765 -0.110581696 0.029538304 0.053104475 0.07137634 -0.10315687 -0.121947125
0.14155109 -0.064581744 0.17155649 -0.07216348 -0.106171556 -0.04729542 -0.052325733 -0.14258467
-0.026986271 0.026187494 0.009658411 0.016500905 -0.09806001 -0.17347202 -0.108122304 0.10571115
0.12593134 -0.0010507703 0.17380776 0.16892548 -0.16618603 0.09579082 0.163227 0.113894895
-0.08741189 0.09877001 0.15314971 -0.12308123 -0.108415686 -0.020060524 -0.1281971 -0.107485965
-0.10755134 -0.096750535 -0.023044124 0.080900714 -0.10575982 -0.14087784 0.0197483 -0.15690818
-0.025859803 0.1443661 -0.12946808 -0.122941956 0.082735226 -0.13469258 -0.13146779 0.11118357
0.15417658 0.13261358 0.05152756 -0.12926817 -0.032912493 -0.10064866 -0.0021224916 0.024731502
0.093744144 -0.009510949 -0.025288925 0.031603947 0.084494546 0.022944957 0.11932741 -0.048806623
-0.110113785 0.15679593 0.028119892 0.14423807 -0.15433007 -0.14229244 -0.07340552 0.15171708
0.080350325 -0.01658161 -0.03015615 -0.0670895 0.15648474 0.14615776 0.10177745 0.055771947
0.03199424 -0.052864835 0.020960897 -0.01433219 0.09812556 0.123100415 -0.10951684 0.1259607
0.02165465 -0.15573213 -0.1087273 0.03750615 0.026423559 -0.07544819 -0.021570385 -0.052866817
-0.059491225 0.048043817 -0.0259272 -0.13412891 0.06551951 -0.010049373 -0.028605655 0.08404182
0.10590328 0.17368414 0.036208212 0.14846875 -0.07864496 0.11400573 0.10196851 0.06405169
-0.16736066 -0.1611041 -0.13446526 0.10668488 0.06271708 -0.108258374 0.049811512 0.114963844
-0.0154441595 0.058402985 -0.0059182793 0.06311619 -0.0053842217 -0.12575698 0.01860796 -0.032384947
-0.01784341 -0.1375813 0.008326769 0.022695214 -0.06560692 -0.014381811 -0.1176548 0.16063948
-0.12241463 -0.077965304 -0.13797091 -0.047980964 -0.032338187 0.08792345 0.16156624 0.1613798
0.13035034 0.11925326 -0.014094815 0.08038361 -0.037094817 0.043357223 0.03769125 -0.15492013
-0.07679857 -0.0018704087 0.13216345 0.13020302 0.16135369 0.13227098 0.055996135 -0.08277544
-0.049161747 0.14891656 -0.04402548 -0.014162019 0.15080686 -0.04565169 -0.059937432 0.15123613
-0.074336626 -0.02627629 -0.15371162 -0.00470981 0.05858168 -0.15140593 0.104030624 0.057037726
-0.11696678 -0.13991873 -0.1478175 -0.06890407 -0.037374854 0.088468775 0.04932034 -0.052195393
0.0545644 0.13780396 -0.0748834 0.14883722 0.082782045 0.09020074 -0.1247875 -0.06057979
-0.106769264 0.057020634 -0.018014222 0.0514704 -0.035108656 0.101713285 0.06284894 -0.081992544
0.12792565 -0.002681464 0.00077335536 0.12241201 -0.039638683 0.016520187 0.17314546 -0.03472519
0.043064907 -0.041340664 0.08933218 -0.0361422 0.057762682 -0.043001756 -0.1641916 0.08462094
-0.14219324 0.055372 0.13487892 0.036592796 0.15202878 -0.16183607 0.05474718 0.057083055
-0.07642096 0.137619 -0.13010262 0.02327104 0.15208541 0.05033472 0.062822536 0.1719069
0.12119369 -0.099503964 -0.12196425 -0.020398185 0.1419665 0.1712989 0.13584898 -0.053586684

prediction_layer.bias f4 [10]
00000000: 9e75 a53d 0280 fe3d 79be c9bd bff2 113e
00000010: 2c88 9abd 9867 e23c 087d 3c3d 823d c8bd
00000020: 2885 52bd f57d 273e
0.08079074 0.12426759 -0.09850783 0.14252757 -0.07545504 0.027637288 0.046017677 -0.09777357
-0.05139652 0.16356643
