Homeworks/HW1/mlp_1-model.pt (torch, 88311 bytes, 10 tensors)

conv1.weight f4 [16, 1, 3, 3]
0.22092457 -0.2799208 0.0035737178 -0.058984455 0.1101791 -0.20950979 -0.2458371 0.35923508
-0.09835265 -0.25058648 0.07367728 0.33646286 -0.29755563 -0.14189287 0.2630998 -0.39573148
0.15290244 0.2026764 0.30867997 0.31828538 -0.32158613 0.09526921 -0.33253416 -0.20261571
-0.3935821 0.28671664 0.24875376 -0.13835351 -0.22387163 -0.032497883 0.040620524 -0.022225123
0.41032884 -0.3229993 -0.08457056 0.40500623 -0.09946368 0.12985876 0.066667564 0.072117485
0.09105973 -0.23805895 -0.19391513 0.2990925 0.25037175 -0.25449273 -0.08585659 0.23880987
0.2501521 0.263675 -0.23906678 -0.111773275 0.28874215 -0.30490834 0.43396506 -0.15590703
0.18743543 -0.08517836 -0.37246063 -0.25412655 -0.21858418 0.2652049 0.2323337 0.1314253
-0.22928458 -0.2659388 -0.17084901 -0.12641075 -0.028136835 0.2704473 0.3266161 0.081381656
-0.019149298 0.21306223 -0.26117587 0.25581378 0.037294973 -0.16616875 0.2788056 -0.124367215
-0.27616668 -0.31938267 0.2355573 -0.12903894 -0.4433364 0.51714426 0.27349362 -0.14188768
0.09402634 -0.12433858 -0.15743452 -0.14466017 -0.14015685 -0.24805744 0.26303628 -0.2347304
-0.21902739 -0.041156795 0.26571807 0.14884345 0.11319696 0.258286 -0.14723572 0.11788626
-0.19584325 -0.15199661 -0.16346088 -0.18894613 0.21194418 0.11262408 -0.20104824 0.14275303
0.25993198 -0.16416788 0.065571904 -0.22531639 0.17668276 0.3016492 -0.04253872 -0.27971315
-0.18749392 0.09777143 0.16222064 -0.45286748 0.11059793 0.27317524 -0.25205597 -0.3371562
0.018733112 -0.10816254 0.10132832 0.42498505 0.18426451 0.022129439 0.04906768 -0.09776628
-0.1840876 0.39268818 0.15146464 -0.16272119 0.40933633 -0.22685067 -0.10376235 -0.1699036
00000000: 0d3a 623e c751 8fbe 0935 6a3b af99 71bd
00000010: 94a5 e13d bc89 56be b9bc 7bbe a9ed b73e
00000020: 1d6d c9bd df4c 80be 1de4 963d dc44 ac3e
00000030: 3659 98be 5d4c 11be 04b5 863e 519d cabe
00000040: 7592 1c3e 678a 4f3e 4d0b 9e3e 4df6 a23e
00000050: f0a6 a4be 811c c33d eb41 aabe 7e7a 4fbe
00000060: 9883 c9be 86cc 923e 4eb9 7e3e 8bac 0dbe
00000070: 9b3e 65be 801c 05bd b561 263d 7611 b6bc
00000080: 9f16 d23e 2a60 a5be 5433 adbd fa5c cf3e
00000090: 9db3 cbbd b2f9 043e 0189 883d 55b2 933d
000000a0: 867d ba3d bac5 73be b091 46be a722 993e
000000b0: ba30 803e df4c 82be 94d5 afbd 938a 743e
000000c0: f013 803e 6900 873e eccd 74be 63e9 e4bd
000000d0: 03d6 933e f21c 9cbe ab30 de3e 18a6 1fbe
000000e0: 13ef 3f3e fe71 aebd 29b3 bebe e01c 82be
000000f0: 88d4 5fbe f0c8 873e e3e8 6d3e 5b94 063e
00000100: 94c9 6abe 2129 88be 0bf3 2ebe d271 01be
00000110: 387f e6bc 1278 8a3e 3a3a a73e 6dab a63d
00000120: fdde 9cbc fc2c 5a3e d8b8 85be 06fa 823e
00000130: 9dc2 183d 2428 2abe 9cbf 8e3e 3db4 febd
00000140: b865 8dbe 2086 a3be ef35 713e c922 04be
00000150: fdfc e2be 9163 043f 5b07 8c3e 014b 11be
00000160: e290 c03d 3aa5 febd 8436 21be cc21 14be
00000170: 4785 0fbe c502 7ebe b1ac 863e 2a5d 70be
00000180: b748 60be 0794 28bd 330c 883e 6b6a 183e
00000190: cfd3 e73d 103e 843e f6c4 16be 5a6e f13d
000001a0: 228b 48be 00a5 1bbe 4a62 27be 187b 41be
000001b0: e507 593e 74a7 e63d 97df 4dbe da2d 123e
000001c0: ce15 853e a01b 28be 904a 863d 57b9 66be
000001d0: 53ec 343e c471 9a3e 153d 2ebd 9036 8fbe
000001e0: 68fe 3fbe 633c c83d 2b1d 263e 3fde e7be
000001f0: 2b81 e23d a0dd 8b3e 7b0d 81be bd9f acbe
00000200: 2f76 993c 5284 ddbd 3985 cf3d a497 d93e
00000210: d6af 3c3e cc48 b53c 31fb 483d b039 c8bd
00000220: 7681 3cbe 6d0e c93e 8c19 1b3e 62a0 26be
00000230: 8894 d13e 8b4b 68be 5b81 d4bd 36fb 2dbe

conv1.bias f4 [16]
0.015489118 0.09136144 -0.018128049 0.11145619 -0.32412907 0.042890653 0.074131615 0.0361782
0.07508935 0.07359711 -0.32527533 -0.08481845 -0.10489958 -0.018252837 -0.19950275 -0.008995612
00000000: 12c6 7d3c b51b bb3d 4681 94bc 2543 e43d
00000010: 3ff4 a5be 1cae 2f3d 51d2 973d 982f 143d
00000020: 72c8 993d 15ba 963d 7d8a a6be 4cb5 adbd
00000030: 97d5 d6bd f986 95bc 734a 4cbe 5562 13bc

conv2.weight f4 [8, 16, 3, 3]
-0.00728157 -0.06847892 -0.051080134 0.09538703 0.07527662 0.035669543 -0.038093656 0.0074230465
0.094438314 -0.124656975 -0.11411173 0.08280297 -0.3048546 -0.3460762 -0.011135165 -0.22100943
-0.34694785 -0.14964981 -0.069205485 -0.1501629 0.04973867 0.23082794 0.025636457 -0.053485647
0.15731522 0.015159807 -0.15257724 -0.09230778 -0.28121927 0.023327723 -0.07778195 -0.21595095
-0.09560423 -0.02602496 -0.004817124 -0.097509116 0.13427158 -0.005977266 -0.09013819 0.07143938
0.04718721 -0.056554776 0.07066655 -0.053356085 -0.1126706 0.311158 0.10334025 -0.07965025
0.09427078 -0.028653387 -0.047265876 -0.01266866 0.0037530933 -0.037535917 -0.06021369 -0.11772499
0.10465347 -0.07512548 0.06662671 0.1336256 -0.10839316 -0.040338166 0.027769625 0.051724035
-0.03198185 -0.060804978 0.1926596 0.08130971 0.06759646 0.09072409 0.044725932 0.09449402
0.12468502 0.13080008 0.07929511 0.09249493 0.15628459 0.020130271 0.13496253 0.02106388
0.094507664 0.07147554 -0.12756613 -0.030039808 0.102870174 -0.3391833 -0.07872172 -0.02585749
-0.15564813 -0.212585 -0.08930187 -0.14168511 0.026043797 -0.057081815 0.09592376 0.20763284
0.0383092 0.16563125 0.21754125 0.07200965 0.04707823 0.06266236 -0.017151391 0.08033463
0.059771925 0.0094898455 -0.114928275 -0.09796745 0.024477733 0.038850535 0.07260579 0.08586068
-0.063257314 0.023297407 0.05086145 -0.06458758 -0.11191923 -0.21831763 -0.4128082 -0.085721076
-0.1920297 -0.38666347 -0.23543201 -0.13780336 -0.09366933 -0.3614915 0.03731576 0.06930278
-0.013085273 0.08871851 0.056328923 -0.03330032 -0.03030772 0.04355599 -0.14574963 -0.20486696
-0.084313765 0.065662704 -0.17873302 -0.100805685 0.07104673 -0.12957004 -0.18909496 -0.1214909
0.096815534 -0.073711954 -0.017804082 -0.03962484 -0.035806075 0.004583497 0.03931443 -0.07910942
0.005514455 -0.061727554 -0.12004558 0.12861335 -0.05749062 -0.015566025 -0.0030177867 0.031646013
0.02395661 0.0041148686 -0.016887005 0.06914889 -0.12015574 0.10037046 0.3617919 -0.059964404
-0.03914081 0.016299346 0.12886348 0.05027772 -0.009829481 0.12296554 0.122730054 0.09869787
0.012322233 -0.069097236 0.0711595 0.09208186 0.09022149 -0.09005929 -0.14007269 0.1749874
-0.01590448 0.012381897 0.0996617 -0.061649304 0.10257227 0.029755505 0.03894004 -0.1275428
-0.16871272 -0.12391028 0.277 -0.0120519325 -0.08055617 0.1791054 -0.051325712 0.026585562
-0.049679443 -0.12266491 0.15822655 0.12972534 -0.12673828 -0.041406885 0.0035144542 0.0850519
0.18237665 0.105255924 0.1171387 0.26927903 0.15247726 -0.04230456 0.060425855 -0.08715834
-0.022750542 0.025270566 -0.030968733 0.030187193 -0.121287726 -0.17882119 0.011601617 -0.041494202
-0.03199199 0.08759268 -0.29617557 -0.0033879164 0.10311182 -0.1237249 0.060824193 0.0788263
0.13982637 0.14359565 -0.13021535 0.027147578 0.060015213 -0.04593931 0.060183432 0.12163419
0.08529855 0.05008245 0.17444783 -0.077118926 -0.04743936 -0.042400282 0.07587392 -0.118446834
-0.16517927 -0.06642278 -0.040590078 -0.011958402 -0.081783384 -0.020190388 -0.15625872 -0.027604057
00000000: 3d9a eebb ad3e 8cbd 6739 51bd 465a c33d
00000010: a12a 9a3d 3a1a 123d 1808 1cbd 073d f33b
00000020: e068 c13d 284c ffbd 69b3 e9bd 9b94 a93d
00000030: e715 9cbe e630 b1be 4470 36bc 4c50 62be
00000040: 26a3 b1be cd3d 19be 9bbb 8dbd 4ec4 19be
00000050: c7ba 4b3d 295e 6c3e 8c03 d23c c413 5bbd
00000060: 3e17 213e d760 783c 353d 1cbe dd0b bdbd
00000070: f9fb 8fbe c819 bf3c 254c 9fbd 3f22 5dbe
00000080: 27cc c3bd 4c32 d5bc f7d8 9dbb dcb2 c7bd
00000090: 7d7e 093e f1dc c3bb 5f9a b8bd cf4e 923d
000000a0: 6047 413d fba5 67bd a0b9 903d e98b 5abd
000000b0: d8bf e6bd 1a50 9f3e 0ea4 d33d ac1f a3bd
000000c0: 0a11 c13d 82ba eabc dd99 41bd 3690 4fbc
000000d0: 75f6 753b 43bf 19bd a1a2 76bd cd19 f1bd
000000e0: 8f54 d63d 63db 99bd 9673 883d 26d5 083e
000000f0: 3cfd ddbd a239 25bd 207d e33c 95dc 533d
00000100: 66ff 02bd a40e 79bd 8f48 453e b585 a63d
00000110: 0370 8a3d 8dcd b93d 8a32 373d 1586 c13d
00000120: dc5a ff3d 75f0 053e 7a65 a23d fb6d bd3d
00000130: 1109 203e 3de8 a43c 9e33 0a3e 288e ac3c
00000140: 3c8d c13d c561 923d b2a0 02be 0b16 f6bc
00000150: 99ad d23d 6fa9 adbe da38 a1bd 16d3 d3bc
00000160: 3962 1fbe e2af 59be e6e3 b6bd e715 11be
00000170: cd59 d53c 9fce 69bd ad73 c43d b49d 543e
00000180: 1cea 1c3d 3d9b 293e 22c3 5e3e cc79 933d
00000190: 1ad5 403d 2055 803d 1381 8cbc 7c86 a43d
000001a0: 68d3 743d 4c7b 1b3c 845f ebbd 29a3 c8bd
000001b0: 8785 c83c bd21 1f3d 58b2 943d b9d7 af3d
000001c0: 0d8d 81bd 34da be3c 1954 503d 7e46 84bd
000001d0: e935 e5bd a88e 5fbe 995b d3be 888e afbd
000001e0: 6fa3 44be c1f8 c5be 1715 71be 531c 0dbe
000001f0: b5d5 bfbd 6a15 b9be 69d8 183d 9eee 8d3d
00000200: 9d63 56bc 0db2 b53d 28b9 663d eb65 08bd
00000210: e547 f8bc c467 323d 643f 15be a5c8 51be
00000220: b2ac acbd 2b7a 863d ca05 37be 3673 cebd
00000230: f380 913d 02ae 04be 1ca2 41be 39d0 f8bd
00000240: 3947 c63d 4bf6 96bd ded9 91bc a84d 22bd
00000250: 64a9 12bd 2931 963b 2b08 213d 1f04 a2bd
00000260: 9ab2 b43b 08d6 7cbd 75da f5bd 38b3 033e
00000270: 497b 6bbd a408 7fbc 0fc6 45bb 409f 013d
00000280: a740 c43c 05d6 863b 9e56 8abc ef9d 8d3d
00000290: 3614 f6bd 078f cd3d ca3c b93e 3c9d 75bd
000002a0: 1d52 20bd 3586 853c caf4 033e 03f0 4d3d
000002b0: d50b 21bc 5bd5 fb3d e559 fb3d 1c22 ca3d
000002c0: 31e3 493c da82 8dbd 12bc 913d 6a95 bc3d
000002d0: 0bc6 b83d 0171 b8bd 376f 0fbe e62f 333e
000002e0: 1d4a 82bc 71dd 4a3c 6f1b cc3d fb83 7cbd
000002f0: 6911 d23d d1c1 f33c 977f 1f3d 949a 02be
00000300: 07c3 2cbe acc4 fdbd f2d2 8d3e 7875 45bc
00000310: a2fa a4bd 6867 373e e93a 52bd f7c9 d93c
00000320: ac7c 4bbd be37 fbbd 2406 223e b8d6 043e
00000330: aec7 01be 449a 29bd c252 663b b12f ae3d
00000340: f2c0 3a3e 6b90 d73d 6ae6 ef3d f1de 893e
00000350: 0023 1c3e 8c47 2dbd 1a81 773d 1280 b2bd
00000360: 585f babc 3804 cf3c 24b2 fdbc 224b f73c
00000370: b365 f8bd e71c 37be b514 3e3c d3f5 29bd
00000380: 080a 03bd ca63 b33d 53a4 97be ce07 5ebb
00000390: 4a2c d33d 7b63 fdbd ca22 793d af6f a13d
000003a0: a52e 0f3e bd0a 133e 2c57 05be 9964 de3c
000003b0: 83d2 753d dc2a 3cbd e782 763d 591b f93d
000003c0: 02b1 ae3d 4123 4d3d 74a2 323e 87f0 9dbd
000003d0: c64f 42bd ebab 2dbd c963 9b3d 4194 f2bd
000003e0: c124 29be ab08 88bd c841 26bd 2ced 43bc
000003f0: 0c7e a7bd 5066 a5bc 4902 20be e721 e2bc

conv2.bias f4 [8]
0.07372904 -0.054814573 -0.019269133 -0.078021035 0.14883402 -0.03194655 0.111232445 -0.023942346
00000000: 40ff 963d 3f85 60bd 4dda 9dbc 7ec9 9fbd
00000010: f267 183e 63da 02bd d6cd e33d bd22 c4bc

conv3.weight f4 [16, 8, 5, 5]
-0.18725069 -0.054760274 -0.1364245 -0.13969727 -0.06534668 -0.055768277 -0.15445714 -0.1506419
-0.14879933 -0.24989767 0.039987464 0.087669775 0.082072504 0.103653684 -0.023028197 0.08837443
-0.0013038985 -0.03864607 -0.09866646 -0.23940252 0.11456339 -2.8222179e-05 -0.15219498 -0.21475029
-0.31362528 0.02707258 -0.06102642 -0.0875469 -0.17982292 -0.04399454 -0.013141849 0.042273257
-0.0019086589 -0.04722893 0.042924564 0.061111283 0.0076291407 -0.058369372 0.023811126 -0.01620772
-0.12041968 -0.13381885 -0.22613738 -0.16804326 -0.17188846 -0.055209223 -0.19278768 -0.17459741
-0.10681026 0.0020421906 0.19871746 0.13047883 0.13444836 0.17770694 0.1674636 0.10473457
0.0041689985 -0.066824466 -0.049479306 -0.027321206 -0.0018887518 -0.05682608 -0.23533182 -0.102078274
-0.26761588 -0.103535675 -0.00023926698 -0.07412469 -0.16105142 -0.22100253 -0.09840663 -0.05861398
-0.059414007 -0.14015248 -0.03181228 -0.16187291 -0.26115668 -0.23244664 -0.17300831 -0.069075
-0.12560748 -0.2944391 -0.28409225 -0.29509062 -0.33312964 -0.19574124 -0.4847192 -0.4113375
-0.46281028 -0.4092234 0.03465418 -0.08917677 -0.1732071 -0.20509204 -0.09663812 0.25339276
0.22637479 0.11612717 0.10663945 0.0929416 -0.052038666 0.048131816 -0.025826532 0.09222388
-0.07014357 -0.01917584 -0.039696917 -0.0050392705 0.07616029 -0.0053838803 0.05878927 -0.012601573
-0.052851822 0.07897626 -0.052562237 0.030860579 0.11856977 0.09032949 0.076188 0.011712871
0.04256862 0.011614665 0.04851521 -0.013519445 -0.022583295 -0.16114037 -0.116090156 0.02886425
-0.097048454 -0.1332675 -0.14525205 -0.02320028 -0.10182313 0.031518567 0.07030868 -0.038194485
-0.076043546 -0.13012484 -0.006309543 0.043650467 0.06634406 -0.009609261 -0.108411424 -0.012730734
-0.008147482 0.14488414 0.08541012 0.03691674 0.16331019 0.023209944 0.1290502 0.05394831
0.06827548 0.06041015 0.022515655 0.06961092 0.13064383 0.024210801 0.07443866 0.02840053
0.059119143 0.16699617 0.033311203 0.120556265 0.007466877 -0.02085248 0.06477482 0.0333181
-0.046180014 -0.10848158 -0.124464296 0.051735155 0.039357085 -0.061898924 -0.13207698 -0.009632605
-0.08335183 -0.009451814 0.01547862 0.118269645 -0.15590884 -0.11133751 -0.049227323 -0.07703072
0.07198219 -0.07062163 -0.009800472 0.034145698 0.03766991 0.05539811 -0.10028424 -0.03428419
0.008282409 -0.11708663 0.07973356 0.01217582 -0.08039283 0.019989235 -0.03603184 0.020364242
0.12982808 0.07060305 -0.046414517 -0.15352412 -0.20615591 0.07188719 0.060304325 0.10794935
0.10312589 -0.042811714 0.031003129 0.03640023 0.04493743 0.11807493 0.11364227 -0.0013565004
-0.11609216 -0.14628519 -0.055448998 0.107517965 -0.06896863 0.0036671571 -0.16121602 -0.16182537
0.043537226 0.056153435 -0.04616868 -0.30502665 -0.20656832 0.1893914 0.123485774 0.039548974
0.08021913 -0.29654846 -0.24962951 0.030919598 -0.032074273 0.15935531 0.02160815 -0.0921122
-0.104068294 -0.17576416 -0.11064908 -0.007829799 0.033712786 -0.12749282 -0.15836743 -0.19728208
-0.08679595 0.084504314 0.035172276 -0.14783826 -0.2575958 -0.12536085 0.0059843375 0.12496511
00000000: a5be 3fbe 4f4c 60bd ddb2 0bbe cd0c 0fbe
00000010: 7bd4 85bd 476d 64bd 032a 1ebe df41 1abe
00000020: da5e 18be 2de5 7fbe e5c9 233d 368c b33d
00000030: a115 a83d 6248 d43d a1a5 bcbc a7fd b43d
00000040: 93e7 aaba 574b 1ebd a411 cabd ef25 75be
00000050: 36a0 ea3d abbe ecb7 00d9 1bbe 80e7 5bbe
00000060: 7e93 a0be 51c7 dd3c d7f6 79bd ca4b b3bd
00000070: 8023 38be 9e33 34bd e950 57bc b926 2d3d
00000080: f72b faba 1f73 41bd abd1 2f3d d34f 7a3d
00000090: dffd f93b b914 6fbd 8d0f c33c 0dc6 84bc
000000a0: 989e f6bd cf07 09be 8f90 67be 8813 2cbe
000000b0: 8703 30be 1123 62bd 226a 45be aac9 32be
000000c0: 56bf dabd 46d6 053b 977c 4b3e 3e9c 053e
000000d0: d5ac 093e cff8 353e 947b 2b3e 147f d63d
000000e0: 189c 883b 44db 88bd d0aa 4abd b9d0 dfbc
000000f0: fe8f f7ba 77c2 68bd d3fa 70be 6a0e d1bd
00000100: f304 89be 830a d4bd bee3 7ab9 afce 97bd
00000110: aaea 24be 7d4e 62be 6a89 c9bd 3615 70bd
00000120: 1a5c 73bd 2284 0fbe 984d 02bd 03c2 25be
00000130: 54b6 85be 7e06 6ebe 1729 31be 3277 8dbd
00000140: 3f9f 00be b9c0 96be 8a74 91be 1e16 97be
00000150: f88f aabe 6470 48be 1d2d f8be d49a d2be
00000160: 78f5 ecbe bb85 d1be 8bf1 0d3d 4fa2 b6bd
00000170: 345d 31be a603 52be 35ea c5bd b2bc 813e
00000180: cbce 673e 15d4 ed3d c965 da3d 2a58 be3d
00000190: 7f26 55bd de25 453d 2a92 d3bc e0df bc3d
000001a0: 6fa7 8fbd a716 9dbc 3c99 22bd 7720 a5bb
000001b0: edf9 9b3d 436b b0bb 05cd 703d d476 4ebc
000001c0: 277b 58bd 4ebe a13d 804b 57bd 53cf fc3c
000001d0: b5d4 f23d abfe b83d 7408 9c3d 57e7 3f3c
000001e0: 6f5c 2e3d 704b 3e3c e3b7 463d aa80 5dbc
000001f0: 9a00 b9bc fb01 25be adc0 edbd b874 ec3c
00000200: 57c1 c6bd 4777 08be f4bc 14be 830e bebc
00000210: a588 d0bd 9d19 013d fffd 8f3d d271 1cbd
00000220: b8bc 9bbd 723f 05be 48c0 cebb d5ca 323d
00000230: 65df 873d 2970 1dbc cf06 debd 9294 50bc
00000240: 047d 05bc 825c 143e 80eb ae3d 0236 173d
00000250: c93a 273e c822 be3c bc25 043e e7f8 5c3d
00000260: 04d4 8b3d a270 773d c072 b83c 2c90 8e3d
00000270: 7fc7 053e bb55 c63c 4c73 983d 3aa8 e83c
00000280: ea26 723d 0b01 2b3e 5471 083d 34e6 f63d
00000290: b4ac f43b d2d2 aabc a9a8 843d 8f78 083d
000002a0: 4127 3dbd 972b debd 23e7 febd 3ee8 533d
000002b0: e534 213d ba89 7dbd 303f 07be 13d2 1dbc
000002c0: 5db4 aabd c8db 1abc 0a9a 7d3c 5b37 f23d
000002d0: 91a6 1fbe ec04 e4bd 97a2 49bd 48c2 9dbd
000002e0: 666b 933d 13a2 90bd 2992 20bc 5cdc 0b3d
000002f0: c34b 1a3d 21e9 623d d361 cdbd 946d 0cbd
00000300: f1b2 073c 1dcb efbd 594b a33d 177d 473c
00000310: ffa4 a4bd 77c0 a33c 1f96 13bd e9d2 a63c
00000320: a7f1 043e 5598 903d 261d 3ebd 6d35 1dbe
00000330: 891a 53be 9739 933d ab01 773d 8c14 dd3d
00000340: ab33 d33d 565b 2fbd 46fa fd3c 6818 153d
00000350: 5010 383d 45d1 f13d 47bd e83d 9acc b1ba
00000360: bac1 edbd c9cb 15be 7d1e 63bd 6132 dc3d
00000370: 6d3f 8dbd b054 703b d015 25be 8db5 25be
00000380: 1754 323d 2501 663d 5f1b 3dbd 742c 9cbe
00000390: a586 53be d2ef 413e 1ce6 fc3d 1bfe 213d
000003a0: ed49 a43d 33d5 97be e19e 7fbe 194b fd3c
000003b0: 5060 03bd 0a2e 233e 9303 b13c 52a5 bcbd
000003c0: c221 d5bd 85fb 33be fc9b e2bd 8f48 00bc
000003d0: 6b16 0a3d 7a8d 02be 122b 22be 5004 4abe
000003e0: 13c2 b1bd 9910 ad3d ce10 103d ea62 17be
000003f0: 99e3 83be 985e 00be 4318 c43b b5ed ff3d

conv3.bias f4 [16]
0.1228429 0.050169203 0.033165302 0.11337392 0.00076484506 0.13462844 -0.03587082 0.054301605
-0.038398862 0.058428805 -0.06409921 0.17721856 -0.076384716 0.12838963 -0.05258031 -0.08265424
00000000: 0f95 fb3d 397e 4d3d 57d8 073d 9630 e83d
00000010: e27f 483a 0adc 093e 48ed 12bd 5c6b 5e3d
00000020: 2048 1dbd 0b53 6f3d 7246 83bd c878 353e
00000030: 976f 9cbd 9278 033e 735e 57bd a046 a9bd

conv4.weight f4 [16, 16, 5, 5]
0.0014466239 -0.0013648623 0.16905472 -0.0482612 0.03280262 -0.10049551 0.0012615297 0.11127025
0.06677093 0.09170554 -0.18461677 -0.21871741 0.009205249 0.025644535 0.0070645176 -0.22571363
-0.2508456 -0.17979468 -0.087492794 0.012533346 -0.032836795 -0.024624715 -0.0007442638 0.10043309
-0.0055182762 -0.0903315 0.08312318 -0.009267769 0.118340924 0.116955146 -0.05922035 -0.1722864
-0.13681316 -0.10165366 0.033305563 0.06991263 0.010925212 0.14457981 -0.041241 -0.02495291
0.056360003 -0.038780708 0.009364726 -0.091346644 -0.0007008609 0.21238272 0.04248955 -0.019329
-0.143931 -0.08065017 -0.012359013 -0.06576557 -0.084023334 -0.037628397 0.0006506874 0.053980753
-0.02386785 -0.08175898 -0.025359578 -0.011427861 0.162202 0.1489797 0.017183427 -0.071454
0.023689056 0.0373683 0.17599595 0.07278929 -0.11945376 -0.044193376 0.036741555 0.13052356
0.11249962 0.06912033 0.022734677 0.042997107 -0.00072224246 0.12835325 0.07149508 -0.07384264
0.05976187 0.07847016 0.19889669 0.15926577 0.045085344 0.07285486 0.010765126 0.06777343
0.06858514 -0.080796555 0.07185597 -0.030262182 -0.027157161 -0.06384533 -0.07130004 0.16013896
0.11186829 0.110022075 0.12890913 0.11834652 -0.099357 -0.14265421 -0.070308566 -0.08882886
-0.08232329 -0.025121551 0.006811151 0.09803695 -0.022140376 -0.006822099 0.14086385 0.21083021
0.31513888 0.24238938 0.20951374 0.050207276 -0.013862669 0.021058097 0.07640062 0.19813202
0.039300356 0.11673252 0.018008161 -0.062479552 0.11977943 -0.15891168 -0.089521736 -0.07492743
0.03506925 -0.053656872 -0.10681979 -0.058622316 -0.058345903 -0.10615832 -0.05504576 -0.089784324
-0.13987345 -0.14961995 -0.28834724 -0.24695246 -0.13178821 -0.11610682 -0.10740226 -0.2810835
-0.29720518 -0.09392865 -0.099827595 -0.09706173 -0.044766974 -0.13585967 -0.030827401 -0.06122442
-0.05779635 0.04853223 0.043650333 -0.08530788 -0.08455952 0.032895636 0.050017104 0.019659756
0.112863936 0.0710803 0.091458656 0.18045083 -0.0042991946 0.054284815 -0.04504042 -0.11021125
0.011484914 -0.0069153206 0.018283939 0.0214156 -0.08676582 -0.016480971 -0.22451876 0.076814316
-0.0008515161 -0.0006606939 -0.057201765 -0.050751623 -0.08650544 0.023733804 -0.05035801 -0.0962376
-0.029751554 0.06334125 0.20767973 0.18607514 0.087416336 0.12149088 -0.033594377 -0.04345635
0.049585577 -0.012019106 0.13551402 0.036626864 -0.0044072066 0.0017641662 0.0364435 0.18280457
0.040834006 -0.13974231 -0.058268968 -0.014139134 0.012560247 0.12710612 0.044042513 -0.054341845
-0.03475996 0.01611303 -0.06862365 0.06350961 -0.047193997 -0.010962604 -0.028644225 -0.005094717
0.029226702 -0.046590548 -0.09566974 0.0052351756 0.02498209 -0.0039919713 0.0020521898 -0.020690575
-0.14651829 0.1174089 0.1378713 0.009872364 0.033001255 -0.04711331 0.14428231 0.20150661
0.165478 0.0250597 -0.040019017 -0.0014051294 0.12502806 0.17605214 0.05753846 0.012489681
0.03552123 0.057116352 0.054364327 0.17191269 0.036092646 0.15550634 0.120500475 0.0026196118
0.1333921 0.06980003 -0.13521372 -0.14398527 -0.13525234 0.06943785 0.11423433 -0.030842906
00000000: a59c bd3a 2ee5 b2ba ae1c 2d3e 89ad 45bd
00000010: 0a5c 063d 97d0 cdbd ea59 a53a a8e1 e33d
00000020: 33bf 883d 1dd0 bb3d 2e0c 3dbe 75f7 5fbe
00000030: 9dd1 163c 7d14 d23c 787d e73b 7921 67be
00000040: d66e 80be 191c 38be 6c2f b3bd aa58 4d3c
00000050: e07f 06bd c5b9 c9bc b31a 43ba ddaf cd3d
00000060: a8d2 b4bb b9ff b8bd 7c3c aa3d d7d7 17bc
00000070: ba5c f23d 2e86 ef3d 0a91 72bd d96b 30be
00000080: c018 0cbe cb2f d0bd 6a6b 083d 5a2e 8f3d
00000090: a9ff 323c bb0c 143e 53ec 28bd 0c6a ccbc
000000a0: bfd9 663d 85d8 1ebd 826e 193c f313 bbbd
000000b0: fbb9 37ba db7a 593e 8609 2e3d da57 9ebc
000000c0: a662 13be eb2b a5bd 757d 4abc 19b0 86bd
000000d0: 6d14 acbd 3c20 1abd e492 2a3a ec1a 5d3d
000000e0: 8286 c3bc 4171 a7bd e4be cfbc ec3b 3bbc
000000f0: 4818 263e 228e 183e 42c4 8c3c 7a56 92bd
00000100: 8d0f c23c 810f 193d 4838 343e 8d12 953d
00000110: 2ca4 f4bd 1d04 35bd 507e 163d f8a7 053e
00000120: 3366 e63d f68e 8d3d 133e ba3c bc1d 303d
00000130: df54 3dba 096f 033e 036c 923d cf3a 97bd
00000140: ddc8 743d f7b4 a03d 93ab 4b3e 9116 233e
00000150: 69ab 383d ee34 953d 3660 303c cccc 8a3d
00000160: 5e76 8c3d aa78 a5bd 3929 933d 65e8 f7bc
00000170: b278 debc 57c1 82bd c105 92bd 78fb 233e
00000180: 341b e53d 4153 e13d c100 043e a95f f23d
00000190: af7b cbbd f213 12be f0fd 8fbd e8eb b5bd
000001a0: 1d99 a8bd b6cb cdbc 1330 df3b 99c7 c83d
000001b0: bc5f b5bc ea8b dfbb 9d3e 103e e0e3 573e
000001c0: e259 a13e ec34 783e c58a 563e 25a6 4d3d
000001d0: 3f20 63bc 0882 ac3c ee77 9c3d 1fe3 4a3e
000001e0: 69f9 203d 7611 ef3d da85 933c 8fea 7fbd
000001f0: eb4e f53d beb9 22be 2c57 b7bd 8d73 99bd
00000200: c6a4 0f3d 4fc7 5bbd 56c4 dabd f41d 70bd
00000210: 1dfc 6ebd 8969 d9bd aa77 61bd d8e0 b7bd
00000220: fc3a 0fbe f935 19be 40a2 93be 1be1 7cbe
00000230: 7df3 06be 6ac9 edbd b7f5 dbbd 2dea 8fbe
00000240: 472b 98be aa5d c0bd 6972 ccbd 4dc8 c6bd
00000250: 935d 37bd cc1e 0bbe bf89 fcbc 75c6 7abd
00000260: debb 6cbd bbc9 463d b1ca 323d e6b5 aebd
00000270: 8b2d adbd 93bd 063d bcde 4c3d 7f0d a13c
00000280: 3525 e73d 8c92 913d ad4e bb3d 1ac8 383e
00000290: 42e0 8cbb c159 5e3d 4e7c 38bd 70b6 e1bd
000002a0: 392b 3c3c ea99 e2bb 33c8 953c c56f af3c
000002b0: 47b2 b1bd 1a03 87bc 3fe8 65be d350 9d3d
000002c0: 4738 5fba 6b32 2dba 664c 6abd efe0 4fbd
000002d0: c429 b1bd 656d c23c 3344 4ebd 3818 c5bd
000002e0: 88b9 f3bc 0fb9 813d ffa9 543e 7b8a 3e3e
000002f0: 5607 b33d 36d0 f83d 429a 09bd 49ff 31bd
00000300: 3f1a 4b3d c9eb 44bc 30c4 0a3e 0d06 163d
00000310: 546a 90bb 983b e73a c845 153d 1f31 3b3e
00000320: 8f41 273d 9c18 0fbe 71ab 6ebd d4a7 67bc
00000330: 7fc9 4d3c 1b28 023e ec65 343d 8e95 5ebd
00000340: 7660 0ebd 79ff 833c 8e8a 8cbd 5411 823d
00000350: 7e4e 41bd 7e9c 33bc 4ba7 eabc 95f1 a6bb
00000360: d66c ef3c bbd5 3ebd 7fee c3bd d68b ab3b
00000370: 3da7 cc3c 15cf 82bb 087e 063b 487f a9bc
00000380: e408 16be 1474 f03d 222e 0d3e b2bf 213c
00000390: 532c 073d e3f9 40bd bebe 133e c057 4e3e
000003a0: 1173 293e 004a cd3c fbea 23bd 522c b8ba
000003b0: 5b07 003e 0347 343e 73ad 6b3d 85a1 4c3c
000003c0: b67e 113d d6f2 693d 21ad 5e3d e109 303e
000003d0: e2d5 133d 0e3d 1f3e f4c8 f63d cbad 2b3b
000003e0: f097 083e 51f3 8e3d 7775 0abe e070 13be
000003f0: 977f 0abe 6e35 8e3d b0f3 e93d 43aa fcbc

conv4.bias f4 [16]
-0.044224728 0.2404238 -0.12770772 -0.21383034 0.1445108 -0.16410351 0.19296785 0.046511438
-0.16702922 -0.17838138 -0.06716652 -0.05636514 0.09854082 -0.18647243 -0.021136928 0.13572249
00000000: fd24 35bd a831 763e d0c5 02be 57f6 5abe
00000010: a4fa 133e c00a 28be 5d99 453e c782 3e3d
00000020: b509 2bbe 9ca9 36be 9a8e 89bd 22df 66bd
00000030: c5cf c93d a1f2 3ebe 5a27 adbc d6fa 0a3e

prediction_layer.weight f4 [10, 1024]
-0.031089196 -0.08210525 -0.12115925 -0.05116176 -0.02270742 -0.13118103 -0.066305086 -0.042791523
0.15339258 0.041047502 -2.5574403e-05 -0.06786822 -0.118586294 -0.11781044 -0.0908984 0.009687852
0.0046101394 0.031073341 -0.043037545 -0.08462074 -0.110779226 -0.056560468 -0.06785391 0.07289794
0.07689205 0.019123835 0.06997934 -0.08595021 -0.025594415 -0.10675466 0.061433166 0.03200295
0.08534315 0.013830561 0.090810746 0.075702794 0.057060063 0.11626052 0.042961888 -0.004088252
0.01508435 0.040407147 0.12336712 -0.07170603 0.048050147 0.24263027 -0.005220697 -0.098410085
-0.020963332 0.03640113 0.06858749 -0.019775085 0.08048657 0.09661396 0.0713718 0.0062808925
-0.05559619 -0.05417405 -0.02341132 -0.06531416 -0.034944586 0.07098694 -0.016172994 -0.07259592
-0.10501603 0.003231223 0.02033232 -0.003985954 0.07125964 0.038227033 -0.1383438 -0.21251082
-0.027363578 0.11612843 0.016405629 -0.060393233 0.05461791 0.05763801 -0.033673517 0.03293163
-0.04907928 -0.0026533003 -0.04747671 -0.09198732 -0.022724006 -0.007837491 -0.05097131 0.102387294
0.05529408 -0.075996816 -0.16139239 -0.19457254 -0.07428735 -0.06840911 -0.038646385 0.16566423
0.026974935 -0.0037497703 -0.09007361 -0.25719264 -0.009580623 -0.009710048 -0.037985757 -0.010879158
-0.0302479 -0.040980563 -0.19830209 -0.16232826 -0.02364436 -0.032842837 0.0004210997 -0.09549623
-0.0367706 -0.0048936745 -0.17621937 -0.13805145 0.006448522 0.037238453 -0.048094217 -0.07746072
-0.16192956 -0.01576711 -0.027327903 -0.10018631 -0.15935345 0.021500267 0.05995565 0.037673153
-0.05074078 -0.069424756 -0.05952908 0.02303981 0.07767088 -0.0684968 -0.02231246 -0.025930397
0.12598516 0.12570979 -0.008020965 0.12984124 0.17213695 0.13607919 0.11543392 -0.013850694
0.01632606 0.12084189 -0.014783601 0.08465136 0.036285486 0.01860379 0.10694824 0.09202143
0.063934356 0.1406922 0.051960964 0.009505248 0.109180935 -0.0814708 0.0292292 0.05072945
-0.14451371 0.022386786 -0.051592976 0.07222695 0.03762163 -0.05175142 -0.069912285 -0.100818016
0.11515085 0.06991559 -0.06286761 -0.033701804 0.016743444 -0.08762086 -0.06801909 -0.14477047
0.10666586 -0.09177443 0.038207203 -0.015440981 0.03087687 -0.01577637 -0.0383344 -0.089855306
0.15540977 0.04649949 0.013648536 -0.13305959 0.04920935 -0.041573144 -0.1001482 -0.18807274
-0.062369023 -0.17792475 -0.13295835 -0.032866493 -0.10153377 -0.09275869 -0.08168433 0.048421454
0.09605443 -0.0807555 0.0048486097 -0.15692167 0.012441977 0.031131662 0.0632874 0.24661
-0.005426514 -0.08942249 -0.0013396677 -0.14026661 -0.10962735 0.017832926 0.16651171 0.12405471
0.09719942 0.039539706 0.059160773 0.022007661 -0.093532905 -0.032263175 0.1465565 0.18923089
0.07290427 0.0069852867 0.03335493 -0.018274661 -0.10786776 0.078841105 0.19918865 0.13612258
0.073190354 0.118532605 0.044717487 0.010149472 0.051704794 0.10607767 -0.006609341 -0.048416816
-0.04589989 0.14147776 -0.004326485 -0.008364094 -0.005256825 0.06190583 0.024008889 -0.052993238
-0.005457699 -0.021269372 -0.14895758 0.0044918824 0.056133203 0.0757474 -0.07938735 -0.11326007
00000000: c5ae febc cc26 a8bd 5722 f8bd fe8e 51bd
00000010: e904 babc 5254 06be f6ca 87bd 2a46 2fbd
00000020: f212 1d3e 6d21 283d 9d88 d6b7 7efe 8abd
00000030: 5fdd f2bd 9a46 f1bd f128 babd ccb9 1e3c
00000040: a710 973b 858d fe3c 2348 30bd a34d adbd
00000050: 38e0 e2bd f3ab 67bd fef6 8abd 844b 953d
00000060: 9479 9d3d 97a9 9c3c 5451 8f3d aa06 b0bd
00000070: 61ab d1bc 30a2 dabd 58a1 7b3d 8615 033d
00000080: 64c8 ae3d 9499 623c fcfa b93d 110a 9b3d
00000090: d0b7 693d ff19 ee3d cef8 2f3d bef6 85bb
000000a0: 5924 773c f781 253d e7a7 fc3d 9cda 92bd
000000b0: 3bd0 443d 1274 783e 6112 abbb 3a8b c9bd
000000c0: 4bbb abbc 5a19 153d 9977 8c3d 5cff a1bc
000000d0: 25d6 a43d 8add c53d 612b 923d f2cf cd3b
000000e0: d5b8 63bd 9ce5 5dbd 19c9 bfbc 6ec3 85bd
000000f0: 0e22 0fbd 9a61 913d 3a7d 84bc 2bad 94bd
00000100: a512 d7bd edc2 533b f78f a63c 9b9c 82bb
00000110: 93f0 913d f393 1c3d ffa9 0dbe 709c 59be
00000120: 9529 e0bc bed4 ed3d 1965 863c e55e 77bd
00000130: 08b7 5f3d d515 6c3d 3eed 09bd 51e3 063d
00000140: 5b07 49bd fee2 2dbb f076 42bd d963 bcbd
00000150: b227 babc d268 00bc 4bc7 50bd 6eb0 d13d
00000160: 0c7c 623d 38a4 9bbd 0c44 25be 063e 47be
00000170: f723 98bd 131a 8cbd ac4b 1ebd e2a3 293e
00000180: 8afa dc3c b5be 75bb 8378 b8bd c1ae 83be
00000190: 0cf8 1cbc e516 1fbc f496 1bbd 7f3e 32bc
000001a0: 72ca f7bc 3cdb 27bd b40f 4bbe 6139 26be
000001b0: d1b1 c1bc 3686 06bd 0cc7 dc39 8793 c3bd
000001c0: c59c 16bd 1e5b a0bb da72 34be 5c5d 0dbe
000001d0: 204e d33b 5987 183d 71fe 44bd baa3 9ebd
000001e0: ddd0 25be 072a 81bc c4de dfbc 7b2e cdbd
000001f0: 8d2d 23be 5421 b03c 0e94 753d 2a4f 1a3d
00000200: 90d5 4fbd 912e 8ebd c4d4 73bd fcbd bc3c
00000210: e911 9f3d 0d48 8cbd 9fc8 b6bc fc6b d4bc
00000220: 4102 013e 11ba 003e 5e6a 03bc 1af5 043e
00000230: ab44 303e 5858 0b3e 9e68 ec3d 05ee 62bc
00000240: 3bbe 853c f47b f73d eb36 72bc b15d ad3d
00000250: 17a0 143d fa66 983c ae07 db3d bb75 bc3d
00000260: 04f0 823d 9e11 103e 05d5 543d e6bb 1b3c
00000270: 419a df3d 2ada a6bd 1372 ef3c afc9 4f3d
00000280: 67fb 13be 7e64 b73c 2853 53bd b9eb 933d
00000290: 2319 1a3d 4cf9 53bd 2c2e 8fbd ad79 cebd
000002a0: 35d4 eb3d e82f 8f3d bcc0 80bd e70a 0abd
000002b0: 8c29 893c 9172 b3bd 984d 8bbd b63e 14be
000002c0: a173 da3d 3bf4 bbbd 287f 1c3d 2bfc 7cbc
000002d0: 7df1 fc3c 723d 81bc 8804 1dbd 0f06 b8bd
000002e0: bd23 1f3e 4076 3e3d 1c9e 5f3c c640 08be
000002f0: be8f 493d 9a48 2abd 801a cdbd 2496 40be
00000300: a976 7fbd e831 36be 3c26 08be 049f 06bd
00000310: f0f0 cfbd 45f8 bdbd 1d4a a7bd 9355 463d
00000320: 2fb8 c43d 2463 a5bd 16e1 9e3b 13b0 20be
00000330: 6fd9 4b3c d407 ff3c d39c 813d 5587 7c3e
00000340: e6d0 b1bb 2323 b7bd ca97 afba 0da2 0fbe
00000350: 4e84 e0bd 5b16 923c 0c82 2a3e 6510 fe3d
00000360: 7d10 c73d 63f4 213d 9152 723d 6949 b43c
00000370: 2e8e bfbd 6426 04bd e812 163e bec5 413e
00000380: d54e 953d d5e4 e43b 2e9f 083d beb4 95bc
00000390: c6e9 dcbd 7277 a13d 1cf8 4b3e b863 0b3e
000003a0: d3e4 953d 39c1 f23d af29 373d f949 263c
000003b0: 68c8 533d 403f d93d 2c93 d8bb b650 46bd
000003c0: 8601 3cbd 8cdf 103e 30c5 8dbb 8e09 09bc
000003d0: 7241 acbb f890 7d3d 4aae c43c 700f 59bd
000003e0: 7fd6 b2bb 1b3d aebc 5688 18be a430 933b
000003f0: eeeb 653d 7421 9b3d d695 a2bd e5f4 e7bd

prediction_layer.bias f4 [10]
-0.0009417267 -0.11515695 0.081173524 0.11438481 0.12941514 -0.059507 0.023337575 -0.11782691
0.04608191 -0.12791096
00000000: 36de 76ba 68d7 ebbd 4e3e a63d 9542 ea3d
00000010: 6785 043e 9dbd 73bd 712e bf3c 3c4f f1bd
00000020: 63c0 3c3d 17fb 02be
