Homeworks/HW1/mlp_1-model.pt (torch, 82551 bytes, 8 tensors)

conv1.weight f4 [16, 1, 3, 3]
000000 dd b6 cd 3e 6d 92 f4 3e 10 b9 a3 be f2 98 ac 3e
       0.40178576 0.47767964 -0.3197713 0.33710438
000010 63 77 2f bc 45 33 b5 be ae 75 1e bd de 87 ab be
       -0.010709616 -0.35390678 -0.038686447 -0.33502096
000020 13 f2 9e be 93 18 ec be a4 24 4d 3e 61 d4 65 3e
       -0.31044063 -0.461125 0.20033509 0.22444297
000030 a5 68 f2 ba ac 0b 3f be f0 03 ad 3d b6 fc 98 3e
       -0.0018494321 -0.18656796 0.08448017 0.29880303
000040 39 80 6c bc 68 6c 2c be 94 f0 83 be 68 6b bf be
       -0.014434868 -0.16838229 -0.25769484 -0.37386632
000050 99 55 58 be eb 98 89 3e cc 6a b4 3d 6c bb 3a 3e
       -0.21126403 0.2687448 0.088094324 0.18235558
000060 fc 83 64 3e af ce 15 bd 96 ed 8b 3d 72 b0 8f be
       0.22315973 -0.036574062 0.06832425 -0.28064305
000070 1f 49 fb be c2 d1 79 3e 54 fc c6 3e 9e f3 ad bd
       -0.49079224 0.24396423 0.38864386 -0.08493732
000080 be 0c ad 3e 1f 19 32 3e 19 9f 9b be 51 92 a3 bc
       0.33798784 0.17392395 -0.3039482 -0.01996723
000090 9a 4c a7 be c2 c2 12 be 7f 0b e0 bd 12 4f 9d 3d
       -0.3267563 -0.14332107 -0.10939693 0.07681097
0000a0 7f fa 9f be 5a bb f8 3c d4 6f 4c be a7 fc 0f bc
       -0.312458 0.030362774 -0.19964534 -0.008788264
0000b0 09 16 96 3e 74 85 31 3b 94 e8 fa be 4d a5 64 3e
       0.29313686 0.00270876 -0.49005568 0.22328682
0000c0 11 41 36 3d f6 d1 92 be cd 76 98 3e cf d9 af 3e
       0.044495646 -0.28675812 0.29778138 0.34345862
0000d0 66 21 2b be 55 23 33 3e 9f 9d e7 3c a2 db 64 3d
       -0.16711959 0.17493947 0.028273402 0.05587352
0000e0 a3 aa 57 3d 0f 07 1e bb 28 fa 7b be 0e d3 39 bd
       0.052652966 -0.0024113094 -0.24607146 -0.045367293
0000f0 fa 20 96 be 43 1d bc bd 8b 3e 06 3f df d6 1d 3e
       -0.29322034 -0.09185269 0.52439183 0.15413998
000100 7d 19 ba 3e bb f9 31 be 55 c6 f6 be 42 7c ba 3e
       0.3634757 -0.17380421 -0.4819819 0.36422926
000110 49 f6 dc be e0 63 9d 3d a5 fb 3f 3e 40 db 21 bd
       -0.4315665 0.07685065 0.18748339 -0.039515734
000120 74 ca db bc 88 2b ff bc 7c dd 6a bd a8 a7 ca 3e
       -0.026829936 -0.031148687 -0.05734013 0.39581037
000130 b8 5e 6a 3e c4 71 18 be 91 2c b6 3e 73 b5 ef be
       0.22887695 -0.14887148 0.35580876 -0.46818122
000140 8d d0 a4 be a6 b6 c3 bd fe 96 9e 3d 7b fe 43 be
       -0.32190362 -0.09556322 0.07743643 -0.19140045
000150 64 4a 82 be 8f 51 0e be 58 41 93 3e 9f 85 5d be
       -0.2544738 -0.138983 0.2876079 -0.21633004
000160 6b 89 cc 3e ee ba 36 be 20 e6 39 bc 49 c3 6c 3e
       0.39948592 -0.17844746 -0.01134637 0.2312137
000170 9d 9d 66 3e 9a aa 37 3e 1d ad ce be ae 3c 05 3e
       0.22521062 0.17936173 -0.4036645 0.13011429
000180 7d 3b 64 3e a9 9d 22 be 94 58 c5 be 06 8a 73 3d
       0.22288318 -0.15880455 -0.38544142 0.0594578
000190 be 6e a7 3c 0c e7 d9 bc 6c fb 8c 3e 6a a7 87 3e
       0.020438548 -0.02659943 0.2753557 0.26494914
0001a0 b3 3d cd 3d b1 e6 a2 be e1 94 89 bb 31 1e 91 bd
       0.10021534 -0.3181663 -0.004198656 -0.07085837
0001b0 b8 f2 46 3e 80 95 83 3e 10 be 2d 3e df 61 cb be
       0.19428527 0.25699997 0.16967034 -0.39723107
0001c0 13 40 17 bd f2 4f ad 3e 01 ee ad be 60 25 a7 bc
       -0.03692634 0.33850056 -0.33970645 -0.020403564
0001d0 95 c8 5c be 8d 2d 81 3e 3c c4 29 be a9 79 9a bd
       -0.21560891 0.25230065 -0.16578764 -0.07542736
0001e0 ee 36 57 be 26 e7 4e be 11 54 b1 be a5 82 bd 3e
       -0.21017048 -0.20205364 -0.3463445 0.37013736
0001f0 91 08 09 3e d0 35 10 3e 40 60 94 be 16 e2 c8 3e
       0.13382174 0.14083028 -0.28979683 0.3923499
000200 55 4b d5 bd ae 01 fa be c5 56 b4 3e 01 16 91 3e
       -0.10414759 -0.48829406 0.3522245 0.283371
000210 45 25 67 bc bd e9 17 be a5 ba d2 bc de 79 65 3e
       -0.014108007 -0.14835258 -0.025723765 0.2240977
000220 29 7c a6 3e 3d 6c 43 be 27 64 d6 be a0 42 8b be
       0.32516602 -0.19084258 -0.41873285 -0.27199268
000230 72 2a d1 3d 33 82 a3 3e d1 4c 53 be d7 bc 2a 3e
       0.10213174 0.31935272 -0.20634772 0.16673599

conv1.bias f4 [16]
000000 64 d1 bd bd 6e 73 da 3c b9 c8 81 3d 28 c1 27 3d
       -0.09268454 0.02666637 0.06337113 0.040955693
000010 08 cd ba be d4 0d e5 bd af cb f6 bb 11 81 98 3d
       -0.3648455 -0.11184278 -0.007531605 0.074464925
000020 4c 02 6b 3d eb 6e 59 bd 7b 38 97 3c 55 4f 1a be
       0.057375237 -0.053084295 0.01845955 -0.15069325
000030 2b 13 e0 3d 38 1f cb bd 92 66 3e bc fb 4a 67 3d
       0.10941156 -0.09918064 -0.011621134 0.05646799

conv2.weight f4 [8, 16, 5, 5]
000000 85 59 39 bc 35 b3 0b 3d f2 01 01 3d 57 55 27 bd
       -0.011312847 0.034106452 0.031495996 -0.04085287
000010 16 ec a9 ba 99 9f 08 bd 59 9b 48 bd 45 94 09 3e
       -0.0012964036 -0.03335533 -0.048976276 0.13435467
000020 fd 45 34 be 15 70 67 bd 9d 8e 3e bd 51 8d 03 bd
       -0.17604823 -0.056503374 -0.046522725 -0.03211719
000030 8b 1f 8a be 1e 20 94 be b6 63 ec bd 3c f5 6c 3d
       -0.2697719 -0.28930753 -0.11542456 0.05785106
000040 ae 33 b8 bc ea 43 b3 be f8 29 a9 bd 2a 53 ad bd
       -0.02248558 -0.35012752 -0.08259958 -0.08463128
000050 79 4d 66 3d 40 47 78 3c f0 cd 23 be 63 a7 8f bd
       0.056226227 0.015153706 -0.15996528 -0.07014348
000060 5e 29 af 3c 9e c7 f6 3b f2 65 46 3d c2 ea e1 bd
       0.02138203 0.0075311204 0.048437066 -0.110311046
000070 43 5f 40 3d b7 5b c1 3d 84 1e 71 3c 3f 91 10 3c
       0.04696585 0.09441321 0.014716748 0.008823692
000080 a0 61 5d bd f2 2b 96 bc 61 e5 18 3d b0 2b 2d be
       -0.05404818 -0.018331502 0.037328128 -0.16911197
000090 51 22 a3 bb de 94 80 3d e3 47 19 be 1a eb e3 3b
       -0.004978456 0.06278394 -0.14968829 0.0069555165
0000a0 d9 65 49 bd ab ae 06 bd 37 56 aa 3c 90 e6 8f bd
       -0.049169395 -0.03288142 0.020793064 -0.07026398
0000b0 b9 9b a2 bc 08 6a 95 bd ad fa a8 bd f7 df b4 3d
       -0.019849645 -0.072956145 -0.082509376 0.088317804
0000c0 2c 37 17 bd d5 04 e8 bd 5b e9 4e 3d d3 25 9d 3d
       -0.03691785 -0.11329047 0.050515514 0.0767323
0000d0 d2 75 39 bd d5 25 45 bd ca ca 83 bc 34 95 bd 3d
       -0.045278378 -0.048131783 -0.016087908 0.09256974
0000e0 c7 7e bf 3d 92 fd 95 3a f6 e2 13 3d 8b ea ba 3b
       0.09350353 0.0011443368 0.03610512 0.005704229
0000f0 f9 7a 67 3d 98 af e4 3d 8a a6 67 bd 1b 4f ad bd
       0.05651376 0.11166304 -0.05655531 -0.08462354
000100 30 89 ef ba af 5c a8 bc 61 33 9a bc e1 b1 cc bd
       -0.0018275138 -0.020552007 -0.018823327 -0.09994865
000110 9f e4 c5 bd d8 8d 2a bd 91 16 6b 3c bc a3 5b bc
       -0.09662747 -0.04163918 0.014348642 -0.013405737
000120 4d 4a 19 bd ca b2 f7 bc 3e c8 73 3c 9e 6c e4 bd
       -0.037424374 -0.03023662 0.014879284 -0.111535296
000130 a6 b1 e2 3c 25 31 63 bd 41 98 5e 3d 5d e6 b4 3d
       0.0276726 -0.05546679 0.05434442 0.08833001
000140 36 59 36 be 64 d9 64 3e 82 4b 99 bc af 55 1e bc
       -0.17807469 0.22348553 -0.018712763 -0.009663983
000150 92 64 ef 3d 99 cc 3e be 64 a6 49 3e 19 37 7f bd
       0.11689104 -0.18632735 0.19692379 -0.062308405
000160 b3 4d 1a be bc 6d 36 3e 71 a0 80 be 88 af 1e 3e
       -0.15068702 0.17815298 -0.25122407 0.15496647
000170 88 66 b6 bd c3 76 62 be 93 8e 10 3e d6 cc bf bd
       -0.08906275 -0.22115617 0.14116888 -0.09365241
000180 96 a2 df 3d b9 bc ab bd 98 79 92 3c 5f ef 8b 3d
       0.10919683 -0.08385605 0.017880246 0.06832766
000190 ff 44 cf bd ac 87 a6 3b 59 92 ad 3d 78 0e 3e bd
       -0.10120582 0.0050820913 0.08475179 -0.046400517
0001a0 33 b3 e5 bd bf 9f e1 bd fa 88 b6 3d 08 fa ad 3d
       -0.1121582 -0.11016797 0.08912845 0.08494955
0001b0 5b 10 f1 bd fa 98 bc bd 97 ad f3 3c b0 f8 45 3e
       -0.11770698 -0.092088655 0.02974586 0.19333148
0001c0 e6 f6 38 3e 9e 4d 11 be 56 15 62 bd cc c2 17 bd
       0.18062934 -0.14189765 -0.05519613 -0.037051007
0001d0 1d 09 fb 3d 61 3e e7 3d a3 1c 4d bd 91 da fb bd
       0.122575976 0.11291195 -0.05007614 -0.122975476
0001e0 ab 05 87 3d 39 c0 2a 3d 68 6f e3 3d a2 f9 e3 3b
       0.06592878 0.041687224 0.111052334 0.006957249
0001f0 d4 d2 51 bd 36 97 17 3d f5 d6 24 be 6d eb c0 3b
       -0.051226452 0.03700944 -0.16097625 0.00588744
000200 97 50 9a 3d 9f 6e 2b bd 71 d8 db bd 1a 7d 80 bd
       0.075349025 -0.041853543 -0.10734642 -0.06273861
000210 7f d9 8b bd 16 d5 aa 3d 32 62 7e 3d 5c 2d 68 be
       -0.068285935 0.08341424 0.062105365 -0.22673553
000220 f8 a1 15 bd 99 e5 f8 bd a2 53 18 bd 89 b4 fd 3c
       -0.03653142 -0.12153167 -0.037189133 0.030969875
000230 5d 23 16 bd e1 0a 23 be a6 63 47 be d5 f9 e0 3d
       -0.03665482 -0.15922119 -0.19471607 0.10985152
000240 d7 38 04 bd 54 ba 80 3d 32 1a a3 bc cd 70 cc bd
       -0.03228077 0.06285539 -0.019909952 -0.099824525
000250 e6 bd 7b 3e 98 2d cf bd 83 23 5b be ec 7b bf 3d
       0.2458416 -0.10116118 -0.21400265 0.09349808
000260 cf 3d 57 3d 52 43 7e be d1 42 7d 3b d3 26 52 be
       0.05254918 -0.24830368 0.0038644562 -0.20522623
000270 9c b0 3c 3e 70 31 e8 3d 00 8b 18 be 00 6c 14 bd
       0.18426746 0.113375545 -0.14896774 -0.03623581
000280 eb a3 8a 3b 03 85 5a 3e d3 d6 43 bd 6c d3 eb bd
       0.0042309663 0.21339802 -0.047812294 -0.11514935
000290 ff 16 b5 3d ca 01 8f bd c3 b7 df 3d 06 c3 d7 bd
       0.08842277 -0.06982763 0.10923722 -0.10535245
0002a0 26 70 14 be 60 ab f9 bb 6e 4f 89 bb 94 8d 99 3d
       -0.14495906 -0.0076193064 -0.004190377 0.07497707
0002b0 e0 c6 a4 bd f7 dc 7f bd 54 69 db bd 31 bc 23 3b
       -0.08045745 -0.062466588 -0.10713449 0.0024983997
0002c0 87 5b a3 bd 41 23 78 bd 06 2c 08 3e ea 28 15 3b
       -0.07976442 -0.060580496 0.13298044 0.0022759982
0002d0 6e 42 36 3e 7a 8d 5d be 84 47 d6 3b e6 55 29 3e
       0.17798778 -0.21636 0.006539287 0.16536674
0002e0 47 16 db bd d5 a0 92 3e 37 21 9e be 23 03 1b 3e
       -0.106976084 0.2863833 -0.30884716 0.15137915
0002f0 7a 45 31 3e 52 08 85 bd 05 e9 33 3e f0 f8 74 be
       0.1731166 -0.064957276 0.17569359 -0.23923087
000300 75 96 84 3c 16 52 32 3d a4 aa cf bd 67 19 3d 3d
       0.016185025 0.043535315 -0.10139969 0.046166804
000310 39 63 4b be 6f 4c bf bd f2 68 5b 3d f9 6a 76 bd
       -0.19862069 -0.093407504 0.05356688 -0.06016061
000320 aa 89 06 bd 5a 8c 00 3e b5 72 d4 be 84 12 03 be
       -0.03284613 0.1255354 -0.41493765 -0.12800032
000330 0d 29 49 3e 8e 2e f6 3d b3 d1 3e 3e 75 6b 7d bf
       0.19644566 0.12020598 0.18634681 -0.9899209
000340 8b 03 88 bd cc 4e 7b 3e 04 9c 6a 3e 49 bd 76 3e
       -0.06641301 0.24541777 0.22911078 0.24095644
000350 4d 03 12 bf 5e b5 1e 3e 57 d6 46 3e 2e db e2 3d
       -0.57036287 0.15498874 0.19417702 0.110769615
000360 28 b8 87 3d 35 df c1 be da 07 07 3d ac 29 86 3d
       0.06626922 -0.37865606 0.032966472 0.06550917
000370 d9 14 07 3d 67 d1 1a bd fd 02 4c be c1 f5 c5 bd
       0.032978866 -0.037797358 -0.19923015 -0.096660145
000380 96 6e ed bc 2a 79 94 3d 3b 07 47 bc b3 68 88 3d
       -0.028983396 0.07249673 -0.01214772 0.06660595
000390 e9 5c b4 3c 97 b2 b5 bd d5 88 b8 3d 7c d3 0d bc
       0.02201696 -0.08871954 0.09010474 -0.008656379
0003a0 b1 e9 a2 3d eb 70 a6 3c 66 e1 d2 bd fe 28 95 3d
       0.07954729 0.020317515 -0.102968976 0.07283209
0003b0 4f ee 41 3d cb ca 1b 3e de a0 ba bc 2e fd b5 bd
       0.04734641 0.15214078 -0.022781786 -0.08886181
0003c0 3c 1e 0e 3d 05 3f 37 3d 49 a7 c1 3d 47 9e b6 bc
       0.034696802 0.044737834 0.09455735 -0.02229227
0003d0 dc c4 95 bd e3 cd a5 3d 83 dd c3 bc 31 9e e6 3b
       -0.073129386 0.080959104 -0.023909336 0.007037901
0003e0 1b b5 45 bd 54 8f 22 bd 61 ec 92 bd 9c c8 71 bd
       -0.04826842 -0.03968747 -0.07173992 -0.059029207
0003f0 26 8e 05 be ed 76 0d 3e b7 a9 c6 3d e9 6a 0e be
       -0.13042507 0.13814898 0.09700339 -0.1390797

conv2.bias f4 [8]
000000 5f 85 3f 3d 50 c5 cc bb e1 ec 6d 3d 05 45 ae bc
       0.046758052 -0.0062491074 0.058087233 -0.021273145
000010 3d 2d 44 3b 42 69 5a 3c 17 65 31 3e 06 a4 40 bb
       0.002993419 0.0133307595 0.17323719 -0.002939464

conv3.weight f4 [16, 8, 7, 7]
000000 a4 40 5e 3d 88 4a 0b 3e 19 e2 da bc c4 6d 3b 3e
       0.054260865 0.1360265 -0.02671914 0.18303591
000010 b1 59 83 bb a1 56 cc bd 0c c6 89 3d 2e eb a8 bc
       -0.004008495 -0.09977461 0.067272276 -0.020619955
000020 c9 9d 33 3e a2 01 65 be 77 34 e8 3d 62 de da 3c
       0.17540659 -0.22363904 0.11338132 0.026717369
000030 20 5a 1b bd f6 8c 03 3d 8f 1f 8d bc 3d 13 e7 3d
       -0.037927747 0.032116853 -0.017226962 0.11282966
000040 11 13 13 bd ff 0b c3 3d 80 b9 0a 3d da b5 c6 3d
       -0.035906855 0.095237724 0.033868313 0.09702654
000050 21 ef f5 bb 74 a4 2f bd 47 31 2e 3b 0b 3d 22 3d
       -0.007505313 -0.042881444 0.0026579665 0.039608996
000060 0c db 09 3c bb d0 07 3d c5 44 f8 3c 8b ec a8 3c
       0.008414041 0.033158045 0.03030623 0.020620605
000070 ce 6f ec bd b1 9e 15 be 77 f2 8e bc 82 ea 6f be
       -0.115447626 -0.14611317 -0.0174496 -0.23429301
000080 fc 48 94 bd 9e 2f d0 3c 84 37 42 b8 5c a9 dd 3d
       -0.07240483 0.02541333 -4.6304907e-05 0.10823318
000090 78 48 29 bc 2f 37 3b 3e 71 45 60 be 72 50 cd bc
       -0.010332219 0.1828277 -0.2190149 -0.025062773
0000a0 46 dd bd 3d b6 03 db 3d 6e 0c 77 3d b2 61 33 bb
       0.0927072 0.10694067 0.06031459 -0.0027371463
0000b0 5b dd 62 3e e9 0b 98 bd e4 9a 28 3d 9e 40 28 3d
       0.22154753 -0.07424147 0.04116334 0.04107725
0000c0 16 b8 d4 3d 96 16 d5 3c 6c dc aa 3d 94 32 65 3d
       0.10386674 0.026011746 0.083428234 0.05595644
0000d0 2e 5b d4 3d f0 1f 85 bc 44 28 6a bd ae 19 7e 3c
       0.10368954 -0.01625058 -0.057167307 0.015509052
0000e0 1f 9e af 3d 62 7e ae 3c 73 fd 74 bc be 29 bf 3d
       0.08575081 0.021300498 -0.014953005 0.093341336
0000f0 c8 01 89 3d a6 37 00 3e 9b de 4d 3d e6 4c 00 3d
       0.06689793 0.12521228 0.05026112 0.031323336
000100 35 a3 32 3d 47 d7 7c 3e bf 1c 4f 3e 30 8e b6 bd
       0.043612678 0.24691497 0.2022581 -0.08913839
000110 90 15 2e bc 31 bf 20 bd bb d3 14 bc f5 50 11 3e
       -0.010625258 -0.039244834 -0.009083684 0.14191039
000120 1a 1a 0f bd 6c ef 0e bc 0b c9 7b bd 44 4c e5 bd
       -0.034937 -0.008724075 -0.061471026 -0.11196187
000130 79 2b 85 3d 49 ca 92 3d 5f 71 f4 3d 18 ce 0f 3e
       0.065024324 0.07167489 0.11935686 0.14043462
000140 30 a4 d5 3d e9 f0 af 3c 38 ec 29 3c 27 e9 01 bd
       0.10431707 0.02147718 0.01037126 -0.031716492
000150 4a 85 1f be 3d a9 4d be ab 24 c5 bd 96 a0 90 3b
       -0.1557819 -0.2008409 -0.096261345 0.0044136746
000160 22 88 e1 bd 24 3d 76 be cd 29 83 be 47 c6 d1 3e
       -0.110122934 -0.24046761 -0.2561783 0.40971586
000170 a6 47 19 3e 0f 6d 1d 3e e8 58 a1 3d 15 15 60 3d
       0.14968738 0.15373634 0.07878286 0.054707605
000180 fa 5f ff 3d ef 89 41 3d 48 09 80 bd 93 d8 3d bd
       0.12469478 0.047250684 -0.0625177 -0.04634912
000190 3d 36 b2 3d dd 2c 8a 3d 7d dd a4 bd a3 7d a5 bd
       0.087017514 0.06746838 -0.08050058 -0.08080604
0001a0 6a 20 61 bd 1f 58 87 bc ed a8 87 bd bd 0c db bc
       -0.054962553 -0.016521512 -0.06624017 -0.026739473
0001b0 3d a0 6b 3c aa 3b 79 bd 0d ed 7b 3d 73 cf dd bd
       0.0143814655 -0.060847916 0.061505366 -0.108305834
0001c0 78 a9 6d 3d 52 b6 03 be 06 af a5 3d 15 0b 48 3d
       0.058022946 -0.12862518 0.08090024 0.048838694
0001d0 d3 92 7f bd 06 08 e3 3d 13 ae 38 bd 6a bc fd bd
       -0.06239588 0.11085515 -0.045087885 -0.12389453
0001e0 f8 40 8a bd 17 9d 97 bc 9e 89 06 3d 7d 1e 4a bb
       -0.06750673 -0.018507523 0.032846086 -0.0030840926
0001f0 89 7b 92 3d 35 b6 73 bd 7c 95 4f bc 8f c3 84 bd
       0.07152469 -0.059499938 -0.012669917 -0.06482612
000200 82 54 fe bd 83 d6 11 be cf 8d 8d bd 44 d1 6a bb
       -0.12418462 -0.14241986 -0.069118135 -0.0035830298
000210 db 09 82 bd b7 60 6d bd d0 6c 74 bd ca a2 da bd
       -0.06349536 -0.057953563 -0.059674084 -0.10675581
000220 44 77 82 be e1 d4 f9 3b e9 d9 0a be 48 48 1c be
       -0.25481617 0.007624254 -0.13559689 -0.15261948
000230 85 86 1f 3d be 47 85 3d 3f fe a6 bd c3 1c 83 bd
       0.038946647 0.06507824 -0.08153962 -0.0640197
000240 c5 85 64 bd ff 1a 83 bd 09 c8 a9 bc b1 53 b5 3c
       -0.055791635 -0.064016335 -0.020725267 0.022134634
000250 a5 0b 27 3a 28 44 1a 3c 13 9c 37 bd 2a 89 3a 3d
       0.00063722796 0.009415664 -0.04482658 0.045540966
000260 bf 08 0c 3c 63 23 48 bd f7 4d 54 bd cb 1e bc bc
       0.008547007 -0.048861872 -0.051832166 -0.022963902
000270 92 5e c3 3c 80 fe 8c 3c c3 ce 3b bc fb 5b 82 3b
       0.023848806 0.017211199 -0.01146287 0.00397825
000280 d7 9b 46 bd d5 22 0f bd cd cc 0e 3c 8b 08 2b bb
       -0.048488464 -0.034945328 0.0087158205 -0.0026097621
000290 3f b1 2d bd 4e d5 22 3d d8 02 1c bd 73 d7 4a 3d
       -0.042405363 0.039754204 -0.03808865 0.049521875
0002a0 7b 18 75 3c 04 21 0b bc a1 fe ec 3c d8 4e 13 bd
       0.01495945 -0.008491758 0.02893001 -0.035963863
0002b0 cd 90 5b 3c a7 1c 0c 3d ec ba a4 bb 67 eb d9 3c
       0.013401222 0.034207013 -0.0050271656 0.026601506
0002c0 d5 02 0f 3d 0a 9f 5c 3c 4a 37 35 3d 30 e1 ad 3c
       0.03491481 0.013465652 0.04424218 0.021225542
0002d0 ec 96 2e 3d ea 84 e9 3b 85 9f 10 3c a6 71 78 3d
       0.0426244 0.0071264403 0.008827095 0.06065526
0002e0 6f 8a 8f bc da 07 ba 3c cc 7c 92 3c 77 07 b3 3c
       -0.017522065 0.022708822 0.017881773 0.021854145
0002f0 11 28 09 bd 8a ed f9 3c ef d4 29 bc c1 dc a6 bc
       -0.033485476 0.030508775 -0.010365709 -0.020368936
000300 07 42 03 3d ca a2 d6 39 fd 02 9d bc 59 b2 05 3d
       0.03204539 0.00040938548 -0.019166464 0.03264079
000310 43 0d c8 bb cf 6f 97 bd 48 6c e7 bd 19 e4 7d 3d
       -0.0061050965 -0.07394373 -0.1129995 0.06198511
000320 22 58 79 3c ed 59 5d bd 00 3f e6 3c 1b 6e 8e 3d
       0.015218766 -0.054040838 0.028106213 0.06954595
000330 e3 27 70 3d 39 cb 08 be 26 d7 d6 3d 80 94 d9 bd
       0.05863179 -0.13358773 0.10490255 -0.10624027
000340 0f 50 66 3c c4 4d 09 3d 63 5b 8c 3c 74 a6 9b 3d
       0.014057173 0.03352143 0.01713342 0.07600108
000350 10 95 47 be ab 36 ee 3d 0d 56 0d 3d f7 52 28 3d
       -0.19490457 0.11631521 0.034505893 0.041094746
000360 96 a2 92 3d 9a 8b 1b be 0c a6 8f 3d f9 a6 05 bd
       0.07159917 -0.15189973 0.07014093 -0.03262994
000370 f3 c3 10 3e f8 2d 6c 3d 8b 20 00 ba aa 41 94 3b
       0.14137249 0.057661027 -0.0004887662 0.0045244293
000380 86 76 42 be db 03 9a bc 61 e1 00 be 45 14 04 bd
       -0.18990526 -0.018800667 -0.12585975 -0.032245893
000390 e1 3e 3a 3d 70 b9 71 3c f2 f6 79 bd 7d 77 cf bd
       0.045470122 0.014753684 -0.06102652 -0.101302125
0003a0 44 d1 45 3c 3d 8f 91 bc 20 05 58 be be ff 30 3c
       0.012073819 -0.017768497 -0.21095705 0.010803161
0003b0 d5 84 b2 bd c3 2c 6f bd 4d ac 35 3d d3 7b 62 3d
       -0.08716742 -0.058392297 0.044353772 0.05529387
0003c0 1e 27 e0 ba d0 14 2d bc d0 c7 d7 3c 84 02 8d bc
       -0.0017101502 -0.010564044 0.026340395 -0.017213114
0003d0 a6 eb d5 bd cd d1 1b bc e5 c1 e0 3c ad d7 18 3d
       -0.10445337 -0.00951047 0.027436206 0.03731506
0003e0 04 ba 58 3c dd bb 13 3d 44 5b 10 3d df 70 72 3d
       0.013227943 0.036067832 0.035243288 0.059189674
0003f0 28 a7 70 3d 5d da 1c bd 91 2c c6 bc 26 ed 9e 3d
       0.058753163 -0.038294185 -0.024191173 0.07760076

conv3.bias f4 [16]
000000 4e b1 8a be e5 b0 00 be ae c8 9d 3d b1 27 ff bc
       -0.27088398 -0.1256748 0.07704292 -0.031146856
000010 fe c4 42 3b 60 bb d9 bc e3 cf a4 bd 1c 4c ce 3d
       0.0029719467 -0.026578605 -0.08047464 0.100731105
000020 69 67 15 be 92 1b 71 3e 8e dd d7 3d e7 95 4e be
       -0.14590229 0.23545673 0.10540305 -0.2017437
000030 9c 0d 56 be 50 48 0f be 81 a9 ba bd 7b d0 e0 3b
       -0.20903629 -0.13992429 -0.091143616 0.0068607903

prediction_layer.weight f4 [10, 1024]
000000 5f 0a 06 bc be 16 be 3b 0c b7 c0 3d a2 93 0f be
       -0.008181184 0.005801051 0.094099134 -0.14021161
000010 e7 c3 b9 bc cf da 36 3c 72 d2 a9 3d 83 10 b5 bd
       -0.022676421 0.0111605665 0.082920924 -0.0884104
000020 6b c0 0c be 0f be 97 bd 97 84 11 3e cc c9 78 3c
       -0.13745277 -0.07409298 0.14210735 0.015184831
000030 18 01 ae 3d ae c6 ed bd 0d 1d 22 3e f0 e8 61 3d
       0.08496302 -0.11610161 0.15831394 0.055153787
000040 f1 07 17 be 70 1b da bb c3 4a c9 3d 0e c4 ca bd
       -0.14749123 -0.006656103 0.09828713 -0.09900676
000050 ff fc d5 3d 77 bb 82 bd 7a 00 9f 3d 2c 69 cb 3c
       0.10448646 -0.06383412 0.07763763 0.024830423
000060 0b 10 cf bd 61 45 e5 bd 3c 9b 93 3a 04 7d ba 3d
       -0.10110482 -0.111948736 0.0011261473 0.09105876
000070 c6 77 bb bd 78 b7 59 3d f2 ff 26 bb 54 04 12 be
       -0.09153704 0.053153485 -0.0025482145 -0.14259464
000080 16 91 10 3c 47 42 c5 bb b7 3d 91 bd 8e 91 0f 3e
       0.008823654 -0.0060198638 -0.07091849 0.14020368
000090 e3 0f cb 3d a6 69 95 3c 22 07 1e 3d 40 73 e8 bd
       0.099151395 0.018238854 0.03858102 -0.11350107
0000a0 33 01 eb bc 58 90 ae bc 25 57 56 3e a7 bb 0f 3c
       -0.028687095 -0.021309063 0.2093168 0.008772767
0000b0 fb a1 e7 3d 4a 77 8c 3d c2 23 c9 3d 71 ee 21 be
       0.11310192 0.0685869 0.098212734 -0.15813614
0000c0 c4 da 09 be e1 f8 45 3e 36 2f 07 3d ad fe a3 3d
       -0.13462359 0.19333221 0.03300401 0.0800756
0000d0 e6 aa 05 be 97 c1 4f bd 9a bc 64 3e a4 dc b2 bd
       -0.13053474 -0.05072173 0.22337571 -0.0873349
0000e0 fd 09 49 bc b9 8f af 3c 0d e9 ef 3d 47 ca b4 3c
       -0.012270448 0.021430837 0.11714373 0.02206911
0000f0 42 b8 7a 3c df 8c c9 bd de 65 ec 3c 18 37 07 be
       0.01530272 -0.09841322 0.028857168 -0.1320461
000100 c9 06 cf 3d c2 a8 2b 3d 3e 0f 2b 3e ea 03 65 3e
       0.10108716 0.041908987 0.16705033 0.22364774
000110 d0 49 0f 3d ef 25 23 3e 65 f8 24 3e 40 da f0 3d
       0.034982502 0.1593244 0.1611038 0.11760378
000120 d8 66 d6 bc c9 83 00 3e d6 25 a5 3d 1f 38 25 bc
       -0.026172087 0.12550272 0.08063857 -0.010084181
000130 0a 1f ea bb 1d 85 f4 3c e3 22 33 3e 25 e8 4a 3c
       -0.0071448134 0.02984863 0.17493777 0.012384449
000140 1a c2 1d 3d ab fd 1c 3d b7 c1 14 3d c7 a0 52 3e
       0.038515188 0.038327854 0.036317553 0.20569144
000150 31 19 26 3e 33 ff 75 3d bd 30 89 3d f2 7a 80 bd
       0.16220547 0.06005783 0.06698749 -0.0627345
000160 5c f5 a1 bc 60 8e 2f bb 02 df f2 3d 14 fc 04 3e
       -0.019770317 -0.0026787743 0.118589416 0.12986785
000170 53 f2 fc bc e8 c9 e5 3d ba 12 4a 3d b8 5a 08 3e
       -0.030877268 0.11220151 0.049334265 0.13315856
000180 d1 b1 98 ba 6d fa a4 3d 9c 61 05 bc 6c 00 f3 3d
       -0.0011649673 0.080555774 -0.008140948 0.11865315
000190 8c 6e 6a 3d 54 10 ea 3d 0f 14 5f bc 0a 64 c6 3d
       0.057234332 0.114288956 -0.013615622 0.0968705
0001a0 64 97 dd bd d6 03 12 bc e2 25 d8 3d 3f 20 f5 3d
       -0.10819891 -0.008912047 0.105541006 0.11969041
0001b0 2c 04 83 3e e1 60 11 bb 3f 3a 8b bd b5 c5 a5 3c
       0.2558912 -0.0022182988 -0.06798219 0.020235876
0001c0 f1 89 84 3d c8 aa 86 3d 91 d8 0c 3e b4 0c 39 3e
       0.06471623 0.06575543 0.13754489 0.18071252
0001d0 f1 1d da 3d 30 27 02 3e 90 34 4f 3d d3 77 ce bd
       0.10650242 0.12710261 0.050587237 -0.100814484
0001e0 23 89 55 bd f5 9f 11 3e 5f 68 bb 3d c5 84 4b 3e
       -0.052132737 0.14221175 0.091507666 0.19874866
0001f0 16 cc 3e 3e fe aa be 3d d2 b8 8c 3e 3d f6 d4 3c
       0.1863254 0.09309958 0.27484757 0.025996322
000200 34 bf ba bd 57 11 78 bc 25 2a 8f bd 17 7f bc bd
       -0.091185 -0.015140853 -0.0699046 -0.09203928
000210 8d 9b a7 bd 39 04 77 bd c3 54 a5 bc 88 70 b4 bc
       -0.08183966 -0.06030676 -0.02018202 -0.022026315
000220 da 39 1e 3e 14 41 52 3d 80 b6 df 3b 6a dc a4 39
       0.15451756 0.051331595 0.0068271756 0.0003144474
000230 aa d2 1c bd 52 87 33 3d 98 f5 10 3e 11 71 23 3e
       -0.038286842 0.043830223 0.14156187 0.159611
000240 f0 f7 30 3d b9 e6 cf 3d 07 39 f2 3d f0 10 46 3d
       0.0432052 0.10151429 0.11827283 0.048355997
000250 26 bf ee bc 6a 07 0e 3e c8 62 34 3e ab f0 76 3d
       -0.029143881 0.13870016 0.17615807 0.060288113
000260 6a 55 31 3e 5c e8 13 3e 09 17 bf 3d 81 a3 b2 bc
       0.17317739 0.14444107 0.093305655 -0.02180648
000270 38 62 84 bc 04 32 bd 3d b4 ad 33 3e cf 42 13 3e
       -0.016160116 0.09238055 0.17546731 0.14380954
000280 fe 18 9f bd bf 6d 2f bd c1 b0 1c 3c dc f0 14 3d
       -0.07768439 -0.04282927 0.009563626 0.036362514
000290 9a 54 29 3d 04 b7 41 3e 63 70 45 3d e3 88 dd bd
       0.041340448 0.18917471 0.048202883 -0.10817125
0002a0 92 f3 0e be c2 7b a5 bb 70 a6 f2 bd c9 24 28 3d
       -0.13960102 -0.0050501535 -0.11848152 0.041050706
0002b0 b5 d2 45 3d 62 59 0f 3d 19 d5 f5 3d 71 f2 96 bc
       0.04829665 0.03499735 0.12003536 -0.018426152
0002c0 38 73 8e bd d5 65 de bd e8 e3 18 3d 6e 5c 6e bc
       -0.0695557 -0.10859267 0.037326723 -0.014548404
0002d0 5d 04 18 be dc ef 46 3d 66 9c f6 bc 82 ad 3f 3e
       -0.14845414 0.04856859 -0.030103873 0.18718532
0002e0 1a 86 f9 bd 08 d1 85 bd 1e 3a f4 bd 50 0b fb bd
       -0.12183781 -0.0653401 -0.119251475 -0.12258017
0002f0 78 2a d2 bd cf ea 64 3d 07 05 be 3d 84 c7 83 3e
       -0.102620065 0.055887993 0.09278303 0.25738156
000300 65 4b be 3d b5 45 ff bd cb 07 6f bd 77 7d c2 3d
       0.09291724 -0.124644674 -0.05835704 0.09496587
000310 a7 e0 4a bd 1f a8 0f 3d d9 af 06 3d 16 2f 49 be
       -0.04953065 0.035072442 0.032882545 -0.19646868
000320 ea 50 b6 3d fe cf 27 3d 4a fc 92 bc b6 34 83 bd
       0.08902152 0.04096984 -0.017942566 -0.06406538
000330 97 58 be bd cb d4 8d bd e1 e4 7d bd 3b d3 bf bc
       -0.09294241 -0.06925353 -0.061985854 -0.023416152
000340 40 60 04 bd 60 25 9c bd 3e 61 0f 3d d2 e3 30 3d
       -0.032318354 -0.07624316 0.035004847 0.043186016
000350 af 16 e4 bd 72 3e ae bd d4 37 79 bd b3 9d db bc
       -0.11137139 -0.08508004 -0.060844257 -0.026808595
000360 57 6e 98 3d 69 df e2 bc 8b bc 55 3d 78 19 59 3d
       0.07442921 -0.02769442 0.05218176 0.053002805
000370 8c 42 0b 3d e1 4e b3 3c 15 93 46 3d 1d d5 c6 bd
       0.03399901 0.021888198 0.048480112 -0.09708617
000380 f9 6b aa bd 6b af a2 bc 58 dd 28 bd 18 fe dd bd
       -0.083213754 -0.019859036 -0.041226715 -0.1083948
000390 ec 21 0f 3d 9b 2d 93 3d 6d 0f ef bd 16 6d 75 ba
       0.03494446 0.07186433 -0.11672864 -0.00093622634
0003a0 25 3e 8f 3c b3 5f a1 bd 2e ef 38 3e ae be 63 bc
       0.017485688 -0.07879581 0.1805999 -0.013900442
0003b0 3f 66 1a be 97 dc a6 bd b1 a6 11 3d 00 9a cd bd
       -0.15078066 -0.08147543 0.03555936 -0.10039139
0003c0 e4 42 9f bd 74 e6 ee 3d b5 9a c1 3a f7 58 d4 bc
       -0.0777643 0.11665049 0.0014770838 -0.025921328
0003d0 fe 6e 58 bd 65 9c ac bd a3 da 1b 3e 28 d2 f7 3d
       -0.052840225 -0.084282674 0.15220122 0.12100631
0003e0 c9 0a ee 3d 0b 54 b3 3d 0d d2 19 be 40 d4 ba bd
       0.11623151 0.08756264 -0.15021534 -0.09122515
0003f0 d2 05 00 3e 71 41 f6 bb c8 b0 2a 3e f9 22 1f 3e
       0.1250222 -0.0075151254 0.16668999 0.15540685

prediction_layer.bias f4 [10]
000000 68 51 a5 bd 6a 39 5c be b3 79 b2 3d 47 1a f6 3d
       -0.08072168 -0.21506277 0.087146185 0.12016731
000010 4f 55 1b 3e d9 7b 93 3c ec 3e 50 bd a4 c1 8b bd
       0.15169261 0.018003391 -0.050841257 -0.068240434
000020 6e c5 74 3d 6e 42 1d be
       0.059758596 -0.15357372
