Homeworks/HW1/results/trained_models/cnn_4[scheduled].pt (torch, 88371 bytes, 10 tensors)

conv1.weight f4 [16, 1, 3, 3]
-0.19873153 -0.37206906 0.71503586 0.06571789 -0.87150216 -0.36229113 0.5627353 0.54445237
-0.17952807 0.2870023 0.23560327 -0.21360263 0.19634053 0.4194606 0.22830856 -0.6181588
-0.5168339 0.26030195 -0.08438275 0.022816103 -0.15935875 0.17317356 -0.31566027 0.45637628
-0.09981162 0.20192866 0.5335638 0.15973207 0.2999853 0.22159004 0.043189574 0.29239792
-0.1278309 -0.6622824 -0.4866094 0.07251636 -0.58951825 -0.6881234 -0.14069869 -0.03487304
0.6833721 -0.09957307 -0.0028058216 0.63117105 0.12616298 -0.1686203 0.056082405 0.1012735
-0.15823838 -0.84971225 0.028460799 -0.18339299 -0.4395495 0.73637295 -0.05708951 0.4214464
0.5534702 0.9821261 -1.0574808 -0.5091023 0.14144707 -0.28354475 -0.12265109 -0.12181051
0.012391515 0.24389763 -0.56602544 0.02908783 -0.11740913 0.027785985 0.5509212 0.2620225
0.0930366 -0.3446752 0.19926095 -0.04279735 0.6048652 -0.67752534 0.7568419 0.36309353
-0.9356814 -0.5462539 0.07615919 0.18745847 0.109426364 0.0207434 0.47459805 -0.33548227
-0.054305095 0.3623448 0.18168797 0.41025332 -0.1328979 0.16576414 0.49013442 -0.016704794
0.014738751 0.21821485 -0.4520663 -0.44086602 0.37453842 -0.14118208 0.3012548 0.27561983
0.36135682 -0.124444 -0.654511 -0.18815191 0.15305234 -0.22146444 -0.54235595 -0.4318006
-0.252409 -0.4519497 0.35482717 0.117436714 -0.38617504 -0.4198491 -0.5747638 0.3671351
-0.373091 0.33223715 0.12499832 0.57335323 -0.1427614 0.10747702 -0.15316145 -0.15312383
-0.08592128 -0.115107976 -0.17929766 -0.40475902 0.26895723 -0.2107466 -0.2906222 -0.6723625
0.47835413 0.05638743 -0.90459913 1.052445 0.2327278 -0.11628049 0.08950467 -0.30795273
00000000: 4780 4bbe d67f bebe 970c 373f 1a97 863d
00000010: c41a 5fbf 397e b9be 6c0f 103f 3b61 0b3f
00000020: 35d6 37be f7f1 923e fc41 713e a6ba 5abe
00000030: 7e0d 493e 8ac3 d63e b8c9 693e a83f 1ebf
00000040: 3a4f 04bf 4c46 853e ddd0 acbd d6e8 ba3c
00000050: f12e 23be 6954 313e 399e a1be 27aa e93e
00000060: 096a ccbd 63c6 4e3e a397 083f ce90 233e
00000070: ac97 993e 80e8 623e 8de7 303d 2eb5 953e
00000080: 1ae6 02be 578b 29bf de24 f9be 7583 943d
00000090: abea 16bf db28 30bf 5113 10be 08d7 0ebd
000000a0: 79f1 2e3f f7ec cbbd e0e1 37bb 6d94 213f
000000b0: de30 013e cdaa 2cbe aab6 653d 7b68 cf3d
000000c0: 3e09 22be be86 59bf 9f26 e93c 5fcb 3bbe
000000d0: a20c e1be f082 3c3f b1d6 69bd d3c7 d73e
000000e0: 39b0 0d3f 9e6c 7b3f 885b 87bf 8754 02bf
000000f0: 80d7 103e c72c 91be 7f30 fbbd ca77 f9bd
00000100: c805 4b3c 4dc0 793e 0be7 10bf 9a49 ee3c
00000110: 3374 f0bd 6f9f e33c 2c09 0d3f d027 863e
00000120: f989 be3d 4579 b0be 100b 4c3e 464c 2fbd
00000130: 72d8 1a3f 4d72 2dbf 64c0 413f 65e7 b93e
00000140: d188 6fbf 4cd7 0bbf 59f9 9b3d 1df5 3f3e
00000150: ee1a e03d 10ee a93c 84fe f23e 55c4 abbe
00000160: 056f 5ebd 4285 b93e 690c 3a3e b90c d23e
00000170: 6316 08be 13be 293e e6f2 fa3e 7ed8 88bc
00000180: cd7a 713c b773 5f3e 3c75 e7be 31b9 e1be
00000190: 80c3 bf3e 0992 10be 123e 9a3e 0b1e 8d3e
000001a0: c303 b93e 7fdc febd 088e 27bf e5aa 40be
000001b0: c1b9 1c3e 93c7 62be d7d7 0abf f814 ddbe
000001c0: c13b 81be f365 e7be e8ab b53e a982 f03d
000001d0: bcb8 c5be 76f6 d6be b823 13bf 22f9 bb3e
000001e0: c905 bfbe fd1a aa3e 1fff ff3d 47c7 123f
000001f0: 0b30 12be e91c dc3d 5bd6 1cbe 7ecc 1cbe
00000200: 7ff7 afbd bbbd ebbd ce99 37be 933c cfbe
00000210: c3b4 893e f5cd 57be 6fcc 94be f31f 2cbf
00000220: d5ea f43e 81f6 663d cf93 67bf 85b6 863f
00000230: 3250 6e3e 7724 eebd 394e b73d fbab 9dbe

conv1.bias f4 [16]
-0.050061572 -0.0440943 -0.41998705 -0.25810546 -0.08411173 -0.26324493 0.14652836 -0.07292033
0.1536714 -0.2520354 -0.451151 0.05510933 -0.9096089 -0.02950613 -0.8744933 0.13564906
00000000: 5d0d 4dbd 3a9c 34bd 8b08 d7be 6626 84be
00000010: c542 acbd 0ac8 86be 880b 163e 4157 95bd
00000020: 095c 1d3e c90a 81be 44fd e6be 52ba 613d
00000030: 21dc 68bf d7b6 f1bc cbde 5fbf 96e7 0a3e

conv2.weight f4 [8, 16, 3, 3]
0.041091 -0.1648987 -0.12053785 0.08411566 0.029684598 -0.009618702 -0.07417924 -0.03368092
-0.083430134 -0.08762555 -0.04127851 -0.040375024 -0.08287544 -0.03715985 -0.15252765 -0.22131962
-0.13482349 -0.15799485 0.004535005 -0.06739793 -0.1711068 -0.07883957 -0.13403416 -0.14855815
-0.06125463 -0.12746142 -0.1892945 0.11500851 0.15004662 -0.020776747 -0.07077076 -0.014439993
0.110016815 -0.03710557 -0.023127336 -0.16238098 0.08048202 -0.15761365 0.01152207 0.15757868
-0.118656784 -0.029089285 -0.0018126684 -0.19897757 -0.21423212 -0.16994715 -0.07281801 -0.21867253
-0.097518645 0.40996066 -0.022463886 0.015056479 0.33125034 0.131467 0.13810493 -0.0060554766
-0.032834314 0.2988665 0.4291095 -0.18529382 -0.020023061 -0.30927628 -0.4162447 0.08446685
-0.0902876 -0.1706197 -0.039838143 -0.021305585 -0.15898144 -0.19292055 -0.1378253 -0.12799492
-0.15993044 -0.15883423 -0.060517978 0.082654856 -0.15563813 0.06238709 0.023212478 -0.27039298
0.10047561 -0.1530342 -0.13044389 -0.25851053 -0.06364458 -0.1617994 -0.16728021 -0.18207878
-0.047036067 -0.1397737 -0.1380906 -0.14720996 -0.070364825 -0.22682445 -0.0026900072 -0.006206069
-0.22237974 -0.029512612 -0.11181967 -0.06435462 0.25319308 0.050984375 0.11587505 0.07606958
0.10840389 -0.11034243 -0.22142975 -0.107885905 -0.03358468 -0.0713934 -0.19496574 0.050971746
0.0004045084 -0.116171636 0.3265692 0.02397221 -0.06460955 0.10527511 -0.004980939 -0.15242119
-0.004367385 -0.059028886 -0.05227743 -0.1197078 -0.019432273 -0.06635318 -0.12086644 -0.03533336
-0.2524725 0.1706609 0.077629246 -0.080018714 0.2129679 0.035155423 -0.13290566 0.020219479
-0.054618668 -0.06160857 0.08823593 -0.24742062 0.31422848 -0.20657225 -0.17646432 0.39962694
0.19232899 0.15335682 0.2128893 0.015040679 -0.007434999 0.16248526 -0.11984345 -0.1476587
0.0021633066 -0.018346993 -0.039251912 -0.06376198 -0.03440913 -0.01725982 -0.085867025 0.09300587
0.006323436 -0.07596891 0.045470335 0.027698368 0.07276161 -0.014970462 -0.04884457 0.012519153
-0.035594806 -0.07681098 0.049260035 0.057579774 0.061468538 -0.04781693 0.065005906 -0.064765364
-0.06834134 -0.032048836 0.033405043 0.027064307 0.25215802 0.05466814 0.02089174 0.14856286
-0.007714487 -0.028860144 -0.11145918 -0.15740262 -0.11335977 -0.054799814 0.033590358 -0.10019402
-0.046356786 0.044495463 -0.09703011 -0.054553237 0.049070917 0.013021944 -0.10233629 -0.09880058
-0.06707301 -0.1023478 0.023300514 0.02916685 -0.00295558 -0.032915767 -0.046186358 0.09654947
-0.040694673 -0.0013137761 -0.052774 -0.09884291 0.040492374 -0.09542462 -0.03857474 -0.097559296
0.084198445 0.104636095 0.25922912 -0.07064409 0.013702494 0.16205403 -0.13228153 -0.0503842
0.12909754 -0.05319575 -0.01966987 -0.067928694 0.010981733 0.043405823 -0.03795569 -0.0655309
-0.044724602 -0.041526884 0.065310866 0.063076355 0.073331825 0.09660367 -0.03306099 -0.026899973
0.08949473 0.033028398 0.040776663 0.016579194 -0.08100444 -0.11325878 0.010807281 -0.017491983
0.02944077 -0.010652774 -0.010308155 -0.12713474 -0.052642256 -0.004892215 -0.0760123 0.030259313
00000000: 094f 283d 34db 28be 8cdc f6bd d544 ac3d
00000010: 1d2d f33c c397 1dbc 49eb 97bd 01f5 09bd
00000020: 6bdd aabd 0675 b3bd a813 29bd 4860 25bd
00000030: 99ba a9bd ed34 18bd 3530 1cbe 9ca1 62be
00000040: 2b0f 0abe 67c9 21be 619a 943b ed07 8abd
00000050: 9f36 2fbe a476 a1bd 4040 09be a11f 18be
00000060: 23e6 7abd 3f85 02be 6bd6 41be 9589 eb3d
00000070: d2a5 193e ff33 aabc 43f0 90bd b895 6cbc
00000080: 7f50 e13d 03fc 17bd 8a75 bdbc 3347 26be
00000090: c2d3 a43d 7965 21be 10c7 3c3c 4e5c 213e
000000a0: 5402 f3bd a74c eebc 0f97 edba c7c0 4bbe
000000b0: aa5f 5bbe a006 2ebe 9c21 95bd b1eb 5fbe
000000c0: dbb7 c7bd 5de6 d13e 2f06 b8bc 73af 763c
000000d0: a599 a93e 499f 063e 616b 0d3e 056d c6bb
000000e0: 467d 06bd 0805 993e 3eb4 db3e aabd 3dbe
000000f0: 6707 a4bc 7659 9ebe 061e d5be f5fc ac3d
00000100: b5e8 b8bd eeb6 2ebe 522d 23bd 0d89 aebc
00000110: 08cc 22be f78c 45be 1322 0dbe 1a11 03be
00000120: cec4 23be 71a5 22be b3e1 77bd f346 a93d
00000130: 9a5f 1fbe 9b89 7f3d 1828 be3c f370 8abe
00000140: 28c6 cd3d ffb4 1cbe 1593 05be 7e5b 84be
00000150: 1758 82bd beae 25be 814b 2bbe dc72 3abe
00000160: e4a8 40bd d620 0fbe 9f67 0dbe 35be 16be
00000170: 6f1b 90bd ab44 68be d54a 30bb 485c cbbb
00000180: 84b7 63be 6fc4 f1bc b601 e5bd 5bcc 83bd
00000190: 86a2 813e fed4 503d e64f ed3d 5eca 9b3d
000001a0: dc02 de3d 36fb e1bd 7bbe 62be 49f3 dcbd
000001b0: 1790 09bd b436 92bd 19a5 47be c0c7 503d
000001c0: 3314 d439 65eb edbd 1434 a73e 5e61 c43c
000001d0: 0352 84bd 7a9a d73d 2537 a3bb 4d14 1cbe
000001e0: 481c 8fbb 46c8 71bd dc20 56bd 5d29 f5bd
000001f0: 6e30 9fbc 2de4 87bd d388 f7bd b7b9 10bd
00000200: 1344 81be bbc1 2e3e 15fc 9e3d dae0 a3bd
00000210: 4214 5a3e 22ff 0f3d 6c18 08be 52a3 a53c
00000220: d3b7 5fbd 4559 7cbd 0ab5 b43d d55b 7dbe
00000230: 8ee2 a03e ad87 53be 10b3 34be e79b cc3e
00000240: e4f1 443e 9209 1d3e a7ff 593e 2e6d 763c
00000250: 4ba1 f3bb 8962 263e 7c70 f5bd d833 17be
00000260: 43c6 0d3b 6f4c 96bc 9dc6 20bd a495 82bd
00000270: 97f0 0cbd 7764 8dbc 0ddb afbd dd79 be3d
00000280: d334 cf3b 9695 9bbd 1a3f 3a3d b0e7 e23c
00000290: 0a04 953d ab46 75bc 3e11 48bd 221d 4d3c
000002a0: dccb 11bd 134f 9dbd e4c4 493d c5d8 6b3d
000002b0: 6fc6 7b3d afdb 43bd d121 853d b4a3 84bd
000002c0: 8bf6 8bbd a445 03bd bad3 083d f7b5 dd3c
000002d0: db1a 813e b3eb 5f3d 2825 ab3c dd20 183e
000002e0: cfc9 fcbb 1c6c ecbc b644 e4bd 272e 21be
000002f0: 2b29 e8bd c575 60bd 0b96 093d 8632 cdbd
00000300: 9de0 3dbd e040 363d b9b7 c6bd 3773 5fbd
00000310: 96fe 483d fe59 553c b095 d1bd f557 cabd
00000320: 935d 89bd b99b d1bd b8e0 be3c 51ef ee3c
00000330: 67b2 41bb afd2 06bd e82d 3dbd bbbb c53d
00000340: 75af 26bd 0333 acba 8d29 58bd 276e cabd
00000350: 55db 253d fc6d c3bd 8c00 1ebd 2bcd c7bd
00000360: 3c70 ac3d 734b d63d aeb9 843e d9ad 90bd
00000370: 6d80 603c 7ef1 253e cf74 07be aa5f 4ebd
00000380: 2532 043e c9e3 59bd b522 a1bc 331e 8bbd
00000390: baec 333c 4eca 313d 6d77 1bbd 1135 86bd
000003a0: 2531 37bd 1818 2abd b4c1 853d 2d2e 813d
000003b0: ff2e 963d 25d8 c53d f66a 07bd 555d dcbc
000003c0: 0349 b73d c948 073d 6e05 273d 17d1 873c
000003d0: a8e5 a5bd 38f4 e7bd 0611 313c 594b 8fbc
000003e0: c52d f13c f988 2ebc 89e3 28bc 9c2f 02be
000003f0: 689f 57bd e04e a0bb 56ac 9bbd 61e2 f73c

conv2.bias f4 [8]
0.27287412 -0.18157247 -0.028582938 0.121491715 -0.10303642 -0.07432752 0.16161248 0.51377606
00000000: 28b6 8b3e 22ee 39be c426 eabc a6d0 f83d
00000010: c204 d3bd 0739 98bd be7d 253e d486 033f

conv3.weight f4 [16, 8, 5, 5]
-0.17321694 -0.1062657 0.16785288 0.10176564 0.11699779 -0.3498515 -0.1786021 -0.1676889
-0.10605414 -0.0899169 -0.15374143 -0.38920054 -0.26047283 -0.37818602 -0.3251748 0.1494674
0.034770288 -0.007484864 -0.19847412 -0.021400895 -0.07374416 0.1582272 0.35795742 0.08644246
0.20284738 0.0035999902 -0.0010526555 0.051307335 0.09315436 0.085667655 0.037118036 -0.059581198
-0.021363985 0.027751725 -0.0070259315 -0.05070796 0.002683544 -0.05468203 -0.06583081 -0.02367662
-0.0042645484 -0.015625242 0.09008172 0.020693589 0.02078039 -0.010016728 0.055825148 0.05399191
0.11008373 -0.0132821975 -0.15182921 -0.18864904 -0.028223211 -0.12747921 -0.12749915 0.1049351
-0.0060045724 -0.049713284 -0.025463395 -0.13532825 -0.07282491 -0.14546362 0.10881783 0.015086323
0.01319374 -0.21210669 -0.21347158 -0.07873806 -0.038611215 -0.05538888 0.15413167 -0.005977403
-0.027436024 -0.13601692 0.01638207 -0.095787406 -0.038767565 0.067592606 -0.03573135 -0.13179608
-0.10792037 -0.07897044 -0.12292259 -0.1588514 -0.16388829 0.072570734 0.16742916 0.1764138
-0.074829996 -0.14572881 0.05642049 -0.009610526 -0.04567777 -0.093665116 -0.016897418 -0.28442627
-0.21564174 -0.07106875 -0.33570477 -0.28950477 0.08399832 0.048573628 0.21200064 0.123075105
0.05375534 -0.12875935 -0.082506664 -0.26312205 -0.11483995 0.009975801 -0.3348066 -0.3346592
-0.3232939 -0.28319293 -0.32596523 0.0029959935 -0.18950143 -0.23505163 -0.26217565 -0.30674973
0.1911537 0.22322917 0.06121953 0.04229529 -0.012527378 0.171948 0.033471376 -0.12580879
0.012550243 0.11770331 0.019177359 0.0095276525 -0.08271526 -0.08142938 -0.091582745 0.11421894
0.051270943 0.09316406 0.010049798 -0.043190617 0.0404835 0.011126257 -0.021186495 0.066118464
-0.099634625 0.06849775 0.089987114 0.10682831 0.09771019 -0.09936907 0.20729429 0.07745734
0.12658596 0.014399853 0.047293186 -0.043168407 0.045473468 -0.017951898 -0.0025425674 0.16058809
-0.21276765 -0.23941085 -0.18713984 -0.15587375 -0.23812768 0.06830464 -0.007133856 -0.18462506
-0.0546187 -0.20880628 0.123611845 0.16837952 0.03841094 0.155406 0.020201258 0.02396273
-0.19685988 -0.043510754 -0.00658395 -0.028922202 0.08773293 0.070315115 0.03815803 -0.053297184
0.029860608 -0.09271181 -0.11409586 0.1276724 0.09051301 0.1746962 0.008671556 0.01586444
-0.092873074 -0.044052232 0.04580418 0.13212669 0.02114622 -0.008720576 -0.07764276 -0.03238596
0.013487803 -0.07172986 0.020204252 0.12527883 -0.07661565 0.044871137 -0.081145905 -0.031786405
0.05777807 0.105695836 0.040756233 -0.002794905 0.036914427 0.09877415 0.0016701389 -0.014222583
-0.09017085 0.04953506 0.00086575554 -0.057432886 0.05945477 -0.23476063 -0.07823134 -0.15083614
-0.09646233 -0.031576745 -0.0342918 0.045068722 -0.0071422453 -0.107888736 -0.045816455 -0.033345196
-0.09986282 -0.0076698773 -0.073272645 -0.06862792 -0.07537256 -0.07616468 -0.007500572 -0.008639393
-0.032961477 -0.020332009 0.004747597 -0.012354124 0.026369674 0.069952786 0.05975724 0.039642386
-0.028521804 0.011716918 -0.12556447 0.11101757 -0.11050434 -0.14261366 -0.1181478 0.19533092
00000000: c85f 31be d5a1 d9bd a0e1 2b3e 816a d03d
00000010: 8a9c ef3d bc1f b3be 78e3 36be a4b6 2bbe
00000020: ea32 d9bd 5a26 b8bd 656e 1dbe 4b45 c7be
00000030: b25c 85be 99a1 c1be 507d a6be fb0d 193e
00000040: 4a6b 0e3d 9743 f5bb cd3c 4bbe ee50 afbc
00000050: 2e07 97bd 5006 223e 3246 b73e bf08 b13d
00000060: 39b7 4f3e d0ed 6b3b 42f9 89ba a427 523d
00000070: b7c7 be3d 8672 af3d 1509 183d 6a0b 74bd
00000080: 8603 afbc 9657 e33c c939 e6bb 26b3 4fbd
00000090: 66de 2f3b 44fa 5fbd 4ed2 86bd 79f5 c1bc
000000a0: a0bd 8bbb 8200 80bc c47c b83d 9a85 a93c
000000b0: a33b aa3c 341d 24bc e9a8 643d 9f26 5d3d
000000c0: 9473 e13d 939d 59bc 1e79 1bbe 372d 41be
000000d0: 5d34 e7bc e989 02be 238f 02be 37e8 d63d
000000e0: 01c2 c4bb 28a0 4bbd 9c98 d0bc 7d93 0abe
000000f0: 3a25 95bd 6af4 14be e2db de3d a02c 773c
00000100: 8e2a 583c 7f32 59be 4b98 5abe 6c41 a1bd
00000110: cb26 1ebd 73df 62bd b1d4 1d3e 17de c3bb
00000120: 83c1 e0bc 0548 0bbe b133 863c 302c c4bd
00000130: bdca 1ebd fe6d 8a3d 095b 12bd 8df5 06be
00000140: 5b05 ddbd 41bb a1bd d7be fbbd f1a9 22be
00000150: 55d2 27be f79f 943d 8d72 2b3e d2a5 343e
00000160: 7840 99bd ef39 15be 2c19 673d 7875 1dbc
00000170: 9d18 3bbd 7fd3 bfbd 746c 8abc 52a0 91be
00000180: 30d1 5cbe 7e8c 91bd 7fe1 abbe f839 94be
00000190: 5007 ac3d 24f5 463d b216 593e cd0e fc3d
000001a0: 8f2e 5c3d 7ed9 03be 41f9 a8bd efb7 86be
000001b0: 3531 ebbd 8b71 233c c56b abbe 7358 abbe
000001c0: c786 a5be aafe 90be eae4 a6be 6e58 443b
000001d0: aa0c 42be 60b1 70be e33b 86be 4d0e 9dbe
000001e0: ccbd 433e 3096 643e 54c1 7a3d d33d 2d3d
000001f0: a23f 4dbc 2313 303e 4819 093d 05d4 00be
00000200: 899f 4d3c 6f0e f13d d619 9d3c df19 1c3c
00000210: 9e66 a9bd 72c4 a6bd bc8f bbbd 9feb e93d
00000220: 7b01 523d cccc be3d e8a7 243c a5e8 30bd
00000230: 07d2 253d e74a 363c 4d8f adbc 1e69 873d
00000240: 3d0d ccbd 8c48 8c3d 2a4b b83d cdc8 da3d
00000250: 481c c83d 0382 cbbd f444 543e f4a1 9e3d
00000260: c09f 013e 5ced 6b3c 80b6 413d 5bd1 30bd
00000270: 6342 3a3d dc0f 93bc 34a1 26bb 3471 243e
00000280: c3df 59be 1e28 75be 96a1 3fbe 5e9d 1fbe
00000290: bed7 73be 4ee3 8b3d 1fc3 e9bb 5a0e 3dbe
000002a0: dcb7 5fbd 50d1 55be 3528 fd3d ae6b 2c3e
000002b0: ca54 1d3d c022 1f3e 1c7d a53c 7d4d c43c
000002c0: a395 49be 5538 32bd 2dbe d7bb 41ee ecbc
000002d0: 53ad b33d 5f01 903d 984b 1c3d 264e 5abd
000002e0: 3c9e f43c b0df bdbd 17ab e9bd 8ebc 023e
000002f0: e35e b93d 90e3 323e 2413 0e3c 24f6 813c
00000300: 3d34 bebd 1d70 34bd 2a9d 3b3d 384c 073e
00000310: d63a ad3c bfe0 0ebc 2b03 9fbd 24a7 04bd
00000320: f2fb 5c3c 1be7 92bd 6383 a53c 1849 003e
00000330: aae8 9cbd ccca 373d d32f a6bd 7632 02bd
00000340: b3a8 6c3d 0f77 d83d 02f0 263d ba2a 37bb
00000350: 9533 173d 1a4a ca3d 90e8 da3a d605 69bc
00000360: 7fab b8bd 46e5 4a3d dff3 623a bf3e 6bbd
00000370: d886 733d 1765 70be c137 a0bd ca74 1abe
00000380: 0b8e c5bd 9e56 01bd 8f75 0cbd fb99 383d
00000390: 7f09 eabb c5f4 dcbd 09aa 3bbd f994 08bd
000003a0: e184 ccbd 9853 fbbb f80f 96bd cb8c 8cbd
000003b0: ee5c 9abd 3afc 9bbd 5cc7 f5bb 3e8c 0dbc
000003c0: 9d02 07bd 508f a6bc bb91 9b3b f468 4abc
000003d0: 3705 d83c 6843 8f3d 02c4 743d 0e60 223d
000003e0: 8fa6 e9bc 51f8 3f3c f993 00be 2e5d e33d
000003f0: 1950 e2bd 5109 12be 79f7 f1bd d404 483e

conv3.bias f4 [16]
0.2011723 0.61926264 0.34392995 0.14723866 0.18815626 -0.2745899 0.010224871 0.14603026
-0.015039826 0.27957657 0.14474216 -0.35026824 0.32710797 0.604877 0.12752938 0.005114857
00000000: 1d00 4e3e ff87 1e3f 9617 b03e bbc5 163e
00000010: 09ac 403e 0c97 8cbe 3886 273c f588 153e
00000020: 9a69 76bc a924 8f3e 4a37 143e 5c56 b3be
00000030: b27a a73e 38d9 1a3f 1097 023e 889a a73b

conv4.weight f4 [16, 16, 5, 5]
0.06299529 -0.0003899856 -0.13227955 -0.13209769 -0.08907639 0.25248832 0.19862291 0.048850905
-0.016085217 -0.06566577 0.036143225 -0.056201756 -0.13452892 -0.24062598 -0.20811075 -0.029679596
0.039430387 -0.0274588 -0.05158615 -0.07178664 0.13207722 0.08068221 -0.038339827 -0.1026668
0.024171522 0.14831726 0.1297953 -0.07354257 -0.2299128 -0.11053119 0.08239063 0.10965631
-0.15062429 -0.29786533 -0.08619145 0.19843462 0.18704776 -0.08022578 -0.2647012 -0.094805636
0.16712855 0.21227889 -0.022958452 -0.08518039 -0.06809492 0.04464872 0.010890077 -0.08438669
0.038447857 0.0733734 0.12702978 0.21348792 0.046275094 -0.00021534877 0.006223663 0.13691653
0.1466847 0.040755086 -0.10007917 -0.022512449 0.20236243 0.24704981 0.012619748 -0.15736891
-0.020633074 0.15427557 0.13083075 -0.055407356 -0.0018476312 -0.090951584 0.046682052 0.12687302
0.03749241 -0.089825906 -0.07197802 -0.14920811 0.0019145688 -0.030855145 -0.052698705 0.022276022
-0.091635935 0.13225551 -0.046636663 -0.07591685 -0.035174206 -0.12096813 0.09339182 -0.059765622
-0.06526102 -0.026417 -0.0509902 0.08272323 0.08351694 0.07593126 0.09702685 -0.1383988
-0.05617165 0.0056750304 0.018325364 -0.0028483337 0.12063369 0.077553414 -0.16909792 -0.1262026
-0.054098826 0.23577635 0.06694267 -0.00923974 -0.0634116 -0.1116672 0.017058605 0.14776284
0.01301697 -0.03763825 -0.08390417 0.020848503 0.07725872 -0.074137665 -0.16121452 -0.12526812
0.024023723 0.018888531 -0.14652114 -0.037104018 -0.04591231 -0.13777326 0.11632521 0.040615447
0.04808969 0.072290346 -0.12100069 -0.020350894 0.12035397 0.094149254 0.06628394 -0.030238194
0.018595813 0.07869626 0.1279373 0.040523697 0.008377404 -0.020412492 0.10407921 0.116039366
-0.07022373 -0.12388209 0.002065031 -0.035515223 -0.009765688 0.03442007 -0.01168606 0.06802549
-0.035452962 -0.054076605 0.11451854 -0.07531549 0.056379173 -0.012825902 0.0014492249 -0.024978533
-0.12886953 0.038845684 -0.064312145 -0.14541978 -0.0903987 -0.05907104 0.034173813 -0.05870948
-0.03000837 0.104062475 0.009671583 0.07474548 0.023880119 -0.0069168145 0.050162066 -0.12581962
-0.096232004 0.020173559 -0.08121011 -0.09117969 0.023037625 -0.07417186 -0.0064531984 -0.015867077
-0.108178 -0.051541105 -0.11532165 -0.0348842 -0.09766853 -0.11513521 -0.059194792 -0.037556805
-0.051538974 -0.11434892 -0.025663784 0.057640508 -0.041744098 0.01176272 -0.08072471 -0.025583457
-0.054934997 -0.03189619 -0.014596974 -0.05099261 -0.03643973 -0.046947513 -0.07257174 -0.18599874
-0.011884284 0.23701276 -0.03981838 -0.1491495 -0.15803243 0.099992104 0.05395532 -0.17051707
-0.12570806 0.03289065 0.06111738 0.10857374 -0.23225728 -0.079487465 0.0214642 0.08567888
0.091256134 -0.11371701 -0.0446762 0.12029938 -0.13454434 0.121379316 -0.07003414 -0.08182378
0.02494676 0.11276349 0.13149053 -0.19304532 -0.076532595 -0.044906635 0.08226618 0.01813941
-0.027633416 -0.057979833 0.051247977 0.103204474 0.07960233 -0.015338978 0.01830876 0.018427493
0.013550691 0.046978172 -0.04153073 -0.17336592 -0.07816167 -0.09991069 0.033671908 -0.12618874
00000000: ad03 813d fb76 ccb9 4a74 07be 9e44 07be
00000010: af6d b6bd 2646 813e ce63 4b3e e317 483d
00000020: 25c5 83bc c67b 86bd eb0a 143d d033 66bd
00000030: f3c1 09be a866 76be fc1a 55be a022 f3bc
00000040: c281 213d 47f1 e0bc 004c 53bd e004 93bd
00000050: 403f 073e b73c a53d 390a 1dbd f942 d2bd
00000060: 5b03 c63c 7be0 173e 0fe9 043e 7d9d 96bd
00000070: 436e 6bbe 2d5e e2bd 6bbc a83d 7d93 e03d
00000080: 413d 1abe ce81 98be 2585 b0bd 7232 4b3e
00000090: 7389 3f3e 6a4d a4bd ea86 87be 7529 c2bd
000000a0: bf23 2b3e a35f 593e 5d13 bcbc 0e73 aebd
000000b0: 5975 8bbd 94e1 363d 4b6c 323c eed2 acbd
000000c0: 807b 1d3d cb44 963d 1814 023e 949c 5a3e
000000d0: f48a 3d3d 3fcf 61b9 dfef cb3b d933 0c3e
000000e0: 8434 163e ceee 263d 4ff6 ccbd 076c b8bc
000000f0: 1938 4f3e a0fa 7c3e 0fc3 4e3c 5125 21be
00000100: b106 a9bc 6afa 1d3e 7ff8 053e d3f2 62bd
00000110: 372c f2ba d344 babd ae35 3f3d 00eb 013e
00000120: a491 193d a5f6 b7bd 3669 93bd 03ca 18be
00000130: 45f2 fa3a eec3 fcbc 99da 57bd 347c b63c
00000140: 9fab bbbd fd6d 073e 1606 3fbd 4b7a 9bbd
00000150: d412 10bd 24be f7bd 3644 bf3d cccc 74bd
00000160: 92a7 85bd 7768 d8bc 1adb 50bd cc6a a93d
00000170: ee0a ab3d d981 9b3d 03b6 c63d 6ab8 0dbe
00000180: 3e14 66bd 9bf5 b93b 131f 963c 1cab 3abb
00000190: cc0e f73d 53d4 9e3d 0128 2dbe 413b 01be
000001a0: bb96 5dbd 5b6f 713e 3d19 893d 4762 17bc
000001b0: f1dd 81bd c6b1 e4bd 7dbe 8b3c 244f 173e
000001c0: 2145 553c 912a 1abd f3d5 abbd 7bca aa3c
000001d0: d239 9e3d 7dd5 97bd 6b15 25be 4946 00be
000001e0: 66cd c43c 1fbc 9a3c a309 16be 62fa 17bd
000001f0: 8c0e 3cbd 6f14 0dbe e93b ee3d 625c 263d
00000200: b2f9 443d f60c 943d 36cf f7bd ebb6 a6bc
00000210: 247c f63d 53d1 c03d e0bf 873d 17b6 f7bc
00000220: 3f56 983c 812b a13d ff01 033e 2dfc 253d
00000230: 6141 093c 1938 a7bc 7b27 d53d 0ca6 ed3d
00000240: 75d1 8fbd e5b5 fdbd 7955 073b 6978 11bd
00000250: 4400 20bc 0ffc 0c3d e376 3fbc f350 8b3d
00000260: 2037 11bd 6e7f 5dbd b288 ea3d 023f 9abd
00000270: d9ed 663d bb23 52bc ebf3 bd3a c89f ccbc
00000280: 60f6 03be a71c 1f3d 16b6 83bd ece8 14be
00000290: f422 b9bd 7af4 71bd d7f9 0b3d 5a79 70bd
000002a0: 1dd4 f5bc b51e d53d 8f75 1e3c 2914 993d
000002b0: 3da0 c33c 72a6 e2bb bd76 4d3d dcd6 00be
000002c0: 4915 c5bd 0543 a53c 7c51 a6bd 6bbc babd
000002d0: 67b9 bc3c 6be7 97bd 5a75 d3bb acfb 81bc
000002e0: 6d8c ddbd c41c 53bd c22d ecbd bce2 0ebd
000002f0: 7006 c8bd 02cc ebbd 3d76 72bd 2ad5 19bd
00000300: 881a 53bd c42f eabd db3c d2bc 7418 6c3d
00000310: dcfb 2abd 6cb8 403c ff52 a5bd 6694 d1bc
00000320: 8503 61bd 94a5 02bd 2528 6fbc a1dd 50bd
00000330: d441 15bd 094c 40bd 7ea0 94bd 7476 3ebe
00000340: 4db6 42bc 79b3 723e 9918 23bd a6ba 18be
00000350: 41d3 21be a9c8 cc3d 4100 5d3d 079c 2ebe
00000360: 9db9 00be 59b8 063d 3856 7a3d e95b de3d
00000370: dad4 6dbe 53ca a2bd b1d5 af3c 6978 af3d
00000380: 7fe4 ba3d 77e4 e8bd 64fe 36bd 855f f63d
00000390: fec5 09be b895 f83d 0f6e 8fbd 3a93 a7bd
000003a0: 265d cc3c 8bf0 e63d 74a5 063e acad 45be
000003b0: 1fbd 9cbd 05f0 37bd 2c7b a83d 1a99 943c
000003c0: 795f e2bc 437c 6dbd 66e9 513d de5c d33d
000003d0: 8c06 a33d 5650 7bbc 41fc 953c 41f5 963c
000003e0: b803 5e3c 2f6c 403d 201c 2abd d686 31be
000003f0: 3a13 a0bd fa9d ccbd 8eeb 093d 9f37 01be

conv4.bias f4 [16]
-0.066995345 -0.1627056 -0.4110488 -0.29369095 -0.24196988 -0.3396561 -0.4770343 -0.013071104
-0.25802973 -0.29615933 -0.3159118 -0.3157687 0.09020389 -0.19440281 -0.5301331 -0.3072987
00000000: db34 89bd 4c9c 26be fd74 d2be a95e 96be
00000010: f4c6 77be 68e7 adbe d73d f4be 2f28 56bc
00000020: 791c 84be 32a2 97be 31bf a1be 6fac a1be
00000030: d1bc b83d 8811 47be ceb6 07bf 4156 9dbe

prediction_layer.weight f4 [10, 1024]
-0.15943062 0.099227026 -0.022932028 0.026151417 0.04754711 0.030062497 0.008072887 -0.017147105
-0.016824728 0.10522695 0.06258709 0.060530107 0.03697211 0.0163989 0.07622649 0.05569676
0.016536731 0.13739534 0.11018869 0.07275709 0.04709031 0.11783527 0.0037514456 0.05890212
-0.033673104 0.07105688 0.04409977 -0.056085873 -0.05556797 0.018762248 0.0013263022 -0.11167578
-0.08724319 0.009928501 0.001211199 -0.059144106 -0.0345286 -0.09993151 -0.11192682 -0.135235
-0.061671194 0.02157704 -0.14046745 0.009256186 -0.11584953 -0.1660135 -0.034423783 -0.02648395
-0.09300944 -0.098158345 -0.009975109 -0.12240265 -0.078439124 -0.10661662 0.103394225 0.072226316
-0.01127772 0.024150947 -0.045193844 0.042235065 -0.08525057 0.09085924 0.03488357 0.11168828
-0.00048555847 -0.12248985 -0.073373094 0.006695681 0.015931565 -0.052499216 -0.00596286 -0.04749673
0.00900721 0.09816761 0.07655513 -0.0672889 -0.04515911 -0.023908487 0.029856125 0.04111268
-0.001017733 0.11868762 0.01688652 -0.14733286 -0.15137662 -0.005736855 0.08847952 0.057981435
0.03785303 0.13388324 0.0070175943 -0.14529516 -0.016821794 0.0010549729 0.0046026423 -0.14465278
0.057921782 0.05345564 -0.010665027 -0.05100138 -0.061130427 0.054604087 0.0061353506 -0.047659732
0.14386061 0.054868493 -0.011498319 -0.015660739 0.08232271 -0.040375985 0.044389825 0.013734662
0.08256272 -0.036071394 0.018416647 0.1263015 0.07108488 -0.0034051507 0.09508667 -0.09086628
-0.04126276 -0.00858973 -0.0162355 0.044340335 0.10002141 0.104547925 -0.02171094 -0.10976353
-0.10101586 0.04832161 -0.027240999 -0.026510365 0.08459414 -0.07694385 -0.17423263 0.051646914
-0.06593977 0.032313377 -0.07091912 -0.015556883 -0.040510334 -0.11386193 -0.1424845 -0.09878589
-0.19316295 0.17536725 0.07808487 0.17987497 0.027737642 0.053250976 0.03912293 -0.00572786
0.008989143 0.11880229 0.1694379 0.11012413 0.16156036 0.1093521 -7.679207e-05 -0.06343264
-0.05409216 0.017096153 0.1536981 0.030367985 0.20054106 0.17025048 0.07203845 -0.05836191
0.00419814 -0.15975215 -0.1693835 0.04988863 0.07356008 0.08446333 0.123336405 0.024727026
-0.11932036 -0.20974799 0.041732725 0.11440498 0.074672304 -0.037170846 0.1619823 -0.029388467
-0.07011546 -0.014475394 -0.096766844 0.026911397 -0.035984613 0.01635834 0.10095234 0.0496302
-0.1253217 -0.11913379 -0.0916889 -0.026603865 -0.059420235 -0.021199318 -0.145685 -0.17145634
0.05404196 0.06523557 0.16391529 0.02273222 -0.003907703 0.029833345 0.026814228 -0.19588517
-0.043295693 0.1080387 0.023761798 -0.027295882 -0.017571818 0.03335033 -0.019244308 -0.16619943
-0.05083436 0.0507821 0.10657473 0.023170378 0.014042301 -0.1044877 -0.13662766 -0.12891267
0.034992438 0.06450075 -0.06989787 0.07466266 0.028965686 -0.0058984896 -0.109063834 -0.12731038
0.051290877 -0.11257189 -0.018748196 0.05039415 -0.19793268 -0.13960522 -0.013913036 -0.04013734
0.08671922 -0.06309256 0.023517033 -0.11100732 0.0058067623 0.07254565 -0.004613232 0.06374086
0.1314506 -0.08482216 -0.077247605 -0.016563378 -0.016611416 -0.1409064 0.12913156 0.15847476
00000000: c841 23be 8a37 cb3d f3db bbbc 7f3b d63c
00000010: c2c0 423d a045 f63c 2444 043c 1678 8cbc
00000020: 03d4 89bc 3a81 d73d a92d 803d 6bee 773d
00000030: 1170 173d fc56 863c a21c 9c3d 4922 643d
00000040: 0a78 873c 5db1 0c3e 9caa e13d ab01 953d
00000050: c5e1 403d 9e53 f13d d0da 753b 5943 713d
00000060: cfec 09bd 4586 913d f6a1 343d 4dba 65bd
00000070: 3d9b 63bd 49b3 993c 51d7 ad3a 45b6 e4bd
00000080: 8fac b2bd 27ab 223c 18c1 9e3a 1741 72bd
00000090: dc6d 0dbd e4a8 ccbd e339 e5bd 0b7b 0abe
000000a0: ef9a 7cbd 55c2 b03c b3d6 0fbe 42a7 173c
000000b0: 8542 edbd 71ff 29be f4ff 0cbd def4 d8bc
000000c0: bc7b bebd 3e07 c9bd a46e 23bc 3eae fabd
000000d0: b1a4 a0bd d159 dabd 5ac0 d33d 64eb 933d
000000e0: 30c6 38bc 35d8 c53c 2e1d 39bd adfe 2c3d
000000f0: da97 aebd 6914 ba3d 13e2 0e3d d3bc e43d
00000100: 8e92 feb9 f5db fabd a244 96bd 7167 db3b
00000110: ea82 823c 6b09 57bd 1864 c3bb ee8b 42bd
00000120: fa92 133c 1a0c c93d f0c8 9c3d c3ce 89bd
00000130: c2f8 38bd bbdb c3bc d594 f43c c565 283d
00000140: 7465 85ba 7f12 f33d 9955 8a3c 6dde 16be
00000150: 7902 1bbe 3afc bbbb c034 b53d f17d 6d3d
00000160: c70b 1b3d b018 093e d9f3 e53b 41c8 14be
00000170: dccd 89bc 0447 8a3a c3d1 963b dc1f 14be
00000180: 643f 6d3d 4df4 5a3d 5ebc 2ebc d3e6 50bd
00000190: e663 7abd 89a8 5f3d 0d0b c93b da36 43bd
000001a0: 3250 133e c9bd 603d 7263 3cbc f34a 80bc
000001b0: cf98 a83d 4a61 25bd 1bd2 353d 5907 613c
000001c0: a516 a93d 99bf 13bd 82de 963c 2e55 013e
000001d0: f394 913d f328 5fbb cdbc c23d 1a18 babd
000001e0: 2403 29bd f0bb 0cbc 5000 85bc 369e 353d
000001f0: 06d8 cc3d 391d d63d 24db b1bc b4cb e0bd
00000200: 67e1 cebd e1ec 453d 8428 dfbc 442c d9bc
00000210: b13f ad3d bd94 9dbd 0a6a 32be b78b 533d
00000220: 6e0b 87bd 085b 043d 0b3e 91bd 4ce2 7ebc
00000230: 2aee 25bd 7230 e9bd 75e7 11be 4250 cabd
00000240: 82cc 45be 7993 333e f6ea 9f3d 2531 383e
00000250: 0d3a e33c b21d 5a3d 5e3f 203d c6b0 bbbb
00000260: 3347 133c 9d4e f33d 2181 2d3e c388 e13d
00000270: 1470 253e fef3 df3d 6e0b a1b8 f9e8 81bd
00000280: be8f 5dbd 3b0d 8c3c 0963 1d3e 48c6 f83c
00000290: a35a 4d3e 2456 2e3e e588 933d e60c 6fbd
000002a0: 8d90 893b 1196 23be de72 2dbe 0558 4c3d
000002b0: aba6 963d 1cfb ac3d cc97 fc3d 5590 ca3c
000002c0: 3c5e f4bd 2dc8 56be efef 2a3d 284d ea3d
000002d0: cbed 983d 7540 18bd b0de 253e 15c0 f0bc
000002e0: b298 8fbd 342a 6dbc b22d c6bd 4a75 dc3c
000002f0: 9a64 13bd ed01 863c 1ac0 ce3d 0949 4b3d
00000300: 5554 00be 6bfc f3bd 64c7 bbbd 59f0 d9bc
00000310: a262 73bd 31aa adbc 732e 15be 4092 2fbe
00000320: 1a5b 5d3d 3a9a 853d 69d9 273e ec38 ba3c
00000330: 300c 80bb 0f65 f43c 83a9 db3c 1f96 48be
00000340: d356 31bd 6543 dd3d 1aa8 c23c 9d9b dfbc
00000350: c6f2 8fbc 5b9a 083d 3da6 9dbc 2f30 2abe
00000360: b137 50bd e400 503d da43 da3d cecf bd3c
00000370: ae11 663c a6fd d5bd 1fe8 0bbe af01 04be
00000380: 3b54 0f3d f818 843d 9d26 8fbd bde8 983d
00000390: 7249 ed3c 1e48 c1bb dc5c dfbd a75d 02be
000003a0: 6216 523d 178c e6bd d195 99bc 196a 4e3d
000003b0: ddae 4abe acf4 0ebe 81f3 63bc 0d67 24bd
000003c0: d999 b13d ac36 81bd cba6 c03c ce57 e3bd
000003d0: a746 be3b d092 943d 982a 97bb 918a 823d
000003e0: fc9a 063e 3eb7 adbd fe33 9ebd ecaf 87bc
000003f0: aa14 88bc c449 10be 103b 043e 3547 223e

prediction_layer.bias f4 [10]
0.07975119 -0.6897506 0.43793625 0.4557734 0.587022 0.09446178 -0.17337024 -0.13073468
-0.2704846 -0.4127024
00000000: 9854 a33d 7f93 30bf 2e39 e03e 225b e93e
00000010: 1347 163f 2d75 c13d f887 31be 50df 05be
00000020: f57c 8abe bb4d d3be
