Homeworks/HW1/results/trained_models/cnn_5[3].pt (torch, 53323 bytes, 14 tensors)

conv1.weight f4 [8, 1, 3, 3]
00000000: e691 47be 6583 a7be d8f9 4ebd cf5b acbd
00000010: db0e 103e ea55 aebd c6a1 793d 7a79 ce3e
00000020: 2e67 c53d 3749 66bd a418 e7be f9c0 343d
00000030: fa6a bb3e e9d4 113f 2e7e 6b3e f845 e1bd
00000040: 0abb bebe 5e3b 66be 0583 adbe 2862 bcbd
00000050: 142d 103f 0266 d23e 5e81 bebe 7de0 963e
00000060: f880 0bbe a051 b9bd 68d2 87be 831b 543e
00000070: 2708 bdbb 23db b23e f080 b2bd 993a dfbe
00000080: 05a2 2cbe 028c 7d3e 7bdd 4fbd 151c 81bd
00000090: 66f0 68be 5da4 53be 1bf6 313e 2ff5 6e3e
000000a0: 3266 f63d 55db 69be 36eb fc3c 6fa3 e2bd
000000b0: 4084 43be 1589 5d3d b994 833c eea3 96be
000000c0: f0ac e4bc 36d6 cdbe 4c4e 8cbe f32d 6cbe
000000d0: b150 823e 55af b03e 9a2e c43e 57c8 863d
000000e0: f56d 81be 71ea e63d 234b 5d3e 3774 0abf
000000f0: 26da 7fbe 6c45 243e 5d53 0c3e b2cc 8e3e
00000100: 712c ca3e be4c b0be 24ff 2dbd 5434 b43e
00000110: 5a40 8cbe 20d0 d4bd 351f b03c ea8c 6dbe
-0.1948925 -0.32717434 -0.05053124 -0.084159486 0.14068167 -0.085124806 0.060945295 0.40327054
0.096388206 -0.056222167 -0.45135987 0.044129346 0.36605054 0.569655 0.22997352 -0.109996736
-0.37252074 -0.22483584 -0.33889022 -0.09198409 0.56318784 0.4109345 -0.37208074 0.29468146
-0.13623416 -0.09048772 -0.26527715 0.2071362 -0.005768794 0.34932813 -0.08715999 -0.43599394
-0.1685868 0.2476044 -0.05074833 -0.06304184 -0.22747955 -0.20668168 0.17379038 0.23335718
0.12031211 -0.22837575 0.030873876 -0.11066329 -0.19093418 0.05408581 0.016062127 -0.29421943
-0.027914494 -0.40202492 -0.27403486 -0.23064403 0.25452188 0.34508768 0.38316804 0.065811805
-0.25279203 0.11275185 0.21610694 -0.5408358 -0.24985561 0.16042107 0.13703676 0.27890545
0.3948703 -0.3443355 -0.04247965 0.35196173 -0.27392846 -0.10391259 0.021499256 -0.23198286

conv1.bias f4 [8]
00000000: d772 863e 5725 133e b75d 2a3e 220e 163e
00000010: 2880 b03d 602e 8bbe ea36 103e f428 173e
0.2625949 0.14369713 0.16637312 0.14653829 0.08618194 -0.2718382 0.14083448 0.14761716

conv2.weight f4 [16, 8, 3, 3]
00000000: 35e1 333e 9465 3b3e 6abf acbd 1c04 d93d
00000010: 98a3 7fbd a29d b2bb a351 22be 0eb4 10be
00000020: 558e d73d e2e6 9abe 50a0 12bd dfa7 3cbe
00000030: f06c 1d3e 2b67 113e a389 f2bc 96e9 663d
00000040: c3e3 c03b 51d9 99bc a206 d6be 40d4 7cbe
00000050: ceb1 86bc d6bf 42bd 7932 5fbd 7ec1 9ebc
00000060: df51 623e c1b1 36bc c25b 203d 3090 32be
00000070: d5b8 bb3d 694d 1bbe eab4 85bd f4e9 88bd
00000080: ec66 18bd f494 673e 8112 6b3e 4be2 563d
00000090: 95d2 26bd 490a 93bd cb98 46be 503f 143d
000000a0: 5305 1d3e 6ac9 ffbc 45ef b63d 8015 28bd
000000b0: 85c5 b7bd 4008 82bc c1a0 023d 9cec 943d
000000c0: 64ee 3bbe 6d0a 70be ade9 cdbd 0e50 463e
000000d0: c3f4 8a3e 566e 283d 224d c63b 53c2 a6bd
000000e0: 3335 01be abd9 863c b2e5 033e 3a7f ac3d
000000f0: 38ab 233d f897 283d 3681 993d 3bc7 aebd
00000100: 99b4 84be 16ea dcbd fb7d ba3d 28a9 8d3c
00000110: 43ff 1dbd 1662 0f3e 72ea 833d 6776 353e
00000120: d039 2a3e 9ce9 febc 799f 9c3c 2313 173b
00000130: 00b7 d43d d5c4 823e 5b14 493d c078 30be
00000140: a4d5 f73d 3d4c 85bd 5b89 4ebe 5ed4 82be
00000150: 7c97 c53d fd72 d33d eb90 64be 00dd ffbd
00000160: 0f22 2f3d 0b5b 83bb 5428 01be 8299 623e
00000170: 5799 69be 644c f9be 8efe 3dbe 723a 5dbc
00000180: dd53 eb3d e202 15be 8520 333e 2a1a c6bb
00000190: eade 933e 1005 1cbe 3918 fbbd 523f 293d
000001a0: e29a 13be a84a 933d ac15 493d 0bbc 57be
000001b0: 1baf 353e d37a 05be ceaa 56be 9062 58bd
000001c0: d563 dbbc 27f2 6a3d 4701 c4bc 0186 08be
000001d0: 3dbb 0d3d fc29 6fbe 5e80 febd 3bad 02bd
000001e0: bc68 9dbd e2fc 3e3e dde2 323e 18cd 103e
000001f0: 28a0 633e 9825 253e 44d0 d93d 1df1 ae3d
00000200: b9f4 633e d188 0c3e 4be2 913e 30ad 2cbe
00000210: 35b2 8cbc 8032 82bd bd72 913d 5679 92bd
00000220: 215d 78bd bf03 6c3e 54ef a33c b114 883d
00000230: 38a9 90be 254d 733d 83c1 7e3d 7aa0 113d
00000240: 958f ea3d 046b 043e 6e60 173c 4083 923d
00000250: 7e4e a03d ba25 a43d 82ea 353e fa72 dc3d
00000260: 345f 403e f13a a2be 2a99 e8be 2483 cabe
00000270: 161f 28bd 959f e33d da71 db3c 5e45 283e
00000280: 886c 0bbe 3b80 40bd 0465 44be 8f36 0dbe
00000290: 0db9 16be f42f 28be 65e6 c6be f6f6 f1bd
000002a0: a79f 25be bd7a 33bd 201e 41be 0207 99bc
000002b0: e4d1 9abd cfc9 7dbd afce f33c 5a57 a2bd
000002c0: cff1 bfbd 1335 603d c68a 5c3e 7ccd a73b
000002d0: 1692 e53d d1f8 293e 59e5 7a3d 0258 573d
000002e0: 960d 0a3d 67c9 253e 5487 063e a69d 243d
000002f0: 2fcb 8ebd d53a a73e e557 223e 66b5 403e
00000300: 3460 793e f8c2 613d ca3b 293d d1dd 2abe
00000310: 1ddd f0bd 66f8 6abd 3edc a5bc 7ab4 313c
00000320: bf2e c2bd 00a5 06be d94a 94bd 51d7 9e3d
00000330: 2fb0 773c b243 9a3d 6837 9f3d 54c9 17be
00000340: f1d2 9ebe 1a05 f4bd a0df e8be ba43 18be
00000350: db25 4ebd 42f9 593c 0c73 b9bd 0642 7b3d
00000360: 82d2 cc3d 4165 a4bd 6fe4 b6bd 10f1 d5bc
00000370: 7686 253e 084f ddbd 5a69 83bd 0df8 8a3d
00000380: 3904 593d 7671 adbe 5dc0 84be d345 cb3d
00000390: 845b 873e 7bfa aa3e b9e5 bfbb ba43 47be
000003a0: 6713 dfbd dff6 8dbd 9d0f d7bd e421 bcbd
000003b0: 9c60 b8be a292 91be 361d 6bbc e7fa 853d
000003c0: 903a 2bbe 38d6 50be 95db 84bd e9e0 cb3d
000003d0: c4a6 3b3e b965 aa3d cbed b1be 4a12 333d
000003e0: be1a 0ebc 5e20 353e ee8a 5e3e 0d32 9f3c
000003f0: e111 383e 8107 b93d 8bc7 3f3e 598f 0c3e
0.17566378 0.18300468 -0.08434947 0.10596487 -0.062411875 -0.00545092 -0.15851454 -0.14131185
0.105251946 -0.30254275 -0.035797417 -0.18423413 0.15373588 0.14199512 -0.029606646 0.05637511
0.0058865263 -0.018780382 -0.41801935 -0.24690342 -0.016442206 -0.04754623 -0.054491494 -0.019379374
0.22101544 -0.011150778 0.039150007 -0.17437816 0.09166113 -0.15166248 -0.06528647 -0.06685248
-0.03720753 0.22615415 0.22956277 0.052461904 -0.04072817 -0.07179696 -0.19394223 0.036193192
0.15334062 -0.031223971 0.08932356 -0.04103613 -0.08973221 -0.015873075 0.031891588 0.07271692
-0.18352658 -0.23441477 -0.10054336 0.19366476 0.27139863 0.04112085 0.0060516754 -0.08142533
-0.1261795 0.016461214 0.1288059 0.08422704 0.03995821 0.041160554 0.07495348 -0.08534094
-0.25919035 -0.10786836 0.0910606 0.017292574 -0.038573515 0.1400226 0.06441201 0.17720948
0.16623616 -0.031117253 0.019119011 0.0023052178 0.10386467 0.25540796 0.049091678 -0.17233562
0.121012956 -0.06508682 -0.20169584 -0.25552648 0.09648034 0.10324667 -0.22320907 -0.12493324
0.04275709 -0.004008656 -0.1261304 0.22128871 -0.22812401 -0.48691094 -0.18554136 -0.013502704
0.11490605 -0.14551881 0.17492874 -0.0060455995 0.28881007 -0.15236306 -0.122604795 0.041320153
-0.14414552 0.07191974 0.049092934 -0.21067826 0.17742579 -0.13035135 -0.20963594 -0.05282837
-0.026781002 0.05735984 -0.02392639 -0.13332368 0.034602392 -0.2335586 -0.12426828 -0.031903487
-0.07685992 0.18651155 0.17469354 0.14140737 0.22229064 0.16127622 0.10635427 0.085420825
0.22261323 0.13724066 0.2849296 -0.16862941 -0.01717482 -0.06357288 0.07101963 -0.07152049
-0.06063569 0.23048304 0.020011581 0.066445716 -0.28254104 0.059399743 0.062196266 0.035553433
0.11453167 0.12931448 0.009239299 0.0715394 0.07827471 0.08015008 0.17765239 0.107641175
0.18786317 -0.31685594 -0.45429355 -0.39553177 -0.04104527 0.11114422 0.026787687 0.16432711
-0.1361562 -0.04699729 -0.1917916 -0.13790344 -0.14719029 -0.16424543 -0.38847652 -0.11814682
-0.16174184 -0.043818224 -0.18859148 -0.0186801 -0.07559565 -0.061960038 0.02976164 -0.07926817
-0.09372293 0.054738116 0.21537313 0.005120931 0.11209504 0.16598822 0.06125388 0.052574165
0.033704363 0.1619011 0.13137561 0.040189408 -0.06972348 0.32662073 0.15853842 0.18819198
0.24353105 0.055117577 0.041316785 -0.16686179 -0.11760924 -0.057365797 -0.020246621 0.010846252
-0.09481572 -0.1314888 -0.072408386 0.07755912 0.015117689 0.07532443 0.0777424 -0.14822894
-0.3102031 -0.119150355 -0.45483112 -0.14869586 -0.05032907 0.013304057 -0.090551466 0.06134226
0.10001089 -0.08027125 -0.08930289 -0.026115924 0.16164574 -0.1080609 -0.064165786 0.06785593
0.052982543 -0.33875626 -0.25928012 0.09925427 0.26437008 0.33394226 -0.0058562425 -0.1945943
-0.108923726 -0.069318525 -0.10501025 -0.091861516 -0.36011207 -0.28432184 -0.014350226 0.065419964
-0.16721559 -0.20394218 -0.064871944 0.099550076 0.18325335 0.08320183 -0.34751734 0.043718614
-0.008673368 0.17688128 0.21732685 0.019433046 0.1797557 0.090346344 0.18728463 0.13726558

conv2.bias f4 [16]
00000000: 6554 6ebc 16d8 9f3c 35d6 94bd 8f0d ea3d
00000010: c31b bf3d b5ec 8cbd aca9 4dbd 15fc 1ebe
00000020: 54f5 1a3e 2d09 aa3d c433 c83d a193 883c
00000030: a742 87bd 24ce 963c 04ac ef3d bb98 fd3d
-0.014546488 0.019512217 -0.07267419 0.11428367 0.09331467 -0.06881086 -0.05021064 -0.15525849
0.15132648 0.083025314 0.097754985 0.016671957 -0.0660451 0.018408842 0.11702731 0.12382647

conv3.weight f4 [8, 16, 3, 3]
00000000: 0f05 95bd a7bd e8bd 2336 61bd 54f5 4dbc
00000010: 8b19 e5bd 483e 91bd c601 103d 8b32 dc3c
00000020: 7c8c d4ba f7e7 47bb efc1 41bc ca46 bf3b
00000030: 9378 32bd 6284 c8bd d6bb f8bd a80b 35bc
00000040: 0e17 18bd 14c6 b6bd 30fc a1bd 233e 04bd
00000050: 9ef0 2cbd 5161 5c3c ac83 1abd 1044 013d
00000060: 9622 d33b 0aa4 a3bd d6df 6a3d 2a20 8abc
00000070: 94aa 6dbc e0a1 07bc 6cb6 423c 3281 bcbd
00000080: fe18 92bd 0e24 cabd 7afc e13c d4ce 403c
00000090: 41df f7bb b15e 42bd 32aa 39bd 0630 c53c
000000a0: 20f0 b0bd 799f 093d 0fd6 c73b a523 8b3d
000000b0: 974b fc3c dce9 9dbd 2ae9 353d 027c 583d
000000c0: 6aa8 4bbd 5a55 1b3d 7839 99bd fd6f 17bd
000000d0: 4627 513d 72b4 2b3d 5082 afbd f8b3 273d
000000e0: f748 68bd b0c3 023d a804 ebbc 64f4 4f3d
000000f0: fe67 d0bd 7c17 113d 5ae0 85bc ef85 903b
00000100: 1943 3d3d cea9 3e3c 1f3c f1bc 0140 723d
00000110: 8e8d 603d 4ec5 2cbb 8fb1 25bd 38cb d5bd
00000120: 39ad 1e3d 5aa4 babc 1e0f 56bc ef51 75bd
00000130: 3796 11bd 9055 32bc 0bcf d7bc 58d7 0b3c
00000140: 11c1 c0bd bfbf 7cbd 678d 8fbd 327f bebc
00000150: 3baf 64bd 2ea4 07bd aad3 e3bd b735 a7bd
00000160: a9a3 3bbd 2af2 933c 3f74 303b fca5 ebbc
00000170: 1f3b a9ba 7a93 2fbd ab06 3b3d c3de 6a3b
00000180: 25b4 0ebc eb31 a6bd b50f a3bd 5c1f 2c3d
00000190: 071c 98bd de20 85bd f61c bc3c 55cc 75bd
000001a0: e471 353d 7abc 503d d5b0 13bd 5965 ef3c
000001b0: 27f2 96bd 4d8e 0b3d 2782 ae3d 6a4e 97bd
000001c0: db5c aabd 5103 bb3d 8948 74bd a1d7 89bb
000001d0: 0159 2abd e555 9f3d f8b4 4dbc 20e9 a83c
000001e0: d096 d8bc 4892 40bd b86b 9ebd 276c 97bd
000001f0: c057 e13a d835 62bd 60e2 f9ba 9721 a73c
00000200: 9b2c 9b3c ca71 46ba 6d21 d3bd 5650 1cbd
00000210: f885 b6bc 5db0 a13b 384c c5bd 0ea5 8abd
00000220: 162b a83b 3d74 fdbc abcc acbd af34 5a3d
00000230: 339d 9fbd 12e1 f2bd 4880 4ebc cb2f febc
00000240: eab0 35be 2df1 86be 1df5 3bbd 1709 cebd
00000250: 3201 a2bd 7b41 943c f423 13be 7fbe f0bd
00000260: 6535 053d 5127 0dbe d344 82bd dd1a fe3d
00000270: 71f6 74be a798 08bc ecf7 ac3d 2c4b a1bd
00000280: 45e7 8d3d 7264 203e 6064 7e3e 53b1 febc
00000290: e14f 44be fd52 e03d 0569 95bd 5c8c 0b3e
000002a0: 356a afbd 6b4f f9bd 565a 9c3c 86a3 78bd
000002b0: eed2 0a3d f1cd 003d a003 96bd f5dc 093e
000002c0: ff0c e03d 2ae3 cbbd 60af 933b aa51 9cbc
000002d0: 4cb5 22be e31f 8ebc 67b0 99bd 6217 b3bd
000002e0: 872e a1bd 582f 0a3e 15dd bc3d 0a2f 313d
000002f0: 8398 bd3d cbb8 1cbd ae24 0abe 53a3 d13c
00000300: 6511 b4be 0c70 4bbe 93c8 9cbe 3803 29be
00000310: 459d 20be 3bc1 06bd 41c2 fe3a 579d b73d
00000320: c759 453e 1c43 2ebe f4f3 ccbd 9c24 873d
00000330: 2511 c13d c19b babb 5ce8 9c3d 242f 5a3e
00000340: 946f 333e 9f60 1fbe 8390 1d3e e279 fa3d
00000350: ae61 2b3d 8194 92bd d6f3 203e f812 64bc
00000360: d4d1 18be d2bf c43d 465a 893c 31f9 2abd
00000370: 1381 aa3d e2ae 1fbd 0cd2 50bd 94da cd3d
00000380: cd96 e2bc 9fb8 32be fa2c cfbe dc77 a0be
00000390: c601 b2be bf2d 1cbf 973c e6be c3b5 73be
000003a0: 6694 9ebe f49f 73be a76a 993d ba5e 76bc
000003b0: 8862 b63d 6936 6abd ecb1 d03d f68c 933c
000003c0: 4558 183c 4b3a a83d 7b9e 32bc af0a abbd
000003d0: 9a7c 623c c366 843c 6d10 fdbd c533 1f3b
000003e0: bd80 d93d b900 d33c 9393 a5bd a4a2 603b
000003f0: 7b8e bcbc 2ff6 033e e755 29bc 0223 f2bc
-0.072763555 -0.11364298 -0.05498327 -0.012570698 -0.111865126 -0.07091957 0.03515794 0.02687957
-0.0016216184 -0.0030503252 -0.0118260225 0.005837296 -0.04357202 -0.09790875 -0.12145202 -0.011050142
-0.03713136 -0.08924499 -0.07909429 -0.03228582 -0.042221658 0.013450936 -0.03772323 0.03155905
0.006443332 -0.07990272 0.057342373 -0.01686104 -0.014506001 -0.00827834 0.011884313 -0.092043296
-0.07133673 -0.09870158 0.02758621 0.011768062 -0.0075644557 -0.047453586 -0.045328327 0.02407075
-0.0863955 0.03359935 0.006098516 0.06793908 0.030797763 -0.07710621 0.044411816 0.052852638
-0.04972116 0.037923194 -0.074816644 -0.036972035 0.051062845 0.041920133 -0.08569777 0.040943116
-0.05671021 0.031924903 -0.028688744 0.05077018 -0.10176085 0.035422787 -0.01634233 0.0044104974
0.046206567 0.011637164 -0.029447613 0.05914307 0.054822497 -0.002636272 -0.040452536 -0.104391515
0.038739417 -0.022783447 -0.013065128 -0.05989259 -0.035543647 -0.0108846575 -0.026343843 0.008535229
-0.094118245 -0.0617063 -0.07009392 -0.02325401 -0.055831175 -0.03311556 -0.11124356 -0.08164542
-0.045810375 0.018059809 0.0026924757 -0.028765671 -0.0012911296 -0.042865254 0.045660656 0.0035838343
-0.008709942 -0.0811499 -0.0796198 0.042022094 -0.07427221 -0.065004095 0.022963028 -0.06000932
0.044298068 0.050960995 -0.036057312 0.029223131 -0.07370406 0.034071255 0.08520918 -0.07388003
-0.08318492 0.09131492 -0.059639487 -0.004206613 -0.041588787 0.07780055 -0.012555353 0.020618975
-0.0264391 -0.047014505 -0.077353895 -0.07393675 0.0017192289 -0.05522713 -0.0019064657 0.02040176
0.018942168 -0.00075700565 -0.1030911 -0.03816255 -0.022280678 0.004934354 -0.09633678 -0.06769763
0.0051320894 -0.030939216 -0.08437475 0.0532729 -0.07793655 -0.11859335 -0.012603827 -0.031028649
-0.17743269 -0.26355878 -0.045888055 -0.100603275 -0.07910384 0.01809763 -0.14369184 -0.11755084
0.032521624 -0.1378453 -0.063607834 0.124074675 -0.23922135 -0.008337176 0.08445725 -0.07875666
0.06928877 0.15663317 0.24842978 -0.031090414 -0.19171096 0.10953329 -0.072954215 0.13627762
-0.08565179 -0.12173351 0.019086044 -0.060702823 0.033892564 0.0314464 -0.0732491 0.13463195
0.10939979 -0.099554375 0.0045069903 -0.01908191 -0.15889472 -0.01734919 -0.07504349 -0.08744694
-0.078702025 0.13494623 0.092218556 0.04325775 0.09257605 -0.03826217 -0.13490555 0.025590574
-0.3516952 -0.19866961 -0.30621776 -0.16505134 -0.15684994 -0.032899123 0.0019436554 0.08965557
0.19272529 -0.17017788 -0.10007468 0.065987796 0.09427098 -0.005694837 0.076615065 0.21307045
0.17523032 -0.15564202 0.15387158 0.122302786 0.0418412 -0.07157231 0.15718016 -0.013920538
-0.14923793 0.09606899 0.016766679 -0.041741554 0.083254 -0.03898514 -0.050981566 0.10051456
-0.027659798 -0.1745324 -0.40464002 -0.31341445 -0.34766978 -0.61007303 -0.449681 -0.23799805
-0.30972594 -0.23791486 0.074910454 -0.015037233 0.08905512 -0.057180796 0.10190186 0.018011551
0.009298389 0.082142435 -0.0109020425 -0.08351647 0.013823653 0.016162282 -0.123566486 0.0024292332
0.10620258 0.02575718 -0.08084788 0.003427663 -0.023017159 0.1288688 -0.010335422 -0.029557709

conv3.bias f4 [8]
00000000: 594f c9bd 86cf 1e3e 3e47 343d 5ddc b53d
00000010: f436 4a3c 8b15 1f3e 484b 6d3d 55a3 ee3d
-0.098295875 0.15508851 0.044013254 0.088799216 0.012342203 0.15535562 0.057933122 0.11652247

conv4.weight f4 [16, 8, 3, 3]
00000000: 79d3 b83a 181d 05be 56d4 1abd fdc6 913d
00000010: 03b2 30bd 9050 9dbd edaa debc d52a 38bd
00000020: a7d7 dd3c 9476 163e 84e8 833d 7e71 a13c
00000030: 8ed0 143d 02a0 fb3c 2b4f 273d 6229 5b3e
00000040: e37c 663d eb57 21bd f3f6 1d3e 0865 123e
00000050: 53c6 8dba 4301 833e 7066 d2bc 092f 013e
00000060: 9f8d be3a 8c93 0abe 9d02 9dbd b192 053e
00000070: c359 e03d 9573 f03d ac5f 223e 47f0 3f3e
00000080: 6ca5 87bd 7749 6d3e 7693 703e 77c3 183e
00000090: f2d2 49bd d80a fcbe 16a8 98be e41b 28be
000000a0: c292 d4be 98c9 8fbe 6adc eebd a93f 4cbe
000000b0: b2bc 30be a293 b2bd 6434 69be 2b8c 97bd
000000c0: 7567 97be f1e8 5fbe 85de 88bd 8670 40be
000000d0: 1de6 d8be 4e26 af3c 07aa 353d 3648 53bd
000000e0: e401 0c3e d8f5 033d 874e 04bd f4df 863e
000000f0: 7b2d 20be 8f2f c7bd a7b8 c43d 5c68 e83d
00000100: 6e42 74bd f0de f43d 8e21 f03d 6fde 143d
00000110: 1564 183d 4528 183d 8e12 81bd f5b1 913c
00000120: 5121 8fbd 27f7 5ebd afa4 8a3d 1efb cd3d
00000130: 0e01 dcbc 6fa3 b7bd b6b9 ccbc 449a f7bc
00000140: 7f63 5b3d 1af6 b8be 5432 febd 5c51 82be
00000150: 11dd 123b 9a25 27be 07eb cbbd 447c e13c
00000160: 7476 a43d e636 aebd ed2d afbc 5ff5 ce3d
00000170: abb7 453d b721 e23d f802 783d cb4a 713e
00000180: 4ba4 08be 163e b03d 203c 00bd 1a61 04be
00000190: 8f2b 0f3d ecb2 373e 7310 a83d 6197 47be
000001a0: b292 b6bd 589d 93be c781 85be 3b2f 0d3d
000001b0: 1f6f 3d3c 44ad 063c b721 e73d 8193 9abd
000001c0: 262e 213d 8f10 2f3e e104 97bd 82e0 833d
000001d0: 2f66 133d 0196 99be 24dc 2bbe 8782 95be
000001e0: 35ed 99be c861 58be 0a80 86be 74ff 4dbe
000001f0: 1c10 ae3d 87c4 d0bd eb28 393c 274c d93d
00000200: 7ad5 a83d 2aa3 c2bd d656 773e 0988 393e
00000210: 6f23 2dbe 16e9 08be 55ab cbbd 474e 083d
00000220: 7d04 a83c e2b8 bf3d 640e a23d ae4d 613e
00000230: 8d6e 883e a765 23be 04d3 a9bd 96a8 d9bd
00000240: bec7 cd3c 5822 8a3c a8ab efbd 6da8 97bd
00000250: 4d85 babd d9b6 2f3d 5a78 993c bc3b bbbc
00000260: 70b8 333d b433 973d e8db c1bd c9c9 863d
00000270: 5f04 1b3e 8d20 a43d 8431 46bd 336a b23c
00000280: d97c 263d 74bb 263c 53a1 493d 7a6d 59be
00000290: 845a 2bbe ab64 e53d a6ce da3c 5d82 47be
000002a0: e2fc 7abd 2af9 c53c a508 1b3e e883 3bbe
000002b0: f924 00ba b7dd be3d baf4 05bb f68e 823d
000002c0: 0d5b 8ebd b674 dd3c 4af0 12bd 59f8 2ebe
000002d0: bb0b cebc 0622 3a3e 020c 403e 62fe 97be
000002e0: 4197 d3ba 22ff ca3d bf6d 9fbe bc51 a9bc
000002f0: 973f 1c3e 6efb 293e d1ac 1cbe ff57 73be
00000300: ba07 a7bd 0640 433e e850 2ebe 69dc 30be
00000310: 82d7 403e be50 973d 135f aa3e 76a9 8bbe
00000320: 41af 1bbe 0b75 2e3e a631 d6bd 18ad e4bd
00000330: 378d babc d8a8 d53d 0f1e c7bc edca 07bd
00000340: 5a32 f83d 6b60 c2bd f706 d7be 578f cabc
00000350: d738 913e 6f26 b4bd d955 44be 8c8f 083e
00000360: 52dc aabd 4c28 83bd f0c7 1abd 4011 903b
00000370: 9c9a 963c cd24 d33d b205 33bd de52 89bd
00000380: 044a a6bd 15ab 753d ac97 853e c76c e8bc
00000390: 68f1 133c 9e33 473d 032d 3cbd f841 413c
000003a0: 4123 0ebc 9250 58be e6aa 913e e1f4 e0bc
000003b0: 1474 ec3d ce00 863e 84c2 883c c717 75bd
000003c0: 4b3d 7a3e 7449 13be 34f3 33be 8c42 8b3e
000003d0: 7b83 a8bc 2e4e 95bd 2634 0b3e 45bc 06be
000003e0: 218a a23a 253b 013e f885 3e3c a3ab 8a3e
000003f0: c880 99be cc4f 003e a81b 333e 4dfa 95be
0.001410111 -0.1299938 -0.037800156 0.07118032 -0.043138515 -0.07681382 -0.027181113 -0.044962723
0.02708037 0.14693671 0.06440833 0.019707438 0.036331706 0.030715946 0.040846985 0.21402505
0.056271445 -0.039390486 0.15426235 0.14296353 -0.0010816552 0.255869 -0.025683612 0.12615599
0.0014538056 -0.13532847 -0.07666514 0.1304424 0.10954621 0.117407955 0.15856808 0.18744002
-0.066233486 0.23172556 0.23493752 0.14918314 -0.04927344 -0.49227023 -0.2981574 -0.1641689
-0.41518217 -0.2808349 -0.116631344 -0.1994616 -0.17259482 -0.08719565 -0.22773892 -0.07399782
-0.2957112 -0.21866204 -0.06683067 -0.18792924 -0.42363063 0.02138057 0.044351604 -0.051582538
0.13672596 0.032216877 -0.032301452 0.26342738 -0.1564235 -0.09725868 0.09605532 0.1134803
-0.059633665 0.119565845 0.1172515 0.03634494 0.03720482 0.03714778 -0.06302367 0.017785052
-0.069887765 -0.05443492 0.06769692 0.100576624 -0.026855972 -0.08966719 -0.024990898 -0.030224927
0.053561684 -0.3612526 -0.12411943 -0.25452697 0.0022409598 -0.16322938 -0.09956937 0.027525075
0.08030406 -0.08506565 -0.021384204 0.101053946 0.048270863 0.11041587 0.060549706 0.23563688
-0.13343923 0.08605592 -0.03130734 -0.12927666 0.03495365 0.17939347 0.082062624 -0.1949134
-0.08914699 -0.2883098 -0.26075575 0.03446887 0.011562138 0.008220021 0.112857275 -0.075476654
0.03935065 0.1709616 -0.073739775 0.06439306 0.03598612 -0.29997256 -0.16783196 -0.29201147
-0.30063787 -0.2113105 -0.2626956 -0.20116979 0.08499166 -0.101937346 0.0113012595 0.10610228
0.082438424 -0.09503777 0.24154219 0.181183 -0.16908048 -0.13370165 -0.09944788 0.033277776
0.020509953 0.093614355 0.07912901 0.22002289 0.26646844 -0.15956746 -0.08292201 -0.10627858
0.025119659 0.01686208 -0.11702663 -0.074051715 -0.09107456 0.042898986 0.018734146 -0.022855632
0.043877065 0.073829085 -0.09465772 0.06581456 0.15138386 0.08014021 -0.048387066 0.021779155
0.040646408 0.010176528 0.049226116 -0.21233168 -0.16733748 0.112008415 0.026709866 -0.19483323
-0.061276324 0.024166662 0.15140016 -0.18312037 -0.0004888322 0.093196325 -0.0020440058 0.06374924
-0.0695096 0.027033191 -0.03587369 -0.17086925 -0.025152078 0.18177041 0.1875458 -0.29686266
-0.00161431 0.09911944 -0.31138417 -0.020668857 0.15258633 0.16599819 -0.15300299 -0.23764037
-0.081557706 0.19067392 -0.17023051 -0.1727158 0.1883221 0.07388447 0.3327566 -0.27277726
-0.15203573 0.17036836 -0.104586884 -0.111658275 -0.022772415 0.10432595 -0.024306325 -0.03315251
0.12118979 -0.094910465 -0.419975 -0.024726553 0.28363678 -0.08796393 -0.19173373 0.13336009
-0.08342804 -0.064041704 -0.03778833 0.0043965876 0.01838427 0.103097536 -0.043706603 -0.06705259
-0.08119586 0.05997761 0.2609228 -0.028372182 0.009029724 0.04863321 -0.045941364 0.011795513
-0.008675397 -0.21124485 0.28450698 -0.027460517 0.11545578 0.2617249 0.016694315 -0.05983713
0.24437444 -0.14383489 -0.17573243 0.2719921 -0.020570507 -0.07290302 0.13594112 -0.13157757
0.0012400785 0.12620218 0.01162862 0.27084073 -0.29981065 0.1253044 0.17491019 -0.29292527

conv4.bias f4 [16]
00000000: 3ddc 213e 84cc fa3d 9181 9ebd 0fc0 14be
00000010: a831 de3d 83ed 153e 37aa 9fbd 759e 633d
00000020: 2772 d3bc da66 17be 5255 a43d b381 e73d
00000030: 5a0d d1bc 7d71 c03d b562 32be b5af 7b3c
0.1580667 0.122460395 -0.077395566 -0.1452639 0.10849315 0.14641385 -0.07796138 0.05557104
-0.025811268 -0.14785329 0.08024086 0.11304035 -0.025519062 0.09396646 -0.17420466 0.015361716

conv5.weight f4 [16, 16, 3, 3]
00000000: 7a76 cc3c 308f 173e 6187 c73d 5e00 033e
00000010: ac95 923d dc1d 6e3d deb3 5e3d 260e 49bd
00000020: 9f43 763d 1750 35be a4f3 a4bd 227f a2be
00000030: 8d2c 8f3c c869 62bd efb5 99be 6758 64be
00000040: 0463 0ebe 7643 ebbd a56d c5bc 213e 4cbd
00000050: 3f65 23be 0d2e efbc 475a 44be beb2 3fbe
00000060: abb9 993d a986 f7bc f2fb 4c3e 4329 1e3e
00000070: 39fd c43d 8871 d03d 9c10 083e 20f4 363d
00000080: 43df e238 c695 5b3e 7df9 573c fada a73d
00000090: ae51 3b3e 6a8d bebd ae92 cfbe 7647 713e
000000a0: 03fe 24bc 2133 6cba e2f4 8abe 4411 84be
000000b0: 23c2 053e 9743 35be ea08 88bd 3796 8cbd
000000c0: c241 a3bd fa98 8fbd a5d2 0e3d 679e 333c
000000d0: a78b 45bd bc0a cdbc 9676 d0bd dc2e 25bd
000000e0: 5e8b b03d 048f c9bb 4207 093d abbd 813d
000000f0: b1b5 013e ebfe 903d 7ab9 fb3c f37b 3abe
00000100: 42c5 10be 5d0e 2cbe 4f08 80be 2c02 d8bd
00000110: ebaa 6fbe 36e3 21bd f2eb 34be 4ff2 56be
00000120: dc59 823d 1d66 a9bd 13f2 0fbe 6d71 efbd
00000130: 518f 5f3c b318 f73c 1737 283d 37bd 313e
00000140: ca4d c63d 9f6e efbd 5dd8 febd b827 aa3d
00000150: 0540 91be c03c dcbd ba54 f13d 65d0 d73d
00000160: 5ffa 333d 0c92 173d 55db 4ebe fa33 79be
00000170: 2800 cbbe 1a12 bdbe 0eb9 5dbe 2b48 4dbe
00000180: 149a c3bd 87a5 0ebe becd 9bbc a31b 4c3d
00000190: e1d8 173e 2c75 473d 30d6 d23d 676f 40bc
000001a0: ce95 f6bc 6a1f 4d3d 0fb1 063e de1b 9d3d
000001b0: beec 6fbb 598e 06be 0e78 d1ba 9e6a 85bb
000001c0: 6421 093d 41ed 373d 7e8d 1bbb 54ae f23d
000001d0: 3954 e5bd ca17 4d3d 4df8 423e 59fe 043d
000001e0: b4ce 4d3d 6191 a53c 78b4 4bbd 5414 f93d
000001f0: 92c5 1d3e b654 a13c 490b 27bd d16b 043d
00000200: d140 c7bd 7d60 0bbe 0c04 0d3e a11f c23d
00000210: 57bf bebb 6353 a8bd f47e e83d 2b15 d6be
00000220: b211 d5be 6ee4 acbe 398f 57be 5252 82be
00000230: 159a 98be 3adf 153e 9f62 19be 57d5 473c
00000240: fe81 7bbd c785 ecbc 5ab3 89bc ffab 04bc
00000250: 8750 c6bd e1d3 8abc 834b 48bd 09ff 95bc
00000260: f5e1 813d b5ab 18be db23 e3bd 0dd2 98bd
00000270: 3fab 85bd a0f7 b0bd 4581 633c c964 70bc
00000280: b4f8 a6bd eea9 783b 82e0 0dbe 6086 e6bd
00000290: 1dd5 52bd 7c0a 84bd 1c27 9e3d de00 12be
000002a0: 5be3 fd3c d8d2 3bbc bbcd 5b3d 07c8 babc
000002b0: 6b3c 92bd 7228 abbd 47af e23c 9f0e 83bd
000002c0: 3dbf fcbc 61f9 67bd 071d 813d b692 0f3c
000002d0: a92c 133d 6fa7 0bbd de27 893c 4f68 a2bc
000002e0: 74b9 15bd 0701 e9bd 4de1 29bd 1830 9fbd
000002f0: ad71 7abd fca5 3b3d 8358 92bd 2d27 6cbd
00000300: 74fa 6ebd 8d74 02be 7117 1cbd c28f 083c
00000310: 76b2 a2bc 5a69 aabd a422 ef3c d45d a9bd
00000320: 41f1 42bd c195 86bc 7aab c1bc 0fca 0bbd
00000330: c55d eebc 0dba 45bd 0119 403d 7a73 c7bd
00000340: f4df c93c d487 b9bb 6bd4 afbd fd1f 4aba
00000350: 46db b3bd d2fd 7dbd 5b01 473d c372 913d
00000360: 84ac 173d 951a bfbd e86b f5bd a78c f7bd
00000370: 570e e8bd a0d4 94bd f367 17be f7dd 16be
00000380: b4fa 363d bf21 14bd c374 90bd ea4a c9bc
00000390: 6dc9 8b3d 6f69 003d 51be 01bc 61ef 773d
000003a0: 1a0b 6abd fd2a 39bd cc27 bf3c 5615 b7bd
000003b0: 4004 94bd 602a 1dbd f4e1 dcbd be9d 21bc
000003c0: 48b8 4dbd 355f 04be 9ee8 b8bd 5a4b a6bd
000003d0: 616c afbd 7409 10bd 87e9 b1bd 682d debd
000003e0: 70bb 2dbd eeae ebbd 1e92 dc3c d39c 08bd
000003f0: 2a6c 75bd 9aa6 1bbd eb8c 093c c97e 823d
0.024958838 0.14800715 0.09742618 0.12793109 0.07157454 0.058133945 0.054370753 -0.04908576
0.060123082 -0.17706333 -0.08054283 -0.3173762 0.017477298 -0.055276662 -0.30021617 -0.22299348
-0.13904959 -0.114874765 -0.024100134 -0.04986394 -0.15956591 -0.029196763 -0.19175063 -0.18720528
0.075061165 -0.030215578 0.20017985 0.15445428 0.09618611 0.10177904 0.13287586 0.04466641
0.000108181055 0.21443853 0.013182041 0.08196063 0.18292877 -0.09304316 -0.40541595 0.23562416
-0.010070327 -0.00090103043 -0.27139956 -0.25794423 0.13062339 -0.17701565 -0.06642325 -0.06864589
-0.07971527 -0.070116 0.034868855 0.010963059 -0.048228886 -0.025029533 -0.101788685 -0.04032789
0.08620332 -0.006151082 0.033454187 0.063350044 0.12666966 0.07079872 0.03072809 -0.18211345
-0.14137748 -0.16802354 -0.2500634 -0.10547289 -0.23405044 -0.039523326 -0.17668131 -0.20990871
0.063647956 -0.0827143 -0.14057188 -0.11691556 0.013645009 0.030163145 0.041068163 0.17357336
0.09682806 -0.11691021 -0.12443612 0.08308357 -0.28369156 -0.10753775 0.117837384 0.10537795
0.043939944 0.037004516 -0.20200856 -0.24336234 -0.39648557 -0.36927873 -0.21652624 -0.20047061
-0.095508724 -0.13930331 -0.019019004 0.049831044 0.14828826 0.04869573 0.10294759 -0.01174531
-0.03010073 0.050078787 0.1315348 0.07671331 -0.0036609615 -0.13140239 -0.0015981214 -0.0040715476
0.03347911 0.044903997 -0.002373546 0.11849657 -0.11197705 0.050071515 0.19040032 0.032469127
0.050245956 0.020210924 -0.049732655 0.121620804 0.15407398 0.019693714 -0.040782247 0.032329384
-0.097291596 -0.13611026 0.13771075 0.09478689 -0.0058211493 -0.0821903 0.113523394 -0.41813025
-0.41615063 -0.33768028 -0.21050729 -0.2545343 -0.29805055 0.14635935 -0.14979027 0.01219686
-0.061403267 -0.028872384 -0.016809154 -0.008097648 -0.09683328 -0.016946735 -0.04890014 -0.018310087
0.06341926 -0.14909251 -0.11090823 -0.07461939 -0.06526803 -0.08640981 0.013885801 -0.014672467
-0.08152905 0.0037943083 -0.13855174 -0.11256099 -0.051472772 -0.06447312 0.07722303 -0.14258143
0.0309922 -0.011463843 0.053662997 -0.022800459 -0.0714043 -0.08357324 0.02767147 -0.06399273
-0.030852908 -0.05663431 0.06304365 0.008763006 0.035931263 -0.034095224 0.016742643 -0.019825129
-0.036553815 -0.11377149 -0.04147463 -0.07772845 -0.061143566 0.045812592 -0.071457885 -0.05765455
-0.05834432 -0.12739773 -0.038108293 0.008335056 -0.019860487 -0.083208755 0.029191323 -0.082698494
-0.04759336 -0.01642883 -0.023641337 -0.034128245 -0.029097447 -0.048273135 0.046898846 -0.09738822
0.024642922 -0.005661944 -0.085854374 -0.0007710455 -0.087820575 -0.06200964 0.048585277 0.07101967
0.037029758 -0.09331242 -0.11983472 -0.12087374 -0.1133086 -0.072671175 -0.14785747 -0.1473311
0.044672683 -0.036164995 -0.070535205 -0.024571855 0.06825528 0.03135055 -0.00791891 0.060531024
-0.057139494 -0.045207012 0.023334406 -0.089396164 -0.07227373 -0.03837049 -0.10785285 -0.009864269
-0.050224572 -0.12926944 -0.09028743 -0.08119841 -0.085655935 -0.035165265 -0.0868712 -0.10848504
-0.042415082 -0.115079746 0.026925143 -0.033352684 -0.059917606 -0.03800068 0.008395414 0.063718386

conv5.bias f4 [16]
00000000: 8baf 6d3e f84b cebd 32bd a43d d527 f93d
00000010: 1a55 c83d 8237 9c3c b2a4 6e3d 74a0 833d
00000020: 8d3c 18be 2b17 fabd 3283 743e 9ec4 91bd
00000030: 530a 043e 6255 0b3e cd3a 7d3d e33b c03e
0.23211496 -0.10073084 0.08043899 0.121658005 0.09781857 0.019069437 0.058262534 0.064270884
-0.14866848 -0.1221145 0.23878172 -0.0711758 0.12894563 0.1360679 0.061823655 0.3754569

conv6.weight f4 [8, 16, 3, 3]
00000000: e08d 51be f143 55bd 611f c2bd b19b 3bbd
00000010: 8d4e d03d 7a6c dfbd dd0f 01be a6bb 303e
00000020: 95ea 903d e6fc 303d 57cd 3f3a a304 ea3d
00000030: 9c94 d03d bd70 4abd 2c2f a6bd 29a9 b63c
00000040: 8f96 a93d 4ece 29bd c750 b43d eda8 93be
00000050: 077e 3ebd 4f21 2b3e 01ca 71be d205 57be
00000060: 34ce 193d a931 9fbd b604 a8be ee51 63be
00000070: f1c8 b9be 6cae c1bc c7a7 70bd 3370 76be
00000080: a2f8 a53d d0c2 3f3d 1e4e a13d dbb6 123c
00000090: 4e50 77bd 4f51 b33d aa72 533d f4fc 593e
000000a0: 77aa 753d c253 33bb 6713 f73d 2333 033e
000000b0: 714e 4c3d 37a7 4dbd 1cc4 53be 0715 a0bd
000000c0: 2aea 943d 5a6b 33bd 2ff2 07be 9b0b d6bd
000000d0: 4f0d 8cbd 4829 96bb e26a 333c 3f6d e73d
000000e0: a41a d1bd 4827 773e 7bb4 cc3d a72d 2b3e
000000f0: 14af 043e 7b7a ea3d 1c50 a63c 7617 8ebe
00000100: b2de f9bd d668 8fbd 7d8a 4f3e d96f 6c3d
00000110: 9f0f 9c3d c6d1 e0ba 32e3 b63b 3e8a 763d
00000120: 44e3 f9bc 510b 753c 2854 33bd 7ea5 893d
00000130: 3b06 2abe ae24 13bc e016 c8be 6e06 cabd
00000140: ee26 a8bc 2080 2c3e a7b3 f1bc 2aa8 59be
00000150: 9585 9d3d e05d ebbd 508e 1cbe 5e30 b33d
00000160: 4c3a 9e3c 5720 bebd 5faa 6ebe d4bb 0b3e
00000170: e3cb 933e 58e8 8abe 251d 933d 1f7d 413e
00000180: 2fe7 61be d6a6 463d bbc3 773d b17c abbd
00000190: 9aec f23d 2038 dd3d 69c3 d53c efa8 893d
000001a0: f3a5 cabc 035d 8abc e60a 1b3e ba45 173e
000001b0: c08b cd3e f176 d1bd 51d1 4bbe 9f72 7e3e
000001c0: 1464 70bd b3fb 3bbe 488d 243e 7d4a 06be
000001d0: 42ea 41bd d476 e23e 11f6 4bbe 34fb 8ebe
000001e0: 066b 853e 739a 2cbd 20cd b1bd 3501 633e
000001f0: 1385 43bd 06ec b1be 8507 533e 4758 40be
00000200: ba0d 84be 99dd a73d 93ab aabd c1ff 9bbe
00000210: 8c98 973d 78e1 76bd 4c5d 70bd ea5d 4cbe
00000220: 7a90 333c 9783 b13d 9595 3bbe 916e 063e
00000230: f17d 4d3e 3f90 1c3d 3b86 bf3d 4cb5 1f3e
00000240: 13d6 a73d 0149 b53e 7e5a ed3d 089a f13d
00000250: 39fc 373e 6ef3 2a3e 045b 833d 53f5 5abe
00000260: e7a0 05be cf9f 71bc 2be6 3d3c 19d0 1a3b
00000270: be0f a5bc a678 1fbd 3c2c 9e3d 258d 0a3d
00000280: a327 0ebd af3d 863d c9e8 dabd 4149 3abe
00000290: d646 ba3d a522 44be 665f 193d e5d6 403e
000002a0: 128b d03d ee05 373e f5bc b7bd f81a 9cbd
000002b0: bdf8 043e 3283 723e 9d64 5c3e c6c6 1c3e
000002c0: d07c 8e3d 15b2 db3e a5b6 133e 87d5 7cbd
000002d0: c0d0 b4bd 22b4 46be 0804 92bd 36e6 23be
000002e0: 1bdb 93be e202 32be cc8d fbbd 090f 9fbe
000002f0: 0f26 c83d d98a f13b 868d 043e dc53 8f3d
00000300: c9a1 0b3e dd78 9f3d 27ae 22be 7ac5 da3d
00000310: df51 9d3b f790 c2bc 37d2 1b3e f804 733d
00000320: f794 423b ae80 8bbd 126b 2abe 0acb e2bd
00000330: d3b3 4a3d a2da b1bc 6444 56be 67ee 9d3d
00000340: 282c 313c 84bf acbd 0569 6ebd 3a31 ecba
00000350: f711 a33d 29f4 31be 5bcb 603b fdda 903e
00000360: 20b7 483d 9bae d0bd 2d67 073e 4148 0c3e
00000370: 31d3 b4bd d806 933c 76bb 103d 25a3 0dbe
00000380: 7bf2 c73c 1df6 1bbe f724 cdbd e643 02be
00000390: e56d 04be 57d5 79be 1935 f2bc 1975 4cbe
000003a0: 8c2f 93be 3cd9 0f3e d572 4d3d 44e1 9d3c
000003b0: 2888 bc3c 3bdf 0b3e 41f4 80bd a7f3 bdbd
000003c0: 39bd 5b3e 5724 dfbc 2a5d 7cbe 65cd 9f3d
000003d0: c34c d7bd 9057 43bd c1c8 713d 2158 2dbd
000003e0: b357 1dbe 5ba8 113d a7cd 1bbe 4140 5ebe
000003f0: fae9 0cbd 5ef0 03bd 21bd 85be 99db 40bd
-0.20464277 -0.052066747 -0.09478641 -0.045802776 0.10171232 -0.10909362 -0.12603708 0.17259082
0.07075993 0.043209933 0.000731667 0.11426666 0.10184595 -0.04942392 -0.08114466 0.022297459
0.0828067 -0.041456513 0.088044696 -0.28839818 -0.046506908 0.16711925 -0.23612215 -0.20998314
0.037550166 -0.07773144 -0.32816094 -0.22199222 -0.3628612 -0.023642741 -0.058753755 -0.24066238
0.081040636 0.046816647 0.07876228 0.008954729 -0.06037932 0.08755743 0.051623024 0.212879
0.05997702 -0.0027363156 0.120642476 0.12812476 0.049879495 -0.050208297 -0.20680279 -0.07816511
0.07271226 -0.04380355 -0.1327598 -0.10451432 -0.06838476 -0.004582558 0.010950776 0.11300134
-0.102101594 0.24136078 0.099953614 0.16716634 0.12957412 0.114491425 0.020301871 -0.27752274
-0.12200679 -0.07002418 0.20267673 0.057723854 0.07620167 -0.0017152361 0.005581283 0.06019043
-0.030503877 0.014956311 -0.04378143 0.06721018 -0.16603939 -0.008980913 -0.39079952 -0.098645076
-0.020526376 0.16845751 -0.02950461 -0.21255556 0.076914944 -0.114925146 -0.15288663 0.0874946
0.019314907 -0.09283512 -0.23307179 0.1364587 0.2886649 -0.2713039 0.07183293 0.18895386
-0.22060846 0.04849895 0.060489397 -0.083733924 0.118615344 0.108017206 0.026094155 0.06721675
-0.024737334 -0.016890055 0.15140876 0.14772692 0.40145683 -0.102277644 -0.19904067 0.24848412
-0.058689192 -0.18357734 0.1606952 -0.13114353 -0.047342546 0.44231284 -0.19918086 -0.27926028
0.26058215 -0.04213948 -0.086817026 0.22168429 -0.04773433 -0.34750384 0.20608337 -0.18783675
-0.25791723 0.08196563 -0.083335064 -0.30468562 0.07402143 -0.060273618 -0.058682725 -0.199577
0.010959739 0.08667677 -0.1831878 0.13128115 0.20067574 0.0382235 0.09351774 0.15596503
0.08195128 0.3540726 0.11589526 0.11796957 0.17967309 0.16694424 0.06413844 -0.21382646
-0.1304966 -0.014747574 0.011590521 0.002362257 -0.020149108 -0.03893342 0.07723281 0.033826012
-0.03470577 0.06554734 -0.106889315 -0.18192007 0.09095542 -0.19153841 0.037444495 0.18831976
0.101827756 0.17873356 -0.089715876 -0.076223314 0.12985511 0.2368286 0.21522756 0.15310201
0.069574 0.42909303 0.14425142 -0.061727073 -0.088288784 -0.19404653 -0.07129675 -0.16005787
-0.28878102 -0.17383912 -0.12282905 -0.31066158 0.09772884 0.0073712883 0.12944612 0.06998417
0.13635935 0.07786725 -0.15886746 0.10682197 0.0048010196 -0.023750765 0.1521691 0.05933091
0.002969084 -0.06811653 -0.16642407 -0.11073883 0.0494879 -0.021710698 -0.20924526 0.07711487
0.01081375 -0.08434966 -0.058205623 -0.0018020042 0.07962411 -0.17378296 0.0034300897 0.28292075
0.049002767 -0.10189553 0.13222952 0.13699438 -0.08829344 0.0179476 0.035335027 -0.13831766
0.024407616 -0.15230604 -0.10016816 -0.12721214 -0.12932546 -0.24397789 -0.029566335 -0.19966544
-0.28747213 0.14047712 0.05015834 0.019272454 0.023014143 0.13659374 -0.06296588 -0.092749886
0.21458901 -0.027239008 -0.24644914 0.07802848 -0.10512688 -0.047690928 0.059029344 -0.042320374
-0.15365486 0.035560947 -0.15215169 -0.21704198 -0.034402825 -0.032211654 -0.26120856 -0.047084425

conv6.bias f4 [8]
00000000: 2edf f73c 710a 093d 706f 663e 7115 20bd
00000010: a6d5 96bd 59e1 3f3e 7fc2 efbd f234 a9bd
0.030257788 0.033457223 0.22503448 -0.039082948 -0.07364969 0.18738307 -0.11707019 -0.08262052

prediction_layer.weight f4 [10, 512]
00000000: b1d5 e43d 5743 0cbe 6902 15bd 8f8c 20bd
00000010: 7919 92be c838 7abd 1ab9 34bc 8ce8 cfbd
00000020: e1ab 8e3d 3fa6 8cbd 778c 2c3e 9d34 803e
00000030: 9104 2bbd 8eea d53d 8f84 f93d 305e 533c
00000040: 051a 22bd 65a2 95be b03c c23d 0bf4 a8bd
00000050: b5e3 fbbd b148 81bb 3225 073e 7683 a2bd
00000060: c9e1 84bb 145c 68be e355 e53c a65c d53d
00000070: 4efb 93bd 67c6 a13a 5a0f 123c af49 2c3c
00000080: aa0a 74bd 9541 a4be b4b1 34be 51ea c0bd
00000090: 719b 5cbd cc9b 05be 0f3b f6bc 9169 0fbd
000000a0: db21 efbd 17a2 79bd eacd 84bd adab 1abc
000000b0: 6ef3 cdbd c84f f6bd 7218 4ebe 9576 c33d
000000c0: 87a0 3a3d 6d04 05be 1a14 d7bc cb9c 183e
000000d0: 7bbb 15be dd88 08be af19 86bd 45d5 383d
000000e0: 8aef c93c b70b 9ebc 1373 debd cb83 8bbc
000000f0: 28e2 1f3d 3e71 8ebd 0f73 07be 29a0 14be
00000100: 713c 02bd afbb 153c 7f93 56bd cd47 2e3b
00000110: d850 c73b 3db2 4c3e 11e8 01bd 0eed 4c3d
00000120: b4f7 4abe d1ec abbd d911 38bd 327f e5bd
00000130: 2241 0fbb 275c b43d e2bf 913e b40d 7b3d
00000140: b1e5 403c 9a00 f0bd f592 bc3d af0e f23d
00000150: c042 c53d 4774 d83d ecc9 1f3e 93ac 053e
00000160: 107b 8d3e 1812 acbd 59d4 ce3d 4274 483d
00000170: 464a 433e f677 543c 3a2e 223d 60ad 5cbc
00000180: d6df 6c3e f1ab 963c f843 ed3d 0a87 babc
00000190: 7ecb 1cbd a1d6 37be 6c1e 46be 5be8 37be
000001a0: 9549 a23e 663b b73c 9251 b83c 5d6c d5bc
000001b0: 9272 f7bd 68c6 c8bc da48 85be 2ff1 40be
000001c0: 5bac 223e 8352 433e d41d c43d 567b 79bd
000001d0: c7d4 37bd bd2e febc 41f9 54be f0ae d0bd
000001e0: b2e0 b03e 5846 d4bd 43a1 eabd 8d5c 56bd
000001f0: 0bc7 24be defa 11bd ea8d d63a 2b0f 113e
00000200: 53fd 37bc 713b b03d 51cb a73d 7798 ba3d
00000210: 232e 113e e0bc 313d b596 22bd 9303 8c3d
00000220: be19 9f3d 4d39 823d 2209 e9bc b04a f4b7
00000230: 3d27 96bc 6f46 383c 7b95 f5bc e69e fa3d
00000240: c645 ad3d 228c 423c e2a6 003d 911d fa3c
00000250: 3dd3 14be 3bae afbd 1ff7 17bd a44c d63d
00000260: 4511 603d be27 f93c 0508 31be f809 97bd
00000270: 69fe 5abe cdf8 9fbe c819 1ebe 0449 473e
00000280: 7e14 a43d bc4a 08be 0e95 78be ad0f 8abe
00000290: ffc4 88be 1d62 89be 6d9f 5bbe 9179 853e
000002a0: 9acd 75bd b89e ad3c eeb1 e1bc 5bdb 38bd
000002b0: 4b05 88ba 8937 8abc cd56 13be 5660 943d
000002c0: d196 3ebe 68dd a7bd 6006 c23b 3e62 56bc
000002d0: 92c4 8ebd 2783 c6bd f020 0bbe 2de1 c9bd
000002e0: 5a2d 3fbe 110b 84bd 1c8f 44bc 1b38 ce3d
000002f0: 5bbf 513b 2bdb bebd 069c cebd 49ea 2abe
00000300: 7c11 6a3e 7985 443e 8608 1a3d 4f27 21bd
00000310: 0ef5 cabb 7c7a acbd e8f3 033c 456e 913e
00000320: 87a7 9c3e 937f 383e 193b d13d d4f6 c03c
00000330: bb8f 543d 680b 8cbd 4cea bdbc fda9 263e
00000340: 1b71 2b3e 5666 823e 7f46 033e 6f85 0e3e
00000350: 379d 7d3d 0712 c83d 050e 9a3d 1ced 4c3d
00000360: 2572 433e 706e 003e e94f 343e 6186 823d
00000370: 9bd5 6d3d 7826 933d 566f 9e3c 9ee9 d43c
00000380: 0f91 b53c 2a4f f13d acd8 ea3b 810c 813d
00000390: 3ccc e4b8 2f6c c03b d7a5 5a3d 5c8e e6bc
000003a0: 9554 9b3d 288f d9bc 0c88 e8bd d259 573d
000003b0: c20d bdbc 7f0d 5ebc a71b 853d d292 983d
000003c0: d27b d83b 235e 02bd da46 913c 0280 e2bd
000003d0: 282f 2cbd 28cd 2bbd 471d f93b d085 853d
000003e0: 0d07 b93d 531f 793d 26cb 103e 9564 213e
000003f0: 2e67 c73d eceb 533e df2d 6e3e e7d7 063e
0.11173571 -0.13697563 -0.03637925 -0.039196547 -0.2853506 -0.061089307 -0.01103046 -0.10151777
0.06966377 -0.068676464 0.16850458 0.2504014 -0.0417524 0.104451284 0.12183487 0.012900874
-0.039575595 -0.2922546 0.094842315 -0.082496725 -0.12299291 -0.003945433 0.13197783 -0.079352304
-0.004055236 -0.22691375 0.027995056 0.10418062 -0.07225667 0.0012342454 0.008914793 0.010515614
-0.059580483 -0.32081285 -0.17645913 -0.09419692 -0.053859178 -0.13047713 -0.030057458 -0.035012785
-0.11676379 -0.060945597 -0.064845875 -0.009440345 -0.10056196 -0.12026936 -0.20126513 0.09544102
0.045563247 -0.1298997 -0.026254702 0.14903562 -0.146223 -0.13333459 -0.065478675 0.045125265
0.024650354 -0.019292695 -0.108617924 -0.017030617 0.03903404 -0.06955193 -0.13227485 -0.14514221
-0.031795923 0.009138986 -0.052386757 0.002659309 0.0060826354 0.19989868 -0.031715456 0.05003076
-0.19821054 -0.083947785 -0.044938896 -0.11205901 -0.002185889 0.08806639 0.28466707 0.061292365
0.011773513 -0.11718865 0.09207717 0.11819207 0.09631872 0.10569053 0.15604371 0.13054113
0.27632952 -0.084018886 0.10099096 0.048938997 0.19071302 0.012968054 0.039594866 -0.01346907
0.23132262 0.018392535 0.1158523 -0.02276947 -0.038280003 -0.17952968 -0.19347543 -0.1795973
0.31696764 0.02236719 0.022499833 -0.026052648 -0.120823994 -0.02450867 -0.26032144 -0.18842004
0.15886061 0.19074444 0.09576002 -0.060908638 -0.044880655 -0.031028146 -0.20798208 -0.10189617
0.3454643 -0.103649795 -0.114565395 -0.052334357 -0.16091554 -0.035639636 0.0016369198 0.14165942
-0.011229831 0.086050875 0.081930764 0.091111116 0.14177756 0.043393016 -0.039694507 0.06836619
0.07768582 0.063585855 -0.028446738 -2.9121846e-05 -0.018329257 0.011247261 -0.029978504 0.12237339
0.08460574 0.011874231 0.03140915 0.030531676 -0.14533706 -0.08578154 -0.037100907 0.10463837
0.05470397 0.030414458 -0.17288215 -0.07374948 -0.21386112 -0.31244507 -0.15439522 0.19461447
0.08011721 -0.13309759 -0.2427561 -0.26965085 -0.26712796 -0.26832667 -0.21447535 0.2606931
-0.06001053 0.021193847 -0.027550664 -0.04513107 -0.0010377554 -0.016872184 -0.1438858 0.07244937
-0.1861222 -0.08196527 0.00592117 -0.013084946 -0.069710866 -0.09692984 -0.13586783 -0.09857402
-0.18669644 -0.06447423 -0.011997011 0.10069295 0.0032004926 -0.09319147 -0.10088353 -0.16690935
0.22858232 0.19191541 0.037605785 -0.03934413 -0.0061937636 -0.084217995 0.008053757 0.2840444
0.30596563 0.18017416 0.1021635 0.023555197 0.051894885 -0.06838113 -0.02318301 0.16275783
0.16742365 0.254687 0.12819861 0.13918088 0.06191751 0.097690634 0.07522205 0.050030813
0.19086511 0.12542129 0.17608608 0.06373287 0.05806504 0.07185072 0.019340198 0.025990304
0.022163896 0.117826775 0.0071669426 0.06301213 -0.00010909929 0.0058722715 0.053380813 -0.028144054
0.07584492 -0.02655752 -0.11354074 0.052575894 -0.02307785 -0.013553022 0.06499415 0.07449879
0.0066065574 -0.031828057 0.01773398 -0.11059572 -0.04203716 -0.0419437 0.007602367 0.06519663
0.09034548 0.06082089 0.14139995 0.15761025 0.09736477 0.20695466 0.23259686 0.13168298

prediction_layer.bias f4 [10]
00000000: 0d1b 01bd 837c eebd ba8a 3c3d 9b02 e0bd
00000010: 6267 843e fdef 2cbe 9a5d fb3d 866e edbd
00000020: 7908 a63e 92d4 51be
-0.03151994 -0.116448425 0.046030737 -0.10937997 0.25860125 -0.16888423 0.122737125 -0.11593346
0.3242834 -0.20491245
