Homeworks/HW1/results/trained_models/cnn_4[1].pt (torch, 88275 bytes, 10 tensors)

conv1.weight f4 [16, 1, 3, 3]
000000 c1 87 bf be d9 09 c5 3e a4 f2 7e bc 4c fe a5 3e
       -0.3740826 0.38484076 -0.01556078 0.32420576
000010 5d dd 9f 3e c4 04 62 be 5f 3f 6e be 93 80 52 3d
       0.31223574 -0.2207213 -0.23266362 0.05139215
000020 c7 a1 cf be e6 97 50 3e 1a 32 96 be 31 c1 c1 3e
       -0.40553114 0.20370445 -0.293351 0.37842706
000030 18 25 0b 3d b3 53 67 be 80 f6 91 3d db 65 3e 3e
       0.033970922 -0.22590522 0.07127094 0.18593542
000040 bf 55 90 be 75 fa fd bd 9c 1e 16 be 82 59 ae be
       -0.2819042 -0.124012865 -0.14660114 -0.34052664
000050 81 21 24 3e 1a f7 5f bc 7a ea dd 3d 4b 56 1c 3e
       0.16028406 -0.013669753 0.108357385 0.15267293
000060 88 c6 b2 be bc d1 85 3d d5 bb 50 be bc da 42 ba
       -0.34917092 0.06534144 -0.20384152 -0.00074331067
000070 6b e0 4c 3d 53 f6 cd 3e d7 76 8a be 76 b0 10 bd
       0.05001871 0.40226993 -0.27043793 -0.035324536
000080 5e 60 db 3d 95 7d ff bd 2e 34 7b be de 5d d8 bc
       0.1071174 -0.12475125 -0.24531624 -0.026411947
000090 fc 22 35 bc 88 44 35 3e 67 a9 e8 be 41 42 4f be
       -0.011055704 0.17701924 -0.45441744 -0.20240118
0000a0 21 ec 2c 3e 20 01 40 3e b1 e3 58 3e 18 e3 5c 3c
       0.16886951 0.18750429 0.21180607 0.013481878
0000b0 40 e6 7b 3e dc a7 cd 3d e4 64 45 3e 24 64 77 3d
       0.24599552 0.10041782 0.19276768 0.060398236
0000c0 a2 da d6 be e6 de aa bd fc 03 20 3e ff 58 b6 be
       -0.4196368 -0.08343296 0.1562652 -0.35614774
0000d0 2e 96 ae 3e 13 bd d8 3d 8b db 2f 3e f4 60 3d 3e
       0.34098953 0.10582938 0.17173593 0.18494016
0000e0 58 60 fa bd 5c f6 cb bd 7e 3d 85 3e 46 82 1b bd
       -0.12225407 -0.09959099 0.26023477 -0.037966035
0000f0 ae db 48 be b9 da c1 be ce 2b a4 3d db e6 97 be
       -0.19615051 -0.37862185 0.080161676 -0.29668316
000100 f8 9b 84 3e 5b fe 8d 3e 9b 8c 33 3e fd 0c 95 3e
       0.25900245 0.2773312 0.17534105 0.29111472
000110 77 73 66 3e 00 29 03 bd 83 c5 d3 be fd b6 c2 be
       0.22504984 -0.032021523 -0.41361627 -0.38030234
000120 33 79 cc be b4 50 cf 3e 59 64 20 3e bc c9 e8 be
       -0.39936218 0.4049126 0.1566328 -0.4546641
000130 9f 0e d1 bd 15 2d 0f be 76 52 41 3e 9d 5c f3 3e
       -0.10207867 -0.13982041 0.18879113 0.47531596
000140 13 d1 1b be 57 58 85 be 5a bd 9e 3e 4d 9d b1 bd
       -0.15216474 -0.2604396 0.3100384 -0.08672581
000150 0e 93 f0 bd 9f 17 12 be e6 25 b0 3e ad 4d 86 3e
       -0.117467985 -0.14266823 0.34403914 0.26231137
000160 c7 4b a6 3d 39 7a 3b be 25 b5 a3 be f4 45 cc 3d
       0.08119922 -0.18308343 -0.3197414 0.0997428
000170 0e 7e 22 be 75 5b 00 3e ec 81 33 be a1 39 a1 be
       -0.15868399 0.12534888 -0.1753003 -0.3148928
000180 89 c6 c2 3e f6 2d 4c be 31 88 9f be a6 08 86 be
       0.38042095 -0.19939408 -0.31158593 -0.26178473
000190 51 92 a6 3e 44 8a a0 bd 1d 6c da bd 53 5e 7a be
       0.32533506 -0.07838872 -0.10665152 -0.24450044
0001a0 4f 78 9d bb 21 91 8e 3d 2b b3 12 3e 5c 4d 4e 3d
       -0.0048056017 0.06961275 0.1432616 0.050366744
0001b0 84 82 2a 3e d1 ea 53 bd 72 e5 99 3e d0 50 54 be
       0.1665135 -0.05173761 0.30057865 -0.20733953
0001c0 bf 1b bb 3e 33 c2 b3 3d 8a 85 df 3d 28 7d 95 be
       0.36544606 0.08777275 0.109141424 -0.2919705
0001d0 71 cc 09 be f2 0f 81 3e 86 c5 89 be 45 b2 38 be
       -0.13456894 0.25207478 -0.2690851 -0.18036754
0001e0 bb 70 4d 3e f0 40 42 be 9a b6 bf bd 9b bd ce 3e
       0.20062535 -0.18970084 -0.09361 0.40379032
0001f0 e1 5c 9c 3c 1a ef 85 be 2c 3a f5 bd cf d3 97 be
       0.019087257 -0.26158983 -0.11973986 -0.29653785
000200 11 b6 66 3e 08 e6 53 be 28 76 61 be 76 f6 04 3f
       0.2253039 -0.20693219 -0.2201773 0.5193857
000210 25 f8 2c be 3a 26 50 3c 9e 94 43 3e 54 bf 63 3e
       -0.16891535 0.012704426 0.19099662 0.22240955
000220 f9 90 b0 bd 6f 85 d4 be 69 04 c1 be 69 75 d2 3e
       -0.08621401 -0.41508052 -0.37698677 0.41105202
000230 5a 85 1f be 0b 43 49 be a3 42 d5 3e 67 98 3e 3e
       -0.15578213 -0.19654481 0.41652402 0.18612824

conv1.bias f4 [16]
000000 f7 78 06 bd 3b f8 cd bb 0a ce 99 bd e1 5b 03 3e
       -0.032830205 -0.006285695 -0.07510002 0.12828018
000010 d4 f6 26 be 57 8b 03 be b6 13 26 3d 48 fd fb 3d
       -0.16305095 -0.12846123 0.04054614 0.12304169
000020 6b 42 e8 3d 73 ac 8a be ca 19 d5 be 07 89 1b 3e
       0.11340793 -0.27084693 -0.41621238 0.1518899
000030 d9 f1 84 be 23 c9 5e 3e 33 4f 06 3e 0d d5 c0 3d
       -0.25965765 0.21756415 0.1311615 0.09415636

conv2.weight f4 [8, 16, 3, 3]
000000 fa e2 4f bd 18 bf 12 be f9 55 a7 3c 05 d8 02 3d
       -0.05075357 -0.14330709 0.020426737 0.031944294
000010 5c d8 93 be 7d e0 ab bd 95 b7 1d be 19 b9 33 be
       -0.28876007 -0.08392427 -0.15402062 -0.17551078
000020 74 1b 20 be cb 36 13 be 22 32 87 be a6 eb f2 bd
       -0.15635473 -0.1437637 -0.26405436 -0.118613526
000030 07 d8 fa bd 25 7e 25 be 5e 13 a0 be b9 dd 7a be
       -0.12248235 -0.16161402 -0.31264776 -0.24498643
000040 1c cb 6c bc b3 8c 88 be 25 cb 47 3e ad 81 1a 3e
       -0.014452722 -0.26669845 0.19511087 0.1508853
000050 3d f1 41 3d 6f 20 35 3e 6a d0 93 bd 46 f4 be bd
       0.047349203 0.17688154 -0.07217486 -0.09323935
000060 7b 61 99 3c c2 f9 a8 3d a8 fa 61 3c c1 7b a2 3d
       0.01872324 0.082507625 0.013792671 0.079337604
000070 36 4b ab bb a8 0f 00 3d 7f 80 8a 3d 1b 76 0f 3d
       -0.0052274717 0.03126493 0.0676279 0.035024744
000080 a2 69 f4 3d e9 2b 34 bd 5b a8 70 3c b7 52 15 3b
       0.1193421 -0.04398719 0.014688577 0.0022784898
000090 9c a5 bb 3b a7 bf 0d bc 4c 66 b3 3d 53 b0 28 be
       0.0057265293 -0.0086516505 0.08759746 -0.16473512
0000a0 41 7e 8b bd f8 42 0f 3d 6a f9 b2 bd 3d 22 b6 bb
       -0.068111904 0.034975976 -0.08738978 -0.0055582807
0000b0 8f 15 84 3d 69 22 0d be ee 3d 50 be 97 ba 16 be
       0.064494245 -0.13782658 -0.20336124 -0.14719616
0000c0 50 f8 72 bb 13 5c a8 bd fc 1e f7 bd c4 e0 2c 3e
       -0.0037074275 -0.08220687 -0.12066457 0.16882616
0000d0 14 3d 92 3d 3d 96 3b bd 24 72 d2 bb 0a a9 cb 3d
       0.07140556 -0.045797575 -0.006422298 0.09944351
0000e0 44 73 ac bd 82 50 c6 bd 71 3f 1c bc 6a ca c6 3d
       -0.08420423 -0.096833244 -0.00953661 0.09706576
0000f0 14 11 1d bd e5 8a 45 be 7f 7e 8b bd e1 bc 28 3e
       -0.038346365 -0.19291265 -0.068112366 0.16478302
000100 23 94 34 3d b0 20 93 3d c7 9d a6 bc 30 e9 c7 3d
       0.044086587 0.07183969 -0.020338906 0.09761274
000110 ee cb cb 3d a6 b6 d1 bd 73 6f 29 bd f1 c7 19 3e
       0.09951006 -0.102399155 -0.041366052 0.15017678
000120 8c 7a c7 bb 82 d5 3a be 59 21 91 bd 0b e1 cc 3d
       -0.006087607 -0.1824551 -0.07086439 0.10003861
000130 32 aa d5 3d d8 fc 28 3e 59 31 11 bd c4 6b 48 bd
       0.10432853 0.16502702 -0.035447452 -0.0489309
000140 ef c0 1d 3e e1 f9 7e bd c2 11 82 bd 93 5d ba bd
       0.1540563 -0.06225002 -0.06351043 -0.09099879
000150 e9 cd 2d 3c 6a 65 77 bd f8 45 12 be 8f ce 3c be
       0.010608175 -0.06039945 -0.14284503 -0.18438171
000160 f8 8e 23 be 15 12 10 be 73 ba 0d 3d c6 0d 15 be
       -0.15972507 -0.14069398 0.03460164 -0.14556035
000170 22 a8 15 be 51 53 17 bd bd 67 02 3d d4 9c 0f be
       -0.14614919 -0.03694469 0.031837214 -0.14024669
000180 83 7e 35 bd 1d 87 16 bc 34 fe e5 3d 54 51 c0 3c
       -0.044310104 -0.009187487 0.11230126 0.02347628
000190 5d e4 1a 3d 12 1d be bb 6f 34 57 3d 37 54 88 3d
       0.03781544 -0.0058018053 0.05254024 0.06656688
0001a0 ad b0 f9 3d b9 a1 42 3c a1 ab 28 3d 78 8c b3 3d
       0.12191901 0.011879378 0.041179303 0.08767027
0001b0 3d 0e 05 bd 80 03 3b bd 30 26 04 be 6a 8b 2f 3e
       -0.03248428 -0.045657635 -0.12905192 0.17143026
0001c0 de 8a 71 bd 5d b7 02 bd 4b 6f e4 bd 1d 90 e4 bd
       -0.058970325 -0.03191315 -0.1115404 -0.111603
0001d0 24 cd 3b be e0 11 60 bc 32 e3 26 be e7 90 f5 bd
       -0.18339974 -0.013676137 -0.16297606 -0.119905286
0001e0 dc c8 07 3d bf 00 31 3d 94 44 e2 bd 14 90 a9 bd
       0.03315054 0.043213602 -0.110482365 -0.08279434
0001f0 f7 a9 c2 3c 9c de 5a bc 25 73 ba bc 31 87 22 3e
       0.023762686 -0.013358738 -0.022759983 0.15871884
000200 a7 3b 64 3d 3e 80 1a bd 90 02 42 3e 4f 9c dc 3b
       0.05572095 -0.037719958 0.1894629 0.0067325006
000210 43 50 4c 3b b4 c5 d9 3c fb dc c8 3d 16 d2 c3 bd
       0.003117577 0.02658353 0.09807774 -0.09561555
000220 a8 63 a8 bd 72 e3 05 3e ba fb 6d bd 11 5d 5d be
       -0.08222133 0.13075045 -0.058101393 -0.21617533
000230 d5 5c 28 3e c9 68 f5 3d 52 88 15 be 48 bb 7a bd
       0.16441663 0.11982877 -0.14602783 -0.06121376
000240 9f 9d b2 3c 5f 3e fb bc 4c 6a 94 bd fd 48 86 ba
       0.021803675 -0.03066939 -0.07246837 -0.0010245141
000250 d0 78 93 3d b6 ba 08 be a3 e3 be 3b df b1 22 3e
       0.072007775 -0.13352475 0.0058254763 0.15888165
000260 7a 44 95 3d 7f 2d 1c 3e 22 25 cb bd eb fc 7d bd
       0.072884515 0.1525173 -0.09919192 -0.06200878
000270 40 42 d3 3d 1c d7 4b 3c df 6a 33 bd 5e e7 dc 3d
       0.103153706 0.012441423 -0.043803092 0.10786317
000280 d8 7b 69 ba 90 48 94 3d 34 2a 0c be 10 ce f6 bd
       -0.0008906699 0.07240403 -0.13687974 -0.12051022
000290 ac 27 74 3d c7 03 1f be ad 37 04 3d 45 7c 80 bd
       0.059608147 -0.15528785 0.03227966 -0.062737025
0002a0 25 40 3d bd 70 ab 91 3d 71 ef b5 bc b4 07 d3 3c
       -0.04620375 0.07112777 -0.022208901 0.02576051
0002b0 53 30 09 3c b3 24 09 be 76 6f b3 bd ba 4d bc 3d
       0.008373338 -0.13392906 -0.08761494 0.09194513
0002c0 2e 02 47 3b 1c 64 09 bd 14 3f e1 3d 96 df 8d bd
       0.003036629 -0.033542737 0.10998359 -0.06927411
0002d0 64 64 0d be 0c 68 c3 bc c2 4b 1c 3c f4 81 93 bd
       -0.13807827 -0.023853324 0.009539546 -0.07202521
0002e0 10 fe 40 bc d1 2f 4c 3d 53 81 c7 bd 39 1f 97 bd
       -0.011779323 0.04985029 -0.097414635 -0.07379002
0002f0 51 4a 66 3d c0 fa 01 3d e0 02 80 bd 2e cf 16 3e
       0.056223217 0.031733274 -0.06250548 0.1472747
000300 18 66 b3 bb ca 15 44 3d cc 13 af 3d dc 77 86 bc
       -0.005474817 0.047872342 0.08548698 -0.016414575
000310 d3 16 37 3d 34 0f ae 3a 37 4f b1 bd 87 72 db 3d
       0.0446995 0.0013279677 -0.08657687 0.10715204
000320 6b c6 a2 3d fa f7 0c be 21 3d ad bd 7c a7 7a bd
       0.079480015 -0.1376647 -0.08458925 -0.06119488
000330 8d 71 9c 3d 0d 71 82 bc 7c 64 56 bd f9 d2 f7 3d
       0.076388456 -0.015923047 -0.052341923 0.12100787
000340 46 66 40 3d c7 f9 f2 bd 7f e7 5d bd 91 ce 79 bd
       0.046972536 -0.118640475 -0.05417585 -0.060988013
000350 7c 6d 55 bd 9c 03 dc bd 6c 1d 03 3d 22 c8 c4 bc
       -0.052106366 -0.10742876 0.03201048 -0.024021212
000360 31 76 c4 3c 4a 91 ea bd 37 34 6b ba 2f 7e 03 bd
       0.02398214 -0.11453493 -0.0008972319 -0.03210276
000370 e3 6f 0b 3e a6 c0 28 3e 1b 47 0a be 06 1f bf bc
       0.136169 0.1647974 -0.13503687 -0.023330223
000380 88 bb d2 3d 6d 89 50 bd 79 e5 ac bc 91 6a 42 3d
       0.10289675 -0.05091231 -0.021105515 0.04746491
000390 d9 bc 84 b9 60 0c ca bd 1e 59 b9 3d 93 5a c6 bd
       -0.00025317704 -0.098656416 0.09050201 -0.096852444
0003a0 d3 8a 65 3d 13 75 96 3d c1 0c f6 bb b1 3e b2 bc
       0.056040596 0.07346549 -0.0075088446 -0.02175841
0003b0 b4 72 c3 bb fd 30 70 bc e0 ae cc bd 4e 2f b8 bd
       -0.0059646014 -0.014660117 -0.09994292 -0.08993398
0003c0 58 05 b6 bd 2f 22 2a bd 60 88 9d bd 53 6b 4b bd
       -0.08887738 -0.041536506 -0.07692027 -0.0496629
0003d0 13 95 99 3d 24 6c e2 bd 8e 03 b6 bd 7c 3b cf 3d
       0.07499137 -0.110557824 -0.08887397 0.101187676
0003e0 0e e4 07 bd b6 9c 9a bd 6c 15 8e bd bb aa a5 3d
       -0.033176474 -0.075494215 -0.0693768 0.08089205
0003f0 42 ec ad bd 4e 29 2c be fb f4 d2 bc 28 c1 ca bc
       -0.08492328 -0.16812631 -0.025751581 -0.024750307

conv2.bias f4 [8]
000000 79 17 25 3d 45 fe f5 3c 96 c4 17 3d e6 1f c2 3d
       0.04030559 0.030028472 0.037052713 0.094787404
000010 c3 de a9 bd 8b 43 28 bd 0d 2c 1b 3e f7 25 5e bd
       -0.082944416 -0.04108004 0.15153523 -0.054235425

conv3.weight f4 [16, 8, 5, 5]
000000 bc a6 9e bb a4 a0 6b bd ad 83 3e bd 04 52 ac 3d
       -0.0048416536 -0.057526246 -0.046512295 0.08414081
000010 90 6c 59 3d dd ec 14 3c 12 13 17 3d 8d 47 73 bd
       0.05308205 0.009089676 0.03688342 -0.059394408
000020 25 54 87 3d ff 6f 78 3c 33 84 6d be f8 b8 91 bc
       0.06607846 0.015163421 -0.23194961 -0.017788395
000030 48 d5 b9 3d fd 31 19 3d 0e 7c b3 3d 22 82 37 be
       0.09073883 0.03740119 0.08763896 -0.17920735
000040 ce 9c 78 be 5c ee 67 3d c9 d4 dd 3d 49 58 c2 3d
       -0.24278566 0.0566238 0.10831601 0.09489495
000050 c2 85 07 be 08 da 70 be b1 0f 26 be ad 7c a9 bd
       -0.13234618 -0.23520672 -0.16216923 -0.08275733
000060 2e e0 d7 3d bc 48 25 3c b7 a4 1e bd 01 77 89 3d
       0.10540806 0.010088142 -0.038731303 0.06712151
000070 02 d7 d8 bd e4 ee c2 bd 73 a3 ae bd 0d 2b 17 be
       -0.105878845 -0.09518221 -0.08527269 -0.14762516
000080 97 18 15 3d 0c 71 c6 bd ca 26 df bd 8e b1 ea bc
       0.036400404 -0.09689531 -0.1089607 -0.028649118
000090 7e b6 87 bd f0 b3 a4 bd 75 9c de bd bf 38 c6 bd
       -0.066266045 -0.08042133 -0.108696856 -0.09678792
0000a0 0d ed fb bc 41 0b 89 be 67 ac 9f bc 6f 56 9e bd
       -0.030752683 -0.267664 -0.019491388 -0.0773133
0000b0 5d 76 35 be 7a 23 47 bd f2 1c 43 be a3 f4 c5 bd
       -0.17720933 -0.048617817 -0.1905401 -0.096658014
0000c0 61 6e 33 be ba e0 d9 bd 51 49 ff 3c 09 46 93 bc
       -0.17522575 -0.10638566 0.03116289 -0.017977731
0000d0 f0 22 40 bd 29 5c 59 bd d9 a0 bf bd e6 22 35 bc
       -0.04690832 -0.053066406 -0.09356851 -0.011055684
0000e0 23 57 8d 3d 5b f0 b7 bc 40 74 3f bc 5f a0 ee bd
       0.06901386 -0.022453478 -0.011685431 -0.11651682
0000f0 db 6d 85 3c 53 9c b8 3d 2b 3f 43 3d 34 76 a1 3d
       0.016287735 0.090141915 0.047667664 0.078838736
000100 1e f6 e4 3d 36 2d 41 3d 43 9b 05 bc 8f 75 ec 3c
       0.11179756 0.047162257 -0.008154693 0.02886465
000110 26 7d 5e 3d 2a 1e b5 3d 54 a6 d2 bd 70 46 00 bd
       0.05431857 0.08843644 -0.10285631 -0.031317174
000120 4f 76 ef bd a5 1f a3 bd e8 61 26 bd df 31 e4 3d
       -0.116924874 -0.0796502 -0.040620714 0.11142325
000130 db 3c 00 3e 5d 92 c6 bb ce a9 0c be cb b3 29 be
       0.12523215 -0.0060599283 -0.1373665 -0.16572492
000140 62 23 d5 bc 22 37 08 3b ed 5f 26 3e 64 fc ff bc
       -0.026017848 0.0020784815 0.1624753 -0.031248279
000150 41 7f 53 be c8 ff 22 be 2f 8b 94 bd f8 23 13 be
       -0.20654012 -0.15917885 -0.0725311 -0.1436919
000160 b3 83 72 be 89 e2 63 be 59 3f be bd f6 57 9a 3c
       -0.23683052 -0.22254385 -0.09289426 0.018840771
000170 01 2c fc bd 21 a7 9f be 1b 77 aa be 7a 3b b6 bd
       -0.123130806 -0.31182197 -0.33293995 -0.08898063
000180 2e 3a 93 bd 67 a2 be bd 0b b3 d6 bd c2 52 86 be
       -0.07188831 -0.093083195 -0.104833685 -0.26235014
000190 9f ab 3f bb 81 61 b7 bc 45 28 9a bd 24 d9 eb bd
       -0.0029246581 -0.02238536 -0.07527212 -0.11516026
0001a0 30 e2 67 be 7e 1e db 3d 12 d7 ad 3d 18 2e 51 3d
       -0.22644877 0.10699175 0.08488287 0.05106935
0001b0 7f ce aa 3d 69 15 97 bd d8 72 20 3e e7 4a 63 3e
       0.08340167 -0.073771305 0.1566881 0.22196542
0001c0 b6 f4 f6 3d 1b f4 20 3d e4 f4 3d 3d e0 b0 38 bc
       0.12058394 0.039295297 0.046376124 -0.011272639
0001d0 f0 1b 70 3e 93 f8 8a 3d f7 37 51 3d c9 23 54 3d
       0.23448157 0.06785693 0.051078763 0.05179194
0001e0 41 5e ab bc 55 72 d6 3d 7f 4a ac 3c da 5d 61 bd
       -0.020918967 0.10471026 0.021031616 -0.055021144
0001f0 f9 8e 2c 3d 94 47 47 3e f4 b4 bf 3d 59 6a 27 3c
       0.042128537 0.19460899 0.09360686 0.010218226
000200 16 bf ff 3c f7 11 ce bc ef 08 de 3d 8f 3e 15 3e
       0.031219047 -0.02515505 0.10841548 0.14574645
000210 cb 6e 0f bc 9b a0 d9 3d 19 3f f0 3a 0e 39 1a be
       -0.008754442 0.10626336 0.0018329351 -0.15060827
000220 58 f8 78 bd aa 40 95 bd 85 b9 b0 3d 8b 2c 06 bd
       -0.060783714 -0.07287724 0.08629135 -0.032757323
000230 2b a8 48 be 7e 94 3a be 5b 8c 19 be e0 b3 7b bd
       -0.19595401 -0.18220708 -0.14994948 -0.06145084
000240 79 5d 68 bb d8 57 b0 3d d2 3c 34 bd de 33 1d be
       -0.0035456105 0.08610505 -0.044003315 -0.15351817
000250 e1 d5 e6 bd 90 dc 2e be ab 31 88 3d 8b 23 4d 3c
       -0.11271263 -0.17076325 0.066500984 0.012520681
000260 c0 1a 43 bb 3a 57 3b 3d 81 e3 1e bc 79 82 b0 3d
       -0.0029770583 0.045737483 -0.009697796 0.08618636
000270 f2 4d 1b 3e 03 58 1a bb d8 8c bf 3d 01 a6 d9 ba
       0.15166453 -0.0023550994 0.09353036 -0.0016605259
000280 6a cd 3f 3c 9e 81 49 3e 86 23 c3 bc 95 cf 87 3d
       0.011706689 0.19678351 -0.02382065 0.0663139
000290 6e 2b 22 bc 24 74 f2 bd 19 2f 4c bd c6 16 fa 39
       -0.00989805 -0.11838558 -0.049849603 0.00047700683
0002a0 70 24 63 3d b1 f9 4a 3d 87 bf 58 bc 8a 0b 0d be
       0.05545467 0.04955453 -0.013229257 -0.13773933
0002b0 56 de 56 be d4 15 02 be 2c 45 0f be f3 79 c6 bd
       -0.20983252 -0.1270364 -0.1399123 -0.09691229
0002c0 10 7b 26 39 d8 96 b5 3d 1f c7 dd bd 28 9a eb bb
       0.00015876838 0.08866662 -0.10828995 -0.0071900077
0002d0 14 4c 2d be f2 0d 62 bb 2f 5c 53 3d 96 c5 3c 3c
       -0.16923553 -0.0034493175 0.051601585 0.0115217175
0002e0 f1 38 48 bd 0e c6 51 bd d6 05 8b bd 79 a1 df 3d
       -0.04888243 -0.05121427 -0.067882225 0.1091947
0002f0 4e c1 63 3e 1f 2f 08 3e b0 43 37 bd f8 14 ee bd
       0.22241709 0.13299225 -0.044742286 -0.11625093
000300 92 b8 43 bd 48 aa 36 3e c2 f2 0f 3e da 14 3d bd
       -0.04778344 0.17838395 0.14057449 -0.046162464
000310 ed fe 04 be ba 19 1a bd 22 2f 82 bc f3 4d ee bb
       -0.12987871 -0.03762219 -0.015891615 -0.007272476
000320 f6 a8 2a 3d 9a aa ff bc f9 4e f0 3b d7 aa df bb
       0.04166504 -0.031209279 0.007333633 -0.0068257856
000330 ce 7a 1a bd 14 85 2a 3d 50 21 88 3d eb 07 d2 3d
       -0.037714772 0.04163082 0.06646979 0.102554165
000340 e4 16 9b 3c 1b 14 8a 3d 3f fa 20 3d d9 25 4a bd
       0.018931814 0.06742116 0.039301153 -0.0493525
000350 19 a9 24 bd 6f c4 24 bb 18 3a fe bd 0d d1 ee bd
       -0.040200327 -0.0025141498 -0.12413424 -0.11660967
000360 73 34 68 be 9a a0 6c be 9a 46 b6 bd fb 6b 2c bd
       -0.22676258 -0.2310814 -0.08900185 -0.042095166
000370 35 5a 1a 3c 7a ad a8 bc 20 7d eb 3d 75 7c 49 3e
       0.009420921 -0.020590533 0.11498475 0.19676383
000380 ad 49 b0 3d f7 f3 01 be c3 56 52 bc 4f cb fc bd
       0.086078025 -0.12690721 -0.012838068 -0.123434655
000390 69 ac f3 bd 66 06 5f be a1 ed 03 3d b5 6d c6 3d
       -0.11898119 -0.21779785 0.032209042 0.09688894
0003a0 7b 55 d6 3c 5f 48 ea 3c 13 b9 8b bd a1 96 99 3d
       0.026163807 0.028598962 -0.068224095 0.07499433
0003b0 3b 4a c2 3d 4b e5 31 3b f7 06 bc bd c3 20 88 bd
       0.094868146 0.0027144726 -0.09181016 -0.06646874
0003c0 47 f4 b5 3d 08 9d de bd 90 81 e6 bd 69 fb d6 bd
       0.08884483 -0.10869795 -0.11255181 -0.104971714
0003d0 5c cb b2 bd 21 2b 25 3d 68 3f 85 3d de d3 7a 3d
       -0.08730194 0.040324334 0.065062344 0.06123721
0003e0 40 dd 8a bd c0 1c 4f bc 32 aa fc 3c 64 4d 59 3d
       -0.06780481 -0.012641132 0.030842874 0.05305232
0003f0 02 23 10 bc 48 85 72 bc 5b 83 92 3c 42 b2 a6 3d
       -0.008797409 -0.014802285 0.0178849 0.08139469

conv3.bias f4 [16]
000000 09 d3 00 be b0 a6 50 bd 99 f3 43 bd 61 28 a0 3d
       -0.12580504 -0.050940216 -0.047839735 0.07820202
000010 9c fe 9b 3d 80 3b 11 3e 80 87 12 3e 61 63 73 3c
       0.07616922 0.14182854 0.14309502 0.014855237
000020 3a 1d 95 3d 21 a0 0f bc dc f9 19 3d 6e 05 77 bb
       0.07280965 -0.008766205 0.0375918 -0.0037692445
000030 d1 21 e3 3c 71 b5 9d 3c b7 37 1d bd 81 d5 de 3d
       0.027726086 0.019251557 -0.038383212 0.108805664

conv4.weight f4 [16, 16, 5, 5]
000000 86 04 0a ba b1 2e b3 3d 51 1b bd 3d 5e bd 5b bc
       -0.0005264956 0.0874914 0.09233726 -0.013411848
000010 ef b2 4b 3d 92 5c ad 3d 6e 96 74 3e d5 7e 2c 3e
       0.04973119 0.08464922 0.2388551 0.16845258
000020 7c 06 98 3d d0 37 9a bd 47 8e e7 3d ff 73 e4 3d
       0.07423112 -0.07530177 0.11306434 0.11154937
000030 18 2f 0b 3e 01 9c cd 3c 38 70 fe bd c9 78 2c bd
       0.13592184 0.025098803 -0.12423748 -0.042107377
000040 94 7e ce bd 15 f2 48 bd 37 e1 34 3c bd bd 13 bd
       -0.100827366 -0.049058992 0.0110400235 -0.03606962
000050 d0 91 c0 bd 02 a5 49 bd 51 d1 3e bd 74 cd 93 bc
       -0.094028115 -0.04922963 -0.04658634 -0.018042304
000060 5f c9 59 bd 3f 2f d7 bc 1b 35 a4 3c 43 ef 03 3e
       -0.053170558 -0.026267646 0.020044854 0.1288424
000070 99 72 9c 3d 41 5a 59 3d 88 34 80 3d 69 c4 13 3e
       0.07639045 0.05306459 0.062600195 0.14430393
000080 e0 e7 09 3e 95 5d a4 3d dd 93 d5 3d c5 38 e0 3d
       0.1346736 0.08025662 0.10428593 0.10948328
000090 7b 93 c1 3d 47 ba 3b 3e 26 2a f0 3d 14 2c 82 3d
       0.09451958 0.18332778 0.11726789 0.063560635
0000a0 a6 e5 b3 3d ea 56 32 3e 8e bd af 3d 33 96 17 3d
       0.08784036 0.17415968 0.085810766 0.037008476
0000b0 44 8d 75 bb 54 cb 9e 3d fb 92 e1 bb 0b fa ab 3c
       -0.0037468234 0.077536255 -0.0068839765 0.020993253
0000c0 c8 39 9e 3d da 6d a7 3c 90 1b fe bb 65 3f 0d 3e
       0.07725865 0.020438123 -0.0077547505 0.13793714
0000d0 c0 e2 49 3d 79 07 be 3c 1f 59 b8 3d 22 b4 e2 3d
       0.04928851 0.023196923 0.090013735 0.11069514
0000e0 4f 64 dd 3d 32 8f e0 3d 9f 3e db 3d 7c 43 36 3e
       0.10810148 0.10964812 0.107053034 0.17799181
0000f0 0b 8d 93 3d 2b c0 f9 3d 25 99 74 3e b8 58 c6 3d
       0.07204636 0.12194856 0.23886545 0.096848905
000100 2c cb 0c 3d fd c7 99 3d fd bc 3d 3e 30 0b 94 3d
       0.034373447 0.07508848 0.18529125 0.07228696
000110 66 6b ed 3d e4 11 b2 3d 90 b3 7a 3d 28 4e 29 3e
       0.1159275 0.086948186 0.0612064 0.1653372
000120 c9 d4 4f bd 2e 41 05 3e d7 9a 09 3d 51 94 b7 bd
       -0.050740037 0.13013145 0.033594932 -0.08963836
000130 59 fc 0a 3d 85 59 ad 3d 6b 84 08 3d fa 27 28 3d
       0.033932064 0.0846434 0.03332941 0.04105375
000140 9f cb c2 3d fc 7a 2c 3e dc 4c bb 3d e4 10 b9 3d
       0.09511494 0.1684379 0.09145519 0.09036425
000150 10 05 e2 bd 2a 07 7f 3d d6 08 c6 bc 34 52 ae 3d
       -0.11036122 0.06226269 -0.024174135 0.08511773
000160 10 6b 9a bd 01 92 dd 3c f1 37 b5 bd 43 87 54 be
       -0.07539952 0.02704716 -0.088485606 -0.20754723
000170 79 16 b2 bd 7a cd 1a be 99 97 e7 bc 70 62 25 be
       -0.086956926 -0.15117446 -0.02827053 -0.16150832
000180 83 8a 9c bd f0 a1 8e bd b3 e7 ed bd 11 ea 29 bd
       -0.076436065 -0.06964481 -0.11616459 -0.04148299
000190 99 61 48 bd a5 b2 86 bd 90 43 37 bd 9e 5c a4 3d
       -0.0489212 -0.065770425 -0.044742167 0.08025478
0001a0 47 46 b3 3d 74 a2 36 3c a9 96 6f bd a8 82 be bc
       0.08753639 0.01114713 -0.05849329 -0.023255661
0001b0 1d 91 d4 3c a9 4d 0e 3e 9f 63 b2 bc c9 65 66 bd
       0.025948102 0.13896812 -0.021776019 -0.056249414
0001c0 07 ff 90 bc ed a0 a9 3d f7 bb b9 3d 9e 12 2b be
       -0.017699732 0.08282647 0.090690546 -0.1670632
0001d0 f3 b0 3c be cf 5e 09 3d 71 d4 c1 3d 93 78 5b 3d
       -0.18426876 0.033537682 0.09464348 0.053581785
0001e0 0f 05 bc bd 68 c4 ff bd ed c6 e4 bc 8f e8 97 bd
       -0.09180652 -0.124886334 -0.027926886 -0.07417404
0001f0 f7 d4 60 bd 51 13 87 3d 9c 86 08 bd b4 bc 22 bd
       -0.0548906 0.06595481 -0.0333315 -0.039730743
000200 bf 63 d2 3c 41 e1 f8 bc 0c 16 e4 3d ad c3 ce 3b
       0.025682328 -0.030380847 0.111370176 0.0063099475
000210 c5 92 62 bc ad 49 a4 3d 0a 29 bb 3d 57 58 ad 3d
       -0.013828938 0.08021865 0.09138687 0.08464115
000220 ea 42 5d 3c 4c 23 2c 3d 93 f7 04 3e 1f af 5d 3e
       0.013504723 0.04202585 0.12985067 0.21648835
000230 b9 f4 b6 3d 38 4c e8 3d 66 1c 01 3e 95 1d 04 3e
       0.08933396 0.113426626 0.1260849 0.1290191
000240 15 e2 2e 3e 58 f6 39 3d 02 ac cc 3d 71 44 71 3d
       0.17078431 0.045400947 0.099937454 0.05890316
000250 f7 27 3b 3d f9 3d 52 bc df 3c 1f bc ba 7d 05 be
       0.04569241 -0.012832158 -0.009719103 -0.13036242
000260 7f a1 8b bd 05 ac 3f bd 03 c6 5d bd a9 9a 8a 3c
       -0.06817912 -0.04679491 -0.054143917 0.01691945
000270 6b 80 bd bc bf 33 97 3b 06 5f 86 3c 25 b9 29 bd
       -0.023132524 0.004614323 0.016402733 -0.041436333
000280 aa b4 7c bd de c0 8e 3c b7 28 ba bd bc 74 9f bd
       -0.061695732 0.01742595 -0.09089797 -0.07785937
000290 78 4e 2f bc af 7c e2 bc c1 f6 9f bb 71 b5 af bd
       -0.010699861 -0.027647344 -0.0048817103 -0.08579529
0002a0 c7 43 d6 3b ff f0 02 3d b1 7c 92 bd e0 da 48 3c
       0.0065388414 0.031968113 -0.07152689 0.012259215
0002b0 c3 76 1a bc fa d9 88 3d 90 ea ce bd 81 df a5 bd
       -0.009427729 0.06682201 -0.10103333 -0.080992706
0002c0 36 f2 07 be 7f df 41 bd 97 10 59 bd 37 a0 ba 3a
       -0.1327599 -0.047332283 -0.052994337 0.0014238422
0002d0 49 3c 63 bd fd bf d2 bc dd a4 5d bd 75 af 26 bd
       -0.055477414 -0.025726313 -0.054112304 -0.040694673
0002e0 34 f9 04 be 2b 2c 0c be 85 8d 51 bd e8 9a a4 bd
       -0.12985688 -0.13688724 -0.051160354 -0.080373585
0002f0 85 b3 48 3c f5 a8 93 3d 23 96 42 be 0d ec a2 bd
       0.012249832 0.0720996 -0.19002585 -0.07955179
000300 72 2a 83 bd 51 a8 85 bd a4 7b 23 bd fd 0f 02 be
       -0.0640458 -0.065262444 -0.039912835 -0.12701412
000310 9e 0a 0d be 46 32 b5 bd 8a b6 c4 bb 13 60 1a 3d
       -0.13773581 -0.088474795 -0.0060032057 0.03768928
000320 b5 7d 54 3a 0b a4 ac bd 0c 3a 82 3c 42 21 6c bc
       0.000810589 -0.08429726 0.01589682 -0.014412226
000330 48 a6 55 3d d4 c6 ff bc 83 b3 93 3c 64 b6 1a 3e
       0.05216053 -0.031222738 0.018029934 0.15108639
000340 fb 7b 32 3e 06 98 77 3d c9 4f 03 3b 2b 32 ab 3d
       0.17430107 0.060447715 0.002003657 0.08359178
000350 40 55 3f 3e 5d e4 0c 3e a2 3a 20 3d ba 77 27 3e
       0.18684864 0.13758989 0.039118417 0.16354266
000360 a0 9b 76 3d 7e 8e 3a bd 0a 2c a4 3c 87 52 05 bd
       0.06020701 -0.045546047 0.02004053 -0.032549407
000370 14 e8 ae bc 02 55 91 bd 96 97 6b bd c0 f4 bc bd
       -0.021350898 -0.07096292 -0.05751761 -0.0922637
000380 f7 91 28 bd 05 cd b7 bc dd 62 fd 3c a3 80 a8 3c
       -0.041154828 -0.022436628 0.03093093 0.020569151
000390 90 c2 44 bd b8 36 04 bd c1 f5 e7 3c 5e 32 81 3d
       -0.04803711 -0.032278746 0.028315427 0.06308435
0003a0 c8 6f 32 3c 8d be c7 3c 15 39 6a 3b 24 f4 95 3c
       0.010890909 0.024382854 0.003573959 0.018304892
0003b0 b1 da 8f bd f8 62 4c 3d 9f 48 de 39 32 ad ec bc
       -0.07024134 0.04989907 0.00042397247 -0.02889118
0003c0 83 d5 07 bd b1 81 c6 bd ae cd c0 3d fa 9f 13 3d
       -0.033162605 -0.096927054 0.0941423 0.036041237
0003d0 f2 01 a7 bd 64 2e 15 be d1 f0 eb 3b 1c 53 23 3d
       -0.08154668 -0.14568478 0.0072003384 0.03987418
0003e0 60 20 02 be 55 f8 0c bd 1e 1f 2f 3c 29 d2 3b 3d
       -0.12707663 -0.034416515 0.010688571 0.04585472
0003f0 e0 87 a8 3c 25 29 fd 3d e6 c8 bc 3d b3 16 b4 3d
       0.020572603 0.12361363 0.09218006 0.08793392

conv4.bias f4 [16]
000000 02 b3 53 be 21 99 6b 3b 0b 8c 2e 3e f7 c1 bd bd
       -0.20673755 0.0035949426 0.1704561 -0.092655115
000010 8a 75 f6 b9 a8 44 f1 3a 6b f1 99 bd b0 58 5f be
       -0.0004700835 0.0018407302 -0.0751675 -0.21811175
000020 b8 6f 2b 3b 1a 13 06 be 65 1c 48 be 90 17 1c 3b
       0.002615912 -0.13093224 -0.19542082 0.0023817755
000030 a5 3e e3 bc 06 9c 00 bd 0a cb ef bd 55 eb 02 bc
       -0.027739832 -0.031398796 -0.117086485 -0.007990678

prediction_layer.weight f4 [10, 1024]
000000 7d f0 69 be 59 59 3a be 35 57 93 bd 7f e3 03 be
       -0.22845645 -0.18198146 -0.07194368 -0.12879752
000010 72 82 f5 bd b0 d5 0c be 22 42 d8 bd 1b 92 84 bd
       -0.11987771 -0.1375339 -0.10559489 -0.0647318
000020 9e 79 0f be 75 5a af bd 4f 7b b5 bb 06 98 47 bd
       -0.14011237 -0.08562175 -0.005538381 -0.048728965
000030 d6 a9 b7 3b 41 96 67 3c 6c 56 a5 3c 8e 09 7e 3c
       0.005604963 0.014134944 0.02018281 0.015505208
000040 03 12 45 bd 29 ca 03 be 95 8f a8 bd 2a 88 a7 bd
       -0.04811288 -0.12870087 -0.08230511 -0.08180268
000050 55 97 06 3d 04 8d f5 3d c9 3d f4 3c 40 01 0e bd
       0.032859165 0.11989787 0.029814618 -0.03466916
000060 68 58 c6 bd cb 03 bb bc e9 e0 07 3d 66 4c 13 3e
       -0.09684831 -0.022828957 0.033173475 0.14384612
000070 90 19 08 3c b5 f9 1b 3e c3 23 11 3e f2 4c f3 3d
       0.008306876 0.15231974 0.14173798 0.118799105
000080 3b 67 13 be 8f 87 eb bc fc 99 8e 3d f3 65 2e 3e
       -0.14394848 -0.028751163 0.06962964 0.17031078
000090 1a 8b c6 3d c5 a3 a2 3d d8 3b 54 3d 52 c6 87 3d
       0.096945 0.07941393 0.051814884 0.066296235
0000a0 da 06 a5 bd bf d4 53 bc b1 4c 68 3b 82 ee fd 3d
       -0.080579475 -0.012929141 0.0035446102 0.123990074
0000b0 fb 52 39 3e 37 8a 4f 3d ce c9 6e bd 89 07 a1 ba
       0.18098061 0.05066892 -0.058297925 -0.0012285571
0000c0 58 08 33 bd cd c4 e4 bd c5 47 b1 bb 04 b6 19 bc
       -0.04370913 -0.11170349 -0.005410167 -0.009381775
0000d0 a6 ee 83 3d 64 1b 00 3c 07 bf 90 bd 8d 06 5d bd
       0.06442003 0.00781903 -0.070676856 -0.053961325
0000e0 2b bc a9 3d bb af b3 bb 46 96 12 bd ae c1 9f bc
       0.08287843 -0.005483595 -0.035787843 -0.019501533
0000f0 27 01 04 3d 9b e5 92 3c 7c 7c 48 bd c3 8e eb bc
       0.03222766 0.01793175 -0.048946843 -0.028754598
000100 c2 4a b6 3d cf 4c 2a 3d 38 7d 93 3d 06 62 26 3d
       0.08900978 0.041577157 0.07201618 0.040620826
000110 17 dd e1 bc 51 96 a4 3d 19 6b 05 3e b6 2a 9b 3d
       -0.027571244 0.08036483 0.13029136 0.07576506
000120 9f 30 5b 3d a5 7a de 3d bd 22 cc 3d f5 4a c3 bc
       0.053513166 0.10863236 0.09967563 -0.023839453
000130 93 6c 9b 3d 4a 3a 72 bd 0e d3 1c 3d fb 1c 76 3d
       0.07589068 -0.05913762 0.038287215 0.06008623
000140 65 ec da 3b a0 8f 0e 3e bc 88 ac 3d 78 98 08 bd
       0.0066810125 0.13921976 0.084245175 -0.03334853
000150 fe 1f 86 3b 22 9e cb 3d 46 5d df 3d d3 bb 99 bd
       0.0040931692 0.09942271 0.10906462 -0.07506528
000160 4c eb d8 bc ad 3a 8e 3d 67 6d e2 3d 2d ad aa 3d
       -0.026479386 0.06944785 0.11056023 0.08333812
000170 2a c7 f2 bb 59 9e 32 3e 40 30 ae 3d 2d 6f a6 3d
       -0.007408996 0.17443217 0.08505297 0.08126674
000180 5f 87 8a bc 57 44 a8 3d 6b ae 9c 3c a4 a0 b9 3d
       -0.016910253 0.0821616 0.019126138 0.09063843
000190 f4 97 ae 3c ce 03 91 3d 21 9f 61 3d 29 1b 4a 3d
       0.021312691 0.07080804 0.055083398 0.04934231
0001a0 dc 23 b4 bd 61 ca 0a 3e dc a6 7e bd c0 5e 6e 3d
       -0.08795902 0.13553764 -0.06217085 0.05819583
0001b0 3a 66 a2 3d 9e b2 50 bd e6 bf 21 3d 09 7f a4 3d
       0.079296544 -0.050951593 0.03948965 0.080320425
0001c0 9e 4e e1 39 3f da 3e 3d 87 24 a2 3d 1b e1 ce 3d
       0.0004297392 0.046594854 0.07917123 0.10101529
0001d0 16 6a 8f bc 22 2e 63 bd ee c1 81 3d d6 2b 30 3e
       -0.01750664 -0.055463918 0.06335817 0.17204222
0001e0 2d e2 40 bd 25 46 fc 3d 86 ef 01 3d 21 0d ef 3d
       -0.047090698 0.123180665 0.031722568 0.11672426
0001f0 b1 65 35 3d 63 4a a6 3d 32 d6 e2 3d 45 9b 1e bd
       0.044286434 0.08119657 0.11076011 -0.038722295
000200 f1 8e c9 bc 11 68 58 bc 42 1d 19 3c d6 d7 ae 3d
       -0.024604293 -0.013208405 0.0093453545 0.08537261
000210 7a fa ca 3d 2d 12 ca bb 30 65 ff bc 85 d4 b0 bc
       0.09911056 -0.0061667175 -0.03117618 -0.021585712
000220 e5 60 fa 3d e1 6c 42 3c 10 89 55 3e 97 a5 bf 3d
       0.122255124 0.011866779 0.20853066 0.09357756
000230 a6 dc fb 3c cd 96 e8 bc 75 69 b0 3d 6d 36 1e bc
       0.030744862 -0.02839222 0.08613864 -0.009656531
000240 77 5c 0f bd a9 ec c2 3d 60 10 41 3e 27 dd 77 3d
       -0.03500029 0.095177956 0.18853903 0.06051364
000250 e5 b3 e8 3c 77 69 b5 3d f4 c4 c6 3d ac 52 2f bd
       0.028406093 0.088580064 0.097055346 -0.04280345
000260 43 a9 8d bd 07 d0 79 3d 82 85 52 3e 89 bd 3a 3e
       -0.0691705 0.060989406 0.20558742 0.18236364
000270 0c 30 97 3e 36 23 55 3e 25 4b 2c 3e a5 f2 88 bd
       0.29528844 0.20814213 0.1682554 -0.06686906
000280 aa 3c 86 bd d3 b7 00 bd 45 1b 95 3d 3b ed a7 3d
       -0.065545395 -0.03142531 0.07280592 0.08199545
000290 dc 17 80 3d 44 0f ef 3d 70 4b 1a 3d 1e f1 2e 3d
       0.06254551 0.116728336 0.0376696 0.042710416
0002a0 b2 fc 85 3b 64 0d 17 be 59 eb 11 be c0 e2 b5 3c
       0.0040889615 -0.14751202 -0.14249934 0.02220285
0002b0 4b de 0b bd 01 71 bf 3a 4a 22 51 3d 77 c1 dc 3d
       -0.034147542 0.0014605821 0.05105809 0.10779088
0002c0 c3 db c6 ba 71 f1 8e be db 64 1a be e4 b3 d1 bd
       -0.0015171695 -0.2791858 -0.15077536 -0.102393895
0002d0 09 b5 50 3d 11 a6 0e bc 70 1b b7 bd 59 09 9e 3d
       0.0509539 -0.0087065855 -0.0894078 0.07716627
0002e0 4e d5 e1 bc b5 ed ff 3b 3f 4e fe 3b da 11 1b be
       -0.027567532 0.0078103193 0.0077607925 -0.15143529
0002f0 af e5 16 bc ce ee 06 bd c0 89 11 bd 64 2b a7 3e
       -0.009210034 -0.032942586 -0.03553176 0.32650292
000300 98 74 d6 bc f4 fd 66 bd 16 1e ed bd 4f 1a c3 bb
       -0.026178643 -0.056394532 -0.11578004 -0.005954064
000310 ef 51 27 bd c4 f1 27 bd 14 21 61 bb 64 8b ed 3d
       -0.040849622 -0.04100205 -0.0034351991 0.11598852
000320 ec 5d 22 3e 95 54 c6 3d 38 9c 0a bd 82 d1 68 bd
       0.15856141 0.096841015 -0.033840388 -0.056840427
000330 5e c9 d9 bd 73 23 db bc 32 02 41 3d 71 0d 40 3d
       -0.10634111 -0.026750302 0.047121234 0.04688782
000340 8b 90 b6 bc 3e d0 be bd 14 5a 37 bd 6d 89 5d bd
       -0.02228572 -0.09317063 -0.04476364 -0.054086138
000350 dc b3 cb bb 4a 3f be bc 00 10 f6 bb f8 6e bf 3b
       -0.0062165093 -0.023223538 -0.0075092316 0.005842086
000360 db dc d0 bd 87 27 2e bd 40 60 c6 bd 7d df 4d bd
       -0.10198375 -0.042518165 -0.09686327 -0.050261963
000370 01 a5 a5 bd 14 56 8b bd f4 f4 b1 bc 01 e6 81 bc
       -0.080881126 -0.068035275 -0.021723248 -0.015856745
000380 23 ad 16 be 40 e0 94 3c 45 a2 e6 bd 72 20 6a bd
       -0.14714484 0.018173337 -0.11261419 -0.05715985
000390 64 8c a6 3a 0d cf 76 bc 80 62 6f bd d7 55 30 bd
       0.0012706635 -0.015064013 -0.058443546 -0.043050613
0003a0 a8 bf 0d be 4c d1 08 3d 4e fc 44 bd f1 14 f5 bd
       -0.13842642 0.033402726 -0.04809218 -0.11966885
0003b0 79 d4 6d be 3b 41 cb bd 3e a9 24 bd e1 9a 18 3c
       -0.23225583 -0.09924551 -0.040200464 0.00931427
0003c0 50 58 0d 3d 24 cb 18 3d 5d fc 50 3d 36 0c 39 bc
       0.03450805 0.037303105 0.051021922 -0.011294415
0003d0 32 59 c8 bc ac 6a b0 3d ea f7 cb 3d 82 d9 01 3e
       -0.024456594 0.08614096 0.09959395 0.12680629
0003e0 8d ff b3 3d 66 a5 a2 bc 94 c1 08 3e a7 b5 2f 3c
       0.08788977 -0.019854259 0.13355094 0.010724462
0003f0 6e 72 5e 3d a2 18 85 bc 18 b7 13 bd 1a c6 a9 3d
       0.054308347 -0.016247097 -0.036063284 0.08289738

prediction_layer.bias f4 [10]
000000 c6 5a 33 3e d1 c4 2d be 23 7a aa 3d 56 b0 b4 3b
       0.17515096 -0.16969611 0.08324077 0.005514185
000010 8d 97 dd 3d bf 91 95 bd b5 5b 80 bd e9 e3 12 bd
       0.10819922 -0.073031895 -0.06267492 -0.035861883
000020 a8 4a 07 3e 21 0f 47 be
       0.13212073 -0.19439365
