Homeworks/HW1/results/trained_models/cnn_4[3].pt (torch, 88275 bytes, 10 tensors)

conv1.weight f4 [16, 1, 3, 3]
0	0x3e221ff7	0.15832506
1	0x3e8ad791	0.2711759
2	0xbdb55478	-0.08854002
3	0xbe663c40	-0.22483921
4	0x3dc3dd37	0.09563678
5	0xbe18fb00	-0.14939499
6	0xbecec783	-0.4038659
7	0xbc02f4d3	-0.007992941
8	0xbdedd8b1	-0.11613596
9	0x3e9e09d9	0.30866888
10	0x3e729835	0.23690875
11	0x3dc755d0	0.09733164
12	0x3e03fea7	0.12890111
13	0x3d741cfa	0.059597947
14	0x3cb53c90	0.022123605
15	0xbe1a138f	-0.15046524
16	0xbe6c8b02	-0.23099902
17	0xbdfa78c9	-0.12230069
18	0xbd8fa44b	-0.07013758
19	0x3ddddce2	0.10833146
20	0xbeb8f404	-0.3612367
21	0x3e4ddd78	0.20104015
22	0x3dbc5e9b	0.09197732
23	0xbc671677	-0.014104477
24	0x3e41be48	0.18920243
25	0x3d91384a	0.070908144
26	0x3e49161a	0.19637337
27	0xbecc8da0	-0.399518
28	0x3da8e870	0.08247459
29	0x3eafd4bd	0.34341994
30	0x3e6d391d	0.23166318
31	0x3e60fbc8	0.21971047
32	0xbe89d990	-0.269238
33	0x3d49781c	0.04918681
34	0xbdb0a5df	-0.086253874
35	0x3e728db8	0.23686874
36	0x3d28155d	0.041036
37	0xbeaaa116	-0.33326024
38	0xbddf7d16	-0.1091253
39	0x3d5f5a4e	0.05452948
40	0xbf0398e3	-0.5140516
41	0x3ea7c542	0.32767683
42	0x3f044498	0.51667166
43	0x3daabd18	0.08336848
44	0xbd81c934	-0.063372046
45	0xbe3f51a6	-0.1868349
46	0x3e43767e	0.1908817
47	0x3e293f62	0.16528085
48	0xbe0333e2	-0.1281276
49	0xbec1978e	-0.3781094
50	0xbe004d5d	-0.12529512
51	0xbd15b214	-0.03654678
52	0xbe8069f1	-0.25080827
53	0x3ddbe3a7	0.107367806
54	0xbeacc2ec	-0.33742464
55	0xbd81ca46	-0.06337409
56	0x3e39aa74	0.18131429
57	0xbf0431ca	-0.5163847
58	0x3def6b5d	0.116904
59	0x3e8fbca3	0.28073606
60	0x3d835541	0.06412745
61	0x3ea6f067	0.32605287
62	0x3de0c234	0.10974541
63	0xbf021550	-0.5081377
64	0x3e3d5688	0.1849004
65	0x3e5d016c	0.21582574
66	0x3e3630f9	0.17792119
67	0xbdad0511	-0.08448232
68	0x3e479978	0.19492137
69	0xbecb01d3	-0.3964983
70	0x3daa5c65	0.08318404
71	0x3e49347a	0.19648924
72	0xbec6dccb	-0.38840327
73	0x3c3bbf6d	0.011459214
74	0xbdf3b995	-0.11900631
75	0x3e5959c5	0.2122565
76	0xbe7fcd5c	-0.24980682
77	0xbeb5bd17	-0.35495827
78	0x3ec43d57	0.3832805
79	0x3eef2b0a	0.46712524
80	0x3e060636	0.13088307
81	0xbb8e44e3	-0.004341708
82	0x3e8ac9d8	0.2710712
83	0x3d18c076	0.03729292
84	0xbd4e5328	-0.050372273
85	0xbeecf4c7	-0.462805
86	0x3e59c957	0.21268211
87	0x3b4726e9	0.0030388182
88	0x3c50a96d	0.012735707
89	0x3e7346db	0.23757498
90	0x3ee5cb2f	0.4488158
91	0xbea09f6b	-0.31371626
92	0xbedd6e0d	-0.43248025
93	0xbddda542	-0.10822536
94	0x3ec76bce	0.38949436
95	0xbe95d770	-0.29265928
96	0x3e0c09fb	0.13675682
97	0x3e5387f9	0.20657338
98	0xbe6b9828	-0.23007262
99	0xbe219014	-0.15777618
100	0xbdac10fe	-0.084016785
101	0xbda4a2af	-0.08038842
102	0xbde4cc5a	-0.111717895
103	0x3e3ca456	0.18422064
104	0x3eee75f5	0.4657437
105	0xbe1b929b	-0.15192644
106	0xbce7c3b3	-0.028291559
107	0x3d591092	0.05299432
108	0xbdeaa71c	-0.11457655
109	0x3e07d3e2	0.1326442
110	0xbe81aec8	-0.2532866
111	0xbdcce8ec	-0.10005364
112	0x3eb59e38	0.35472274
113	0x3df5c3ea	0.12000258
114	0x3ea8d623	0.32975873
115	0xbddca37b	-0.10773369
116	0xbe671fe2	-0.22570756
117	0x3da205e0	0.07911277
118	0xbe9716fb	-0.2950972
119	0xbe38614c	-0.18005866
120	0xbea3cf01	-0.3199387
121	0xbeb9df28	-0.36303067
122	0xbd185fc2	-0.037200697
123	0x3eacb585	0.33732238
124	0x3dde9be5	0.10869578
125	0x3f20e77f	0.62853235
126	0xbdb3b9de	-0.08775686
127	0xbe62abff	-0.22135924
128	0x3ecb3d38	0.39695144
129	0xbe28d2ed	-0.16486712
130	0xbe6f8b57	-0.23392998
131	0x3e5a3493	0.21309118
132	0x3ee8122e	0.4532637
133	0xbe2bb106	-0.16766748
134	0xbd17c4c5	-0.03705289
135	0xbebc6dbf	-0.3680248
136	0x3e94fd3f	0.2909946
137	0x3dd2e38f	0.102973096
138	0xbef68613	-0.48149166
139	0x3e5c86fb	0.21535866
140	0x3da105a5	0.07862405
141	0x3df65163	0.12027242
142	0xbe1165db	-0.14199011
143	0x3e4301ab	0.19043605

conv1.bias f4 [16]
0	0xbe868aa7	-0.26277658
1	0xbe030f71	-0.12798859
2	0xbb0744ca	-0.0020640367
3	0xbe6d55c2	-0.23177245
4	0x3e563564	0.20918804
5	0x3d6372b4	0.05552931
6	0x3e84cf0c	0.25939214
7	0xbe5eeb73	-0.21769504
8	0xbdf961b1	-0.12176836
9	0x3d472b42	0.04862524
10	0xbceec087	-0.029144539
11	0x3c4bb0ed	0.012432319
12	0x3e5c6357	0.2152227
13	0x3df68bf3	0.12038412
14	0x3e0d8851	0.13821532
15	0x3d1febf7	0.039043393

conv2.weight f4 [8, 16, 3, 3]
0	0x3d92d17c	0.07168862
1	0x3d5c86e6	0.053839587
2	0x3ddcb90a	0.10777481
3	0x3dd92e9b	0.106045924
4	0x3d5384d2	0.05164034
5	0x3cb8f441	0.022577407
6	0x3e5d2360	0.21595526
7	0xbe9797a9	-0.29607895
8	0xbb80a894	-0.003926346
9	0x3d2bd667	0.041952517
10	0x3e241b04	0.1602593
11	0x3d256506	0.040379547
12	0x3d8702c4	0.065923244
13	0x3db5bd6c	0.0887402
14	0x3d9232bb	0.07138582
15	0xbe0a2338	-0.13489997
16	0xbe31de9a	-0.17370072
17	0xbdea487c	-0.114396065
18	0xbd1cef63	-0.038314234
19	0x3ba0e4ca	0.0049100863
20	0x3d12b1a4	0.035813943
21	0xbe0c2147	-0.1368457
22	0xbe23661b	-0.15956919
23	0x3d732432	0.05936069
24	0x3b152631	0.002275836
25	0x3daa2d0a	0.08309372
26	0x3dbe1f14	0.092832714
27	0xbdae1721	-0.08500505
28	0x3d79656c	0.06088774
29	0xbd46cc4c	-0.048534676
30	0x3bb33f2b	0.0054701767
31	0xbbf1b072	-0.0073757702
32	0xbc8188f1	-0.015812369
33	0xbd2b605c	-0.041839942
34	0x3cd0ae32	0.025473688
35	0x3ddda6d5	0.10822836
36	0xbd67d6f1	-0.05660147
37	0xbdf84554	-0.12122598
38	0xbdd2bb22	-0.10289599
39	0x3d9663bc	0.073432416
40	0x3daf87fc	0.08570859
41	0xbe718133	-0.23584442
42	0xbd96d5bf	-0.073649876
43	0x3e1ada8b	0.1512243
44	0xbe1ff967	-0.15622483
45	0x3e5a5b53	0.213239
46	0x3ddfec84	0.10933784
47	0xbded4c91	-0.115868695
48	0x3e00fb45	0.12595852
49	0x3dec95f1	0.115520366
50	0xbe1faa68	-0.15592349
51	0xbd8f160f	-0.06986629
52	0x3d09684f	0.033546742
53	0xbcd83985	-0.026394615
54	0x3cde1ff0	0.027114838
55	0xbd6c9a68	-0.05776444
56	0x3dd6d915	0.10490624
57	0x3c54e6dc	0.012994494
58	0x3df25ab6	0.11833708
59	0x3e520dc1	0.20513059
60	0xbcde4084	-0.027130373
61	0x3e032010	0.128052
62	0x3df49407	0.119422965
63	0xbe580173	-0.21094303
64	0xbe2de060	-0.16980124
65	0xbd6e2563	-0.058141124
66	0xbd80c91f	-0.06288361
67	0xbdb3ef86	-0.0878592
68	0xbe50a48d	-0.20375271
69	0x3d7e0a78	0.062021703
70	0xbb1d0c62	-0.002396368
71	0xbe16e11d	-0.14734311
72	0xbdde2ae2	-0.10848023
73	0x3d9e4a02	0.077289596
74	0x3dae6f0c	0.08517274
75	0xbd834d2b	-0.06411203
76	0xbdb02de1	-0.08602501
77	0xbdcd2388	-0.10016543
78	0xbe78898d	-0.24271221
79	0xbce54297	-0.027985854
80	0x3c4c27e9	0.012460687
81	0x3d125ecb	0.035734933
82	0x3d336474	0.04379697
83	0xb923d93d	-0.00015625819
84	0xbcedfbd6	-0.029050749
85	0x3e78812c	0.24268025
86	0x3e0d59d7	0.13803802
87	0x3b37982d	0.0028014288
88	0xbd8d8faf	-0.06912171
89	0xbd91ab62	-0.07112767
90	0xbea3ee22	-0.32017618
91	0xbd623de8	-0.05523482
92	0x3da290cf	0.07937776
93	0x3d0a1e00	0.033720016
94	0xbea6e3bf	-0.3259563
95	0xbe00dc29	-0.12583984
96	0x3e9de0aa	0.30835468
97	0xbe1b3f21	-0.151608
98	0xbec545c0	-0.38529778
99	0xbd588fbf	-0.052871462
100	0x3cc3e8b9	0.023914682
101	0x3d96a855	0.073563255
102	0xbdefc8c8	-0.11708218
103	0xbcec015a	-0.028809238
104	0x3d612c73	0.05497403
105	0xbc3d3fcd	-0.011550856
106	0x3e0fad11	0.14030863
107	0xbd47bafa	-0.0487623
108	0x3d3c080c	0.04590611
109	0x3c889157	0.016670866
110	0xbdffe296	-0.1249439
111	0xbd83e0dc	-0.06439373
112	0xbe22174c	-0.158292
113	0x3c420836	0.011842778
114	0xbd1afc96	-0.03783854
115	0xbde8bd28	-0.11364204
116	0x3dbc3b4b	0.09190997
117	0xbe4db131	-0.20087124
118	0x3d5b923c	0.053606257
119	0xbd9335df	-0.071880095
120	0x3dab78f4	0.08372679
121	0x3e8746eb	0.26421294
122	0xbe00ca7b	-0.1257724
123	0x3e6a1f4a	0.22863498
124	0x3d3e37a7	0.046439793
125	0xbe2c7ba5	-0.16844042
126	0x3c48c70f	0.0122544905
127	0xbcbde0d1	-0.02317849
128	0xbd773adb	-0.060358863
129	0xbcc67435	-0.024225334
130	0x3e505ac5	0.20347126
131	0x3cb5694a	0.022144932
132	0xbe86523c	-0.26234615
133	0x3deb196f	0.114794604
134	0x3bdfffa3	0.006835894
135	0xbd97fd36	-0.07421343
136	0x3d5606b2	0.05225248
137	0xbe36dd08	-0.17857754
138	0xbe818e14	-0.2530371
139	0x3e8c991a	0.27460557
140	0x3ea23a1c	0.3168496
141	0xbe85e613	-0.26152095
142	0xbe00b089	-0.12567343
143	0x3e7393cb	0.23786847
144	0x3d2ce010	0.04220587
145	0xbe1b0a14	-0.15140563
146	0xbdb87894	-0.090073735
147	0xbb1e8725	-0.002418944
148	0xbe3addbb	-0.18248646
149	0xbe3e1e78	-0.1856631
150	0xbd8237b4	-0.06358281
151	0x3d1ed9b4	0.038781837
152	0x3d24044c	0.04004316
153	0xbda73b58	-0.08165616
154	0xbd972bb9	-0.07381386
155	0xbd42cc58	-0.04755816
156	0xbd060d98	-0.032727808
157	0xbd9e907d	-0.07742403
158	0xbd8eab5c	-0.06966278
159	0x3d233fee	0.03985589
160	0xbdd7c655	-0.10535876
161	0x3c880a3f	0.016606448
162	0xbd2c9e6b	-0.042143267
163	0x3d87ca32	0.066303626
164	0x3d01609b	0.03158627
165	0xbe2250f9	-0.15851201
166	0xbd375f1c	-0.044768438
167	0x3d7aef18	0.061263174
168	0xbd983bf4	-0.0743331
169	0xbc75230d	-0.01496197
170	0x3c9dc2b1	0.019257875
171	0x3e01af27	0.12664472
172	0x3d386283	0.045015823
173	0xbe067c89	-0.13133444
174	0x3cc507d7	0.02405159
175	0xbcbb5bee	-0.022870984
176	0xbe893b29	-0.26802948
177	0xbe954497	-0.29153892
178	0xbe5d7870	-0.21627975
179	0x3ba4f17f	0.0050336714
180	0x3dea3201	0.11435319
181	0xbdded3ea	-0.10880263
182	0x3e0b92b1	0.13630177
183	0x3e292257	0.16517006
184	0xbdf36410	-0.1188432
185	0xbce1ea7e	-0.027577635
186	0x3e29f63b	0.16597836
187	0xbe1bac24	-0.15202385
188	0xbe2a0c0e	-0.16606161
189	0xbb84f7c0	-0.0040578544
190	0x3d99ea00	0.07515335
191	0xbcbf9ee4	-0.023391195
192	0x3db2b946	0.08726744
193	0xbd731278	-0.059343785
194	0xbbd3d611	-0.0064647277
195	0x3dafbef8	0.08581346
196	0x3e1649a6	0.14676532
197	0xbd0770b3	-0.033066463
198	0xbdce41f0	-0.1007117
199	0x3d0ea4c5	0.034825105
200	0x3bed42ee	0.0072406447
201	0x3dd0d29d	0.10196421
202	0x3e567ea0	0.20946741
203	0xbcd496c9	-0.025950806
204	0xbcbf62fc	-0.02336263
205	0x3c86fc8e	0.01647785
206	0xbdd4512e	-0.10367046
207	0xbbef3ec5	-0.007301184
208	0xbd627d2e	-0.055295162
209	0x3d81a6ec	0.06330666
210	0xbd635ac7	-0.055506494
211	0x3cd73b55	0.026273409
212	0x3c01dc08	0.007925995
213	0xbe48cbd4	-0.19609004
214	0xbdc49318	-0.095983684
215	0xbe61a8c0	-0.2203703
216	0xbd701586	-0.058614276
217	0xbd7cb5c7	-0.061696794
218	0xbe39e359	-0.18153132
219	0xbdf6b1db	-0.12045642
220	0xbe0f40c6	-0.13989553
221	0xbe2dc21f	-0.16968583
222	0xbe29fcce	-0.16600344
223	0xbd099860	-0.03359258
224	0xbe50a72f	-0.20376275
225	0x3c81b76c	0.015834533
226	0xbdfb9431	-0.12284125
227	0x3deff72d	0.11717067
228	0x3e01a7c9	0.12661661
229	0x3b97fd89	0.004638378
230	0xbd82eaa7	-0.06392413
231	0x3def0e28	0.11672622
232	0x3df27b9a	0.118399814
233	0xbddc51a3	-0.107577585
234	0xbd071947	-0.03298309
235	0x3e0a7ea5	0.13524874
236	0x3c22893c	0.009920415
237	0xbdd5fd05	-0.1044865
238	0x3c0ef40d	0.008725178
239	0x3ce62033	0.028091526
240	0xbe181049	-0.14849962
241	0xbe513e2a	-0.2043387
242	0xbd6e983c	-0.05825065
243	0xbb089924	-0.0020843232
244	0x3db0cb69	0.086325474
245	0xbd2f5456	-0.04280504
246	0x3c4957a7	0.012288964
247	0x3e17c98d	0.1482298
248	0xbdd29f3c	-0.10284278
249	0xbdf4e3be	-0.11957501
250	0x3d4c100a	0.049819984
251	0xbe2af102	-0.166935
252	0xbde4fab8	-0.11180633
253	0xbd6f6ff3	-0.058456372
254	0x3d613356	0.0549806
255	0x3d60ecba	0.05491326

conv2.bias f4 [8]
0	0x3d4da059	0.050201748
1	0x3e054656	0.13015112
2	0x3d2d66b1	0.042334262
3	0x3d50dd8a	0.050992526
4	0x3c9b8257	0.01898305
5	0xbd827a11	-0.063709386
6	0x3dd8b871	0.105820544
7	0x3c4984aa	0.012299696

conv3.weight f4 [16, 8, 5, 5]
0	0x3e0d0a4d	0.1377346
1	0xbe6b6047	-0.22985946
2	0x3da6da34	0.08147088
3	0xbb32021c	-0.0027161902
4	0xbd4b1031	-0.04957599
5	0x3dda10e1	0.10647751
6	0xbe3d517c	-0.18488115
7	0x3db0f855	0.086411156
8	0x3cedf40f	0.02904704
9	0xbe34dd5f	-0.17662571
10	0xbd01d0e6	-0.03169336
11	0xbe5da6b1	-0.21645619
12	0x3df9035f	0.12158846
13	0xbc791572	-0.015202867
14	0xbcd4ea59	-0.025990652
15	0x3b803ac2	0.0039132545
16	0xbdbc673d	-0.09199379
17	0x3df5d8fb	0.12004276
18	0xbcd76122	-0.026291434
19	0xbd6c79d2	-0.057733364
20	0x3d42ac4e	0.047527604
21	0xbc7de7d7	-0.015497169
22	0x3e047b4d	0.1293766
23	0xbccec582	-0.025240663
24	0xbdb28282	-0.08716299
25	0xbccef4ab	-0.025263151
26	0xbdaebaab	-0.08531698
27	0xbdccc22c	-0.09997973
28	0x3c97890f	0.018497972
29	0xbd5fab30	-0.054606616
30	0x3cd77d68	0.026304916
31	0x3d6bb843	0.057548773
32	0xbbf6c67f	-0.007530987
33	0x3ddc41a5	0.10754708
34	0xbcd0b01b	-0.025474599
35	0x3ca1062b	0.019656261
36	0x3dc2b993	0.09508052
37	0xbe083a35	-0.13303454
38	0x3e03c0aa	0.12866464
39	0xbd4c4990	-0.049874842
40	0x3cf2459f	0.029574214
41	0x3d9b1509	0.075723715
42	0xbe114546	-0.14186582
43	0x3e221edd	0.15832086
44	0xbdce3414	-0.10068527
45	0xbc5aebe5	-0.013361906
46	0xbd945d1d	-0.072443224
47	0xbdc8dbb8	-0.09807533
48	0x3d948699	0.07252235
49	0xbe000bb1	-0.1250446
50	0x3d32b8df	0.043633338
51	0x39a37373	0.000311758
52	0xbdd93dd2	-0.106074944
53	0x3dc80e3f	0.09768342
54	0x3d27d180	0.04097128
55	0xbd4ed83f	-0.050499197
56	0xbd74bb51	-0.05974895
57	0xbe481845	-0.19540508
58	0xbd8fabe6	-0.07015209
59	0xbe805684	-0.25066006
60	0x3cddf08e	0.027092244
61	0x3d24c0aa	0.0402228
62	0x3c9c594a	0.019085545
63	0x3da3c593	0.07996669
64	0xbcf1bdfc	-0.029509537
65	0x3cfb314c	0.030663155
66	0x3ca806a7	0.020510985
67	0xbd8fdd93	-0.07024684
68	0x3ddf50fe	0.1090412
69	0xbd14a434	-0.03628941
70	0xbd84ec70	-0.064904094
71	0x3b1394ba	0.0022519068
72	0x3c9919a0	0.018688977
73	0x3d8754db	0.06607982
74	0xbd6475b7	-0.055776324
75	0xbd770ce7	-0.06031504
76	0x3e3ac617	0.18239628
77	0xbd9a6b9a	-0.075400546
78	0xbcb7d11f	-0.022438584
79	0xbd50741a	-0.050891973
80	0xbdfe6fa6	-0.12423639
81	0x3e23bf3e	0.15990922
82	0xbe670dee	-0.22563908
83	0x3d9ceafa	0.07662006
84	0x3cc78c66	0.02435894
85	0xbdb09a6e	-0.08623205
86	0x3e496d89	0.1967069
87	0xbe1837ff	-0.14865111
88	0x3d847dfc	0.06469342
89	0x3d1d4fa1	0.03840602
90	0xbd96c831	-0.07362402
91	0x3e188b71	0.14896943
92	0xbe44f152	-0.19232681
93	0x3ce2f91e	0.027706679
94	0xbd3ad879	-0.0456166
95	0xbc74963c	-0.014928397
96	0x3dbf17ec	0.093307346
97	0xbe26afcd	-0.16278
98	0x3b8f0393	0.0043644398
99	0xbd16fac8	-0.036860257
100	0x3d2612ff	0.04054546
101	0x3d009465	0.03139152
102	0xbcecfaa1	-0.028928103
103	0x3d0a7755	0.03380521
104	0x3da9647e	0.082711205
105	0x3de855e6	0.11344509
106	0x398ae652	0.00026493013
107	0x3d0f3731	0.034964744
108	0xbcdada8a	-0.026715536
109	0x3cbcb366	0.023034763
110	0x3d9263fa	0.07147975
111	0x3d66d381	0.05635405
112	0x3d5ca134	0.053864673
113	0xbc0ba38f	-0.008522882
114	0x3d92c378	0.07166189
115	0xbdf17220	-0.11789346
116	0xbdac628e	-0.08417235
117	0xbdb96028	-0.090515435
118	0xbe00c33e	-0.12574479
119	0x3ce83d11	0.028349431
120	0xbb04bb57	-0.0020253265
121	0xbdc45697	-0.09586828
122	0x3cb0e9c0	0.021595836
123	0xbcb69d36	-0.02229176
124	0x3d99918a	0.074984625
125	0xbd93c9eb	-0.07216247
126	0xbdda8928	-0.10670692
127	0xba371da0	-0.00069853105
128	0xbd4f4f0a	-0.050612487
129	0xbd76a976	-0.060220204
130	0xbca5d252	-0.02024189
131	0xbdaba1dd	-0.08380482
132	0x3d90e8b1	0.07075632
133	0x3d83f6aa	0.06443532
134	0xbd318f2f	-0.04334944
135	0xbc2acba8	-0.010424532
136	0xbccb1378	-0.024789557
137	0x3e16197e	0.14658162
138	0x3de67e0c	0.1125451
139	0x3cd75bcc	0.02628889
140	0xbd046dc5	-0.032331247
141	0xbda16e18	-0.07882327
142	0x3b5a436f	0.0033304354
143	0xbd807ee1	-0.062742
144	0xbdeb703e	-0.11496018
145	0x3ca80749	0.020511286
146	0xba901268	-0.0010991814
147	0x3df24755	0.11830012
148	0xbd3c15d1	-0.045919243
149	0x3b313e2a	0.002704511
150	0xbda54016	-0.08068864
151	0x3e3b0df7	0.18267046
152	0xbe60cc4c	-0.21952933
153	0x3d24ee75	0.040266473
154	0x3cafe18a	0.02146985
155	0xbd290568	-0.04126492
156	0x3ddf4602	0.10902025
157	0xbe9b5a73	-0.30342445
158	0x3df31de1	0.11870933
159	0x3d13e69e	0.036108606
160	0x3c3f5cf3	0.011679876
161	0x3e5dd123	0.2166181
162	0xbe5e2c56	-0.216966
163	0x3db6586b	0.08903583
164	0xbb9aa2e2	-0.004719124
165	0x3c5bd00d	0.013416302
166	0x3da4727b	0.08029648
167	0xbe31b066	-0.17352447
168	0x3e25b9be	0.16184136
169	0x3c7de293	0.015495914
170	0xbc916e1c	-0.0177527
171	0x3d5f4f44	0.054518953
172	0xbe437617	-0.19088016
173	0x3db5b20e	0.08871852
174	0xbd5dbe04	-0.05413629
175	0x3dece5d0	0.11567271
176	0xbcfbaa8b	-0.03072097
177	0xbbb36612	-0.005474814
178	0x3c94b843	0.01815427
179	0x3da802a5	0.082036294
180	0xbd564b76	-0.05231806
181	0xbdacee09	-0.08443839
182	0xbddb4e88	-0.10708338
183	0xbd5bd578	-0.053670377
184	0x3e0c4b84	0.13700682
185	0xbda81eed	-0.082090236
186	0xbc35c2e2	-0.011093827
187	0xbe086fc2	-0.13323882
188	0xbd8d72d8	-0.0690667
189	0x3cdf9237	0.0272914
190	0xbd12db10	-0.035853446
191	0xbe02c024	-0.12768608
192	0xbd5e50b1	-0.054276172
193	0xbe194b29	-0.14970078
194	0x3d8ab41d	0.06772635
195	0x3da1a4de	0.07892774
196	0xbc23dfee	-0.0100021195
197	0x3dac85e4	0.08423975
198	0x3b8699a7	0.0041076723
199	0x3e179804	0.14804083
200	0xbbd0197b	-0.0063506938
201	0x3cbca205	0.023026476
202	0x3db18b79	0.086691804
203	0x3d94f15d	0.07272599
204	0x3bc07233	0.0058729886
205	0x3d563b1c	0.052302465
206	0x3e15c0e2	0.1462436
207	0x3d632f62	0.05546511
208	0xbcaa6d1a	-0.020803977
209	0xbd54ab73	-0.05192132
210	0x3d9e2893	0.07722583
211	0x3de1b198	0.110202014
212	0x3d83338a	0.06406315
213	0x3da1a52a	0.07892831
214	0xbd6ec8b0	-0.05829686
215	0x3e5179f7	0.20456682
216	0x3e270031	0.16308667
217	0x3ca4d7b5	0.020122388
218	0xbc2f4d39	-0.010699564
219	0x3d6c1efe	0.057646744
220	0x3d078e0c	0.03309445
221	0x3d405c4e	0.04696303
222	0xbe030e5e	-0.1279845
223	0xbdc591dd	-0.09646962
224	0x3d9ccbe2	0.07656075
225	0x3bd1bc8f	0.0064006518
226	0xbe59670a	-0.21230713
227	0xbde6d4d9	-0.11271066
228	0x3db4e44b	0.08832606
229	0x3ccbe09a	0.024887372
230	0xbd4b769c	-0.04967366
231	0xbe4128f5	-0.1886328
232	0xbdb5e9e4	-0.08882502
233	0x3dd6e8f7	0.10493653
234	0x3ac25e8f	0.0014829206
235	0xbe63be4b	-0.2224056
236	0xbe249f84	-0.16076475
237	0x3da3f0af	0.08004891
238	0x3da66824	0.08125332
239	0xbc6a9cc7	-0.014319605
240	0x3c5f9fbb	0.013648923
241	0x3d627489	0.055286918
242	0x3ddb6dea	0.10714324
243	0x3de6a930	0.11262739
244	0xbb3d1928	-0.0028854106
245	0x3b5a7089	0.0033331236
246	0x3d25f59e	0.040517442
247	0x3df6afd6	0.12045257
248	0x3d43cebf	0.04780459
249	0x3a1010f5	0.0005495691
250	0xbd459c59	-0.048244808
251	0xbe17daf6	-0.1482962
252	0xbe59e471	-0.2127855
253	0xbe2bdaa3	-0.16782622
254	0xbc110f9f	-0.008853822
255	0xbd507b21	-0.050898675

conv3.bias f4 [16]
0	0x3d0b5348	0.03401497
1	0x3ba0125d	0.0048850016
2	0xbd831f57	-0.06402462
3	0x3cae9124	0.021309443
4	0xbd0c8a95	-0.03431185
5	0x3c5323f1	0.012886987
6	0xbcb83704	-0.022487171
7	0x3ca12fce	0.019676115
8	0xbd00f199	-0.031480405
9	0xbddee7fe	-0.10884093
10	0x3db5a57f	0.088694565
11	0xbd7664aa	-0.060154594
12	0x3d68e228	0.056856304
13	0x3d9ebb4e	0.07750569
14	0x3d0a90c2	0.033829458
15	0x3d54ccdd	0.051953185

conv4.weight f4 [16, 16, 5, 5]
0	0x3db596a0	0.0886662
1	0x3d7ef4b7	0.062245097
2	0x3d90ddff	0.070735924
3	0x3c72e5cb	0.014825295
4	0xbd91323f	-0.07089662
5	0x3e3484b1	0.17628743
6	0x3deb7500	0.11496925
7	0x3e00149d	0.12507863
8	0xba90c5ea	-0.0011045311
9	0xbc4671dd	-0.012112108
10	0x3dcc31b6	0.09970419
11	0x3e61c7bc	0.22048849
12	0x3e527745	0.2055331
13	0x3dfd6227	0.12372237
14	0xbd0cd55e	-0.03438317
15	0x3ceaa396	0.028642457
16	0x3d8764f9	0.06611056
17	0x3e1989af	0.14993928
18	0xbcfc0d1b	-0.030767968
19	0xbd1f488a	-0.038887538
20	0x3d4dc3f7	0.050235715
21	0x3e132c20	0.14372301
22	0x3d458ff4	0.048232988
23	0x3daf1946	0.085497424
24	0xbcd16ec3	-0.02556551
25	0x3c9437fd	0.018093104
26	0x3e0f5bd9	0.13999881
27	0x3e2f404a	0.17114368
28	0x3dd969b7	0.10615867
29	0x3cf0b84d	0.029384756
30	0xbd7849d6	-0.06061729
31	0x3ddd68b9	0.1081099
32	0x3d29fbe4	0.041499987
33	0xbd8fda06	-0.070240065
34	0xbdc0dddb	-0.094173156
35	0x3d313fd3	0.04327376
36	0x3e2e19f7	0.17002092
37	0x3df4ec15	0.119590916
38	0xbcaa7f6a	-0.020812709
39	0xbd9bbaea	-0.076040104
40	0xbd0de1f7	-0.034639325
41	0x3d939cb1	0.07207621
42	0xbda38fdf	-0.079864256
43	0xbc21369a	-0.009839678
44	0xbc0781e0	-0.008270711
45	0x3d243f00	0.040099144
46	0x3df13e22	0.11779429
47	0xbce33e54	-0.027739681
48	0x3d420247	0.047365453
49	0x3e493805	0.19650276
50	0xbd5ddef4	-0.054167703
51	0xbdffb0ea	-0.124849156
52	0xbdf436c3	-0.119245075
53	0x3b21c8a5	0.0024686244
54	0xbaaec4ce	-0.0013333799
55	0x3d2e2b3d	0.042521704
56	0xbe02cded	-0.12773867
57	0xbd93f883	-0.07225134
58	0xbdb4b97e	-0.08824442
59	0xbdeceac7	-0.11568218
60	0x3d9c0fb5	0.076201834
61	0x3e143a07	0.1447526
62	0x3e191661	0.14949943
63	0x3c46f274	0.012142766
64	0xbdb6af91	-0.089202054
65	0x3c82719c	0.015923314
66	0x3c402a8d	0.011728895
67	0x3d287602	0.041128166
68	0xbe024458	-0.12721384
69	0xbd31ef2c	-0.043440983
70	0x3d4d0098	0.050049394
71	0xbb4f192a	-0.0031600692
72	0xbdd8416b	-0.105593525
73	0xbe7ee486	-0.24891862
74	0xbe16f2c7	-0.1474105
75	0xbdaf05c3	-0.08546021
76	0x3d13caf7	0.036082234
77	0xbd2ea95b	-0.04264198
78	0x3d82165d	0.06351922
79	0x3d3362cd	0.043795396
80	0xbdf1905f	-0.11795115
81	0xbe43d454	-0.19123966
82	0xbdbe1f29	-0.09283287
83	0xbd00af36	-0.031417094
84	0xbdf752ee	-0.120763645
85	0x3c33eccc	0.01098175
86	0xbd74daa7	-0.059778836
87	0x3e1f4156	0.15552267
88	0x3d45aa2d	0.048257995
89	0xbd81b03c	-0.06332442
90	0xbdf13b49	-0.11778886
91	0xbe3036f7	-0.17208467
92	0xbd6ef6fa	-0.058341004
93	0xbde6fd85	-0.11278824
94	0xbcd0ac21	-0.025472702
95	0xbd203c57	-0.039120045
96	0x3d8802fb	0.066411935
97	0x3c26a172	0.0101703275
98	0xbcfa5b4a	-0.030561108
99	0x3d395596	0.045247637
100	0x3ddbdc47	0.10735374
101	0x3dbc4b69	0.09194071
102	0xbd98a492	-0.07453264
103	0xbd142a30	-0.036173046
104	0xbd006d91	-0.03135449
105	0x3e2fa2cd	0.17151947
106	0xbd097a3f	-0.03356385
107	0x3d26a55a	0.040685035
108	0xbb3cfd17	-0.0028837377
109	0x3e0564ab	0.13026683
110	0xbd305208	-0.04304698
111	0xbdad5647	-0.08463722
112	0xbd329a31	-0.04360408
113	0xbd660121	-0.05615342
114	0x3c4cb98f	0.0124954125
115	0xbd357b44	-0.04430701
116	0xbe6a04cb	-0.22853391
117	0xbe18ce66	-0.14922485
118	0xbdda73f7	-0.1066665
119	0xbe157289	-0.14594473
120	0xbc674a51	-0.0141168395
121	0xbd9ff0a1	-0.07809568
122	0xbe12aeca	-0.14324489
123	0xbc84bd47	-0.016203536
124	0xbdaa2c25	-0.08309201
125	0x3d96f8bd	0.07371662
126	0x3cda9f48	0.02668728
127	0xbcefd8d0	-0.029278189
128	0xbe4f10f9	-0.20221318
129	0xbde1981a	-0.11015339
130	0xbd45534c	-0.04817514
131	0x3d63dbd4	0.055629566
132	0x3d8f0acf	0.069844835
133	0xbd6efd7c	-0.05834721
134	0xbdabcef7	-0.08389085
135	0xbbbeef43	-0.005826862
136	0xbb9ec98f	-0.004845805
137	0xbccbf274	-0.024895884
138	0x3defcab5	0.11708585
139	0xbdeb0544	-0.11475614
140	0xbdc33c0c	-0.095329374
141	0xbe0c8cc9	-0.1372558
142	0xbdcc5009	-0.09976203
143	0xbdfc7c2f	-0.12328374
144	0xbdede6fd	-0.11616323
145	0x3d558bf4	0.052135423
146	0x3d85d1e9	0.06534178
147	0x3d5322fb	0.05154703
148	0xbd80c994	-0.06288448
149	0xbcd1b365	-0.025598237
150	0xbcf5ef4e	-0.030021336
151	0x3c98cca1	0.018652262
152	0xbd88bd8f	-0.066767804
153	0xbdfaf443	-0.122536205
154	0xbd879885	-0.06620888
155	0xbdc65473	-0.09684076
156	0xbdaa0035	-0.08300821
157	0xbe36479b	-0.17800753
158	0xbe8df751	-0.2772775
159	0xbe2570a4	-0.1615625
160	0x3c6043e9	0.013688066
161	0x3c11f76e	0.0089090895
162	0xbda52674	-0.08063975
163	0xbe21f6b4	-0.15816766
164	0xbcb6d898	-0.022320077
165	0xbc70533c	-0.014668282
166	0xbd73368f	-0.059378203
167	0xbe5fe304	-0.21863943
168	0xbe325e5a	-0.17418805
169	0xbd34cf6f	-0.044143137
170	0xbd6553c4	-0.05598809
171	0xbd5cb93f	-0.053887602
172	0xbe57eba5	-0.21085985
173	0x3e21343b	0.1574258
174	0x3e901e36	0.2814805
175	0xbcaed3fa	-0.021341313
176	0x3caaa405	0.020830164
177	0x3cc49593	0.023997104
178	0xbd4e597c	-0.050378308
179	0xbe35c844	-0.17752177
180	0x3d9696c2	0.073529735
181	0x3e18c6f8	0.1491965
182	0xbc8fb906	-0.01754428
183	0xbd81b570	-0.063334346
184	0xbe4d9626	-0.20076808
185	0x3de1a4af	0.11017739
186	0x3e2861b1	0.16443516
187	0xbdea9e10	-0.11455929
188	0xbe1cc2d6	-0.15308699
189	0xbe719c9f	-0.23594902
190	0x3e0c8cf1	0.1372564
191	0xbd6bb9b6	-0.057550155
192	0xbe7b1eeb	-0.24523513
193	0xbdbd0aba	-0.092305616
194	0x3cb41dc0	0.021986842
195	0x3e5df8bf	0.2167692
196	0x3ccc6c47	0.024953974
197	0xbdc3c200	-0.09558487
198	0xbd504825	-0.050850052
199	0x3d85656c	0.06513485
200	0xbce5424e	-0.027985718
201	0xbdd09969	-0.10185511
202	0xbdfd6142	-0.12372066
203	0x3d6f1217	0.05836686
204	0x3d5e8950	0.05433017
205	0xbbb667da	-0.0055665793
206	0x3c21603c	0.009849604
207	0xbc9527f3	-0.018207526
208	0x3db12851	0.08650268
209	0x3d1358c2	0.035973318
210	0x3d3bcd07	0.045849826
211	0x3d55d49f	0.052204724
212	0x3dd846cd	0.10560379
213	0x3d593ae5	0.05303468
214	0x3d723452	0.059131928
215	0x3bbb848d	0.0057225884
216	0xbd6cc6c4	-0.057806745
217	0xbd84a378	-0.06476492
218	0x3d778919	0.06043348
219	0xbe0c7a08	-0.13718426
220	0xbd823283	-0.063572906
221	0x3cd72157	0.026261015
222	0x3b7f6ea2	0.0038975854
223	0x3d87ca63	0.06630399
224	0xbc0dafe5	-0.008647894
225	0x3d393c3a	0.045223452
226	0xbd87b8cc	-0.06627044
227	0xbc7a9c46	-0.015296048
228	0xbe262d41	-0.162282
229	0xbe27d87f	-0.1639118
230	0xbdb1adab	-0.08675703
231	0xbdd42e84	-0.10360435
232	0xbe1debd9	-0.15422
233	0xbdabd29c	-0.0838978
234	0x3d93e7b7	0.072219305
235	0xbb7df089	-0.0038748106
236	0xbe0f271c	-0.13979763
237	0x3caeae72	0.021323416
238	0xbcbe1596	-0.023203652
239	0xbd1ef1fb	-0.03880499
240	0xbde96b79	-0.11397452
241	0xbe5bf525	-0.21480234
242	0xbcfa4edd	-0.030555183
243	0xbac03d81	-0.0014666767
244	0xbc44b957	-0.012007079
245	0xbe59ad1b	-0.21257441
246	0xbe82a31e	-0.25515074
247	0xbe98ea2c	-0.2986616
248	0xbe4c890a	-0.19974151
249	0xbe3159fa	-0.1731948
250	0x3ca1c748	0.019748345
251	0xbdd97da8	-0.1061967
252	0xbe40b648	-0.18819535
253	0xbdf7c9b1	-0.120990165
254	0xbe07d9d5	-0.1326669
255	0xbd9861b9	-0.07440514

conv4.bias f4 [16]
0	0xbd5a1963	-0.053246867
1	0xbdf5dc63	-0.12004926
2	0xbd87735f	-0.06613802
3	0xbe517b84	-0.20457274
4	0xbdf9d895	-0.12199513
5	0xbc5d231e	-0.013497142
6	0x3da1fb67	0.07909279
7	0x3d98c796	0.07459943
8	0xbe254ca9	-0.16142525
9	0x3d3b8534	0.04578133
10	0xbdd05bf5	-0.101737894
11	0xbe090bf1	-0.13383462
12	0x3c15e284	0.009148244
13	0xbdf224b8	-0.1182341
14	0xbdd51b34	-0.10405579
15	0xbea5999f	-0.32343766

prediction_layer.weight f4 [10, 1024]
0	0xbd8e189d	-0.06938288
1	0x3b97c027	0.0046310606
2	0x3cddfabe	0.027097102
3	0xbdc4f847	-0.09617668
4	0x3c8386ad	0.01605543
5	0x3c971cd1	0.018446358
6	0x3c858c26	0.01630218
7	0x3d96b326	0.073583886
8	0xbc4849ca	-0.012224624
9	0xbdb99ca3	-0.09063079
10	0x3cf60424	0.030031271
11	0xbd88723f	-0.06662416
12	0xbbdccbce	-0.0067381626
13	0x3c8dbc50	0.017301708
14	0x3c83345d	0.01601618
15	0x3e0b98de	0.13632533
16	0x3dd28d26	0.10280828
17	0x3c604732	0.013688849
18	0xbd9428b9	-0.0723433
19	0xbe68d7f9	-0.22738637
20	0xbd0d33e7	-0.034473326
21	0x3cd1e71c	0.025622897
22	0xbd8d9e45	-0.06914953
23	0x3e37d75e	0.1795325
24	0x3e1fcfc7	0.15606605
25	0xbd6bd363	-0.05757464
26	0x3d566095	0.0523382
27	0xbe0d940f	-0.13826011
28	0x3cf3a0e5	0.029739806
29	0x3d485fae	0.048919372
30	0xbddee99c	-0.10884401
31	0xbd7e8723	-0.062140595
32	0xbc47d1d9	-0.012196028
33	0xbc3b6d23	-0.011439594
34	0x3d557020	0.052108884
35	0xbe132cbe	-0.14372537
36	0x3ba08e8f	0.004899807
37	0x3dda2b86	0.10652833
38	0xbd57db7d	-0.052699555
39	0x3acfce14	0.0015854263
40	0x3d8b00ec	0.06787285
41	0xbd816c5a	-0.063194945
42	0x3e2cb375	0.16865332
43	0xbd411d03	-0.04714681
44	0xbdd0c668	-0.10194093
45	0x3deae2dd	0.11469052
46	0x3dab26bf	0.083569996
47	0xbe3603cb	-0.17774884
48	0xbc1b3792	-0.009473698
49	0xbbda8b87	-0.006669465
50	0x3d9f17d2	0.07768215
51	0xbda4a081	-0.08038426
52	0xbdee2eec	-0.116300434
53	0xbdb4ad24	-0.088220865
54	0x3df5332a	0.119726494
55	0x3d089d59	0.033353183
56	0xbd242ebb	-0.04008363
57	0xbcb7de01	-0.022444727
58	0x3c5218da	0.012823308
59	0x3d7a2703	0.06107236
60	0xbc9662f6	-0.018357735
61	0xbe065dde	-0.13121745
62	0xbdf90b19	-0.1216032
63	0x3e10c790	0.14138627
64	0x3d187d16	0.037228666
65	0x3a0132b3	0.0004928514
66	0xbd853371	-0.06503952
67	0xbe09b219	-0.13446845
68	0xbe0b83a9	-0.13624443
69	0xbe6f68c1	-0.23379804
70	0xbe8696e5	-0.26286998
71	0xbe669c9a	-0.22520676
72	0x3de7c93e	0.11317681
73	0x3cfbf640	0.03075707
74	0xbdaf4a5d	-0.085591055
75	0xbcf6a7ac	-0.030109249
76	0xbd7b2a53	-0.06131966
77	0xbd65faeb	-0.056147497
78	0xbdb9fde7	-0.09081631
79	0xbde88f8c	-0.113555044
80	0x3dce0775	0.10060016
81	0x3e110e9a	0.14165726
82	0x3d07e773	0.03317971
83	0xbe321f42	-0.17394736
84	0xbd4655fb	-0.04842184
85	0xbe54ca94	-0.20780402
86	0xbdcc9435	-0.09989206
87	0xbe0dcf89	-0.138487
88	0x3db01487	0.08597665
89	0x3dc37e4f	0.09545576
90	0x3d9d08de	0.07667707
91	0xbe2ad59d	-0.1668305
92	0x3ce848f0	0.028355092
93	0x3b0c1a05	0.0021377814
94	0x3d812e68	0.063076794
95	0x3c98b836	0.018642526
96	0x3e2e2fff	0.17010497
97	0x3decb886	0.115586326
98	0x3da7efd8	0.082000434
99	0xbd3c5e41	-0.045988325
100	0x3da4da61	0.08049465
101	0x3dc03039	0.09384198
102	0x3d852316	0.06500833
103	0xbe02f0b8	-0.1278714
104	0xbca6b01d	-0.02034765
105	0x3d42e140	0.047578096
106	0x3d46d756	0.048545204
107	0xbc11a870	-0.008890256
108	0x3cfad507	0.030619157
109	0x3d3b2eb1	0.045698825
110	0x3dda027c	0.10645005
111	0x3bc9b508	0.006155614
112	0xbddd5890	-0.108079076
113	0xbdcf6dc3	-0.10128357
114	0x3d51aa72	0.05118794
115	0xbd57324f	-0.052538212
116	0x3e209a59	0.15683879
117	0x3ca86d6b	0.020559987
118	0x3d8e8b00	0.06960106
119	0x3d8ac560	0.067759275
120	0x3e17853b	0.14796917
121	0x3e01a644	0.12661082
122	0x3c6ed4cc	0.014577102
123	0x3b76fa2b	0.0037685733
124	0xbda515bc	-0.08060786
125	0x3cd9b815	0.026577035
126	0xbcfe013f	-0.031006454
127	0x3db4099a	0.08790894
128	0xbe25524c	-0.16144675
129	0xbd81cfea	-0.063384846
130	0xbe38b849	-0.18039049
131	0xbe57092e	-0.20999596
132	0xbe3778c7	-0.17917167
133	0xbdd7df56	-0.10540645
134	0xbe26765b	-0.16256087
135	0x3d62495d	0.055245746
136	0xbcbef0f0	-0.023308247
137	0x3d541ef6	0.05178734
138	0x3d680971	0.05664963
139	0xbe225ec0	-0.15856457
140	0xbe2004f8	-0.15626895
141	0xbdcbae5b	-0.09945365
142	0x3d132dc6	0.035932325
143	0x3e20a6a8	0.15688574
144	0xbdff4924	-0.12465122
145	0xbdb2a8d6	-0.08723609
146	0xba96b3e5	-0.0011497705
147	0xbd4f026a	-0.05053941
148	0x3d044952	0.032296486
149	0x3e504bdc	0.20341438
150	0x3de74f7b	0.112944566
151	0xbc876ea2	-0.016532246
152	0xbdc09d2b	-0.094049774
153	0x3d8ac5fb	0.06776043
154	0x3df80fbd	0.12112377
155	0x3d971eea	0.07378943
156	0xbae585ed	-0.0017511226
157	0x3de345f8	0.1109733
158	0x3ddbd857	0.10734623
159	0x3e19c27f	0.150156
160	0xbe160f9c	-0.14654392
161	0x3e2a0b02	0.16605762
162	0x3e5086ae	0.20363876
163	0x3dde560d	0.10856257
164	0xbd164975	-0.036691148
165	0x3d927406	0.07151036
166	0x3e1c12c3	0.15241532
167	0x3dc78fd2	0.097442284
168	0x3c9ffa99	0.019528674
169	0x3e629ae1	0.22129394
170	0x3e2c7660	0.16842031
171	0x3d7d05c9	0.061773095
172	0xbd4e9f8f	-0.050445136
173	0xbd2bc1a9	-0.041932736
174	0x3cc3c745	0.02389873
175	0x3e47eacc	0.19523162
176	0x3c65e59a	0.014031792
177	0x3df25a47	0.11833625
178	0x3da8201b	0.08209249
179	0xbd38849b	-0.045048337
180	0xbc99fd8c	-0.018797658
181	0xbd594011	-0.053039614
182	0xbbe10eae	-0.006868205
183	0x3d02cfd7	0.031936493
184	0x3c558d9f	0.013034253
185	0x3e1cc3d6	0.1530908
186	0xbcd2bd28	-0.025724962
187	0xbd4d9fdd	-0.050201286
188	0xbbb2ba7c	-0.0054543596
189	0x3bcafa18	0.0061943643
190	0xbe12e99c	-0.14346927
191	0x3c406bc3	0.011744442
192	0xbe852a73	-0.2600895
193	0xbe860db8	-0.26182342
194	0xbd63509c	-0.055496797
195	0xbd9562b2	-0.07294215
196	0xbe5f92f7	-0.21833406
197	0xbe80e7b3	-0.25176772
198	0xbe9eca76	-0.3101384
199	0xbdbc1cad	-0.09185157
200	0xbd20f9b8	-0.03930065
201	0xbcbca60b	-0.023028394
202	0xbde5be92	-0.11217989
203	0x3da481ff	0.08032607
204	0xbdd334fb	-0.103128396
205	0x3c4ab7cc	0.012372922
206	0x3de21969	0.11040003
207	0x3d992351	0.07477439
208	0xbd84159e	-0.06449436
209	0xbc6bffb0	-0.014404222
210	0xbda43183	-0.08017256
211	0xbd9713be	-0.073768124
212	0x3da5fd01	0.08104897
213	0x3d196949	0.037453923
214	0x3db7da04	0.0897713
215	0x3df71f83	0.12066557
216	0xbda573fe	-0.080787644
217	0x3cf02800	0.029315948
218	0x3e54e508	0.20790493
219	0xbcc43ab9	-0.023953782
220	0xbe324cdc	-0.17412132
221	0xbb34eaf7	-0.002760587
222	0x3e4bdb09	0.19907774
223	0x3e095a99	0.13413467
224	0xbe2dd5a2	-0.16976026
225	0xbd4aca4e	-0.04950934
226	0xbddc18cb	-0.107469164
227	0xbbae9bc3	-0.005328627
228	0x3dab4281	0.08362294
229	0xbd1c0ec6	-0.038100027
230	0x3c9a06c3	0.018802052
231	0x3e90b931	0.2826629
232	0xbe35c5c0	-0.17751217
233	0x3dc16cfd	0.09444616
234	0xbd32af5d	-0.04362427
235	0x3c51d963	0.012808177
236	0x3d9dc1df	0.077029936
237	0xbd96eee4	-0.073697835
238	0xbc4abb34	-0.012373734
239	0xbd3c5494	-0.045979097
240	0x3d554059	0.05206332
241	0x3cfe27dd	0.031024868
242	0x3e236a17	0.15958439
243	0x3e162637	0.14663015
244	0x3d60a6a5	0.054846425
245	0xbb3c60e1	-0.0028744268
246	0x3d8eb71f	0.06968521
247	0x3cc076d4	0.023494162
248	0xbd28c53a	-0.041203715
249	0x3d6f2428	0.05838409
250	0x3dac412f	0.0841087
251	0x3d549eee	0.05190938
252	0x3d635405	0.05550005
253	0xbe19d665	-0.15023191
254	0xbd601c0e	-0.054714255
255	0xbe00ddc2	-0.12584594

prediction_layer.bias f4 [10]
0	0x3e212776	0.1573771
1	0xbe5dbf39	-0.21654977
2	0x3dd8ef7a	0.105925515
3	0x3dc4746c	0.09592518
4	0x3e44346b	0.19160621
5	0x3c50f3bc	0.012753423
6	0xbdd9fda6	-0.10644083
7	0xbe2dd1fc	-0.16974634
8	0x3db49c15	0.08818833
9	0xbe85da95	-0.26143327
