Homeworks/HW1/results/trained_models/cnn_4[2].pt (torch, 88275 bytes, 10 tensors)

conv1.weight f4 [16, 1, 3, 3]
-0.42319128 0.39725155 -0.0048310426 0.3769011 0.3787233 -0.20437044 -0.23270594 0.019774849
-0.38726574 0.100891754 -0.3376103 0.4283302 0.016893022 -0.2665415 0.0846868 0.21921663
-0.2642128 -0.11723171 -0.12560946 -0.38443363 0.21189791 -0.013505943 0.13936886 0.19375893
-0.33823645 0.14214188 -0.15683655 -0.021209896 -0.0036971285 0.37239504 -0.25753918 -0.06320123
0.12274042 -0.109751835 -0.26671615 0.051910695 0.0060031135 0.15437151 -0.51463974 -0.12614569
0.23799333 0.20010962 0.20979738 0.01084583 0.23321308 0.09293592 0.19272776 0.18594392
-0.5204831 -0.20718525 0.2739127 -0.38134795 0.26060534 0.17431748 0.13520642 0.22963776
-0.2519272 -0.12705423 0.35914087 -0.034117654 -0.16328876 -0.37798917 0.17819996 -0.3670861
0.24684066 0.22902618 0.15600611 0.33535627 0.27052695 -0.03272485 -0.4450001 -0.33508548
-0.39610803 0.39407378 0.15777113 -0.4110864 -0.097102456 -0.18101041 0.15815544 0.5508037
-0.16077559 -0.4062803 0.3357863 -0.10839444 -0.30741942 -0.08300804 0.37990907 0.26366
0.20402543 -0.15604834 -0.3260273 0.1979467 -0.14285983 0.12303206 -0.16234045 -0.363741
0.32322463 -0.22070178 -0.33715463 -0.28411254 0.33599523 -0.07556578 0.0037631344 -0.30314702
-0.039473195 0.1210437 0.13677698 0.0754031 0.08234828 -0.031046642 0.34308752 -0.2533708
0.3769159 0.15286113 0.047214683 -0.41459274 -0.16861457 0.18028966 -0.34585503 -0.14383405
0.23111565 -0.135345 -0.045708664 0.44957912 0.009961119 -0.2866729 -0.093997106 -0.34688577
0.19885848 -0.13783441 -0.22973992 0.5682783 -0.1493325 -0.008821587 0.19524717 0.27992484
-0.14517067 -0.41561496 -0.38494506 0.3368378 -0.19497241 -0.15795791 0.48478344 0.1931782
00000000: 87ac d8be 8e64 cb3e b94d 9ebb 2ef9 c03e
00000010: 05e8 c13e 7c46 51be 774a 6ebe ddfe a13c
00000020: b247 c6be 56a0 ce3d 42db acbe 194e db3e
00000030: 3c63 8a3c 2178 88be 4670 ad3d 537a 603e
00000040: e646 87be 2e17 f0bd c49f 00be 7cd4 c4be
00000050: c4fb 583e 0848 5dbc b6b6 0e3e be68 463e
00000060: 542d adbe a48d 113e c399 20be 60c0 adbc
00000070: 864b 72bb 90aa be3e 2ddc 83be a56f 81bd
00000080: 545f fb3d 92c5 e0bd 058f 88be 4fa0 543d
00000090: c4b5 c43b 9113 1e3e 6ebf 03bf 562c 01be
000000a0: 86b4 733e 89e9 4c3e 20d5 563e b5b2 313c
000000b0: 69cf 6e3e 3055 be3d 6d5a 453e 1568 3e3e
000000c0: 613e 05bf 5f28 54be 493e 8c3e 0a40 c3be
000000d0: 106e 853e 4880 323e 8d73 0a3e 2926 6b3e
000000e0: 9afc 80be 811a 02be 50e1 b73e f4be 0bbd
000000f0: 2b35 27be cc87 c1be 0d7a 363e b6f2 bbbe
00000100: ccc3 7c3e d785 6a3e 11c0 1f3e d1b3 ab3e
00000110: 8282 8a3e 7e0a 06bd 0ed7 e3be 5390 abbe
00000120: acce cabe 0ac4 c93e c18e 213e eb79 d2be
00000130: a7dd c6bd cb5a 39be 80f3 213e 7901 0d3f
00000140: 5ba2 24be f903 d0be 2fec ab3e e7fd ddbd
00000150: 1466 9dbe 1f00 aabd 7183 c23e 72fe 863e
00000160: 0bec 503e 23cb 1fbe 0ded a6be 8ab2 4a3e
00000170: d949 12be 3cf8 fb3d 933c 26be 433c babe
00000180: b37d a53e a6ff 61be 889f acbe 3377 91be
00000190: 9107 ac3e 3bc2 9abd eb9e 763b 1636 9bbe
000001a0: a5ae 21bd c2e5 f73d 440f 0c3e f16c 9a3d
000001b0: 37a6 a83d 8755 febc 2ba9 af3e d1b9 81be
000001c0: 1ffb c03e a187 1c3e 2f64 413d 8045 d4be
000001d0: 4ca9 2cbe da9d 383e e913 b1be 3c49 13be
000001e0: 95a9 6c3e e197 0abe 0239 3bbd 3c2f e63e
000001f0: f633 233c cac6 92be 8e81 c0bd 039b b1be
00000200: 8fa1 4b3e 7724 0dbe f140 6bbe b07a 113f
00000210: 9eea 18be 6b88 10bc e0ee 473e 4f52 8f3e
00000220: 9fa7 14be 7ccb d4be 8517 c5be 0176 ac3e
00000230: d9a6 47be b8bf 21be 8935 f83e 82d0 453e

conv1.bias f4 [16]
-0.02803202 -0.10555514 -0.06418248 0.105159275 -0.13756894 -0.11224664 0.0065005184 0.10943942
0.121847205 -0.23138572 -0.41434202 0.0343592 -0.19865933 0.110908076 0.122095205 0.098575525
00000000: 68a3 e5bc 4b2d d8bd 1b72 83bd bf5d d73d
00000010: dfde 0cbe 91e1 e5bd 4d02 d53b c621 e03d
00000020: 078b f93d 61f0 6cbe a324 d4be 3cbc 0c3d
00000030: 5a6d 4bbe c623 e33d 0d0d fa3d f7e1 c93d

conv2.weight f4 [8, 16, 3, 3]
0.040189814 -0.2459737 -0.15091214 0.021787085 -0.4049624 -0.28412125 -0.1349582 -0.2942501
-0.34031892 -0.028303271 -0.17584078 -0.02749944 -0.04914105 -0.122854725 -0.17582926 -0.11668352
0.050540175 -0.183426 0.18004495 0.13380754 0.03247872 0.1915862 -0.09100729 -0.13550897
-0.04824551 0.03717909 -0.046340313 0.13778357 0.030756308 0.028468164 0.11313636 0.077260174
0.10832394 -0.050315145 0.04141103 -0.0011849621 -0.036830246 0.058274556 0.10623251 -0.16752292
-0.06189286 -0.007905049 -0.14043856 -0.012039421 0.09485624 -0.21197276 -0.21887234 -0.24340476
-0.034288116 -0.030357063 -0.18624584 0.095866814 0.13831192 -0.08314326 0.08846208 0.09599497
-0.3198115 0.012650696 -0.010387804 0.016372006 -0.12123918 -0.056223754 -0.072989635 0.11666033
0.008495469 0.019673977 -0.09968613 0.12759718 0.12555881 -0.08133536 -0.06165688 0.06968054
-0.1002988 -0.078452945 -0.10110925 0.028475566 0.13173887 0.063803144 -0.012350953 0.054835778
0.13860165 -0.009368019 0.028560389 0.10460627 0.107310876 -0.003217993 -0.19131708 -0.26058325
-0.2672099 -0.1965144 0.12237 -0.14341152 -0.16951764 0.043884583 0.05686869 -0.12936963
0.020593224 0.04366151 0.07548939 -0.014347463 0.02479656 -0.0740115 0.0117246555 0.07607961
0.005125627 0.00077677233 0.041366175 0.038631566 -0.12015231 -0.23993398 -0.21684316 0.070200406
-0.23172401 -0.085501276 0.13389444 -0.153012 -0.18513678 -0.03162001 -0.23188418 -0.23213913
0.075742476 0.031239368 -0.20227657 -0.009180147 0.033146806 -0.098362684 0.043984096 0.15318698
0.058634695 0.027801596 0.21620803 0.0067734 -0.020959172 0.047867257 0.095860116 -0.17824177
-0.008498908 0.017416392 -0.136101 -0.23974451 0.14884622 0.09974335 -0.13021348 -0.0429447
0.1555175 0.12865743 -0.030694522 0.03757225 0.009053557 -0.08703942 0.08927512 0.17650063
0.16268176 -0.4121013 -0.16691674 0.23499991 -0.4584669 -0.2896663 0.035334796 -0.16551341
-0.1895138 0.25698766 -0.14364092 -0.052724574 0.09807013 -0.08029085 -0.0478031 -0.057752736
0.011172669 0.08686145 0.13826118 0.003959144 -0.047299385 -0.09134009 -0.087268874 0.10088546
0.0076856683 -0.12009395 0.09035233 -0.031635795 0.09223936 0.15560322 0.055489972 -0.2304235
-0.054980617 -0.122711495 -0.22187136 0.061360322 -0.07519825 -0.25923526 -0.21503718 0.036109816
-0.20784089 -0.042725198 -0.0042411657 -0.37894347 0.019178867 -0.06730769 0.059298065 0.07048693
-0.053597238 -0.22525696 -0.010927513 -0.051616486 -0.16637903 -0.10839138 -0.20377535 0.1921415
0.17019466 0.054964587 0.08481592 0.060104646 -0.013906528 -0.057752367 0.027483359 -0.06959716
-0.09441071 -0.14016736 0.070520066 -0.056660023 0.084715195 0.07007512 -0.15651129 -0.036776755
0.18671216 -0.039949518 -0.07398041 0.05273961 -0.31605846 -0.2363963 -0.05144719 -0.08730556
0.013666245 -0.0744247 -0.20317501 0.26947623 0.1144697 -0.14871457 0.055006325 -0.15521386
-0.36131564 -0.12678675 -0.066759825 -0.013734615 -0.011322227 -0.05476835 -0.028239358 0.07143352
-0.11892856 -0.09755469 -0.043555263 0.06687496 -0.065690696 -0.24609926 -0.015325466 0.03791059
00000000: 139e 243d 88e0 7bbe b688 1abe d47a b23c
00000010: 3b57 cfbe 5778 91be 7b32 0abe f3a7 96be
00000020: 483e aebe 43dc e7bc 9b0f 34be 8146 e1bc
00000030: 2048 49bd 429b fbbd 960c 34be c5f7 eebd
00000040: 3703 4f3d 06d4 3bbe b45d 383e d804 093e
00000050: 6808 053d 2c2f 443e 0862 babd ddc2 0abe
00000060: 159d 45bd 1a49 183d 57cf 3dbd 2317 0d3e
00000070: a7f4 fb3c 1136 e93c 09b4 e73d 953a 9e3d
00000080: f1d8 dd3d 4117 4ebd 9d9e 293d bb50 9bba
00000090: 50db 16bd 4db1 6e3d 6e90 d93d 218b 2bbe
000000a0: 5e83 7dbd 2e84 01bc 20cf 0fbe fe40 45bc
000000b0: fd43 c23d 630f 59be 1220 60be 193f 79be
000000c0: b271 0cbd 60af f8bc 3bb7 3ebe d255 c43d
000000d0: a4a1 0d3e 0347 aabd 9b2b b53d 0399 c43d
000000e0: 55be a3be dd44 4f3c 9c31 2abc 961e 863c
000000f0: 3f4c f8bd e14a 66bd 977b 95bd 9ceb ee3d
00000100: 9430 0b3c 522b a13c 3e28 ccbd d6a8 023e
00000110: 7d92 003e 2793 a6bd ed8b 7cbd acb4 8e3d
00000120: 7569 cdbd f0ab a0bd 5e12 cfbd 9745 e93c
00000130: 8ee6 063e 39ab 823d a75b 4abc 7b9b 603d
00000140: 97ed 0d3e 527c 19bc 7af7 e93c d03b d63d
00000150: cec5 db3d f7e4 52bb a0e8 43be 2b6b 85be
00000160: bccf 88be 123b 49be 1f9d fa3d 78da 12be
00000170: 0896 2dbe 52c0 333d 25ef 683d 7979 04be
00000180: 1fb3 a83c 69d6 323d 2e9a 9a3d 9f11 6bbc
00000190: 2822 cb3c 5793 97bd c518 403c a0cf 9b3d
000001a0: e0f4 a73b 4fa0 4b3a 946f 293d 223c 1e3d
000001b0: 6a12 f6bd 41b1 75be 220c 5ebe 3bc5 8f3d
000001c0: 0f49 6dbe 4b1b afbd a01b 093e 2daf 1cbe
000001d0: 7f94 3dbe fc83 01bd 0c73 6dbe e1b5 6dbe
000001e0: df1e 9b3d b4e9 ff3c 9721 4fbe 5468 16bc
000001f0: f2c4 073d 6072 c9bd ab28 343d 0cdd 1c3e
00000200: ef2a 703d 2cc0 e33c a365 5d3e 66f3 dd3b
00000210: 92b2 abbc 7510 443d 4f52 c43d 0385 36be
00000220: 013f 0bbc d2ac 8e3c 0f5e 0bbe 967f 75be
00000230: 256b 183e 3e46 cc3d af56 05be c8e6 2fbd
00000240: fb3f 1f3e c6be 033e 1473 fbbc 5ce5 193d
00000250: 5f55 143c b941 b2bd e0d5 b63d 95bc 343e
00000260: 0c96 263e f1fe d2be 39ec 2abe d1a3 703e
00000270: 2cbc eabe 244f 94be 38bb 103d 597c 29be
00000280: e80f 42be e393 833e 9b16 13be b9f5 57bd
00000290: fed8 c83d 876f a4bd 2fcd 43bd 228e 6cbd
000002a0: 920d 373c 6ae4 b13d 5794 0d3e b5bb 813b
000002b0: 00bd 41bd 8310 bbbd 06ba b2bd 099d ce3d
000002c0: 0fd8 fb3b d1f3 f5bd a40a b93d 8994 01bd
000002d0: fde7 bc3d 7356 1f3e 7449 633d 23f4 6bbe
000002e0: 5b33 61bd 2a50 fbbd 3f32 63be f654 7b3d
000002f0: 8a01 9abd 7cba 84be b532 5cbe e3e7 133d
00000300: 3ed4 54be 9e00 2fbd 7af9 8abb e104 c2be
00000310: 001d 9d3c 9dd8 89bd 87e2 723d 745b 903d
00000320: c788 5bbd c3a9 66be 5009 33bc cf6b 53bd
00000330: 445f 2abe 4dfc ddbd 7caa 50be bec0 443e
00000340: 8247 2e3e 8c22 613d f8b3 ad3d 4a30 763d
00000350: 35d8 63bc bf8d 6cbd c824 e13c f588 8ebd
00000360: 675a c1bd 0888 0fbe d36c 903d 5714 68bd
00000370: 297f ad3d 8b83 8f3d 7f44 20be 39a3 16bd
00000380: 7931 3f3e 1ba2 23bd 0b83 97bd 7d05 583d
00000390: 6ad2 a1be df11 72be 4aba 52bd 42cd b2bd
000003a0: 63e8 5f3c fa6b 98bd 1c0d 50be caf8 893e
000003b0: 176f ea3d a248 18be 504e 613d 62f0 1ebe
000003c0: 5dfe b8be 63d4 01be 60b9 88bd 2707 61bc
000003d0: dd80 39bc c754 60bd 3a56 e7bc bd4b 923d
000003e0: d190 f3bd c1ca c7bd 0167 32bd bdf5 883d
000003f0: d888 86bd 7201 7cbe aa17 7bbc 2348 1b3d

conv2.bias f4 [8]
0.06607578 0.097397625 0.00977802 0.09437452 -0.073755816 0.006835747 0.20415087 -0.05724427
00000000: bd52 873d 6878 c73d fd33 203c 6e47 c13d
00000010: 4a0d 97bd 67fe df3b ed0c 513e f878 6abd

conv3.weight f4 [16, 8, 5, 5]
-0.24364506 -0.09527787 0.0039019291 0.007285494 -0.016717993 -0.18685704 -0.29576325 -0.08766755
0.061383046 0.0041872743 -0.14165704 -0.15186362 -0.14485113 0.09139252 0.05949323 -0.054525062
-0.21521038 -0.2186926 0.113284655 0.009341676 0.009116833 -0.22037603 -0.2125262 -0.046712294
0.16588156 0.196282 0.15340821 0.1504264 -0.23439744 -0.085625134 -0.010707311 0.09461498
0.15534842 -0.19327936 -0.29574096 -0.06830261 -0.01977209 -0.0326197 -0.05365945 -0.15088505
0.021335196 -0.19007064 0.12822177 0.0073415297 -0.19538052 -0.088554114 -0.16558932 0.27034667
-0.09355563 -0.16434461 0.13656527 -0.06588979 -0.01297746 0.04053515 -0.01137371 -0.18763591
0.006349881 0.055718668 0.10105074 -0.17949535 -0.02371303 0.004078056 0.094114244 0.123232
-0.03203962 0.10310323 0.054494835 0.085868 -0.03009338 -0.13293478 0.07511288 0.22192343
0.1216316 -0.0037903483 0.026291657 0.24876465 0.14899695 0.012005633 -0.0045326995 0.04752546
0.059557315 -0.005659234 0.05214354 0.014111447 -0.015420604 -0.0746051 0.029620482 -0.15756918
-0.00093561487 -0.09048323 0.034764033 -0.01693054 -0.3186828 0.039412383 -0.2148381 -0.06594404
-0.14004116 -0.13966915 -0.027633946 -0.38070416 -0.06112725 -0.035784468 -0.09460598 -0.09695701
-0.12177999 -0.030223023 -0.21231729 0.07946679 0.18313967 -0.01041736 0.010512881 -0.099493824
0.18030074 0.1387502 0.01960786 -0.004933184 0.06904524 0.09572435 0.07347738 -0.111706585
-0.130334 0.0066375807 0.08364377 -0.015463732 0.014202739 -0.0041370257 0.054386824 -0.017896658
-0.15593074 -0.1247707 0.14796333 -0.08763844 -0.10729038 -0.09809022 -0.040663987 0.105465226
-0.02619118 0.00052808085 0.030033909 -0.109597564 -0.29796594 -0.009873316 0.011156048 0.02788284
0.03918458 0.0076460815 0.010899729 -0.07389427 -0.07485771 -0.10615813 -0.010290704 -0.028725836
0.009095244 0.09835076 0.10796674 -0.050417725 -0.19038399 0.069094054 0.19363786 0.026342899
-0.051127825 -0.064027086 0.16793592 0.18992989 0.010806135 -0.17097032 -0.09608995 0.1396196
0.12373662 -0.120273516 -0.124800526 -0.09942948 -0.04017529 0.069796555 -0.104408756 -0.15062156
-0.20258161 0.06913996 0.055877488 0.1315668 -0.23709972 -0.16375625 -0.033404868 0.03622666
0.008302089 0.103937544 -0.02680424 0.06888722 0.16657017 0.11301182 -0.044646736 -0.15768637
-0.061472718 0.041220464 0.07352826 0.027523126 -0.078661114 0.029170368 -0.10634395 0.07147823
0.063853756 0.011768878 0.042408485 0.02204109 -0.014995869 0.07293138 0.05750053 0.08551589
-0.024735074 0.05759009 0.05643709 -0.11849146 -0.079489335 -0.08083035 -0.17515847 -0.13481748
-0.22939217 -0.27788553 -0.057569236 -0.07119011 -0.025860017 -0.042281777 0.083969735 0.26075336
0.08813382 -0.10499161 -0.15604146 -0.19229409 -0.07528253 -0.21883315 0.059036385 0.012124275
-0.04419692 -0.02166408 -0.16923125 -0.021839472 0.001773208 -0.09921122 -0.1539022 -0.06891448
-0.060619492 -0.057529766 -0.1458111 -0.0020140253 -0.015654126 0.08714742 0.2086823 0.29121324
0.24336599 0.26148427 -0.05900714 -0.05498975 -0.15395336 -0.05443458 -0.07146579 0.052485958
00000000: 177e 79be 0b21 c3bd 82b7 7f3b 27bb ee3b
00000010: 2cf4 88bc 7457 3fbe 486e 97be 0b8b b3bd
00000020: ca6c 7b3d 6735 893b 8b0e 11be 2382 1bbe
00000030: db53 14be 002c bb3d 2caf 733d ac55 5fbd
00000040: 1c60 5cbe f4f0 5fbe c901 e83d d40d 193c
00000050: c55e 153c 41aa 61be 78a0 59be 6455 3fbd
00000060: dbdc 293e 26fe 483e 0b17 1d3e 6109 1a3e
00000070: e205 70be 3b5c afbd b86d 2fbc 80c5 c13d
00000080: a813 1f3e 06eb 45be 5c6b 97be 3de2 8bbd
00000090: 14f9 a1bc 3c9c 05bd 03ca 5bbd 9c81 1abe
000000a0: 26c7 ae3c e1a1 42be 914c 033e 3791 f03b
000000b0: d511 48be dc5b b5bd 3f90 29be e16a 8a3e
000000c0: 189a bfbd f449 28be c4d7 0b3e 3af1 86bd
000000d0: 6a9f 54bc 2f08 263d cc58 3abc a123 40be
000000e0: aa12 d03b 4239 643d b1f3 ce3d a1cd 37be
000000f0: d441 c2bc 37a1 853b f8be c03d 0f61 fc3d
00000100: fa3b 03bd c927 d33d fa35 5f3d 90db af3d
00000110: 6486 f6bc 0e20 08be c8d4 993d e53f 633e
00000120: fd19 f93d 7e67 78bb 9a61 d73c 29bc 7e3e
00000130: a892 183e 46b3 443c 0a87 94bb 0faa 423d
00000140: 5ff2 733d 1871 b9bb 7794 553d b333 673c
00000150: b3a6 7cbc 8fca 98bd a7a6 f23c d159 21be
00000160: 0d44 75ba 464f b9bd bb64 0e3d eab1 8abc
00000170: 642a a3be e16e 213d 85fe 5bbe ab0d 87bd
00000180: f366 0fbe 6e05 0fbe 9660 e2bc a8eb c2be
00000190: 9160 7abd bc92 12bd c8c0 c1bd 6691 c6bd
000001a0: ca67 f9bd 4696 f7bc b469 59be 7cbf a23d
000001b0: f788 3b3e 93ad 2abc 383e 2c3c 6bc3 cbbd
000001c0: c2a0 383e 8814 0e3e aaa0 a03c 8ca6 a1bb
000001d0: 9767 8d3d 210b c43d 4f7b 963d 6cc6 e4bd
000001e0: 4776 05be 1080 d93b 6d4d ab3d 985b 7dbc
000001f0: 9bb2 683c e38f 87bb b8c4 5e3d 039c 92bc
00000200: 4fac 1fbe c887 ffbd b383 173e c87b b3bd
00000210: 0fbb dbbd 86e3 c8bd 488f 26bd 27fe d73d
00000220: e38e d6bc e86e 0a3a ac09 f63c b074 e0bd
00000230: fe8e 98be b0c3 21bc dbc7 363c 8e6a e43c
00000240: 0380 203d fb8b fa3b c794 323c e155 97bd
00000250: 004f 99bd 6f69 d9bd 579a 28bc 7252 ebbc
00000260: 3804 153c 206c c93d ab1d dd3d d182 4ebd
00000270: 05f4 42be 2f81 8d3d 0149 463e 10cd d73c
00000280: 696b 51bd a220 83bd 65f7 2b3e fb7c 423e
00000290: 370c 313c d812 2fbe cfca c4bd 71f8 0e3e
000002a0: a069 fd3d f651 f6bd 6b97 ffbd afa1 cbbd
000002b0: d88e 24bd 7ff1 8e3d 42d4 d5bd 8a3c 1abe
000002c0: 8e71 4fbe 4099 8d3d cbdf 643d 72b9 063e
000002d0: 45ca 72be b8af 27be 8bd3 08bd 6862 143d
000002e0: 7c05 083c 35dd d43d 9194 dbbc be14 8d3d
000002f0: 5f91 2a3e be72 e73d 7fdf 36bd 8978 21be
00000300: d1ca 7bbd cad6 283d fc95 963d 2e78 e13c
00000310: 1419 a1bd b2f6 ee3c dbca d9bd 2e63 923d
00000320: c2c5 823d 41d2 403c 85b4 2d3d 848f b43c
00000330: 3cb1 75bc 0c5d 953d ad85 6b3d f422 af3d
00000340: 36a1 cabc 96e3 6b3d 942a 673d a7ab f2bd
00000350: 4ecb a2bd 628a a5bd be5c 33be 980d 0abe
00000360: c8e5 6abe 0347 8ebe b8cd 6bbd 1fcc 91bd
00000370: 63d8 d3bc a82f 2dbd 53f8 ab3d 7781 853e
00000380: 817f b43d d705 d7bd 55c9 1fbe bee8 44be
00000390: ba2d 9abd cc15 60be 23d0 713d e5a4 463c
000003a0: d407 35bd de78 b1bc f54a 2dbe b1e8 b2bc
000003b0: fd6a e83a 412f cbbd 8a98 1dbe 0923 8dbd
000003c0: 254c 78bd 55a4 6bbd 814f 15be bdfd 03bb
000003d0: 153d 80bc 597a b23d d0b0 553e e719 953e
000003e0: ef34 793e 44e1 853e 79b1 71bd ef3c 61bd
000003f0: f3a5 1dbe cbf6 5ebd a85c 92bd 84fb 563d

conv3.bias f4 [16]
-0.014523201 0.026750075 -0.03953059 0.025932707 0.09769967 0.2811936 0.081164956 -0.019081065
0.025610639 -0.052442055 0.049186055 0.031176666 -0.021262098 0.027751548 0.016435845 0.073458515
00000000: b8f2 6dbc f922 db3c d4ea 21bd d470 d43c
00000010: c416 c83d 9cf8 8f3e d039 a63d e54f 9cbc
00000020: 67cd d13c 7bcd 56bd 5177 493d 3566 ff3c
00000030: da2d aebc 3757 e33c 77a4 863c 6b71 963d

conv4.weight f4 [16, 16, 5, 5]
0.030085571 -0.122170635 -0.010170831 -0.04861062 -0.0917279 0.019432751 0.13712601 0.024160307
-0.01117798 -0.19899778 -0.027466733 -0.07069847 0.06671617 -0.048567913 -0.2777152 0.019070072
-0.05677013 -0.047917224 -0.106181696 -0.08050429 -0.04540272 0.00044843878 -0.02859276 -0.07031833
-0.04255497 0.041407343 -0.38877186 -0.27577612 -0.000433193 0.1330427 0.10138098 -0.17870781
-0.2070612 0.0069048465 0.06820722 0.20306034 -0.037348554 -0.00074185466 -0.017345175 -0.020304602
0.023751037 -0.06731499 -0.13069972 -0.049124494 -0.06829637 0.0064534494 -0.08163425 -0.09759556
0.06470431 -0.013048993 -0.0727601 -0.15704542 0.01813912 -0.13008772 -0.079944834 0.06713604
0.019054059 0.07391294 0.32348832 -0.0676442 0.017606637 -0.04110436 0.10331644 0.16667749
0.06207702 -0.027963303 -0.086056076 -0.020748345 0.14903551 0.27309123 0.10175369 -0.16741167
0.14495365 -0.02739483 0.075307585 0.0230462 -0.057403743 0.17788833 0.23540795 -0.056339923
-0.16609862 -0.093726635 -0.1544145 0.19896458 -0.019567074 0.016993076 0.009066477 0.12840067
-0.07105428 0.217169 -0.16688637 -0.14495853 0.061187916 -0.01589173 -0.04916165 -0.030362332
0.05984222 0.0112355985 -0.16691253 0.0729349 -0.0095429085 0.02127688 -0.15629186 0.031065185
-0.18087605 -0.18928124 -0.09344631 -0.056046687 0.11525707 -0.1536585 -0.29381752 -0.050644845
0.023922784 0.16734205 -0.20239785 -0.035093352 -0.022834145 -0.041557845 -0.0054851985 -0.12980308
0.07283331 -0.0500342 0.0153385075 0.1193651 0.025649238 0.2873962 0.1067766 -0.14901036
-0.15744476 -0.090837315 0.24984922 -0.0065345853 -0.2716724 -0.21705852 -0.016264135 -0.049694877
-0.18295723 -0.25114492 -0.043635998 0.0062393015 -0.10973933 -0.050772663 -0.03234832 -0.054770224
0.07097551 -0.1380215 0.061036818 0.05387736 0.013752184 -0.17213134 0.10786169 -0.03634525
0.19666412 -0.05007333 0.14112075 -0.014024606 0.10674985 0.15674344 0.037119884 -0.020039605
0.175846 0.04145199 0.110050835 0.055719882 0.031295452 0.046654727 0.065499015 -0.06298969
0.19899657 -0.059070505 0.044363312 0.033967666 0.22441839 0.12548637 -0.12097761 -0.23052567
-0.1302249 0.101549044 0.13955851 -0.09705504 -0.0051040887 0.121483564 0.02911465 0.21304381
0.02199544 -0.04787902 0.025634456 0.057289187 0.08841381 -0.01344472 0.05276227 -0.052082885
-0.13505061 -0.23302962 -0.021996606 0.056973305 0.041252717 0.0047036004 -0.048441067 -0.022918712
-0.19618022 -0.12869042 0.15873185 0.132296 0.12552765 -0.080104575 0.11189993 0.03992505
0.044812676 0.07130258 0.18291435 0.13876954 0.17934434 -0.04452246 -0.084373325 0.20048325
0.1248333 -0.07616372 -0.07901642 -0.042512543 0.18831626 0.046318345 0.03778552 -0.12218405
-0.15903492 -0.024383526 -0.14276938 -0.09243737 -0.12127503 -0.029958466 -0.025885088 -0.039560758
0.04543486 -0.12420517 -0.2404301 0.0028295731 -0.03967538 0.05585407 -0.08635016 -0.06330287
0.012057462 -0.056112137 0.02838312 0.09393251 -0.0020913505 0.062114775 0.0018910281 -0.012618578
-0.15009823 0.12275919 0.027649729 -0.049729552 -0.015621366 -0.054835085 0.12890813 -0.26827773
00000000: 0476 f63c 9934 fabd 8fa3 26bc ee1b 47bd
00000010: d6db bbbd 6f31 9f3c c36a 0c3e d6eb c53c
00000020: d923 37bc 13c6 4bbe ea01 e1bc 5cca 90bd
00000030: 7da2 883d 26ef 46bd b030 8ebe d738 9c3c
00000040: cc87 68bd da44 44bd ca75 d9bd 6fdf a4bd
00000050: 34f8 39bd 6f1c eb39 5d3b eabc 0e03 90bd
00000060: 1f4e 2ebd bf9a 293d 1b0d c7be 8732 8dbe
00000070: 2e1e e3b9 583c 083e d5a0 cf3d 2eff 36be
00000080: da07 54be 0d42 e23b 3ab0 8b3d 0def 4f3e
00000090: ccfa 18bd 0679 42ba 7817 8ebc d655 a6bc
000000a0: 8991 c23c 71dc 89bd 26d6 05be c436 49bd
000000b0: f8de 8bbd 7577 d33b dc2f a7bd 2ee0 c7bd
000000c0: b183 843d 72cb 55bc 3f03 95bd 84d0 20be
000000d0: 7e98 943c b735 05be 1eba a3bd 9f7e 893d
000000e0: 4217 9c3c ab5f 973d 43a0 a53e 0b89 8abd
000000f0: cb3b 903c 0c5d 28bd 9297 d33d 81ad 2a3e
00000100: 7944 7e3d 4c13 e5bc 2b3e b0bd 6ff8 a9bc
00000110: c49c 183e 9dd2 8b3e 3d64 d03d f76d 2bbe
00000120: bb6e 143e 1f6b e0bc dd3a 9a3d 62cb bc3c
00000130: 3020 6bbd 5c28 363e c80e 713e b1c4 66bd
00000140: c215 2abe c0f3 bfbd d61e 1ebe 5fbd 4b3e
00000150: 214b a0bc 1035 8b3c 908b 143c 777b 033e
00000160: e884 91bd 8d61 5e3e 43e4 2abe 0270 14be
00000170: 2ea0 7a3d 602f 82bc ba5d 49bd 6dba f8bc
00000180: 1e1d 753d 8415 383c 1eeb 2abe e55e 953d
00000190: dc59 1cbc da4c ae3c f90a 20be 6a7c fe3c
000001a0: 9237 39be f1d2 41be c760 bfbd 3691 65bd
000001b0: e60b ec3d a758 1dbe 406f 96be f870 4fbd
000001c0: b7f9 c33c b75b 2b3e 6241 4fbe 0cbe 0fbd
000001d0: ac0e bbbc 8f38 2abd 2ebd b3bb 19eb 04be
000001e0: a129 953d a9f0 4cbd 5d4e 7b3c b175 f43d
000001f0: 5a1e d23c 9825 933e b1ad da3d 2c96 18be
00000200: 3339 21be ea08 babd 79d8 7f3e 1320 d6bb
00000210: a518 8bbe 9744 5ebe 5d3c 85bc db8c 4bbd
00000220: 2459 3bbe 1196 80be a9bb 32bd 0e73 cc3b
00000230: 04bf e0bd fff6 4fbd ac7f 04bd be56 60bd
00000240: 9c5b 913d 8255 0dbe be01 7a3d 82ae 5c3d
00000250: d750 613c 3343 30be 97e6 dc3d c2de 14bd
00000260: 5262 493e b119 4dbd f581 103e 76c7 65bc
00000270: aa9f da3d 5a81 203e 050b 183d 192a a4bc
00000280: f910 343e 90c9 293d 5562 e13d 883a 643d
00000290: a92f 003d 0719 3f3d 5924 863d bd00 81bd
000002a0: c2c5 4b3e eaf3 71bd 4eb6 353d ae21 0b3d
000002b0: efcd 653e 807f 003e 1cc3 f7bd ec0e 6cbe
000002c0: ad59 05be f2f8 cf3d 6de8 0e3e cbc4 c6bd
000002d0: 3340 a7bb 60cc f83d d981 ee3c 2828 5a3e
000002e0: c82f b43c cb1c 44bd 5aff d13c 11a8 6a3d
000002f0: 4d12 b53d 3e47 5cbc 401d 583d dd54 55bd
00000300: b54a 0abe 519f 6ebe 3a32 b4bc d75c 693d
00000310: 9cf8 283d a920 9a3b 246a 46bd 06c0 bbbc
00000320: 78e3 48be 6cc7 03be 9a8a 223e 9a78 073e
00000330: 528a 003e de0d a4bd ca2b e53d 7388 233d
00000340: 7f8d 373d 1607 923d e64d 3b3e 9a19 0e3e
00000350: 0ba6 373e 2f5d 36bd eccb acbd 7b4b 4d3e
00000360: 9aa8 ff3d b9fb 9bbd 5cd3 a1bd a221 2ebd
00000370: fad5 403e 4eb8 3d3d fdc4 1a3d a23b fabd
00000380: 0dda 22be f6bf c7bc 2332 12be ce4f bdbd
00000390: 0b5f f8bd 756b f5bc f70c d4bc 760a 22bd
000003a0: e719 3a3d 485f febd 4f33 76be 5c70 393b
000003b0: a782 22bd 3dc7 643d 5ad8 b0bd efa4 81bd
000003c0: a98c 453c d7d5 65bd b883 e83c b05f c03d
000003d0: 0a0f 09bb 106c 7e3d 60dc f73a 27be 4ebc
000003e0: 5ab3 19be 2c69 fb3d af81 e23c 37b1 4bbd
000003f0: c2f0 7fbc c19a 60bd 7e00 043e b35b 89be

conv4.bias f4 [16]
-0.1093395 -0.031451073 -0.10585016 -0.024913987 -0.10489648 -0.057044886 -0.14275794 -0.14641437
-0.03006017 -0.18516405 -0.24819668 -0.18270047 0.049787577 -0.0007849118 -0.0965645 -0.10321833
00000000: 63ed dfbd d7d2 00bd f8c7 d8bd 6b18 ccbc
00000010: f7d3 d6bd e6a7 69bd 232f 12be a6ed 15be
00000020: bf40 f6bc a59b 3dbe 4527 7ebe d515 3bbe
00000030: 0fee 4b3d 8ac2 4dba 9cc3 c5bd 2264 d3bd

prediction_layer.weight f4 [10, 1024]
-0.051982086 -0.07165399 -0.036924124 0.28416333 0.015604283 0.097762436 0.1793731 -0.10888027
-0.011985278 0.094966985 -0.036514755 0.0674175 0.08573102 0.1588041 -0.001148113 0.15075785
0.124938026 -0.1492808 -0.20331912 -0.026883343 0.024565285 0.031492718 0.38200662 0.04114371
0.091478705 -0.005414223 -0.13990931 0.02025054 0.059081573 0.22451036 0.21153829 0.14690036
0.1383563 -0.05398528 -0.13186313 0.08231963 -0.10820281 0.08913112 -0.076979816 0.03148269
0.015756993 0.15157843 -0.19958732 -0.0833195 0.06688176 -0.13203533 0.005693686 -0.026250213
0.08636699 -0.14151894 -0.03213327 -0.05932267 -0.050816942 0.107453726 -0.027895259 -0.10106962
-0.0937853 0.12665027 -0.11699356 0.052100755 -0.14715652 -0.04211702 0.007345583 0.015232216
-0.040921766 -0.07351138 0.06455088 -0.045863204 0.099682264 0.0008919685 -0.05969409 -0.021599201
-0.12662914 0.052687693 0.21797273 -0.073565245 0.06081596 -0.061420288 0.12335203 0.05831664
-0.42504972 0.049314015 0.022681782 0.19829029 0.1655459 -0.08791826 0.04213613 -0.11204101
-0.18030025 0.10350654 -0.16193566 -0.15337268 -0.073458865 0.019419784 -0.17637235 -0.011531106
-0.17956454 0.11459859 -0.24274568 -0.02890609 -0.0684577 0.038014736 -0.041817255 0.035841618
-0.006828302 0.085855044 0.045754638 -0.015786942 0.08491473 -0.057506155 -0.025904272 0.15454984
0.14829399 0.1889974 -0.06326506 0.16307881 -0.08168305 -0.10476914 0.20667654 0.24283634
0.089530826 0.04641882 -0.038153976 0.26773334 0.100883394 0.11168216 0.037154313 -0.079871975
0.06946223 0.02916075 -0.08440193 0.07563666 0.00965139 0.12885587 0.1554243 0.00030339483
0.3804529 0.01685616 0.026839182 0.111274496 -0.15842608 -0.08828972 0.21355069 0.087603875
-0.027423413 -0.0796715 0.05324816 0.11729364 -0.027422862 0.11507823 0.23999885 0.023842864
0.051003348 0.032099675 0.03230062 0.180366 0.12409618 0.050665993 0.10781594 0.004877636
-0.068882175 0.071960926 -0.07072186 0.040902197 0.09203162 0.06709796 0.03365352 0.049673766
-0.12332662 -0.13772339 -0.019069629 0.056702748 0.033483323 0.09561273 -0.091626726 0.13370907
-0.021122582 -0.03370839 0.030622568 -0.0043515908 -0.0051824437 -0.069167584 -0.050259102 -0.16455574
0.049495388 -0.008184063 -0.0049021253 0.18555455 -0.066131085 -0.22675693 -0.085798256 0.1701431
-0.19128047 -0.04594767 -0.022060404 -0.04510812 0.035615522 -0.022617826 0.028241986 0.4039096
-0.006935742 0.0058476143 -0.12355372 -0.045820963 -6.1911705e-05 0.0026562377 0.025197292 0.23208119
0.009681297 -0.0528066 -0.20481797 -0.061018866 -0.036170598 -0.022127157 -0.093399055 0.0152382655
-0.060342293 -0.004502596 -0.12217573 -0.16276288 -0.073551886 -0.1491793 -0.10187767 -0.17974082
-0.15899223 -0.20551357 -0.1057231 -0.15699786 -0.13837807 0.01931121 -0.12678793 0.014377815
-0.06595482 -0.103284314 -0.03570386 -0.06684541 -0.09509175 -0.07945638 0.00982148 -0.025534753
0.13902478 0.09341417 -0.038207665 0.010154921 -0.32239628 -0.06983995 0.008863278 0.07846628
0.05598611 0.036969304 0.038727406 0.15217201 -0.022881048 -0.056945562 -0.08994898 0.18880789
00000000: 2beb 54bd 54bf 92bd c03d 17bd db7d 913e
00000010: 1ba9 7f3c ac37 c83d 95ad 373e 9efc debd
00000020: e65d 44bc 0d7e c23d 7f90 15bd 3012 8a3d
00000030: bf93 af3d 8b9d 223e 487c 96ba 4460 1a3e
00000040: 82df ff3d 11dd 18be e332 50be 753a dcbc
00000050: 233d c93c 82fe 003d 5f96 c33e 4f86 283d
00000060: 3059 bb3d cb69 b1bb 6344 0fbe 76e4 a53c
00000070: 85ff 713d 0be6 653e 7e9d 583e 0c6d 163e
00000080: 46ad 0d3e ab1f 5dbd 2107 07be 3297 a83d
00000090: 6f99 ddbd 608a b63d 98a7 9dbd fef3 003d
000000a0: cf14 813c 6037 1b3e 9e60 4cbe 6aa3 aabd
000000b0: 4ef9 883d 4534 07be 1a92 ba3b b00a d7bc
000000c0: 2de1 b03d 57ea 10be 2d9e 03bd 54fc 72bd
000000d0: 6d25 50bd b310 dc3d 9984 e4bc 97fd cebd
000000e0: 8212 c0bd 9cb0 013e 529a efbd 9a67 553d
000000f0: 33b0 16be e582 2cbd 37b3 f03b 8b90 793c
00000100: 959d 27bd 228d 96bd 4033 843d 0edb 3bbd
00000110: 3726 cc3d fed2 693a ca81 74bd cff0 b0bc
00000120: 12ab 01be 0dcf 573d 3e34 5f3e 60a9 96bd
00000130: 281a 793d d793 7bbd fd9f fc3d 6edd 6e3d
00000140: 1ea0 d9be 7efd 493d 25cf b93c 9c0c 4b3e
00000150: dd84 293e 7d0e b4bd ef96 2c3d c275 e5bd
00000160: a1a0 38be 3dfb d33d 76d2 25be ba0d 1dbe
00000170: 9a71 96bd 3d16 9f3c f49a 34be f7ec 3cbc
00000180: c4df 37be aab2 ea3d 5392 78be 77cc ecbc
00000190: 8d33 8cbd 57b5 1b3d 9248 2bbd a9ce 123d
000001a0: f3bf dfbb c5d4 af3d 3769 3b3d 9e53 81bc
000001b0: c6e7 ad3d 938b 6bbd 3235 d4bc 5042 1e3e
000001c0: 61da 173e 8988 413e 1d91 81bd 22fe 263e
000001d0: 7149 a7bd 3491 d6bd 04a3 533e 17aa 783e
000001e0: f05b b73d a921 3e3d 5847 1cbd 5814 893e
000001f0: f49b ce3d 9eb9 e43d 1f2f 183d eb93 a3bd
00000200: 3742 8e3d 86e2 ee3c ebda acbd 65e7 9a3d
00000210: dd20 1e3c cbf2 033e 8c27 1f3e f710 9f39
00000220: b9ca c23e ee15 8a3c d8dd db3c e2e3 e33d
00000230: 723a 22be 3ed1 b4bd 08ad 5a3e a969 b33d
00000240: 11a7 e0bc d02a a3bd be1a 5a3d a637 f03d
00000250: e9a5 e0bc 23ae eb3d 42c2 753e 1c52 c33c
00000260: e3e8 503d f37a 033d a84d 043d ddb1 383e
00000270: 2326 fe3d 2587 4f3d 9bce dc3d 94d4 9f3b
00000280: 1912 8dbd 4060 933d 9fd6 90bd 1089 273d
00000290: 137b bc3d a86a 893d 46d8 093d b876 4b3d
000002a0: ab92 fcbd 5c07 0dbe e937 9cbc 2441 683d
000002b0: cf25 093d 9bd0 c33d cba6 bbbd 08eb 083e
000002c0: 4409 adbc cf11 0abd 2edc fa3c ca97 8ebb
000002d0: 7dd1 a9bb bca7 8dbd 7ddc 4dbd 4d81 28be
000002e0: adbb 4a3d 7316 06bc 02a2 a0bb 0302 3e3e
000002f0: bc6f 87bd f832 68be ffb6 afbd fe39 2e3e
00000300: 07df 43be a033 3cbd 05b8 b4bc 4bc3 38bd
00000310: 95e1 113d 0549 b9bc bd5b e73c 3dcd ce3e
00000320: 3945 e3bb 589d bf3b bc09 fdbd c3ae 3bbd
00000330: 98d6 81b8 4614 2e3b 8d6a ce3c b1a6 6d3e
00000340: 4d9e 1e3c bc4b 58bd cdbb 51be ebee 79bd
00000350: 9f27 14bd 0344 b5bc 0148 bfbd eba9 793c
00000360: 7b29 77bd 838a 93bb 4537 fabd 50ab 26be
00000370: 5fa2 96bd 75c2 18be 3da5 d0bd fa0d 38be
00000380: dcce 22be 2672 52be 5a85 d8bd 0cc4 20be
00000390: fbb2 0dbe 8b32 9e3c b2d4 01be ed90 6b3c
000003a0: 5213 87bd ba86 d3bd 363e 12bd 3fe6 88bd
000003b0: 77bf c2bd 07ba a2bd 46ea 203c 422e d1bc
000003c0: 835c 0e3e ee4f bf3d a47f 1cbd d360 263c
000003d0: 2011 a5be 3f08 8fbd 4837 113c eeb2 a03d
000003e0: b151 653d 206d 173d a1a0 1e3d fbd2 1b3e
000003f0: 0971 bbbc c03f 69bd 2c37 b8bd db56 413e

prediction_layer.bias f4 [10]
0.15563238 -0.19240138 0.14255367 0.17463173 0.16282213 -0.19358197 -0.12981276 -0.1253741
0.15929067 -0.22906302
00000000: 185e 1f3e de04 45be 97f9 113e a9d2 323e
00000010: d8ba 263e 5a3a 46be a3ed 04be 1162 00be
00000020: 181d 233e 7f8f 6abe
