Homeworks/HW1/results/trained_models/cnn_4[0].pt (torch, 88275 bytes, 10 tensors)

conv1.weight f4 [16, 1, 3, 3]
0.32122183 0.36235684 -0.08353906 -0.15794918 0.07463227 -0.19693525 -0.38200176 -0.03005547
-0.11889132 0.24514668 0.27389657 0.13737269 0.09689002 0.04434714 0.0003579704 -0.1750883
-0.2737994 -0.13334772 -0.031338133 0.25654772 -0.37632242 0.19703496 0.028612157 -0.1383571
0.1988356 -0.024200007 0.15749224 -0.53620076 0.17183223 0.3720892 0.18837765 0.26828137
-0.386806 0.043120343 -0.0722428 0.07281195 0.058445543 -0.3974939 -0.088990524 -0.05679524
-0.52967197 0.38282454 0.51779467 0.14274634 -0.04252665 -0.22654945 0.07326513 0.19505757
-0.11380035 -0.30443358 -0.025165297 -0.08421269 -0.18523169 0.22284962 -0.40407607 -0.10285415
0.15774043 -0.61609656 0.21463808 0.3300319 0.072200954 0.43490946 0.014701388 -0.43811056
0.1415086 0.22226429 0.17703757 -0.13591087 0.23953956 -0.43523186 0.09457636 0.350463
-0.47105336 -0.032741103 -0.07245366 0.17086338 -0.31492227 -0.39808717 0.3861552 0.48330945
0.21813002 0.07750188 0.38420302 -0.03952855 -0.116087906 -0.41994035 0.30815792 -0.21468669
-0.16018037 0.20274661 0.46298245 -0.3049999 -0.3646133 -0.14328013 0.40375805 -0.2716012
0.15449771 0.22118586 -0.26285782 -0.13256975 0.016195774 -0.10134625 -0.26466516 0.2926924
0.529158 -0.2880788 -0.009707006 -0.019917337 -0.09448081 0.16657698 -0.25319427 -0.07433146
0.33796307 0.06810351 0.3604515 -0.14298269 -0.29537794 0.20647758 -0.20698524 -0.07759331
-0.35748526 -0.3736376 -0.07720776 0.25524557 0.08686635 0.53743917 -0.12063564 -0.2954746
0.3805209 -0.2078844 -0.24860428 0.16214453 0.35257986 -0.07022211 0.047648326 -0.37266043
0.24158515 0.17476799 -0.47534055 0.13838816 0.12988158 0.041474048 -0.17123753 0.31215742
00000000: 3077 a43e d686 b93e 8716 abbd 6ebd 21be
00000010: ced8 983d 65a9 49be bc95 c3be e436 f6bc
00000020: 4b7d f3bd bb07 7b3e 2c3c 8c3e 6dab 0c3e
00000030: 466e c63d 59a5 353d f9ad bb39 594a 33be
00000040: 6f2f 8cbe 4e8c 08be 6a5c 00bd 395a 833e
00000050: 55ad c0be 88c3 493e 0b64 ea3c 7cad 0dbe
00000060: 8f9b 4b3e 183f c6bc a545 213e 7444 09bf
00000070: caf4 2f3e 7a82 be3e 12e6 403e 2d5c 893e
00000080: 700b c6be f59e 303d 08f4 93bd 6f1e 953d
00000090: 9864 6f3d 5284 cbbe aa40 b6bd 20a2 68bd
000000a0: 9598 07bf 9401 c43e 318e 043f 192c 123e
000000b0: 6d30 2ebd 94fc 67be 070c 963d 2cbd 473e
000000c0: 2810 e9bd b8de 9bbe 7427 cebc b477 acbd
000000d0: 60ad 3dbe b132 643e 0fe3 cebe 32a5 d2bd
000000e0: b586 213e 81b8 1dbf 16ca 5b3e f1f9 a83e
000000f0: 18de 933d 74ac de3e 17de 703c 0750 e0be
00000100: a1e7 103e 4099 633e 5649 353e 382c 0bbe
00000110: dc49 753e b6d6 debe 40b1 c13d e36f b33e
00000120: e82d f1be 891b 06bd 9662 94bd cff6 2e3e
00000130: 7e3d a1be 15d2 cbbe 22b6 c53e 5674 f73e
00000140: 7a5d 5f3e 4eb9 9e3d 42b6 c43e b0e8 21bd
00000150: 7fbf edbd 6c02 d7be e0c6 9d3e d4d6 5bbe
00000160: 5306 24be cf9c 4f3e 090c ed3e f228 9cbe
00000170: 98ae babe 07b8 12be 60b9 ce3e 500f 8bbe
00000180: a634 1e3e 8c7e 623e 4d95 86be 5dc0 07be
00000190: 00ad 843c 9f8e cfbd 3182 87be c7db 953e
000001a0: e676 073f 117f 93be 220a 1fbc af29 a3bc
000001b0: 287f c1bd 2893 2a3e aea2 81be 183b 98bd
000001c0: 7f09 ad3e da79 8b3d 198d b83e 0e6a 12be
000001d0: c73b 97be dc6e 533e f0f3 53be 3ee9 9ebd
000001e0: 4f08 b7be 6d4d bfbe 1a1f 9ebd 8caf 823e
000001f0: fce6 b13d 9d95 093f d20f f7bd 7248 97be
00000200: a3d3 c23e a6df 54be 1f92 7ebe 3709 263e
00000210: 5985 b43e 9cd0 8fbd e42a 433d 59cd bebe
00000220: 1962 773e 61f6 323e d65f f3be a0b5 0d3e
00000230: adff 043e b1e0 293d e458 2fbe 19d3 9f3e

conv1.bias f4 [16]
-0.16335693 -0.15096165 0.0011078747 -0.15642357 0.1672316 -0.11206522 0.1905105 -0.1638748
-0.07260852 0.106684566 -0.023648243 0.074445024 0.14925018 0.018188782 0.08444984 0.0036575843
00000000: 0a47 27be b195 1abe 1b36 913a 802d 20be
00000010: c33e 2b3e 7382 e5bd 2f15 433e ccce 27be
00000020: c7b3 94bd 707d da3d f6b9 c1bc a276 983d
00000030: 0ad5 183e a400 953c 0af4 ac3d 15b4 6f3b

conv2.weight f4 [8, 16, 3, 3]
-0.037201542 -0.37928823 -0.32849783 0.053244844 -0.10205682 -0.23297802 0.03809504 -0.18065798
-0.01511447 -0.0712037 -0.15996593 -0.3270472 0.008498335 -0.07370329 -0.1163384 0.13589194
-0.0912291 -0.19071904 -0.08807443 -0.17063378 -0.031301953 -0.16300118 -0.23832104 -0.024103282
-0.09281788 -0.07202893 -0.009615517 0.112140514 -0.15827243 -0.262563 -0.10640464 -0.37541026
-0.2676825 -0.07569726 -0.3657996 -0.1197607 0.0013491433 0.06778514 0.09256152 0.11762099
-0.072418354 -0.15881741 0.0018930935 0.0645656 -0.06178355 0.13941088 0.058555845 -0.015004205
0.070009656 -0.013633376 -0.07804645 0.07659226 0.075992204 0.05727532 -0.03036441 0.019775636
0.16584332 -0.009085945 0.06078802 0.06746862 -0.026831869 0.07588442 0.019293092 0.028020566
0.036636844 0.16250794 0.024317704 0.0118073635 0.09040983 0.112667985 -0.086083345 -0.08692478
-0.110028386 -0.23969343 -0.28620896 -0.5210515 -0.6474597 -0.67311865 -0.23379551 -0.34394187
-0.7157547 0.067230076 -0.021080062 -0.12384375 0.030739753 0.096590355 0.04670276 0.023567297
-0.013913439 -0.006984017 0.048743222 0.1415911 0.08507879 -0.031123815 -0.095207855 -0.09991926
-0.04836671 -0.19445573 -0.1786471 -0.04839327 0.044970263 0.1166211 0.018596033 0.095212616
0.09276674 -0.18121374 -0.031990387 -0.19447224 -0.088344105 -0.07246674 -0.027376465 0.017200254
-0.03735467 -0.011540598 -0.031711914 0.0060827467 0.028440803 -0.0018396692 0.12218379 -0.15665057
-0.044093475 -0.042703923 -0.28031963 0.10782091 -0.098383665 -0.0652698 -0.06450265 0.061322983
0.11534609 0.042868085 -0.024810798 -0.014929798 -0.00051130314 0.012873523 0.012030166 -0.1531889
-0.0638907 -0.007875265 -0.19102676 0.12673202 0.04630707 -0.15155049 -0.03976872 -0.048668195
0.09506166 -0.18348151 -0.3917445 0.09223603 -0.1632823 -0.22438574 -0.16788352 -0.10028215
-0.08093956 -0.06828043 -0.091704845 -0.17681737 -0.29179826 -0.1177984 -0.07190367 -0.061638314
0.029967409 0.09977073 -0.048203398 0.12573595 0.09014664 -0.046771485 0.06942375 0.15333933
-0.052099418 0.113790944 0.15919605 0.061805207 0.013609786 -0.03529878 -0.08624242 0.03999066
-0.33204988 -0.059475623 0.0067553213 -0.044203088 0.06868463 -0.04618154 0.11597752 0.09421177
-0.043708313 0.041628703 0.050702706 -0.39123076 -0.17176113 -0.0840222 0.087187506 -0.024478372
0.02232437 -0.043012097 0.06907466 0.010160709 0.07427167 0.009542068 -0.07402481 0.028708022
-0.017985307 0.17935961 0.18595238 -0.05068785 -0.00031563986 -0.04745663 -0.1762101 0.16103117
0.0211537 -0.16788049 0.06924413 0.043853857 -0.18856691 -0.05553366 -0.08258345 -0.3081098
0.029557625 0.061781026 -0.10443914 -0.06792825 -0.021195248 0.10692001 -0.14338276 -0.19054604
-0.12662432 0.20167112 -0.06783543 0.14010601 0.17276457 -0.10219394 -0.22145616 0.107009806
0.13869308 -0.078558624 -0.1667099 -0.12759656 -0.23979193 -0.10617381 -0.0037130176 -0.11711999
-0.23809451 -0.2924009 -0.06265739 -0.027854051 0.009739819 -0.1371177 0.20121616 0.14430971
-0.088602446 -0.006299145 0.10898477 -0.18255511 -0.20639698 -0.043993108 0.10268699 0.002887713
00000000: a560 18bd 1132 c2be de30 a8be 4417 5a3d
00000010: 2b03 d1bd ca91 6ebe 8b09 1c3d 68fe 38be
00000020: afa2 77bc 3fd3 91bd 1cce 23be bb72 a7be
00000030: 9a3c 0b3c c0f1 96bd d442 eebd 4227 0b3e
00000040: 53d6 babd da4b 43be 5e60 b4bd 9fba 2ebe
00000050: 7a36 00bd c8e9 26be 6e0a 74be 3f74 c5bc
00000060: 4d17 bebd e783 93bd 678a 1dbc eda9 e53d
00000070: 2b12 22be a86e 86be adea d9bd c635 c0be
00000080: ae0d 89be 2a07 9bbd 164a bbbe 1945 f5bd
00000090: bdd5 b03a efd2 8a3d e590 bd3d 46e3 f03d
000000a0: 1350 94bd 08a1 22be ad21 f83a f83a 843d
000000b0: bf10 7dbd bac1 0e3e 41d8 6f3d 32d4 75bc
000000c0: 3961 8f3d 865e 5fbc d1d6 9fbd 67dc 9c3d
000000d0: cda1 9b3d 8799 6a3d c8be f8bc 8400 a23c
000000e0: d5d2 293e 37dd 14bc dcfc 783d fd2c 8a3d
000000f0: 82ce dbbc 4a69 9b3d 8c0c 9e3c 638b e53c
00000100: 8410 163d 7b68 263e ec35 c73c ac73 413c
00000110: ca28 b93d 79be e63d 774c b0bd 9e05 b2bd
00000120: 9056 e1bd 3272 75be fb89 92be a263 05bf
00000130: ebbf 25bf 8151 2cbf 1768 6fbe 2619 b0be
00000140: b33b 37bf ecaf 893d 18b0 acbc cba1 fdbd
00000150: efd1 fb3c 2ad1 c53d 654b 3f3d 3410 c13c
00000160: 31f5 63bc 2eda e4bb f9a6 473d 42fd 103e
00000170: ca3d ae3d 5ff7 febc 56fc c2bd 78a2 ccbd
00000180: 2c1c 46bd 671f 47be 44ef 36be 0538 46bd
00000190: bd32 383d 0bd7 ee3d b556 983c d5fe c23d
000001a0: 7dfc bd3d 1890 39be 5a08 03bd bb23 47be
000001b0: c1ed b4bd 7169 94bd 9c44 e0bc 8ce7 8c3c
000001c0: 3601 19bd c714 3dbc 5ae4 01bd c751 c73b
000001d0: b0fc e83c 0e21 f1ba 7f3b fa3d 0269 20be
000001e0: 5c9b 34bd 4fea 2ebd 0e86 8fbe 36d1 dc3d
000001f0: 607d c9bd 2cac 85bd f719 84bd cf2d 7b3d
00000200: 923a ec3d 7296 2f3d 0440 cbbc 1d9c 74bc
00000210: f908 06ba 78eb 523c 2c1a 453c 8ddd 1cbe
00000220: 21d9 82bd 4107 01bc 859c 43be 0ac6 013e
00000230: 7bac 3d3d 0d30 1bbe 86e4 22bd 4d58 47bd
00000240: b0af c23d 94e2 3bbe bc92 c8be 3ee6 bc3d
00000250: 7a33 27be 60c5 65be a8e9 2bbe ba60 cdbd
00000260: a4c3 a5bd 9cd6 8bbd c0cf bbbd 9d0f 35be
00000270: 9566 95be 4a40 f1bd 3b42 93bd 7578 7cbd
00000280: 367e f53c 9954 cc3d ed70 45bd edc0 003e
00000290: cd9e b83d 7593 3fbd 0a2e 8e3d fc04 1d3e
000002a0: 3366 55bd 3a0b e93d 4a04 233e 7527 7d3d
000002b0: 94fb 5e3c 7495 10bd de9f b0bd 3fcd 233d
000002c0: 7102 aabe b69c 73bd be5b dd3b 4c0e 35bd
000002d0: 87aa 8c3d db28 3dbd 9f85 ed3d 1af2 c03d
000002e0: 7d07 33bd dc82 2a3d a4ad 4f3d 664f c8be
000002f0: 26e2 2fbe d513 acbd 5d8f b23d de86 c8bc
00000300: 99e1 b63c 742d 30bd 0477 8d3d 1a79 263c
00000310: bf1b 983d 5556 1c3c 529a 97bd 162d eb3c
00000320: ec55 93bc 0caa 373e 4d6a 3e3e 109e 4fbd
00000330: 777c a5b9 e261 42bd 6c70 34be 5be5 243e
00000340: 864a ad3c dde8 2bbe decf 8d3d 1aa0 333d
00000350: af17 41be 4377 63bd 8321 a9bd 91c0 9dbe
00000360: d522 f23c 1a0e 7d3d 30e4 d5bd f71d 8bbd
00000370: a8a1 adbc e1f8 da3d eed2 12be 801e 43be
00000380: cea9 01be e082 4e3e 4ded 8abd f377 0f3e
00000390: 32e9 303e 0e4b d1bd 67c5 62be f527 db3d
000003a0: 8f05 0e3e 58e3 a0bd 00b6 2abe aca8 02be
000003b0: 048c 75be a871 d9bd 1956 73bb 9bdc efbd
000003c0: 0ccf 73be 92b5 95be 8552 80bd 2e2e e4bc
000003d0: c393 1f3c 9568 0cbe 9c0b 4e3e edc5 133e
000003e0: 3375 b5bd 0f69 cebb 6833 df3d baef 3abe
000003f0: bb59 53be 1e32 34bd 8e4d d23d c93f 3d3b

conv2.bias f4 [8]
0.074760124 0.12770484 0.030468535 0.0073381527 0.021445535 -0.060125463 0.15548526 -0.013375344
00000000: d61b 993d 0fc5 023e 2699 f93c e374 f03b
00000010: 8cae af3c 1e46 76bd 8737 1f3e 4224 5bbc

conv3.weight f4 [16, 8, 5, 5]
0.056275345 -0.012561307 0.14870785 0.15153594 0.09727759 -0.087300986 -0.056498412 0.043452363
0.13847274 0.030603655 -0.18511151 -0.078264676 0.0709568 0.07015438 -0.037755698 0.0016711756
0.07790322 -0.013256665 0.0003382876 -0.16336168 -0.094867036 -0.023762254 -0.06652839 0.0187026
-0.001145713 -0.04319879 -0.12546292 -0.026077727 0.0038768335 0.092663914 -0.061899155 -0.15622947
0.030696886 0.1265029 0.12621349 0.022400476 0.03120093 -0.0025393632 -0.0054690302 -0.21058352
0.07075569 0.086253226 -0.026450036 -0.019039048 -0.1262691 -0.04759571 -0.07797725 -0.021934798
-0.045604184 0.0035965047 0.19682929 0.08773356 0.053702917 0.045584656 -0.028295573 0.1701306
-0.046610896 -0.21855949 -0.0945585 -0.034928158 0.11481273 -0.26460958 -0.025600597 0.18921262
0.17566468 0.09604523 0.0649725 0.05428574 0.21022311 -0.015056975 0.13808215 0.04918443
0.003832965 0.06949477 -0.067672916 0.14898273 0.01233567 -0.17479429 -0.2128587 -0.07300137
-0.042235732 -0.17785402 -0.22450972 -0.06760125 0.033300843 -0.0796958 -0.03425325 0.0018255992
-0.020313865 -0.051198494 -0.13368848 -0.025408067 -0.09821553 -0.093386166 -0.104985446 -0.053237356
-0.1318927 0.018198578 -0.07040382 -0.095267884 0.03510604 0.06842599 0.01943593 0.16877507
0.11614998 0.08124654 0.01602819 -0.011024891 0.036956362 -0.12339333 0.017392214 -0.053318948
-0.09472399 -0.050427817 -0.12926579 -0.07307391 0.021897871 0.10699613 0.1302135 0.048018705
0.037044022 0.049238764 0.0821917 0.027145542 -0.08471569 -0.02238505 -0.1830341 -0.17771915
-0.13703422 -0.121413305 -0.24042585 -0.29014248 -0.11402875 0.0059760776 -0.2755245 -0.285316
-0.18218774 -0.03488348 0.0017745476 -0.35134676 -0.297029 -0.012001488 -0.10894308 -0.08369979
-0.34630215 0.06800228 -0.04155927 -0.20784657 -0.39777556 -0.5210911 -0.0065860576 0.025080014
-0.014937308 0.023403909 0.056891356 0.054097336 -0.030033184 -0.0385994 0.06500388 0.094530605
0.06440936 0.1355023 0.057812944 0.00022563156 -0.07624534 0.04473345 0.07279448 0.010258981
0.046792995 0.004123555 -0.0007657604 -0.030218529 -0.06834558 -0.026632052 0.007898014 0.052212097
-0.059175223 -0.055151302 -0.07626397 -0.19282143 0.027269421 -0.078530185 -0.18013251 -0.2622763
-0.3528502 -0.15276326 -0.21419513 -0.26523444 -0.20934585 -0.18751873 -0.16074458 -0.13669543
-0.10840523 -0.019275142 0.08998888 0.06492873 0.04844461 -0.042197745 -0.064990215 -0.040446557
-0.0230144 -0.105752215 -0.10590791 0.06620937 -0.022968248 -0.17849281 -0.26228186 -0.3589286
-0.1367743 -0.33866984 -0.19236606 -0.13652244 -0.07781239 0.07384144 -0.24520065 0.02385722
0.1580835 0.102494925 0.2084598 0.05223611 -0.038277816 0.11615046 0.011665256 0.17898604
0.16599478 -0.20107146 -0.069320425 -0.0414439 -0.027777439 -0.055001672 -0.18867882 -0.07473717
-0.22022225 -0.21544643 -0.12712066 -0.1431962 -0.016297817 0.102170035 0.11346925 -0.057574466
0.046810944 0.06937016 0.059359163 0.100113235 -0.13606893 -0.022547895 0.075195976 0.15305494
0.07627098 -0.035025593 -0.11300898 0.0036022218 0.053887315 0.026351042 0.110672966 -0.21726552
00000000: fa80 663d f1cd 4dbc df46 183e 3d2c 1b3e
00000010: 7939 c73d dcca b2bd e16a 67bd 1bfb 313d
00000020: cccb 0d3e 84b4 fa3c df8d 3dbe 3b49 a0bd
00000030: cc51 913d 19ad 8f3d b8a5 1abd 590b db3a
00000040: b98b 9f3d 7c32 59bc 315c b139 4948 27be
00000050: a649 c2bd 0fa9 c2bc 0940 88bd 3236 993c
00000060: c02b 96ba 37f1 30bd 5a79 00be f5a0 d5bc
00000070: 7912 7e3b 94c6 bd3d f889 7dbd 9efa 1fbe
00000080: 0978 fb3c fa89 013e 1c3e 013e 3481 b73c
00000090: 1899 ff3c 726b 26bb 8d35 b3bb 35a3 57be
000000a0: 5ce8 903d 88a5 b03d bfad d8bc c7f7 9bbc
000000b0: b04c 01be b8f3 42bd 89b2 9fbd 9bb0 b3bc
000000c0: 74cb 3abd 56b3 6b3b 9e8d 493e a7ad b33d
000000d0: 97f7 5b3d fab6 3a3d 1ecc e7bc b736 2e3e
000000e0: 11eb 3ebd 0fce 5fbe e3a7 c1bd d410 0fbd
000000f0: f022 eb3d e87a 87be 58b8 d1bc f4c0 413e
00000100: 71e1 333e 5db3 c43d 4d10 853d b95a 5e3d
00000110: ba44 573e 88b1 76bc 6865 0d3e 9d75 493d
00000120: 7b32 7b3b 4653 8e3d 1998 8abd ee8e 183e
00000130: 8d1b 4a3c 46fd 32be a2f7 59be be81 95bd
00000140: 60ff 2cbd 5d1f 36be e0e5 65be 8672 8abd
00000150: 7766 083d 8d37 a3bd 234d 0cbd f248 ef3a
00000160: 4369 a6bc 83b5 51bd a2e5 08be 9424 d0bc
00000170: 3925 c9bd 3f41 bfbd 9c02 d7bd 6a0f 5abd
00000180: e10e 07be 2f15 953c e12f 90bd cf1b c3bd
00000190: 5acb 0f3d ed22 8c3d 1938 9f3c 5fd3 2c3e
000001a0: 0ae0 ed3d 9664 a63d 8d4d 833c bfa1 34bc
000001b0: 8e5f 173d a4b5 fcbd 1e7a 8e3c f864 5abd
000001c0: a7fe c1bd 668d 4ebd 405e 04be c6a7 95bd
000001d0: 2a63 b33c c920 db3d b056 053e 43af 443d
000001e0: 79bb 173d 96ae 493d 1f54 a83d 5460 de3c
000001f0: 6b7f adbd da60 b7bc 4b6d 3bbe 02fc 35be
00000200: b352 0cbe 8aa7 f8bd 3232 76be 8e8d 94be
00000210: e887 e9bd f9d2 c33b 8c11 8dbe f014 92be
00000220: 6c8f 3abe fbe1 0ebd f097 e83a b9e3 b3be
00000230: 2f14 98be e4a1 44bc 8d1d dfbd cc6a abbd
00000240: 844e b1be c844 8b3d 0e3a 2abd bbd5 54be
00000250: 3da9 cbbe 3a66 05bf dbcf d7bb 9a74 cd3c
00000260: 9cbb 74bc 8eb9 bf3c e906 693d 2b95 5d3d
00000270: 2708 f6bc 681a 1ebd c120 853d 4399 c13d
00000280: 0ee9 833d 1dc1 0a3e 44cd 6c3d 8397 6c39
00000290: 8426 9cbd 6c3a 373d 4615 953d 4915 283c
000002a0: 03aa 3f3d e31e 873b 4fbd 48ba d98c f7bc
000002b0: c4f8 8bbd 762b dabc ac66 013c 5adc 553d
000002c0: b861 72bd 55e6 61bd 4930 9cbd fb72 45be
000002d0: 1f64 df3c 6fd4 a0bd a874 38be 1449 86be
000002e0: c8a8 b4be f96d 1cbe f855 5bbe cfcc 87be
000002f0: c25e 56be e904 40be 3a9a 24be e3f9 0bbe
00000300: 9003 debd e7e6 9dbc 174c b83d 5bf9 843d
00000310: db6d 463d 8bd7 2cbd 9719 85bd 4aab 25bd
00000320: b288 bcbc 9e94 d8bd 3fe6 d8bd c798 873d
00000330: e827 bcbc d2c6 36be cf49 86be 7dc5 b7be
00000340: 900e 0cbe 2266 adbe 9cfb 44be 8acc 0bbe
00000350: 1a5c 9fbd 2e3a 973d e115 7bbe 3770 c33c
00000360: a4e0 213e dce8 d13d 7c76 553e 88f5 553d
00000370: 33c9 1cbd 4be0 ed3d a11f 3f3c 1e48 373e
00000380: 89fa 293e ade5 4dbe def7 8dbd 14c1 29bd
00000390: 838d e3bc 6f49 61bd 0535 41be cd0f 99bd
000003a0: f181 61be fd9d 5cbe eb2b 02be 06a2 12be
000003b0: 0083 85bc 863e d13d 9162 e83d 34d3 6bbd
000003c0: d5bc 3f3d f111 8e3d 9822 733d 2b08 cd3d
000003d0: a755 0bbe 5db6 b8bc 5900 9a3d 6fba 1c3e
000003e0: f633 9c3d ff76 0fbd 4171 e7bd 4113 6c3b
000003f0: f2b8 5c3d 24de d73c 82a8 e23d da7a 5ebe

conv3.bias f4 [16]
0.06853728 0.026704334 -0.08175867 0.17213555 0.13730851 -0.04052395 -0.026840476 0.01813626
0.022839291 -0.059355747 0.02029295 -0.09842512 0.121724546 0.041175146 0.06316469 0.061116844
00000000: 465d 8c3d 0cc3 da3c 1771 a7bd 4d44 303e
00000010: 9a9a 0c3e 71fc 25bd 8fe0 dbbc 7e92 943c
00000020: 7719 bb3c 031f 73bd 673d a63c 1c93 c9bd
00000030: b84a f93d 45a7 283d 7d5c 813d a855 7a3d

conv4.weight f4 [16, 16, 5, 5]
-0.09053015 -0.057503995 -0.059477147 0.11533999 0.079992406 -0.052862167 -0.12165742 -0.079501025
0.051836625 0.078721374 -0.016071802 -0.10198242 -0.029107533 0.16124533 0.1159245 0.013736743
-0.13422267 -0.097311385 -0.033493944 0.14037521 0.011468572 0.0019182425 -0.011751547 0.13151878
-0.05557507 -0.013446596 -0.2064121 0.043298632 0.097205505 0.12857606 0.03357144 -0.10934712
-0.041421864 -0.15431646 0.025568834 -0.027210994 -0.04224737 -0.08387389 -0.05966561 -0.18112102
-0.20771849 -0.2424466 -0.18706772 0.018484585 0.0027576988 -0.088990726 -0.12474899 -0.1341598
-0.049201943 0.020015247 0.21102022 -0.011994994 0.31357226 0.11068912 0.24629901 -0.08608529
-0.113898605 0.12676778 0.17217015 0.16846481 -0.022782369 0.070686676 0.086230546 0.20220685
0.06878098 -0.068092965 -0.11624049 -0.13410382 -0.062711775 0.24277203 -0.03693454 -0.07797559
0.112837195 0.10489361 0.21588726 -0.07125347 0.010390811 0.060913663 0.049702853 0.09613403
0.12565641 -0.076014586 0.00222235 0.024049757 0.043873783 0.15245917 0.1686844 0.06954586
0.13604155 -0.07662948 -0.21125062 0.014148121 -0.059113022 0.045693953 -0.066422634 -0.114141755
-0.12035007 -0.15043308 0.009632952 0.05634145 -0.10629032 -0.2274978 0.09509884 0.11408773
0.03679592 -0.056184977 -0.141218 0.026816448 0.113795914 0.08554815 -0.093539625 -0.27565065
-0.020583158 0.12619306 0.21710905 -0.2437686 -0.37922964 -0.0743631 -0.032598462 0.25716856
-0.052466806 -0.21374032 -0.00091628614 -0.011864003 -0.014148019 0.08657659 0.010584663 0.15491392
-0.034045547 -0.05402955 -0.062600404 0.06477065 -0.027344704 -0.007968304 0.0012471052 0.07546696
-0.037640978 -0.04675736 0.086875305 -0.0038230608 -0.05961934 -0.18904415 -0.18616542 -0.23331667
0.045761153 -0.2141596 0.021297945 -0.09216755 -0.1940988 -0.2587914 0.09602884 -0.0022317658
-0.06846083 -0.033370737 0.012125549 0.114236474 0.10741407 0.019862987 -0.11113939 -0.09678519
0.21513209 0.13174139 0.06744792 0.1206009 0.14444862 -0.02614973 0.035124063 0.059498638
0.10508586 0.108266436 0.10136613 -0.12737824 -0.09905789 -0.08088328 0.055569094 -0.030515019
-0.14125273 -0.21483842 0.017120399 0.024946671 -0.020853583 -0.008956425 -0.14570695 -0.19735672
-0.037133247 0.12638989 0.17588174 0.007948784 -0.098246284 -0.0061916052 0.07750655 0.13537002
0.12746665 -0.060523372 -0.08546863 -0.08010636 0.04136321 0.2365998 0.16123492 -0.105769195
0.04266777 0.07532189 0.069023214 0.08172951 0.09678954 -0.07754435 0.089173 0.12894154
0.21545218 -0.007465912 -0.042171095 0.06193924 0.18648908 0.1845801 0.0051261494 0.065399885
-0.054518197 -0.045325495 0.123519205 0.07342317 0.06816976 -0.049744915 0.007870871 -0.02648098
0.009100485 -0.029933719 -0.07050224 -0.14188085 -0.1780435 -0.15604864 0.021532603 -0.099769786
-0.28852642 -0.352159 -0.27986112 0.130148 0.049548585 -0.05371146 -0.16814975 -0.07319982
0.16956775 0.13859445 -0.01989984 -0.21908371 -0.09651768 -0.07856633 0.043747336 -0.05061161
-0.04443109 -0.10421323 0.16853838 -0.20179631 0.023074923 0.10715263 0.07184681 0.016500983
00000000: df67 b9bd 4f89 6bbd 4f9e 73bd 5f37 ec3d
00000010: 0fd3 a33d 0086 58bd 8727 f9bd 6fd1 a2bd
00000020: a452 543d ac38 a13d 03a9 83bc 29dc d0bd
00000030: ec72 eebc 7f1d 253e d369 ed3d 1310 613c
00000040: ab71 09be 314b c7bd f230 09bd 85be 0f3e
00000050: ade6 3b3c 8a6d fb3a 9089 40bc dcac 063e
00000060: afa2 63bd 1d4f 5cbc b25d 53be e859 313d
00000070: ae13 c73d 71a9 033e 3582 093d 62f1 dfbd
00000080: f9a9 29bd 2205 1ebe bb75 d13c 97e9 debc
00000090: 940b 2dbd 13c6 abbd ed63 74bd ca77 39be
000000a0: 28b4 54be ec43 78be ae8e 3fbe fc6c 973c
000000b0: 82ba 343b c540 b6bd 667c ffbd 3061 09be
000000c0: fa87 49bd 04f7 a33c af15 583e a786 44bc
000000d0: 8b8c a03e fab0 e23d cf35 7c3e 7c4d b0bd
000000e0: ac43 e9bd 6acf 013e 5f4d 303e 0a82 2c3e
000000f0: 17a2 babc 2dc4 903d a499 b03d 500f 4f3e
00000100: 0bdd 8c3d 5374 8bbd 7e0f eebd 8352 09be
00000110: 086f 80bd 3b99 783e ac48 17bd abb1 9fbd
00000120: 3017 e73d 76d2 d63d 8d11 5d3e 57ed 91bd
00000130: 383e 2a3c 9b80 793d 3895 4b3d ebe1 c43d
00000140: 13ac 003e 89ad 9bbd d9a4 113b ff03 c53c
00000150: ffb4 333d 421e 1c3e 9abb 2c3e 0f6e 8e3d
00000160: 7a4e 0b3e ebef 9cbd 1552 58be 85cd 673c
00000170: 7f20 72bd 9529 3b3d 9708 88bd 27c3 e9bd
00000180: 197a f6bd 210b 1abe 87d3 1d3c 4bc6 663d
00000190: bdae d9bd 2ff5 68be 2ec3 c23d d4a6 e93d
000001a0: 52b7 163d 3822 66bd 749b 10be 2bae db3c
000001b0: d50d e93d de33 af3d b491 bfbd 1522 8dbe
000001c0: 039e a8bc c138 013e d651 5e3e 7a9e 79be
000001d0: 632a c2be ae4b 98bd f785 05bd 99ab 833e
000001e0: 6fe7 56bd bede 5abe ec32 70ba 3c61 42bc
000001f0: 18cd 67bc 114f b13d 4b6b 2d3c c1a1 1e3e
00000200: 5873 0bbd 174e 5dbd a434 80bd 79a6 843d
00000210: 0002 e0bc 7d8d 02bc e875 a33a 6c8e 9a3d
00000220: 6d2d 1abd a584 3fbd aeeb b13d 518c 7abb
00000230: 6933 74bd ca94 41be 26a2 3ebe 91ea 6ebe
00000240: 0c70 3b3d a74c 5bbe 0779 ae3c 57c2 bcbd
00000250: d6c1 46be 4e80 84be c5aa c43d d142 12bb
00000260: 3135 8cbd c1af 08bd 3daa 463c d0f4 e93d
00000270: e8fb db3d b4b7 a23c 0c9d e3bd 5037 c6bd
00000280: 964b 5c3e 37e7 063e 2322 8a3d 9bfd f63d
00000290: 57ea 133e f537 d6bc 40de 0f3d d8b4 733d
000002a0: 4137 d73d cbba dd3d 0c99 cf3d 716f 02be
000002b0: ddde cabd 22a6 a5bd 6b9c 633d a2fa f9bc
000002c0: 8ea4 10be 9afe 5bbe 1440 8c3c f65c cc3c
000002d0: 22d5 aabc f8bd 12bc 3434 15be e117 4abe
000002e0: 0819 18bd 5a6c 013e 581a 343e 9e3b 023c
000002f0: 5935 c9bd f3e2 cabb c1bb 9e3d 709e 0a3e
00000300: 9e86 023e 5be7 77bd 2d0a afbd ce0e a4bd
00000310: 786c 293d 3847 723e c41a 253e 859d d8bd
00000320: 66c4 2e3d 5d42 9a3d 0b5c 8d3d cd61 a73d
00000330: 9839 c63d 92cf 9ebd 55a0 b63d 4009 043e
00000340: 7f9f 5c3e 9ca4 f4bb 99bb 2cbd 00b4 7d3d
00000350: fef6 3e3e 9102 3d3e 42f9 a73b 60f0 853d
00000360: 794e 5fbd 3aa7 39bd a3f7 fc3d e35e 963d
00000370: 969c 8b3d 53c1 4bbd d3f4 003c a4ee d8bc
00000380: 331a 153c 8f37 f5bc 7a63 90bd 3749 11be
00000390: 0951 36be 37cb 1fbe 2465 b03c 1a54 ccbd
000003a0: bcb9 93be 2f4e b4be f549 8fbe 8445 053e
000003b0: 75f3 4a3d 8c00 5cbd 732f 2cbe cae9 95bd
000003c0: 2ba3 2d3e b4eb 0d3e fd04 a3bc 7b57 60be
000003d0: 10ab c5bd 62e7 a0bd 6830 333d 1f4e 4fbd
000003e0: 60fd 35bd bf6d d5bd 5395 2c3e b1a3 4ebe
000003f0: 9f07 bd3c d772 db3d 6c24 933d 122d 873c

conv4.bias f4 [16]
-0.015077744 -0.11738566 -0.08021582 -0.26287585 -0.0029280905 0.042193267 0.0148549145 -0.057424255
-0.106457755 -0.04654227 0.059938475 -0.09672562 -0.27141422 -0.17432484 -0.17941332 -0.10777678
00000000: a408 77bc e567 f0bd 3148 a4bd aa97 86be
00000010: 35e5 3fbb d9d2 2c3d 0762 733c b235 6bbd
00000020: 8606 dabd 1ba3 3ebd 0c82 753d 1518 c6bd
00000030: cef6 8abe 3682 32be 20b8 37be 13ba dcbd

prediction_layer.weight f4 [10, 1024]
0.03583155 0.042282544 -0.04731308 0.042867567 -0.106080115 -0.08404259 -0.071610354 -0.10693666
0.13743557 0.06391077 0.099868566 0.10356668 0.010152637 -0.0585839 -0.008590085 -0.13623118
0.31428844 0.15559766 0.065709986 -0.04170099 -0.0646788 -0.05926383 -0.026514182 -0.016894612
-0.020227771 0.06965056 0.08069989 -0.0023139226 -0.025408318 -0.11591662 -0.10277968 -0.0641497
0.083375975 -0.09320529 -0.10079337 0.0009876434 -0.004067543 0.10443189 -0.02945552 0.020239778
-0.012374909 -0.187839 -0.03896105 -0.05734251 -0.067359865 -0.015551811 -0.036497373 -0.16886066
0.035860736 -0.060055602 -0.13098355 -0.094230555 -0.034114704 -0.039966125 -0.031048132 0.04503213
0.0150381075 -0.08954196 0.007296514 -0.2169597 -0.08682221 0.054461155 0.19292864 0.058355466
-0.29665312 0.13701867 0.020248037 0.005226632 -0.053028997 -0.25325644 -0.16386092 -0.48939222
-0.032114703 0.15701596 -0.044016033 0.0024317962 -0.12806903 -0.1567074 -0.043726027 -0.19517754
-0.08290819 0.1448655 0.1700266 0.07511703 0.032823265 -0.05065317 -0.06454625 -0.17205782
-0.031744983 0.14150162 0.083466716 0.09383014 -0.06942222 -0.11092948 -0.19106255 -0.15054575
0.07495715 0.12393171 0.01683234 0.00017106187 -0.057655938 0.031476818 0.08850319 0.0029266144
0.06352882 0.111090444 -0.08995944 0.06001001 0.03833704 0.0984467 0.17998527 -0.0134147275
-0.12883462 -0.11542051 -0.056769762 -0.05843099 0.054758366 0.09826459 0.16490568 0.08788703
-0.03011877 -0.064535014 -0.05803586 0.17328823 0.08527648 0.08500104 0.17803788 0.031045506
-0.057604115 -0.1472943 -0.00094773347 0.07359685 0.17528065 0.18411799 0.15868743 -0.16353627
-0.016664008 -0.08186525 -0.060861047 0.008059193 -0.1655126 -0.061571907 0.1994428 -0.07084773
0.03412222 0.033000868 0.15007767 -0.014727136 0.1265147 0.25661606 0.19416499 0.11426472
-0.13147293 -0.02643769 -0.049970664 0.005863045 -0.07306455 0.1905859 0.14205058 -0.10147812
-0.22344543 0.061156332 -0.06869168 0.0473467 0.047479264 -0.11738849 0.17448907 0.0067457766
-0.2044636 0.013238362 -0.034650605 -0.04999259 -0.22375953 -0.2020043 -0.07113599 0.15263894
-0.06035305 0.05747056 -0.07830731 0.052850187 -0.066510886 -0.11691419 -0.086656936 -0.05278019
0.059099182 0.1651216 -0.06122419 0.001459036 0.10014141 -0.18590839 -0.26462805 -0.03254842
-0.26062626 -0.08226684 -0.030197063 0.03871152 0.0529761 0.004758807 -0.0024535365 0.053580113
0.116409175 0.054167822 -0.0007557467 -0.03849081 0.11415583 -0.0404687 0.26959136 0.2010826
-0.10778154 -0.15987039 -0.10896539 -0.02811166 0.020888615 0.19177687 0.116453074 0.1482812
-0.1721043 -0.1256461 -0.02830161 0.046446458 -0.060757846 -0.033015724 0.048001952 -0.022933671
0.009728057 -0.04843433 -0.09398664 -0.080654815 -0.022213046 0.13640285 0.14081359 -0.05519566
0.026888287 -0.27139547 0.038950805 -0.120343715 -0.11545488 -0.056967426 -0.036425997 -0.2675797
0.032261167 0.14821698 0.01383182 -0.055650067 -0.09971105 -0.058139622 -0.0038815893 -0.008063587
-0.00026919952 -0.03355663 -0.11611715 -0.1410923 0.022537708 -0.016048726 0.03448353 0.36753416
00000000: 1ac4 123d 7630 2d3d 5ccb 41bd e795 2f3d
00000010: 8840 d9bd 851e acbd 73a8 92bd 9c01 dbbd
00000020: e9bb 0c3e a6e3 823d e487 cc3d c41a d43d
00000030: 3f57 263c acf5 6fbd 6ebd 0cbc 3080 0bbe
00000040: 6aea a03e fe54 1f3e f592 863d a8ce 2abd
00000050: 5276 84bd a1be 72bd 4534 d9bc 9266 8abc
00000060: b6b4 a5bc f4a4 8e3d fc45 a53d 2ea5 17bb
00000070: 1b25 d0bc b165 edbd 277e d2bd eb60 83bd
00000080: 06c1 aa3d 6ae2 bebd c16c cebd d073 813a
00000090: 0649 85bb 63e0 d53d b44c f1bc e4cd a53c
000000a0: 21c0 4abc de58 40be 9f95 1fbd fbdf 6abd
000000b0: f8f3 89bd 06cd 7ebc 457e 15bd cfe9 2cbe
000000c0: b5e2 123d ddfc 75bd 8d20 06be f3fb c0bd
000000d0: dcbb 0bbd 85b3 23bd a758 febc 9c73 383d
000000e0: 6562 763c c661 b7bd 9917 ef3b af2a 5ebe
000000f0: d8cf b1bd a912 5f3d 168f 453e 2406 6f3d
00000100: ebe2 97be 9f4e 0c3e 36df a53c 2b44 ab3b
00000110: ef34 59bd d4aa 81be 28cb 27be 9e91 fabe
00000120: b58a 03bd cbc8 203e 284a 34bd c55e 1f3b
00000130: 8724 03be e877 20be 101a 33bd 9fdc 47be
00000140: c5cb a9bd 9f57 143e 741b 2e3e f5d6 993d
00000150: b071 063d b379 4fbd d330 84bd ed2f 30be
00000160: 0707 02bd cde5 103e 99f0 aa3d 042a c03d
00000170: 3d2d 8ebd ff2e e3bd e7a5 43be aa28 1abe
00000180: 2283 993d e9cf fd3d fae3 893c 125f 3339
00000190: a228 6cbd d6ed 003d 2941 b53d 71cc 3f3b
000001a0: 661b 823d 6383 e33d a83c b8bd 0ecd 753d
000001b0: 4d07 1d3d 6c9e c93d 0f4e 383e 72c9 5bbc
000001c0: 39ed 03be 9761 ecbd 6987 68bd 5555 6fbd
000001d0: 4f4a 603d f23e c93d 09dd 283e 1dfe b33d
000001e0: a4bb f6bc ef2a 84bd 03b7 6dbd 7872 313e
000001f0: 6fa5 ae3d 0615 ae3d 904f 363e 2553 fe3c
00000200: 4bf2 6bbd 51d4 16be 5171 78ba f2b9 963d
00000210: c57c 333e 6d89 3c3e f57e 223e 0d76 27be
00000220: f582 88bc f8a8 a7bd 6f49 79bd b50a 043c
00000230: 237c 29be d332 7cbd bc3a 4c3e 9d18 91bd
00000240: bec3 0b3d eb2b 073d f6ad 193e 164a 71bc
00000250: 128d 013e 2e63 833e 30d3 463e 9f03 ea3d
00000260: d7a0 06be db93 d8bc 0aae 4cbd c91e c03b
00000270: dea2 95bd f328 433e b575 113e c3d3 cfbd
00000280: e1ce 64be 107f 7a3d 39ae 8cbd 9dee 413d
00000290: 9e79 423d 6069 f0bd 43ad 323e ad0b dd3b
000002a0: e85e 51be b7e5 583c cbed 0dbd 08c5 4cbd
000002b0: 3821 65be 37da 4ebe bfaf 91bd 624d 1c3e
000002c0: c234 77bd 4066 6b3d 955f a0bd 7079 583d
000002d0: dc36 88bd b570 efbd 3179 b1bd 0a30 58bd
000002e0: fc11 723d a315 293e 37c6 7abd 203d bf3a
000002f0: f116 cd3d c55e 3ebe 547d 87be 7e51 05bd
00000300: ce70 85be 847b a8bd d55f f7bc f98f 1e3d
00000310: 78fd 583d c4ef 9b3b 83cb 20bb d276 5b3d
00000320: ef67 ee3d 14df 5d3d 4d1d 46ba 8aa8 1dbd
00000330: 88ca e93d 82c2 25bd e107 8a3e 99e8 4d3e
00000340: 91bc dcbd 10b5 23be 3f29 dfbd 6d4a e6bc
00000350: 9a1e ab3c 2861 443e f37e ee3d 07d7 173e
00000360: 1c3c 30be 5fa9 00be c7d8 e7bc a43e 3e3d
00000370: 38dd 78bd 7f3b 07bd b29d 443d 65df bbbc
00000380: 6e62 1f3c 1363 46bd 117c c0bd 5a2e a5bd
00000390: 22f8 b5bc 30ad 0b3e 7031 103e d814 62bd
000003a0: d344 dc3c 59f4 8abe e18a 1f3d c476 f6bd
000003b0: 9c73 ecbd ad56 69bd 6d33 15bd 3500 89be
000003c0: 4924 043d 31c6 173e dc9e 623c 53f1 63bd
000003d0: 4f35 ccbd d023 6ebd 4362 7ebb 231d 04bc
000003e0: 5923 8db9 ad72 09bd d4ce edbd 807a 10be
000003f0: 00a1 b83c 9e78 83bc 9a3e 0d3d 702d bc3e

prediction_layer.bias f4 [10]
0.00089381414 -0.15927795 0.13755289 0.040676944 0.19932257 -0.06280229 -0.04855176 -0.10770138
0.05693219 -0.12120549
00000000: da4e 6a3a c219 23be aada 0c3e de9c 263d
00000010: 371b 4c3e 7d9e 80bd 36de 46bd 8b92 dcbd
00000020: ba31 693d 953a f8bd
