Homeworks/HW1/results/trained_models/cnn_5[4].pt (torch, 53323 bytes, 14 tensors)

conv1.weight f4 [8, 1, 3, 3]
0.32320487 0.3498138 0.027467085 -0.37058493 0.104661435 0.11474148 -0.19965489 0.16595374
-0.42296058 -0.12989281 0.13766488 0.011853293 -0.35591698 0.47873083 -0.4004158 0.092565514
0.3543442 -0.16013719 0.06771907 0.08960889 -0.31271136 0.5675954 0.14271766 -0.19094113
-0.27426353 -0.10333486 -0.06663176 -0.02025289 0.26406357 -0.022931237 0.22715834 0.38065177
-0.30589387 0.2063704 -0.21164386 -0.31234467 -0.2707363 -0.18005514 0.06998926 0.29450077
0.022851165 -0.2484707 0.15257561 0.43074304 -0.3773432 -0.025030538 -0.17846552 -0.0072136847
0.058261476 0.15568705 0.5155309 -0.005555736 -0.11574121 -0.3960765 0.33588922 -0.30056083
0.2531939 0.22356154 -0.03197957 0.1236371 -0.28978664 -0.15993139 -0.23524329 0.12824513
0.2675298 -0.2710459 -0.2736524 0.29973635 0.3866198 0.04931643 -0.33340415 -0.0028400295
00000000: 1c7b a53e cb1a b33e a702 e13c 4fbd bdbe
00000010: bc58 d63d 95fd ea3d 5572 4cbe c7ef 293e
00000020: 4a8e d8be 9f02 05be 06f8 0c3e 5034 423c
00000030: c03a b6be 351c f53e 4d03 cdbe fd92 bd3d
00000040: 9a6c b53e 01fb 23be 4cb0 8a3d de84 b73d
00000050: b41b a0be ef4d 113f 9424 123e 1286 43be
00000060: 456c 8cbe 3aa1 d3bd 3b76 88bd 64e9 a5bc
00000070: 5733 873e 4ada bbbc 329c 683e cae4 c23e
00000080: 1f9e 9cbe c352 533e 2bb9 58be a4eb 9fbe
00000090: f39d 8abe 6060 38be 8756 8f3d cec8 963e
000000a0: 5e32 bb3c 1a6f 7ebe c83c 1c3e 5a8a dc3e
000000b0: 2133 c1be d80c cdbc aabf 36be c660 ecbb
000000c0: 96a3 6e3d 6d6c 1f3e d5f9 033f e40c b6bb
000000d0: ba09 edbd 8aca cabe acf9 ab3e 1ce3 99be
000000e0: a2a2 813e 51ed 643e 02fd 02bd 7335 fd3d
000000f0: ea5e 94be 0ec5 23be 9ee3 70be b152 033e
00000100: aaf9 883e 87c6 8abe 2b1c 8cbe 0b77 993e
00000110: 08f3 c53e 0600 4a3d f3b3 aabe ca1f 3abb

conv1.bias f4 [8]
0.079247884 0.080294766 -0.17647561 0.29127312 0.08336665 -0.021001885 -0.0718343 -0.12392265
00000000: b74c a23d 9571 a43d 06b6 34be c021 953e
00000010: 22bc aa3d 250c acbc dd1d 93bd 29cb fdbd

conv2.weight f4 [16, 8, 3, 3]
-0.21380655 -0.08480047 -0.056477316 0.11706723 0.18722421 0.29100078 -0.10266559 0.080985025
-0.11372366 -0.13682573 -0.030305166 -0.026047694 -0.15425517 0.0027899249 0.15881383 0.09469619
0.07124447 0.15868178 0.118823 0.023528581 0.15062763 0.22980459 0.23744875 0.1623789
0.14576072 0.17399216 -0.33826923 -0.24730444 -0.07263567 -0.15187207 -0.19359775 0.081279375
0.042781074 -0.2728014 -0.051213603 -0.17173794 -0.3094307 0.079828344 0.09183866 -0.40169927
-0.07043487 0.17328161 -0.037377045 0.059246823 0.17554128 -0.110516794 0.11679658 0.17067485
0.13698612 0.03795263 0.17228983 0.038982756 0.10514173 0.1530712 -0.11643592 -0.025225714
-0.016001984 0.22133832 0.091987655 0.3154221 0.0023439198 -0.105933614 -0.14202705 -0.21992831
-0.20671113 0.23098294 -0.0026034056 0.034458518 -0.15764639 -0.15972883 -0.13550049 0.010409779
-0.23723942 -0.26843062 -0.23020627 -0.2421431 -0.28276426 -0.050787263 -0.104143225 -0.05956814
0.13645539 0.20668492 -0.09301309 0.24011864 0.1378057 -0.2839419 0.25910446 0.002363286
-0.24417844 0.22246271 -0.13589162 -0.2986244 0.03607838 -0.044312824 0.05104929 0.056957107
0.32722834 0.20241426 0.20357972 0.027017277 -0.054896172 -0.01121464 -0.07124945 -0.053192012
-0.11459187 0.15171999 -0.111547604 -0.036326684 0.042941075 -0.10704069 0.15624234 0.109167576
-0.04722204 -0.07444782 -0.007343836 -0.14821751 -0.35032588 -0.5457002 -0.25646293 0.011804406
-0.0058224117 -0.17838193 0.07280572 0.30696416 0.3382199 0.32627055 -0.39303675 -0.23623933
-0.3652882 -0.32919112 -0.3145856 -0.06042146 0.10542881 0.06865939 -0.037875414 -0.23356433
0.18654671 0.24934055 -0.23380738 -0.08835831 0.13215415 0.24183129 0.17615859 0.33712858
0.3028484 0.18108365 0.115981214 0.16408369 0.12414034 -0.11135671 -0.025767202 0.29974028
0.02484772 -0.16014817 0.1734231 -0.15318279 0.06349822 -0.17273414 -0.16594747 0.071178295
0.028351804 0.14594021 0.09651773 -0.02177806 0.08703348 -0.20772913 0.15232578 0.23793462
-0.026294444 -0.0916801 0.21736225 -0.15513681 0.16587919 0.05873326 -0.092952915 -0.12537509
-0.0304791 -0.11867447 0.007095271 0.072837345 -0.14537627 -0.17857395 0.03603988 0.072129555
-0.16729929 0.14800689 0.019858843 0.073328644 0.09815547 0.006861662 -0.2550241 -0.32426354
0.09848833 -0.07143256 -0.07326735 0.055747032 0.1911354 0.32538804 0.07713795 -0.11233499
0.108395144 -0.04622376 -0.18363133 -0.07973496 0.16547275 0.016824616 0.08447617 0.21474771
0.033018094 -0.28018403 -0.073270895 0.14909989 -0.10259241 0.0066136215 0.09837224 0.2204232
-0.04585175 0.018640287 0.0171728 0.20181398 0.16164733 0.1999602 0.06293228 0.17549409
0.13856724 -0.08940822 -0.159739 -0.0567838 -0.107879594 0.0012965625 0.08871809 -0.049687985
0.050041474 0.0879002 0.2487715 -0.05370932 -0.06479357 0.072426476 -0.18546829 -0.36382726
-0.08159964 -0.36905327 -0.16426757 -0.060284708 0.023196999 -0.019442653 0.18675607 0.12829792
0.09060513 0.10205776 -0.026538467 0.01625401 0.20989205 0.06562822 -0.07076793 -0.19161451
00000000: 1bf0 5abe deab adbd c254 67bd f2c0 ef3d
00000010: b4b7 3f3e 0efe 943e 5642 d2bd 7adb a53d
00000020: f3e7 e8bd 0b1c 0cbe 8a42 f8bc f961 d5bc
00000030: 11f5 1dbe 2cd7 363b 18a0 223e 13f0 c13d
00000040: 9fe8 913d 7a7d 223e 7959 f33d 03bf c03c
00000050: 213e 1a3e e551 6b3e c425 733e a846 263e
00000060: 4c42 153e 002b 323e a031 adbe 603d 7dbe
00000070: 03c2 94bd 5a84 1bbe 7d3e 46be cd75 a63d
00000080: 353b 2f3d a0ac 8bbe 5bc5 51bd 12dc 2fbe
00000090: b36d 9ebe 0b7d a33d e815 bc3d 87ab cdbe
000000a0: 2840 90bd bc70 313e ac18 19bd ccac 723d
000000b0: 18c1 333e a156 e2bd 0c33 ef3d 63c5 2e3e
000000c0: 1746 0c3e 3874 1b3d bf6c 303e 62ac 1f3d
000000d0: 8c54 d73d b2be 1c3e f575 eebd 28a6 cebc
000000e0: 9816 83bc 83a6 623e 0664 bc3d 017f a13e
000000f0: 739c 193b b9f3 d8bd 8a6f 11be e334 61be
00000100: 15ac 53be cb86 6c3e e69d 2abb 6024 0d3d
00000110: 0e6e 21be f48f 23be a4c0 0abe c78d 2a3c
00000120: e4ee 72be bd6f 89be 31bb 6bbe 5cf4 77be
00000130: 7ac6 90be 4e06 50bd 0b49 d5bd b9fd 73bd
00000140: f6ba 0b3e 36a5 533e a67d bebd a9e1 753e
00000150: f01c 0d3e d560 91be 57a9 843e 5ce1 1a3b
00000160: ea09 7abe 44cd 633e 2c27 0bbe 4ce5 98be
00000170: ecc6 133d 5d81 35bd 0f19 513d db4b 693d
00000180: 798a a73e af45 4f3e 3477 503e 5653 dd3c
00000190: cfda 60bd 9cbd 37bc 3beb 91bd dedf 59bd
000001a0: 24af eabd 7c5c 1b3e 1273 e4bd 4acb 14bd
000001b0: fbe2 2f3d 2638 dbbd fefd 1f3e 4093 df3d
000001c0: e66b 41bd 1978 98bd 90a4 f0bb 55c6 17be
000001d0: ea5d b3be 02b3 0bbf 1c4f 83be 4467 413c
000001e0: eec9 bebb c1a9 36be 2a1b 953d 682a 9d3e
000001f0: 292b ad3e ef0c a73e 1d3c c9be b9e8 71be
00000200: 0e07 bbbe bd8b a8be 5d11 a1be 7e7c 77bd
00000210: 0feb d73d 4b9d 8c3d 4023 1bbd 7d2b 6fbe
00000220: 1a06 3f3e 2153 7f3e 346b 6fbe 34f5 b4bd
00000230: 6b53 073e 9fa2 773e eb62 343e 1e9c ac3e
00000240: f20e 9b3e fe6d 393e 8f87 ed3d 8e05 283e
00000250: 4a3d fe3d fd0e e4bd bd15 d3bc 8f77 993e
00000260: 728d cb3c e2fd 23be d395 313e f3db 1cbe
00000270: 5b0b 823d 38e1 30be 22ee 29be edc5 913d
00000280: 0b42 e83c 5a71 153e 16ab c53d e767 b2bc
00000290: 9c3e b23d f2b6 54be 4afb 1b3e 22a5 733e
000002a0: 7267 d7bc c7c2 bbbd 3694 5e3e 2fdc 1ebe
000002b0: 3cdc 293e 4992 703d 195e bebd 5462 00be
000002c0: 4eaf f9bc 9a0b f3bd 727f e83b bf2b 953d
000002d0: 84dd 14be 17dc 36be 8e9e 133d a9b8 933d
000002e0: 8150 2bbe 1e8f 173e 03af a23c 542d 963d
000002f0: bc05 c93d cbd7 e03b 8592 82be df05 a6be
00000300: 40b4 c93d 3c4b 92bd 310d 96bd 0057 643d
00000310: 00b9 433e 4399 a63e 80fa 9d3d e30f e6bd
00000320: 46fe dd3d 2055 3dbd da09 3cbe 154c a3bd
00000330: b071 293e c7d3 893c d801 ad3d d3e6 5b3e
00000340: fb3d 073d 4874 8fbe 0d0f 96bd a4ad 183e
00000350: f81b d2bd 14b7 d83b 6377 c93d 9fb6 613e
00000360: 0bcf 3bbd 84b3 983c f9ad 8c3c 53a8 4e3e
00000370: e186 253e 5ec2 4c3e a4e2 803d b9b4 333e
00000380: 92e4 0d3e a81b b7bd 9f92 23be 2196 68bd
00000390: faef dcbd 6bf1 a93a d4b1 b53d a185 4bbd
000003a0: 4af8 4c3d 0505 b43d f5bd 7e3e 4efe 5bbd
000003b0: 7eb2 84bd 5554 943d 66eb 3dbe 9147 babe
000003c0: b61d a7bd 8df4 bcbe c235 28be 19ed 76bd
000003d0: a207 be3c 3346 9fbc fc3c 3f3e 8860 033e
000003e0: 2f8f b93d a903 d13d 3367 d9bc 2127 853c
000003f0: f1ed 563e 1768 863d c7ee 90bd 9836 44be

conv2.bias f4 [16]
0.0041165473 0.010248794 -0.15388249 -0.09414228 0.23662594 -0.120627865 0.08169129 -0.01721298
-0.039534178 0.17256452 -0.13515407 0.10525463 -0.10112006 0.08075082 0.17580624 -0.0436473
00000000: 1ae4 863b 8fea 273c 5f93 1dbe abcd c0bd
00000010: 124e 723e be0b f7bd c34d a73d 3c02 8dbc
00000020: 97ee 21bd c1b4 303e d465 0abe bd8f d73d
00000030: 0918 cfbd b060 a53d 8d06 343e 83c7 32bd

conv3.weight f4 [8, 16, 3, 3]
-0.1964097 0.13919125 -0.0031551092 0.14193888 0.08030091 0.2808094 -0.06513399 -0.17817628
-0.016818348 0.08801912 0.28310418 -0.117892526 -0.07969928 0.11913901 -0.24808797 -0.165433
-0.067973115 -0.17800196 0.035599407 0.10482804 0.12249223 -0.20888041 -0.021531722 -0.025609858
-0.114057735 -0.26635665 -0.14293283 -0.14859702 -0.0039510676 -0.015750734 -0.04352333 0.021948077
0.024624832 0.04468841 0.079550214 -0.031708244 -0.11219049 0.19954483 0.1999186 0.05178041
-0.2832727 0.13721913 0.18081544 -0.34395486 0.15771537 0.2957098 0.20015767 0.110647865
0.29530492 0.388047 -0.023996506 0.32177028 0.14107946 0.044065993 -0.104165114 -0.090456955
0.20764345 0.110471345 0.10278311 0.015347461 0.09992509 -0.087754115 -0.026928734 0.018877449
0.023615886 0.06995169 0.12207899 -0.055764306 -0.044614132 -0.060715433 -0.13727687 -0.116926216
0.011938293 0.015029975 -0.06502042 0.033219814 -0.01172385 -0.07671784 0.06205528 0.014733455
-0.003528673 -0.06305523 -0.12040646 -0.1401993 0.115450226 0.1480163 -0.09041983 0.021087117
0.37884915 0.19039422 0.00692329 0.052344054 0.04818023 -0.22755225 -0.10262448 -0.1548034
-0.07914965 0.07087769 0.05211253 0.055555332 0.06134476 -0.097934686 0.12576541 0.16836075
-0.23779729 -0.21477807 -0.077933125 0.14031681 -0.14344513 -0.19437392 -0.083922304 -0.16300996
-0.03427323 0.014721871 -0.20184703 -0.25952983 0.021193238 -0.1544966 -0.07599049 -0.18510029
-0.31773677 0.23099595 0.025157735 -0.29060972 0.22835614 0.09345605 -0.053096224 0.045345187
-0.0642529 -0.16536784 0.291755 -0.067651555 -0.35167402 0.105554104 0.066304006 -0.0009978929
-0.035085876 0.03728083 0.19183214 0.0075084963 -0.21693756 0.20359956 0.13160771 0.023017224
-0.09000723 -0.07352625 -0.083582796 -0.03271483 0.08458352 0.08640333 0.01594344 0.10517558
0.1375047 -0.13273703 0.19442834 0.09587824 -0.018966736 0.3608681 -0.020340215 -0.11999594
0.22635251 -0.19609162 -0.028986938 -0.26097077 -0.20571005 0.0002193369 -0.16426125 -0.06513424
0.04103994 -0.048375163 -0.16804917 -0.10522821 -0.038100857 -0.082950465 -0.023777064 0.01285342
0.18350023 -0.027439851 -0.028726637 -0.047228795 0.021375446 0.07232491 0.10334889 0.10026543
0.07036358 -0.09567364 0.05638129 -0.23861358 -0.09658117 -0.33363613 -0.3109499 0.032470874
-0.26059514 0.011755198 -0.016301556 0.0089142 0.03729563 0.0066744937 -0.088213 -0.07790171
-0.15575768 -0.049580947 -0.0014259228 -0.06769619 0.26781812 0.05922099 -0.14068772 0.14455003
0.14496899 0.066154644 0.21399866 0.2510833 0.19775802 0.18000305 0.1069224 0.18629125
-0.05365557 0.024625147 0.06906817 0.056236662 0.098230384 0.05469532 0.030570028 0.04698566
0.13690571 0.25799996 0.24175727 0.20600158 0.063211516 0.0074534607 0.021025829 -0.17934182
-0.18891303 -0.1938698 0.19460791 0.09896884 0.14104763 0.025140576 0.107215405 0.027707798
-0.12926647 0.06295237 0.13429527 -0.1568514 -0.009999678 0.02679208 0.16121188 0.018751541
0.07255323 0.10282613 -0.15218297 -0.039511092 -0.24733731 0.33934522 -0.21048065 0.026166938
00000000: a01f 49be 2788 0e3e f3c5 4ebb 6d58 113e
00000010: ce74 a43d 40c6 8f3e f864 85bd d873 36be
00000020: a2c6 89bc 5e43 b43d 08f3 903e a371 f1bd
00000030: 6039 a3bd 27ff f33d c60a 7ebe 4567 29be
00000040: 7d35 8bbd 2546 36be afd0 113d 15b0 d63d
00000050: 35dd fa3d bfe4 55be 4b63 b0bc c4cb d1bc
00000060: 1a97 e9bd e65f 88be fc5c 12be d129 18be
00000070: f577 81bb af07 81bc 8545 32bd 74cc b33c
00000080: 04ba c93c 320b 373d 39eb a23d 81e0 01bd
00000090: 21c4 e5bd 7b55 4c3e 76b7 4c3e b217 543d
000000a0: 1f09 91be 2c83 0c3e af27 393e da1a b0be
000000b0: 2380 213e 4667 973e 22f6 4c3e 599b e23d
000000c0: 3532 973e 19ae c63e 5294 c4bc 13bf a43e
000000d0: 2277 103e 8b7e 343d 8554 d5bd 7f41 b9bd
000000e0: 7ca0 543e cd3e e23d f47f d23d eb73 7b3c
000000f0: 87a5 cc3d 6eb8 b3bd a699 dcbc e1a4 9a3c
00000100: 1a76 c13c d542 8f3d 8d04 fa3d 1d69 64bd
00000110: 4fbd 36bd bfb0 78bd 4f92 0cbe 0377 efbd
00000120: d598 433c 4940 763c 6d29 85bd 8011 083d
00000130: 6415 40bc 3e1e 9dbd ad2d 7e3d 9764 713c
00000140: 4f41 67bb 1a23 81bd a997 f6bd 6890 0fbe
00000150: 2b71 ec3d 9691 173e 082e b9bd e4be ac3c
00000160: 84f8 c13e b4f6 423e c4dc e23b b866 563d
00000170: a258 453d 7503 69be c92c d2bd c884 1ebe
00000180: 3619 a2bd 5328 913d f373 553d fd8d 633d
00000190: a544 7b3d fb91 c8bd a6c8 003e c366 2c3e
000001a0: 2281 73be c8ee 5bbe 679b 9fbd 36af 0f3e
000001b0: 48e3 12be f509 47be 75df abbd 15ec 26be
000001c0: 1662 0cbd 0134 713c fdb0 4ebe 18e1 84be
000001d0: 719d ad3c 5b34 1ebe e7a0 9bbd ee8a 3dbe
000001e0: 65ae a2be 348a 6c3e 9817 ce3c ccca 94be
000001f0: 31d6 693e e365 bf3d 6d7b 59bd e0bb 393d
00000200: 0697 83bd 3056 29be e960 953e e68c 8abd
00000210: 9e0e b4be c02c d83d 65ca 873d bbcb 82ba
00000220: 35b6 0fbd c9b3 183d a56f 443e d509 f63b
00000230: e124 5ebe 677c 503e 2cc4 063e 9e8e bc3c
00000240: b655 b8bd ee94 96bd 752d abbd fcff 05bd
00000250: 203a ad3d 3bf4 b03d d19b 823c 4b66 d73d
00000260: 08ce 0c3e 37ec 07be 3918 473e d05b c43d
00000270: 2160 9bbc b4c3 b83e 86a0 a6bc 6ec0 f5bd
00000280: f4c8 673e 3ecc 48be 0476 edbc f69d 85be
00000290: a8a5 52be cdfd 6539 1a34 28be 1a65 85bd
000002a0: 7f19 283d 0925 46bd 1515 2cbe e381 d7bd
000002b0: a50f 1cbd efe1 a9bd 1ec8 c2bc 2797 523c
000002c0: 7ce7 3b3e 8ac9 e0bc 2054 ebbc fb72 41bd
000002d0: 8f1b af3c 151f 943d 95a8 d33d f657 cd3d
000002e0: c81a 903d 8bf0 c3bd 11f0 663d 1e57 74be
000002f0: 59cc c5bd 5bd2 aabe d334 9fbe 2e00 053d
00000300: ba6c 85be e098 403c d78a 85bc dd0c 123c
00000310: 4dc3 183d b6b5 da3b 04a9 b4bd ef8a 9fbd
00000320: f17e 1fbe 6415 4bbd 08e6 baba 4da4 8abd
00000330: 751f 893e b591 723d 7110 10be ec04 143e
00000340: c072 143e 167c 873d 7722 5b3e fe8d 803e
00000350: 1481 4a3e b852 383e 22fa da3d 22c3 3e3e
00000360: f1c5 5bbd adba c93c 9d73 8d3d 6a58 663d
00000370: 032d c93d 3308 603d ff6d fa3c 0974 403d
00000380: 0331 0c3e 9218 843e 388f 773e 14f2 523e
00000390: 0a75 813d 293c f43b 5c3e ac3c 62a5 37be
000003a0: 6b72 41be ce85 46be 4c47 473e 2db0 ca3d
000003b0: ca6e 103e 9cf3 cd3c c093 db3d 77fb e23c
000003c0: 6e5e 04be 2ced 803d b384 093e a79d 20be
000003d0: b0d5 23bc 107b db3c ba14 253e d59c 993c
000003e0: ca96 943d 8296 d23d dad5 1bbe 62d6 21bd
000003f0: fe45 7dbe a8be ad3e 3d88 57be 0c5c d63c

conv3.bias f4 [8]
0.031064125 0.086155005 0.0052551907 0.11273116 0.15738043 0.14405893 -0.12116896 0.08765087
00000000: 317a fe3c 0972 b03d bc33 ac3b 98df e63d
00000010: 5628 213e 2f84 133e 6f27 f8bd 4d82 b33d

conv4.weight f4 [16, 8, 3, 3]
0.02166891 0.030868093 -0.12539856 -0.123749994 0.12697329 -0.035456605 -0.0026680531 0.14989428
-0.17023863 -0.05210436 0.08102887 0.011509018 -0.03304201 0.1728675 -0.029530764 -0.05555374
0.031330653 -0.10028789 0.15600781 -0.2409594 0.17771192 0.09685244 -0.11954898 0.005501106
0.14311722 -0.27670944 0.117414154 0.065069936 -0.034283746 0.20181724 0.087911785 0.038542524
0.12189536 0.10750774 -0.010627309 -0.063363336 0.16875967 -0.48396993 0.0042441064 0.12959653
-0.27575165 0.17140542 0.08802826 -0.18593611 0.15179524 0.03568432 -0.056273527 0.16335934
-0.04130789 -0.14625332 0.07432166 0.049801264 -0.11284444 0.12931024 -0.08555673 -0.29878813
-0.25678965 0.25713354 -0.07199171 -0.06555332 0.07455334 -0.05679431 0.073358215 0.10122925
0.068667084 -0.05556084 0.028385092 0.04252535 0.034572016 -0.067288406 -0.108715855 -0.09946614
-0.030295642 0.13279593 0.17689057 -0.03871328 -0.16872092 0.04411062 0.14129186 -0.40005478
-0.14855629 0.028887901 0.03527216 -0.037531827 0.12709326 0.15787058 -0.13215862 -0.07050763
0.0611671 0.0075210063 0.069462776 0.15539084 -0.041167893 -0.0387462 0.13120866 -0.00018467051
-0.11453417 -0.006962572 -0.10461043 -0.0505541 -0.042138904 -0.16721958 -0.026953876 0.09453933
-0.047107358 -0.17594087 -0.0057299393 0.019213371 0.061044876 -0.19568649 -0.3907993 0.08772222
0.115702376 -0.24686271 -0.050402828 0.24809647 0.03761799 0.05325691 -0.05763548 -0.19164121
0.0542318 -0.06647135 -0.031271156 0.18075779 -0.06709421 -0.13509884 -0.09277629 -0.106831856
-0.085133396 -0.18277082 -0.25870004 -0.15063965 0.062171068 -0.07798382 0.10629295 0.1241245
-0.19633752 -0.2919947 0.24740683 0.032871425 -0.1253281 0.017035823 -0.051127866 0.060563907
0.041365877 0.16648044 0.019646166 -0.21072379 0.12387981 0.14014718 -0.101344414 -0.11172162
0.21747066 0.12397368 -0.25385377 -0.086496875 0.116446555 0.08090323 -0.06460583 0.18786749
0.06918095 -0.014777131 0.03416826 -0.038900662 -0.0741038 0.027207542 -0.018253602 -0.10407305
0.11366299 0.16047278 -0.111170165 -0.038156986 -0.40937674 -0.10335023 0.05495226 -0.13274242
-0.16305794 0.1596837 0.062932044 -0.007536761 0.048238434 -0.2190348 0.08240314 0.12935096
-0.1856966 -0.34488362 0.033671536 0.13758928 -0.32750702 -0.06691675 -0.15812634 -0.17806366
-0.10040549 -0.10560742 -0.17699839 -0.033827286 -0.07175393 0.03426218 0.067330405 -0.04762894
0.25766376 -0.15728848 -0.037429634 0.24607447 -0.27989766 -0.19463962 0.11598165 -0.06455539
0.01364968 -0.07660085 -0.31893426 -0.30515873 -0.23478441 -0.31604844 -0.22619596 -0.27874953
-0.037747532 -0.079302445 0.13115835 -0.07517208 0.17485915 -0.01927456 0.23329705 -0.02996931
-0.057939965 -0.019296205 0.11553082 0.09043234 0.09893572 0.08617542 -0.17724851 -0.015413177
-0.2204673 -0.03214873 -0.13240343 0.18641748 0.15777205 0.13811535 0.081875436 -0.03788454
0.08163772 -0.3120494 0.05122595 -0.053257916 0.15449241 -0.1433461 -0.032210726 -0.007846618
-0.18298903 -0.113057554 -0.24916919 0.106639415 -0.27519238 -0.05132047 -0.010295334 0.15527219
00000000: ff82 b13c 15df fc3c 7b68 00be a370 fdbd
00000010: 4905 023e f23a 11bd 81da 2ebb e37d 193e
00000020: 0953 2ebe 626b 55bd 77f2 a53d 5290 3c3c
00000030: 0f57 07bd 2e04 313e 80ea f1bc 528c 63bd
00000040: 9254 003d bd63 cdbd 83c0 1f3e 10be 76be
00000050: 1dfa 353e 925a c63d 18d6 f4bd 9f42 b43b
00000060: 528d 123e dcac 8dbe d576 f03d 6343 853d
00000070: 1d6d 0cbd 2ea9 4e3e 180b b43d c4de 1d3d
00000080: 46a4 f93d 052d dc3d 2a1e 2ebc a3c4 81bd
00000090: 56cf 2c3e e8ca f7be 2512 8b3b f4b4 043e
000000a0: 522f 8dbe e784 2f3e 2948 b43d 0966 3ebe
000000b0: 3670 1b3e b929 123d 127f 66bd ac47 273e
000000c0: 7632 29bd 6ec3 15be f435 983d 69fc 4b3d
000000d0: fc1a e7bd e769 043e 5e38 afbd c2fa 98be
000000e0: ef79 83be 02a7 833e 6470 93bd d240 86bd
000000f0: 6caf 983d 27a1 68bd d53c 963d 4851 cf3d
00000100: 54a1 8c3d c393 63bd da87 e83c 102f 2e3d
00000110: 639b 0d3d 81ce 89bd 6ba6 debd e7b4 cbbd
00000120: 912e f8bc a8fb 073e cd22 353e d191 1ebd
00000130: 2dc5 2cbe 56ad 343d d0ae 103e fbd3 ccbe
00000140: 241f 18be 52a6 ec3c 8a79 103d f9ba 19bd
00000150: bc24 023e d3a8 213e 9754 07be 4e66 90bd
00000160: 5a8a 7a3d c672 f63b 8042 8e3d c71e 1f3e
00000170: aa9f 28bd 56b4 1ebd 905b 063e 1da4 41b9
00000180: e490 eabd 4a26 e4bb fe3d d6bd d111 4fbd
00000190: d899 2cbd 9c3b 2bbe 60ce dcbc d69d c13d
000001a0: a5f3 40bd d829 34be 37c2 bbbb 5c65 9d3c
000001b0: 310a 7a3d 0a62 48be d916 c8be b5a7 b33d
000001c0: 5ef5 ec3d 94c9 7cbe 3273 4ebd 000d 7e3e
000001d0: 5215 1a3d eb23 5a3d 2e13 6cbd 983d 44be
000001e0: 2a22 5e3d 2222 88bd 2f16 00bd 9218 393e
000001f0: b068 89bd 5a57 0abe 7f01 bebd a9ca dabd
00000200: 6b5a aebd 4628 3bbe 5574 84be 4841 1abe
00000210: 17a7 7e3d fbb5 9fbd 1eb0 d93d fc34 fe3d
00000220: b40c 49be 5480 95be 3758 7d3e 30a4 063d
00000230: 0256 00be b68e 8b3c 746b 51bd dc11 783d
00000240: 446f 293d d979 2a3e fff0 a03c fac7 57be
00000250: b3b4 fd3d be82 0f3e a98d cfbd 4ece e4bd
00000260: a1b0 5e3e eae5 fd3d 1ff9 81be 4625 b1bd
00000270: 887b ee3d 98b0 a53d 1050 84bd 5660 403e
00000280: beae 8d3d c81b 72bc 04f4 0b3d 4d56 1fbd
00000290: bcc3 97bd 5ae2 de3c 9488 95bc 4024 d5bd
000002a0: 24c8 e83d fa52 243e 2fad e3bd 804a 1cbd
000002b0: d499 d1be 49a9 d3bd 9f15 613d a1ed 07be
000002c0: a9f8 26be 2084 233e 84e2 803d eff6 f6bb
000002d0: aa95 453d a94a 60be fac2 a83d 9474 043e
000002e0: 4027 3ebe 9694 b0be 2aeb 093d 34e4 0c3e
000002f0: 00af a7be a60b 89bd dfeb 21be 5256 36be
00000300: 65a1 cdbd b448 d8bd 113f 35be 7b8e 0abd
00000310: b9f3 92bd 8056 0c3d 86e4 893d 9016 43bd
00000320: 81ec 833e 3b10 21be d14f 19bd f2fa 7b3e
00000330: bf4e 8fbe 9c4f 47be ca87 ed3d 9e35 84bd
00000340: e8a2 5f3c e8e0 9cbd 5a4b a3be c43d 9cbe
00000350: 536b 70be 1ad1 a1be ea9f 67be 42b8 8ebe
00000360: 289d 1abd 5269 a2bd 604e 063e d2f3 99bd
00000370: 470e 333e afe5 9dbc 6ce5 6e3e 3382 f5bc
00000380: 7552 6dbd 1313 9ebc 6c9b ec3d 9734 b93d
00000390: d09e ca3d bd7c b03d a280 35be 8d87 7cbc
000003a0: 2ec2 61be 63ae 03bd c494 07be 39e4 3e3e
000003b0: ff8e 213e 1c6e 0d3e 4fae a73d d22c 1bbd
000003c0: ad31 a73d f0c4 9fbe 4dd2 513d f924 5abd
000003d0: 4233 1e3e 52c9 12be 65ef 03bd 1a8f 00bc
000003e0: 7a61 3bbe b88a e7bd 3526 7fbe c465 da3d
000003f0: 04e6 8cbe 6a35 52bd c3ad 28bc acff 1e3e

conv4.bias f4 [16]
-0.14270782 -0.050542496 -0.045583364 0.11832608 -0.067845866 0.24827963 0.049511775 0.02800308
0.060927745 -0.15420094 -0.12839961 -0.21722376 0.13700463 0.025361668 0.041312993 0.18096916
00000000: 0022 12be a605 4fbd 9fb5 3abd f254 f23d
00000010: c6f2 8abd 043d 7e3e dccc 4a3d b766 e53c
00000020: 5f8f 793d dae6 1dbe 307b 03be e86f 5ebe
00000030: f14a 0c3e 46c3 cf3c d037 293d fb4f 393e

conv5.weight f4 [16, 16, 3, 3]
0.19046155 -0.007425749 -0.23524392 0.15297179 0.059924554 -0.18961579 0.09664933 -0.07429966
-0.1978625 -0.018547159 -0.24861118 -0.20385873 -0.04391191 -0.22920343 -0.23502654 0.057849817
0.07687667 -0.14839156 0.19353893 0.12968159 0.030671988 0.14386275 0.007910564 -0.03510533
0.12079845 0.083746985 -0.0405606 -0.037807867 -0.07347459 -0.043413486 -0.074569866 -0.1013576
0.036280468 0.07637909 -0.15537079 0.047460083 -0.30653748 -0.32832676 -0.20337415 -0.16240121
-0.24018049 -0.35111195 -0.07814875 -0.13057067 -0.118682556 0.10229972 0.022071293 0.030522356
0.08243568 0.01587314 -0.038042024 0.105212756 -0.10101662 0.114597976 0.029304596 -0.06651608
-0.18901792 0.22295998 -0.14203864 -0.23038565 0.19133806 -0.12417828 -0.035770327 0.06820112
0.08758941 -0.008736524 -0.052442558 0.08358715 -0.07069624 0.07999097 0.12427821 -0.10033214
0.005968169 -0.022054577 -0.14795789 0.04184917 0.082057364 -0.12073165 0.15303381 0.14488927
-0.058403924 -0.08570785 0.022112451 0.0069285845 0.11924364 0.14761314 -0.1855348 0.16466029
0.22032967 0.02528461 -0.11189315 -0.046149764 -0.1018477 0.10155886 0.14099368 -0.121290594
0.14355113 0.09463425 -0.14131095 -0.15915374 -0.1460014 -0.17494406 -0.27093357 -0.07617132
-0.10270703 -0.10425436 0.1779719 0.073403075 -0.030948382 -0.08736664 0.011934716 0.074431434
0.014587449 0.035011135 0.007408246 0.14291604 0.071285844 -0.023057178 -0.16652273 -0.19602628
-0.21378076 -0.07122315 -0.14945345 -0.14443061 -0.02031746 -0.06161476 0.26345593 -0.031022213
-0.18904926 0.18271104 -0.12286594 -0.09113292 0.27408814 -0.048076436 -0.20521054 0.044296183
-0.13494454 -0.0236097 0.007981597 -0.009352053 0.0029469419 -0.044391327 -0.0069389576 0.0009649663
-0.06256228 -0.0202315 0.11156109 -0.1762395 0.06556308 0.01105122 -0.25766346 -0.23467752
-0.16792853 -0.0796121 -0.030688703 -0.006478929 0.078069024 -0.0684883 -0.0071402886 0.19955131
0.19003046 -0.09993721 0.017527306 0.12335477 -0.051427945 0.24794626 0.17514347 -0.13103436
0.14153118 0.1809533 0.12143314 -0.013220964 -0.041589927 -0.00066700723 -0.13072938 0.08889744
0.024592249 0.024574075 -0.045498647 -0.02683287 -0.060528394 0.092340015 0.03544794 0.1740924
-0.037082925 -0.0014019092 0.092689626 -0.019973455 0.109153114 0.18003806 0.073698655 -0.024738587
0.18498698 0.13738193 0.11299416 0.07136811 0.19491684 0.08117059 -0.047991198 0.035255566
0.21855381 -0.25581917 0.008211307 0.09765197 -0.34068143 -0.29580495 -0.11247119 -0.029300833
-0.034034796 0.04853365 -0.028857354 -0.09192935 0.21673855 0.03475176 0.02459049 0.029450815
-0.031992987 -0.27816057 -0.101296194 0.11429473 -0.17915736 0.021148022 0.21236646 -0.0030683398
-0.15285672 -0.07855931 -0.17117825 0.13975228 -0.22406814 -0.121172234 0.078291155 0.08524563
-0.16735144 0.023462012 -0.045827214 -0.06102905 -0.01681144 0.053202853 0.14234567 0.06932218
0.07975971 0.15583579 0.10635177 -0.13534546 -0.067223035 -0.0076453267 -0.3384461 0.091358215
0.000237701 -0.44628954 0.04360777 0.12757649 -0.07842175 0.048578806 0.2917395 -0.16264357
00000000: 5a08 433e b353 f3bb c8e3 70be a3a4 1c3e
00000010: 7373 753d a42a 42be 15f0 c53d 6c2a 98bd
00000020: 789c 4abe 36f0 97bc ee93 7ebe 58c0 50be
00000030: fadc 33bd 4eb4 6abe ccaa 70be eef3 6c3d
00000040: 8471 9d3d f5f3 17be 122f 463e 40cb 043e
00000050: d243 fb3c c250 133e 4f9b 013c 9bca 0fbd
00000060: 2e65 f73d 8a83 ab3d df22 26bd 6cdc 1abd
00000070: d979 96bd 57d2 31bd 16b8 98bd 9394 cfbd
00000080: d49a 143d a46c 9c3d 8519 1fbe 8165 423d
00000090: 7bf2 9cbe 721a a8be 5041 50be 814c 26be
000000a0: e0f1 75be f2c4 b3be 740c a0bd 51b4 05be
000000b0: d70f f3bd 8482 d13d dbce b43c 050a fa3c
000000c0: 0ad4 a83d 6308 823c f4d1 1bbd c979 d73d
000000d0: cde1 cebd 58b2 ea3d 3110 f03c 9539 88bd
000000e0: ea8d 41be 9f4f 643e 9472 11be 37ea 6bbe
000000f0: 20ee 433e 2f51 febd e883 12bd 07ad 8b3d
00000100: 1462 b33d a323 0fbc 02ce 56bd bd2f ab3d
00000110: 31c9 90bd 4ed2 a33d 9385 fe3d f07a cdbd
00000120: a190 c33b cdab b4bc 4682 17be 096a 2b3d
00000130: b10d a83d 2842 f7bd e5b4 1c3e da5d 143e
00000140: f438 6fbd 9987 afbd 2c25 b53c 2e09 e33b
00000150: 0236 f43d e627 173e d6fc 3dbe b59c 283e
00000160: 1a9e 613e ac21 cf3c 3c28 e5bd 8907 3dbd
00000170: 8795 d0bd 17fe cf3d a660 103e 3467 f8bd
00000180: 11ff 123e 9acf c13d d1b3 10be 33f9 22be
00000190: 6481 15be 8924 33be ceb7 8abe b6ff 9bbd
000001a0: 1058 d2bd 4f83 d5bd 443e 363e 5a54 963d
000001b0: 7687 fdbc 48ed b2bd d489 433c 826f 983d
000001c0: 3200 6f3c d667 0f3d dfc0 f23b 9558 123e
000001d0: 50fe 913d 68e2 bcbc ef84 2abe 1dbb 48be
000001e0: 58e9 5abe 71dd 91bd 530a 19be 9ee5 13be
000001f0: cd70 a6bc c25f 7cbd b2e3 863e 4c22 febc
00000200: 2196 41be 9a18 3b3e 23a1 fbbd e5a3 babd
00000210: 4855 8c3e cceb 44bd b622 52be ea6f 353d
00000220: e72e 0abe 2169 c1bc 3fc5 023c 5a39 19bc
00000230: 7b21 413b aed3 35bd 3260 e3bb cbf5 7c3a
00000240: a720 80bd 88bc a5bc 247a e43d 2178 34be
00000250: f045 863d 2d10 353c 77ec 83be 4e4f 70be
00000260: 75f5 2bbe ab0b a3bd e066 fbbc 324d d4bb
00000270: a7e2 9f3d 9843 8cbd 15f9 e9bb 2e57 4c3e
00000280: 5897 423e e1ab ccbd 6d95 8f3c 6da1 fc3d
00000290: 1ca6 52bd a0e5 7d3e cf58 333e df2d 06be
000002a0: 8ded 103e d24b 393e f0b1 f83d be9c 58bc
000002b0: 335a 2abd 19da 2eba ecdd 05be dc0f b63d
000002c0: af75 c93c 924f c93c ca5c 3abd 9bd0 dbbc
000002d0: 9fec 77bd c31c bd3d dc31 113d 4745 323e
000002e0: 44e4 17bd 44c0 b7ba 0fd4 bd3d 5f9f a3bc
000002f0: ab8b df3d e65b 383e 52ef 963d 94a8 cabc
00000300: 3a6d 3d3e d9ad 0c3e 7b69 e73d 7229 923d
00000310: 4898 473e c43c a63d 6b92 44bd 2468 103d
00000320: 92cc 5f3e bbfa 82be b888 063c c2fd c73d
00000330: cc6d aebe bf73 97be 4c57 e6bd 4d08 f0bc
00000340: 1268 0bbd 38cb 463d 4266 ecbc 7445 bcbd
00000350: b6f0 5d3e dd57 0e3d ff71 c93c d642 f13c
00000360: 140b 03bd 106b 8ebe 6174 cfbd 5b13 ea3d
00000370: 0775 37be 9e3e ad3c 9876 593e 3316 49bb
00000380: 7986 1cbe b4e3 a0bd 5a49 2fbe 391b 0f3e
00000390: 1e72 65be 2629 f8bd 1d57 a03d 4395 ae3d
000003a0: 2d5e 2bbe 6833 c03c 51b5 3bbd 99f9 79bd
000003b0: 25b8 89bc 3ceb 593d 10c3 113e c9f8 8d3d
000003c0: 0f59 a33d 6b93 1f3e f5ce d93d 0098 0abe
000003d0: 3bac 89bd a685 fabb cf48 adbe 041a bb3d
000003e0: 603f 7939 1080 e4be 109e 323d 69a3 023e
000003f0: 959b a0bd 92fa 463d e15e 953e 098c 26be

conv5.bias f4 [16]
-0.03831248 -0.011913459 -0.11916953 -0.092277735 0.12286448 0.13019302 -0.048811823 0.29750404
-0.0064087925 -0.015845256 0.093466856 0.30431283 0.25409323 0.14194085 0.011814236 0.04728025
00000000: 8ced 1cbd ab30 43bc 280f f4bd 1cfc bcbd
00000010: 5fa0 fb3d 5251 053e e8ee 47bd 7352 983e
00000020: d900 d2bb e9cd 81bc 8d6b bf3d e4ce 9b3e
00000030: 8218 823e f158 113e 7f90 413c efa8 413d

conv6.weight f4 [8, 16, 3, 3]
-0.09256585 0.016450034 -0.09488419 -0.015122178 0.20093736 -0.0453805 -0.008315512 -0.23291035
-0.089945674 -0.1228221 -0.16012199 -0.08275504 -0.10111142 -0.0034276275 -0.055583313 0.17073512
0.14216955 0.013418886 0.033160076 0.1253674 0.10364525 0.018409722 0.061217766 -0.07645491
0.04410113 0.28781992 -0.17871198 -0.06826576 0.101567656 0.07024916 0.10470338 0.024814736
-0.17201777 0.19427077 0.2624623 0.20606641 0.06304341 0.024562016 -0.13711691 0.12856895
0.0304943 -0.21238145 0.153288 0.036112085 -0.20344572 0.015418243 -0.08341503 -0.028513432
0.0078513585 -0.22352652 -0.18788952 0.0994506 0.27929077 -0.059309855 -0.18667756 -0.039317563
-0.10877541 0.098028325 0.09214845 0.07990744 0.2879425 -0.029317696 0.040559087 -0.16941404
-0.029139176 -0.2434363 -0.1556535 0.030843398 -0.29698765 -0.14131978 -0.08717971 -0.14840774
0.07243301 -0.09174985 0.08666622 0.14194733 -0.12595579 0.15675992 -0.24210255 -0.40718555
-0.10291878 0.023819111 0.11912231 0.14905378 0.04522198 0.08939592 0.09925142 -0.065966934
0.07605248 0.10844947 -0.052662022 0.14591855 0.18897396 -0.03444242 -0.092068635 0.26295942
-0.16635674 -0.17466505 0.24282905 -0.11620772 -0.12714301 0.025836596 0.0019967267 -0.2155735
-0.0008526813 -0.05107915 -0.5394 -0.02752686 0.0162347 0.011567527 0.07416023 0.17419761
-0.105360016 -0.10658227 0.14937608 0.009812208 -0.2531592 -0.055413898 0.11618383 0.053225186
-0.071304075 0.1726425 -0.0064609475 0.16429207 -0.0019648452 -0.047185227 -0.21409489 -0.4070694
-0.11905686 -0.0823395 -0.25263757 0.028773809 -0.07357514 -0.09228415 0.271516 0.048534896
0.13096528 -0.052432835 -0.022179881 0.07417494 -0.07139939 0.080750756 0.08858094 -0.07993412
0.123615585 0.14955246 0.1460604 0.19175188 0.17698148 0.07353485 -0.19100821 0.011225712
0.020730749 0.011907786 0.09141563 0.086139835 0.09963477 0.16025694 0.10286346 -0.06408926
0.057844706 0.19890414 -0.11843395 0.08118617 -0.044980466 -0.066523425 0.15793224 0.046834063
0.10300284 0.12989429 -0.07478553 -0.027982084 -0.032648746 0.040138066 -0.16582368 -0.022233117
0.081676245 -0.27837282 -0.02579682 -0.12740172 0.1260089 0.016438052 -0.22498949 0.04684271
-0.15046647 -0.0579065 0.1339172 -0.17218803 -0.19226101 -0.051210724 -0.043528363 0.006070598
-0.06975265 -0.1214984 -0.04129309 -0.08159635 -0.14186957 0.076903805 -0.19354342 -0.018746305
0.012200103 -0.053995937 -0.07960769 0.01578454 0.07920782 0.09602101 -0.13129635 0.19360268
0.28326863 0.14483553 0.121427976 0.05068658 -0.27042466 -0.16480093 -0.031694002 0.1080584
-0.047498956 0.057371352 -0.14563814 0.086427376 0.11455975 -0.10721435 -0.06243011 0.12221162
0.19550289 -0.15047911 0.07000534 0.007059323 0.095253885 0.0048805736 0.12735277 0.098062
0.14695364 -0.02343993 -0.019706443 0.02578944 0.008565883 0.17333032 0.16689566 0.26754886
0.1385257 0.14645381 0.23922272 -0.06654599 0.13245611 -0.015093721 -0.107058376 0.05207125
0.12685207 -0.19737066 -0.07987763 0.09668302 0.056737676 0.017798943 -0.04183358 -0.20937936
00000000: 2a93 bdbd 39c2 863c a452 c2bd 03c3 77bc
00000010: 86c2 4d3e e7e0 39bd c93d 08bc 0d80 6ebe
00000020: 7035 b8bd 278a fbbd 05f7 23be 797b a9bd
00000030: 8113 cfbd 0ca2 60bb 54ab 63bd 30d5 2e3e
00000040: e594 113e e3da 5b3c dcd2 073d 5060 003e
00000050: f643 d43d fccf 963c 7bbf 7a3d 6494 9cbd
00000060: 63a3 343d 225d 933e 4600 37be ebce 8bbd
00000070: b402 d03d cbde 8f3d ba6e d63d 4648 cb3c
00000080: 6d25 30be ebee 463e 7561 863e 1303 533e
00000090: e71c 813d 4836 c93c 6068 0cbe 94a7 033e
000000a0: 2fcf f93c 867a 59be 88f7 1c3e 44ea 133d
000000b0: 1354 50be cc9c 7c3c 80d5 aabd 0095 e9bc
000000c0: fca2 003c 23e4 64be 1c66 40be c2ac cb3d
000000d0: 33ff 8e3e e4ee 72bd 6728 3fbe 740b 21bd
000000e0: a4c5 debd 13c3 c83d 54b8 bc3d 83a6 a33d
000000f0: 336d 933e aa2b f0bc 4921 263d e07a 2dbe
00000100: 48b5 eebc 5e47 79be a263 1fbe 4bab fc3c
00000110: c40e 98be 22b6 10be 478b b2bd 33f8 17be
00000120: c257 943d 58e7 bbbd 0f7e b13d a45a 113e
00000130: 8efa 00be ac85 203e bbe9 77be a07a d0be
00000140: 15c7 d2bd 4c20 c33c 66f6 f33d 8ea1 183e
00000150: af3a 393d 3515 b73d 5444 cb3d ac19 87bd
00000160: 67c1 9b3d c11a de3d 22b4 57bd ac6b 153e
00000170: 6482 413e 7f13 0dbd 7b8e bcbd 9ea2 863e
00000180: 6c59 2abe 65db 32be 2ea8 783e 50fe edbd
00000190: c731 02be 45a7 d33c 84db 023b 4dbf 5cbe
000001a0: 7986 5fba 5f38 51bd 1e16 0abf 0280 e1bc
000001b0: a2fe 843c ba85 3d3c 52e1 973d dc60 323e
000001c0: fec6 d7bd ce47 dabd 0bf6 183e 62c3 203c
000001d0: 159e 81be aff9 62bd caf1 ed3d a702 5a3d
000001e0: df07 92bd 32c9 303e 5bb6 d3bb 2e3c 283e
000001f0: a2c4 00bb 4c45 41bd b13b 5bbe 676b d0be
00000200: 15d4 f3bd 9da1 a8bd b659 81be 0db7 eb3c
00000210: 90ae 96bd 79ff bcbd 2504 8b3e 87cc 463d
00000220: c31b 063e d0c3 56bd 95b2 b5bc 08e9 973d
00000230: d839 92bd a760 a53d ed69 b53d 80b4 a3bd
00000240: 2b2a fd3d 4824 193e dc90 153e 9b5a 443e
00000250: a23a 353e 7099 963d a897 43be 0cec 373c
00000260: 88d3 a93c e018 433c 1e38 bb3d 156a b03d
00000270: 500d cc3d 651a 243e 14aa d23d 3b41 83bd
00000280: 92ee 6c3d 87ad 4b3e 808d f2bd ef44 a63d
00000290: 703d 38bd 6f3d 88bd fdb8 213e 13d5 3f3d
000002a0: 27f3 d23d 0203 053e 2829 99bd af3a e5bc
000002b0: b1ba 05bd d067 243d afcd 29be 3a22 b6bc
000002c0: e045 a73d e286 8ebe da53 d3bc 9975 02be
000002d0: 7a08 013e 18a9 863c a563 66be 24de 3f3d
000002e0: e213 1abe 5e2f 6dbd 9721 093e 0f52 30be
000002f0: 12e0 44be 56c2 51bd cc4a 32bd deeb c63b
00000300: 7ada 8ebd 27d4 f8bd f122 29bd fd1b a7bd
00000310: 4246 11be be7f 9d3d 3f30 46be da91 99bc
00000320: f1e2 473c d82a 5dbd 5b09 a3bd 944e 813c
00000330: b637 a23d aaa6 c43d 8d72 06be c83f 463e
00000340: 9608 913e c44f 143e 3baf f83d bb9c 4f3d
00000350: 1a75 8abe 93c1 28be 92d1 01bd b94d dd3d
00000360: 448e 42bd 39fe 6a3d 2a22 15be d600 b13d
00000370: 4d9e ea3d 3293 dbbd b7b6 7fbd 164a fa3d
00000380: e931 483e 3217 1abe f65e 8f3d e551 e73b
00000390: 7814 c33d 38ed 9f3b c468 023e bbd4 c83d
000003a0: 047b 163e 1905 c0bc 686f a1bc 6044 d33c
000003b0: eb57 0c3c 817d 313e b2e6 2a3e 2afc 883e
000003c0: aed9 0d3e fdf7 153e cdf6 743e 4449 88bd
000003d0: 93a2 073e a84b 77bc 6c41 dbbd aa48 553d
000003e0: 82e5 013e 891b 4abe e296 a3bd bf01 c63d
000003f0: c465 683d 17cf 913c b059 2bbd 8b67 56be

conv6.bias f4 [8]
-0.025666885 0.034835942 0.12123872 -0.13916458 0.24795933 0.089587696 -0.08212032 0.08345395
00000000: 5c43 d2bc 22b0 0e3d 024c f83d 2981 0ebe
00000010: 0de9 7d3e c179 b73d b32e a8bd e8e9 aa3d

prediction_layer.weight f4 [10, 512]
-0.14324476 -0.2560231 -0.06887578 -0.16933614 -0.11054591 -0.20470731 -0.085764386 -0.061844382
0.10837229 -0.1114923 -0.12250013 -0.037797857 -0.17889944 -0.07086499 -0.009511536 -0.020038804
0.18267994 0.0045623626 0.048176356 -0.09258894 -0.024459453 -0.15652004 -0.018815162 0.012550379
0.013413144 -0.0049228566 0.063574664 0.13661996 -0.017585153 -0.07868787 -0.15118904 -0.035308585
-0.015747793 -0.120788135 0.018789057 0.15186745 0.026783772 -0.030929089 -0.12657319 -0.10357656
-0.043201856 -0.083703145 0.07371372 -0.001069802 0.022224182 -0.076329984 -0.021028731 -0.13911602
-0.19991307 -0.09716474 0.17708872 0.13314548 0.0691234 0.036462154 -0.010233588 -0.121169046
-0.13978659 0.0040645865 -0.054957274 0.06694795 0.037221916 0.013857404 0.08403529 -0.092300475
-0.12083497 0.21278888 0.0319443 0.20762852 -0.010161943 -0.17420757 -0.30810633 -0.21478267
0.031581644 0.29014596 0.06431686 0.12079772 0.0053676744 -0.08806557 -0.056754492 -0.27693942
0.17287228 0.3759557 0.046819825 0.0683248 -0.10713042 -0.055000003 -0.037368063 -0.032596808
0.018787816 0.1786984 0.052052423 0.12447541 0.09066749 0.018507104 0.20471728 0.0030749238
-0.05641797 0.15801227 -0.074473016 0.15658465 0.20407419 0.12486225 0.006348571 -0.031353943
-0.03518946 -0.19593461 -0.08822357 0.10762209 0.12198802 0.09781541 0.011354684 -0.08665814
-0.036808863 -0.12702298 -0.12150152 0.028682623 0.009096355 0.01871737 0.08871012 0.035217494
0.16038236 -0.1125446 -0.11016056 -0.21483104 -0.15957686 -0.0117808925 -0.23512879 0.01857263
-0.32188338 -0.33939365 -0.2806064 -0.15046659 -0.03779258 -0.08035858 -0.03682189 -0.01682491
-0.089092955 -0.16643353 -0.1313529 -0.03178394 0.0148939 -0.12344517 -0.0055760024 -0.015736517
0.055542868 -0.23575819 -0.122035354 -0.09234498 0.087563016 0.049200553 0.21518046 0.11853909
-0.04100719 -0.1323769 -0.060473066 0.013427219 -0.07706089 0.06471666 0.13648164 0.088714145
0.11391196 -0.008460527 0.07179915 0.05277822 0.147017 0.011519335 0.06258782 0.1492308
-0.054159805 0.053979862 0.060726736 0.09361532 0.14244246 -0.012196718 -0.0089395 -0.026097922
0.07795374 0.09722437 -0.0065118317 0.096308894 0.098295525 0.033415817 -0.052446797 -0.39729923
-0.04227701 -0.051817767 0.02484619 -0.059957616 0.0932046 -0.035968147 -0.18354174 -0.2013841
-0.016108701 -0.16621527 -0.054126363 -0.04722569 -0.029606227 0.05849358 0.0042556636 -0.054945204
-0.0005078164 -0.24435385 -0.16082841 -0.13570839 0.05235617 0.08755141 0.23819831 0.32852292
-0.05330252 -0.25147507 -0.26151997 -0.18783875 -0.12969328 0.08798234 0.11413749 0.2525206
-0.1914239 -0.23141907 -0.1815251 -0.0053400253 -0.033673573 0.050802033 0.10121403 0.15524255
-0.1818542 -0.10864704 -0.0827278 0.02437784 -0.1307755 -0.118569404 -0.15412793 0.065032504
0.019446174 -0.1237164 -0.04470518 -0.032202534 -0.17548665 -0.26290563 -0.21391113 -0.08376568
0.15965676 0.120683864 0.15393941 0.14238514 -0.08912112 -0.07481948 -0.25807697 -0.30926648
0.16639847 0.182128 0.11077358 0.059642818 0.038386133 0.085644685 -0.06995593 -0.22131407
00000000: c1ae 12be 7615 83be bf0e 8dbd 7466 2dbe
00000010: e565 e2bd cb9e 51be 3da5 afbd 8950 7dbd
00000020: 4bf2 dd3d 1356 e4bd 59e1 fabd edd1 1abd
00000030: 6a31 37be aa21 91bd 46d6 1bbc 6b28 a4bc
00000040: 7310 3b3e df7f 953b 9254 453d 459f bdbd
00000050: 315f c8bc ca46 20be 4122 9abc 1ba0 4d3c
00000060: cec2 5b3c ea4f a1bb 6f33 823d 1ae6 0b3e
00000070: bd0e 90bc 1b27 a1bd 4dd1 1abe bc9f 10bd
00000080: 8401 81bc c55f f7bd 82eb 993c 2483 1b3e
00000090: a469 db3c 005f fdbc 679c 01be f31f d4bd
000000a0: 6ef4 30bd 8e6c abbd 38f7 963d 9938 8cba
000000b0: 7d0f b63c e552 9cbd 7244 acbc 6e74 0ebe
000000c0: 03b6 4cbe 4ffe c6bd bf56 353e 4a57 083e
000000d0: 9290 8d3d 5759 153d c7aa 27bc 7a27 f8bd
000000e0: 3724 0fbe 3930 853b e11a 61bd 021c 893d
000000f0: 0276 183d 2a0a 633c b21a ac3d 0808 bdbd
00000100: 5378 f7bd 54e5 593e 07d8 023d 929c 543e
00000110: 477e 26bc 7863 32be 1dc0 9dbe fdef 5bbe
00000120: c15b 013d 038e 943e 8fb8 833d cc64 f73d
00000130: 51e3 af3b b95b b4bd 6677 68bd 01cb 8dbe
00000140: 6e05 313e 447d c03e 25c6 3f3d dfed 8b3d
00000150: 3267 dbbd af47 61bd 410f 19bd 3b84 05bd
00000160: e8e8 993c b7fc 363e ec34 553d f7ec fe3d
00000170: e1af b93d 369c 973c 68a1 513e a984 493b
00000180: 8816 67bd f8cd 213e 4f85 98bd ba57 203e
00000190: d3f8 503e c8b7 ff3d ac07 d03b fe6c 00bd
000001a0: d322 10bd 15a3 48be 8fae b4bd f868 dc3d
000001b0: dbd4 f93d 7253 c83d ff08 3a3c d379 b1bd
000001c0: e4c4 16bd 5012 02be cad5 f8bd d2f7 ea3c
000001d0: e108 153c 2c55 993c a7ad b53d 3840 103d
000001e0: 463b 243e c97d e6bd dc9b e1bd abfc 5bbe
000001f0: 1e68 23be a504 41bc 9ac5 70be a125 983c
00000200: e6cd a4be 01c5 adbe a4ab 8fbe ea13 1abe
00000210: 64cc 1abd 0a93 a4bd 8dd2 16bd 65d4 89bc
00000220: 5e76 b6bd 8d6d 2abe 6081 06be e02f 02bd
00000230: 8b05 743c d2d0 fcbd e6b6 b6bb dee9 80bc
00000240: eb80 633d 986a 71be aced f9bd 5d1f bdbd
00000250: 3d54 b33d 8586 493d 4458 5c3e 9fc4 f23d
00000260: 28f7 27bd cf8d 07be 9bb2 77bd d7fd 5b3c
00000270: 1ad2 9dbd 2b8a 843d d8c1 0b3e c3af b53d
00000280: ac4a e93d 069e 0abc 6f0b 933d fa2d 583d
00000290: a08b 163e 98bb 3c3c 0b2e 803d f5cf 183e
000002a0: acd6 5dbd fd19 5d3d 99bc 783d 64b9 bf3d
000002b0: 70dc 113e bed4 47bc fb76 12bc 4fcb d5bc
000002c0: 36a6 9f3d 921d c73d 3461 d5bb 993d c53d
000002d0: 2a4f c93d 06df 083d 74d2 56bd ce6a cbbe
000002e0: a82a 2dbd de3e 54bd 3d8a cb3c 1e96 75bd
000002f0: 0ee2 be3d 5653 13bd 5ef2 3bbe a237 4ebe
00000300: 65f6 83bc 5634 2abe 9bb3 5dbd ba6f 41bd
00000310: c288 f2bc f796 6f3d 1873 8b3b 390e 61bd
00000320: fb1e 05ba e537 7abe 34b0 24be 24f7 0abe
00000330: 6c73 563d 274e b33d 42ea 733e 2834 a83e
00000340: be53 5abd 57c1 80be f2e5 85be cd58 40be
00000350: 51ce 04be 1630 b43d ebc0 e93d 614a 813e
00000360: a004 44be 1ff9 6cbe b7e1 39be 61fb aebb
00000370: 4ded 09bd cb15 503d 4d49 cf3d e7f7 1e3e
00000380: fd37 3abe 5782 debd 316d a9bd 09b4 c73c
00000390: 03ea 05be 84d4 f2bd b6d3 1dbe c32f 853d
000003a0: 954d 9f3c 065f fdbd c71c 37bd cee6 03bd
000003b0: c6b2 33be 919b 86be 850b 5bbe 578d abbd
000003c0: 107d 233e 1a29 f73d 4ba2 1d3e 69cd 113e
000003d0: 2285 b6bd f53a 99bd aa22 84be 2d58 9ebe
000003e0: 5c64 2a3e c37f 3a3e 42dd e23d 074c 743d
000003f0: c73a 1d3d 7b66 af3d 0e45 8fbd 28a0 62be

prediction_layer.bias f4 [10]
-0.119227186 -0.11679245 0.2045919 -0.008757733 0.3548217 -0.15529105 0.078791335 -0.15768284
-0.05012466 -0.11523257
00000000: 622d f4bd e130 efbd 8a80 513e 987c 0fbc
00000010: 31ab b53e 9e04 1fbe 5a5d a13d 9c77 21be
00000020: 844f 4dbd 0eff ebbd
