Homeworks/HW1/results/trained_models/cnn_4[3].pt (torch, 88275 bytes, 10 tensors)

conv1.weight f4 [16, 1, 3, 3]
-0.42757538 0.39247552 0.020169608 0.34031662 0.33063102 -0.22333938 -0.22038017 0.04675695
-0.36201084 0.15166335 -0.3079601 0.44640526 0.006435915 -0.24954662 0.10123963 0.1909629
-0.26096824 -0.07589223 -0.16652879 -0.37978667 0.20955126 -0.0829106 0.021381121 0.16015208
-0.29728556 0.1265376 -0.08827277 -0.026333084 0.015350866 0.4438947 -0.30238226 -0.04797162
0.20688497 -0.13320011 -0.25558817 0.0556131 0.02490114 0.1938924 -0.5222671 -0.11502027
0.22925787 0.18747681 0.20070326 -0.02239871 0.20041387 0.11459902 0.09967671 0.14456372
-0.46221352 -0.17622687 0.20461224 -0.3864504 0.29715317 0.17870261 0.15009493 0.21540758
-0.16305564 -0.11226025 0.2789115 -0.061911993 -0.17760772 -0.36882374 0.13133365 -0.35123542
0.2346204 0.19687882 0.15395631 0.31017128 0.24858372 -0.028605817 -0.38297582 -0.33659634
-0.38910118 0.43916106 0.18072201 -0.43655 -0.08830965 -0.19800116 0.2119465 0.491689
-0.18768549 -0.46809268 0.16201638 -0.0756612 -0.18169557 -0.10617651 0.4280353 0.3017734
0.16980334 -0.13285436 -0.2972224 0.13908486 -0.19414513 0.1387545 -0.13876736 -0.33001524
0.32386383 -0.23731261 -0.32276538 -0.23398834 0.2381464 -0.101258405 -0.09830591 -0.3577614
-0.039612673 0.19522806 0.2604721 0.10943191 0.11268569 -0.035334576 0.33152494 -0.23475166
0.38893405 0.119198225 0.09685584 -0.26330492 -0.11464516 0.28782234 -0.2993523 -0.18918212
0.261893 -0.17854716 -0.08542838 0.46243787 0.030846318 -0.27541858 -0.12873553 -0.34766927
0.22365153 -0.17121297 -0.24543339 0.5364337 -0.13512515 0.026718484 0.19772334 0.25985956
-0.09572424 -0.43734694 -0.41789 0.38181072 -0.18790302 -0.15484278 0.43225363 0.20264682
00000000: 29eb dabe 8df2 c83e bc3a a53c fb3d ae3e
00000010: 7848 a93e 14b3 64be 57ab 61be 3784 3f3d
00000020: 7c59 b9be a34d 1b3e f2ac 9dbe 3b8f e43e
00000030: 5ee4 d23b 2689 7fbe b956 cf3d c78b 433e
00000040: a19d 85be 636d 9bbd 8686 2abe 6673 c2be
00000050: 9b94 563e 08cd a9bd 7627 af3c e8fe 233e
00000060: d035 98be 1393 013e 5bc8 b4bd 7bb8 d7bc
00000070: 3382 7b3c 2b46 e33e d9d1 9abe e47d 44bd
00000080: a7d9 533e 9c65 08be 74dc 82be 90ca 633d
00000090: 7afd cb3c bb8b 463e 4cb3 05bf bf8f ebbd
000000a0: 93c2 6a3e ecf9 3f3e 2885 4d3e 807d b7bc
000000b0: 4b39 4d3e e4b2 ea3d 4e23 cc3d 8308 143e
000000c0: 40a7 ecbe d174 34be df85 513e d4dc c5be
000000d0: 7624 983e d1fd 363e 7cb2 193e ce93 5c3e
000000e0: 0ff8 26be b4e8 e5bd 7dcd 8e3e 6e97 7dbd
000000f0: ccde 35be 77d6 bcbe 547c 063e 21d5 b3be
00000100: 5540 703e 9a9a 493e b9a6 1d3e c5ce 9e3e
00000110: bb8c 7e3e bf56 eabc 6815 c4be 5b56 acbe
00000120: 4538 c7be b8d9 e03e 310f 393e 7b83 dfbe
00000130: b1db b4bd d1c0 4abe 8108 593e a9be fb3e
00000140: a030 40be d8a9 efbe 9fe7 253e 42f4 9abd
00000150: 670e 3abe 1273 d9bd 7127 db3e 0b82 9a3e
00000160: ede0 2d3e f90a 08be 892d 98be 436c 0e3e
00000170: fbcd 46be a915 0e3e 0819 0ebe c2f7 a8be
00000180: 7bd1 a53e 1402 73be 8141 a5be a49a 6fbe
00000190: a6dc 733e 9160 cfbd 9c54 c9bd 812c b7be
000001a0: e640 22bd dde9 473e 995c 853e d61d e03d
000001b0: c1c7 e63d fdba 10bd a3bd a93e bd62 70be
000001c0: 5d22 c73e 331e f43d 5b5c c63d e7cf 86be
000001d0: 15cb eabd 735d 933e b444 99be f5b8 41be
000001e0: d716 863e 11d5 36be 13f5 aebd a8c4 ec3e
000001f0: 6bb1 fc3c aa03 8dbe 3fd3 03be b501 b2be
00000200: e804 653e 7452 2fbe e452 7bbe b853 093f
00000210: 3f5e 0abe b9e0 da3c fd77 4a3e 500c 853e
00000220: 120b c4bd f0eb dfbe aef5 d5be b27c c33e
00000230: a669 40be 1b8f 1ebe 5950 dd3e a682 4f3e

conv1.bias f4 [16]
-0.07043034 -0.07752894 -0.09876522 0.122275524 -0.13423279 -0.21293563 0.05429013 0.11398119
0.12436094 -0.2088088 -0.39474422 0.14231737 -0.24404739 0.18082611 0.15490912 0.09619482
00000000: c83d 90bd 7ec7 9ebd 6b45 cabd 976b fa3d
00000010: 5274 09be cc0b 5abe 545f 5e3d f86e e93d
00000020: f3b0 fe3d f9d1 55be ea1b cabe a5bb 113e
00000030: 8fe7 79be 7b2a 393e 7fa0 1e3e ca01 c53d

conv2.weight f4 [8, 16, 3, 3]
-0.031889375 -0.19814071 0.018084086 -0.047015607 -0.3339215 -0.23882866 -0.1401976 -0.2333301
-0.124579035 -0.13050556 -0.42427424 -0.16363299 -0.20994096 -0.2821198 -0.3435239 -0.086667605
-0.08063468 -0.23031664 0.21555978 0.09440531 0.0030130346 0.12202005 -0.13322562 -0.15515974
-0.13219091 0.015294845 0.010218258 0.07260794 0.002588233 0.043054376 0.037510198 0.014358076
0.13011184 -0.055011798 -0.017020615 -5.6313635e-05 0.00783846 0.016272146 0.06515967 -0.2777248
-0.17255944 0.0021493586 -0.18850565 -0.11176124 0.0019235756 -0.05709864 -0.18456306 -0.32371712
-0.047796134 -0.17566457 -0.33736712 0.09099131 -0.09325352 -0.2568725 -0.022017768 0.13456702
-0.019116404 -0.107575215 -0.14629872 0.15613064 -0.034878287 -0.17691033 -0.041293982 0.22070923
0.095631115 0.009847062 -0.08617734 0.06053508 0.095592216 0.06745904 -0.014049068 0.16499309
-0.05228677 -0.20428978 -0.093605705 0.16300833 0.14399187 0.20295826 -0.018334957 -0.14328834
0.09687749 -0.078636475 -0.1791233 -0.062068477 -0.03502642 0.07080177 -0.21527927 -0.19854796
-0.09188501 -0.35902655 0.027943498 -0.09209273 -0.07349515 0.00679599 0.06638527 -0.0035773148
0.038880102 0.007907403 0.18634881 -0.071642555 0.018307814 -0.063154764 0.04014834 0.12968893
0.08323488 -0.056436542 -0.015117514 0.03961878 0.089761846 -0.033406522 -0.24554421 0.20974718
-0.1728305 -0.16565187 -0.28955624 -0.2681726 -0.30614892 0.048161805 -0.1400622 -0.17702071
0.080369316 0.15503807 -0.0925142 -0.040282544 0.1242341 0.079958074 0.016206384 0.09928547
-0.0042899875 -0.058481775 0.12665297 -0.12192919 0.011028054 -0.083301045 -0.087992586 -0.13753314
-0.17824711 0.0951789 0.08239989 -0.30150765 0.038105465 0.12617324 -0.18376671 -0.1547525
0.24377225 0.15135959 0.050682105 0.11522118 -0.019662147 -0.06401641 0.1885902 0.24507709
0.29242587 0.13753021 -0.22296882 -0.15973584 0.09989644 -0.06852823 -0.2405681 0.11723473
-0.19575742 -0.30481678 -0.20058316 -0.2794146 0.0005561116 -0.2541193 -0.06757212 -0.04978501
-0.20323215 0.0005428015 -0.0016847603 0.011424119 -0.039166298 -0.18855083 -0.10031134 0.06303985
-0.03757688 -0.08763252 0.08463496 -0.113256134 -0.13922109 0.08963104 -0.03130995 -0.20362507
-0.014178956 0.12079459 -0.11503536 -0.06461769 0.010418764 -0.003301203 -0.11015189 0.120023936
-0.1571428 0.1182484 0.03265307 -0.2327439 0.20855948 -0.011608995 -0.012763098 0.17522879
0.19240458 -0.007669987 -0.0017793018 -0.016195612 0.1507535 0.04694444 -0.06601274 0.23958811
0.14768131 -0.040689606 0.014912795 -0.06821395 -0.04435314 -0.017453402 0.06203685 -0.0011137356
0.017237077 -0.13140991 -0.055850387 0.0095322905 0.16549493 0.18223831 -0.113233596 0.037688766
0.1272183 0.11062953 0.01816376 -0.072542325 -0.1273785 -0.031213995 0.05024846 -0.3475302
0.048678365 0.09275152 -0.1442581 0.18930507 -0.10197693 0.07748189 -0.10349825 -0.22892009
-0.06287841 -0.2540375 -0.10417111 -0.2129252 -0.0525497 -0.19449325 -0.16097325 0.04822927
-0.069914155 -0.10915562 -0.073537886 0.06737591 0.22684826 0.051389206 -0.010630051 0.115575306
00000000: 6f9e 02bd 66e5 4abe 1425 943c 7093 40bd
00000010: c2f7 aabe 808f 74be f68f 0fbe 16ee 6ebe
00000020: 4b23 ffbd 40a3 05be 793a d9be 688f 27be
00000030: c3fa 56be 0272 90be 5de2 afbe c97e b1bd
00000040: cc23 a5bd 20d8 6bbe b4bb 5c3e 9257 c13d
00000050: 5576 453b a6e5 f93d 4c6c 08be 32e2 1ebe
00000060: 0e5d 07be 3b97 7a3c 7b6a 273c 79b3 943d
00000070: 589f 293b c959 303d 4ba4 193d 233e 6b3c
00000080: 0a3c 053e 0d54 61bd d16e 8bbc 4e32 6cb8
00000090: e26c 003c 2a4d 853c 6f72 853d f231 8ebe
000000a0: 6cb3 30be 41dc 0c3b a007 41be 14e3 e4bd
000000b0: 7d20 fc3a 43e0 69bd 19fe 3cbe 40be a5be
000000c0: e1c5 43bd 6ae1 33be 62bb acbe a759 ba3d
000000d0: b4fb bebd cb84 83be 9b5e b4bc f0cb 093e
000000e0: 019a 9cbc 6550 dcbd 55cf 15be b6e0 1f3e
000000f0: 89dc 0ebd fb27 35be e123 29bd 9a01 623e
00000100: 3fda c33d 9255 213c bf7d b0bd a2f3 773d
00000110: dac5 c33d f727 8a3d 102e 66bc f3f3 283e
00000120: a72a 56bd 5731 51be 59b4 bfbd a8eb 263e
00000130: 9b72 133e 4ad4 4f3e 3133 96bc 2eba 12be
00000140: b567 c63d 290c a1bd 196c 37be 843b 7ebd
00000150: dd77 0fbd 8500 913d 2b72 5cbe 2850 4bbe
00000160: 352e bcbd 54d2 b7be c3e9 e43c 1d9b bcbd
00000170: a084 96bd e5b0 de3b 00f5 873d 6271 6abb
00000180: be40 1f3d 0d8e 013c 39d2 3e3e 55b9 92bd
00000190: 45fa 953c 4957 81bd 9672 243d 2dcd 043e
000001a0: 0c77 aa3d 012a 67bd 73af 77bc 4d47 223d
000001b0: 0fd5 b73d 47d5 08bd f16f 7bbe f7c7 563e
000001c0: 7bfa 30be a5a0 29be b740 94be eb4d 89be
000001d0: 8dbf 9cbe 5045 453d 776c 0fbe eb44 35be
000001e0: ab98 a43d 4dc2 1e3e 1678 bdbd 4fff 24bd
000001f0: 736e fe3d 0fc1 a33d 40c3 843c 2e56 cb3d
00000200: 0693 8cbb 968a 6fbd 51b1 013e 03b6 f9bd
00000210: 03af 343c bd99 aabd 7535 b4bd 7dd5 0cbe
00000220: 6986 36be 28ed c23d 46c1 a83d 365f 9abe
00000230: 7a14 1c3d 8f33 013e 572d 3cbe 7077 1ebe
00000240: 6f9f 793e 02fe 1a3e 0a98 4f3d 15f9 eb3d
00000250: 8312 a1bc 091b 83bd ca1d 413e 7df5 7a3e
00000260: d8b8 953e b8d4 0c3e f051 64be cb91 23be
00000270: 8196 cc3d 8758 8cbd 7c57 76be c318 f03d
00000280: a274 48be f210 9cbe ac65 4dbe 6e0f 8fbe
00000290: 05c8 113a ed1b 82be 4063 8abd 5eeb 4bbd
000002a0: 171c 50be cb4a 0e3a 2dd3 dcba 3a2c 3b3c
000002b0: d76c 20bd 7813 41be 0870 cdbd 091b 813d
000002c0: 37ea 19bd ae78 b3bd 1855 ad3d d5f2 e7bd
000002d0: f98f 0ebe 7b90 b73d dd3e 00bd 1783 50be
000002e0: da4e 68bc 2763 f73d a997 ebbd 4856 84bd
000002f0: 77b3 2a3c ff58 58bb 5097 e1bd 1ccf f53d
00000300: 0bea 20be 382c f23d 3abf 053d 6b54 6ebe
00000310: 9e90 553e a733 3ebc 501c 51bc 2d6f 333e
00000320: b505 453e 8454 fbbb 7637 e9ba a9ac 84bc
00000330: 205f 1a3e d048 403d b031 87bd 9656 753e
00000340: c539 173e 25aa 26bd cc54 743c c1b3 8bbd
00000350: a3ab 35bd 70fa 8ebc 5a1a 7e3d c4fa 91ba
00000360: c534 8d3c 5290 06be 60c3 64bd 532d 1c3c
00000370: 8177 293e ae9c 3a3e 04e7 e7bd 895f 1a3d
00000380: 8445 023e bc91 e23d 2acc 943c 1291 94bd
00000390: 826f 02be 7eb4 ffbc 54d1 4d3d 7aef b1be
000003a0: f762 473d 82f4 bd3d 65b8 13be 30d9 413e
000003b0: 48d9 d0bd d3ae 9e3d e4f6 d3bd 076a 6abe
000003c0: 65c6 80bd 3411 82be aa57 d5bd 1009 5abe
000003d0: 5b3e 57bd 3d29 47be 2cd6 24be 0e8c 453d
000003e0: 272f 8fbd fb8c dfbd 089b 96bd 62fc 893d
000003f0: e94a 683e 7d7d 523d aa29 2ebc bfb2 ec3d

conv2.bias f4 [8]
0.08223071 0.02960903 0.002706104 0.101048745 -0.06553277 0.031463556 0.16240592 -0.04188898
00000000: 9368 a83d a38e f23c e458 313b a5f2 ce3d
00000010: 0b36 86bd eedf 003d bd4d 263e c793 2bbd

conv3.weight f4 [16, 8, 5, 5]
0.015145978 -0.010502637 0.0017199808 0.10672975 -0.010556254 -0.110038355 -0.034786824 -0.08239536
0.062323406 0.01995038 -0.20027453 -0.13712819 -0.11731257 -0.10266015 -0.02567937 0.0050231097
-0.095474586 -0.0006850578 -0.013652756 -0.059485883 -0.025650641 -0.0744168 -0.05127994 -0.03207856
0.0023382248 0.12201578 0.07807192 0.10920916 0.007830946 -0.18567322 -0.1245282 -0.20737989
-0.1349417 -0.09660574 -0.28125253 -0.040839873 -0.19017294 -0.19167417 -0.04682349 -0.12031832
-0.008409039 -0.11278406 0.054521024 0.12704407 0.14042306 -0.11880526 -0.08941151 0.056496963
0.2386409 0.327486 -0.09969299 -0.11737329 -0.056448776 0.036794387 -0.020135509 -0.06052805
0.009774108 0.050712332 0.101293415 -0.058455575 0.053613305 0.08383608 0.06587284 0.095463715
0.07188871 0.07838978 0.054391313 0.09507049 0.04814846 -0.026023565 -0.07780973 0.057547465
-0.045279276 -0.08555913 -0.09127682 0.121961676 0.0710889 -0.15546438 -0.22755888 -0.27573022
0.03678437 -0.05739118 -0.14098248 -0.06954102 -0.33252624 0.0054796045 -0.055765733 -0.16562924
-0.08631137 -0.3608905 -0.030460736 -0.121672265 -0.36262664 -0.20293994 -0.39254817 -0.08723176
-0.15054947 -0.25064215 -0.10853768 -0.21010682 -0.05536838 0.009623622 0.04774251 0.07720611
-0.07493314 0.023764845 0.013564227 0.15310906 0.18354146 0.05081491 0.14680567 0.07274532
0.13960981 0.09014737 0.18395977 0.011680195 0.07950744 0.009180994 0.02082839 0.12087071
-0.019890724 0.06901064 0.037094112 -0.08165841 0.03673077 0.14688908 -0.017674103 0.01730825
0.040892888 0.021264244 0.028548423 -0.080923185 -0.029226067 -0.047448426 -0.04777506 0.0035424184
-0.17160735 -0.07694965 -0.096957944 -0.16979071 -0.14972958 -0.16354121 -0.004298917 -0.098907694
-0.1371746 -0.1406488 -0.15227352 -0.04532907 -0.102798864 -0.15382308 -0.087445445 -0.046028845
0.024632677 0.11728983 0.061769355 -0.097938314 0.024970924 0.049259685 0.1592884 0.16531803
-0.14887334 0.039131746 0.029267546 0.08035212 0.13451952 -0.11326266 -0.0122741535 0.06470323
-0.0044592656 0.093753666 -0.061969187 -0.020973403 -0.01938334 -0.10677807 -0.060170464 -0.365569
-0.151152 0.056126527 -0.017644512 0.157795 -0.22523782 -0.26244807 -0.21013595 -0.11699736
-0.023259638 0.15577042 0.10435404 0.015590838 0.022935009 0.04125324 -0.06937846 -0.040999826
0.028046813 0.0040863515 -0.09481123 -0.17474346 -0.20377058 -0.07493824 -0.12023585 -0.15496121
0.031379398 -0.035824552 0.039013136 0.026185108 -0.017837549 0.030490905 0.06501943 0.12910648
0.050839853 0.089823246 0.023394529 -0.04567493 -0.078160204 -0.07175878 -0.19644532 -0.25034127
-0.24504668 -0.23668389 -0.17806879 -0.10194429 -0.0112769455 0.035100333 0.19010174 0.21842074
0.16763762 -0.09929619 -0.08489983 -0.25944924 -0.27747214 -0.19799404 -0.009425275 0.031224357
-0.14541219 -0.1569138 -0.009288224 0.09848173 0.10489098 -0.11578764 -0.14742552 0.042782363
0.16565469 0.1841 0.0051597217 0.11823436 0.16053735 0.15126884 0.15632439 0.14548846
-0.04608901 0.101344384 0.008029639 0.011618998 -0.075581044 -0.057048693 0.008941645 -0.0066395714
00000000: d626 783c 4113 2cbc fb70 e13a 2195 da3d
00000010: 23f4 2cbc ca5b e1bd a17c 0ebd e6be a8bd
00000020: d446 7f3d fb6e a33c c414 4dbe 556b 0cbe
00000030: 9341 f0bd 7c3f d2bd 8b5d d2bc e698 a43b
00000040: 2e88 c3bd 7395 33ba cfaf 5fbc 78a7 73bd
00000050: 4b21 d2bc d667 98bd ea0a 52bd cf64 03bd
00000060: e73c 193b 69e3 f93d 2ce4 9f3d 0da9 df3d
00000070: 5e4d 003c 1f21 3ebe a408 ffbd 655b 54be
00000080: 282e 0abe 3bd9 c5bd 5500 90be b647 27bd
00000090: b2bc 42be 3c46 44be fdc9 3fbd 7469 f6bd
000000a0: 11c6 09bc 54fb e6bd 7051 5f3d d717 023e
000000b0: 10cb 0f3e 2c50 f3bd 621d b7bd 5c69 673d
000000c0: 485e 743e 3fac a73e d72b ccbd 6861 f0bd
000000d0: d536 67bd b6b5 163d 39f3 a4bc 43ec 77bd
000000e0: 9523 203c bcb7 4f3d ec72 cf3d 1d6f 6fbd
000000f0: a099 5b3d 40b2 ab3d 57e8 863d 7b82 c33d
00000100: 633a 933d d28a a03d 6dc9 5e3d 51b4 c23d
00000110: 5237 453d 5f2f d5bc b55a 9fbd e4b6 6b3d
00000120: c376 39bd a039 afbd 57ef babd 0bc7 f93d
00000130: 0f97 913d 0e32 1fbe 3205 69be 832c 8dbe
00000140: 35ab 163d 0413 6bbd b65d 10be 866b 8ebd
00000150: e140 aabe 418e b33b 9c6a 64bd b69a 29be
00000160: 04c4 b0bd a4c6 b8be cb88 f9bc 4f2f f9bd
00000170: 33aa b9be 7dcf 4fbe 13fc c8be 91a6 b2bd
00000180: a429 1abe 2b54 80be 0149 debd 3e26 57be
00000190: f4c9 62bd 65ac 1d3c a68d 433d 3d1e 9e3d
000001a0: 8c76 99bd 7eae c23c 7e3c 5e3c 9fc8 1c3e
000001b0: 4bf2 3b3e 4c23 503d 3a54 163e 80fb 943d
000001c0: e0f5 0e3e 2f9f b83d f35f 3c3e 4a5e 3f3c
000001d0: ccd4 a23d e16b 163c 4da0 aa3c 108b f73d
000001e0: dff1 a2bc 7355 8d3d ffef 173d 863c a7bd
000001f0: 0173 163d 176a 163e 48c9 90bc 08ca 8d3c
00000200: 4d7f 273d 5a32 ae3c 62de e93c 0ebb a5bd
00000210: 816b efbc 4859 42bd c8af 43bd eb27 683b
00000220: d6b9 2fbe c797 9dbd e391 c6bd 9edd 2dbe
00000230: b652 19be 5977 27be eedd 8cbb 1e90 cabd
00000240: 8077 0cbe 3d06 10be 97ed 1bbe faaa 39bd
00000250: 3688 d2bd cc83 1dbe 9916 b3bd be88 3cbd
00000260: 78ca c93c a735 f03d dd01 7d3d e293 c8bd
00000270: d38f cc3c 86c4 493d 801c 233e 2149 293e
00000280: 4172 18be 9c48 203d 7ec2 ef3c a78f a43d
00000290: 7cbf 093e 41f6 e7bd 8819 49bc 2183 843d
000002a0: 081f 92bb ec01 c03d 67d3 7dbd 6ad0 abbc
000002b0: cfc9 9ebc 76ae dabd 4e75 76bd dc2b bbbe
000002c0: 97c7 1abe eee4 653d 398b 90bc 0395 213e
000002d0: bea4 66be 985f 86be e12d 57be 509c efbd
000002e0: ff8a bebc 4882 1f3e 92b7 d53d b770 7f3c
000002f0: 33e2 bb3c 28f9 283d 4b16 8ebd 6fef 27bd
00000300: 6ec2 e53c cde6 853b 642c c2bd f3ef 32be
00000310: 3ca9 50be 3879 99bd 373e f6bd 27ae 1ebe
00000320: af87 003d c4bc 12bd 3dcc 1f3d 2782 d63c
00000330: 0d20 92bc 10c8 f93c e828 853d 7d34 043e
00000340: 733d 503d 40f5 b73d e2a5 bf3c a315 3bbd
00000350: 7512 a0bd 44f6 92bd f628 49be bb2c 80be
00000360: 84ed 7abe 435d 72be aa57 36be 2bc8 d0bd
00000370: f0c2 38bc 5ec5 0f3d 08aa 423e b0a9 5f3e
00000380: 32a9 2b3e cd5b cbbd f6df adbd 88d6 84be
00000390: d410 8ebe f3be 4abe 786c 1abc 39ca ff3c
000003a0: efe6 14be 03ae 20be a32d 18bc cab0 c93d
000003b0: 15d1 d63d 1222 edbd b7f6 16be 8f3c 2f3d
000003c0: 62a1 293e b684 3c3e e212 a93b db24 f23d
000003d0: e763 243e 38e6 1a3e 8013 203e edfa 143e
000003e0: d4c7 3cbd a58d cf3d bf8e 033c 9c5d 3e3c
000003f0: 3cca 9abd e4ab 69bd fa7f 123c c390 d9bb

conv3.bias f4 [16]
-0.009531325 -0.013069804 -0.06695841 0.037592433 0.070608325 0.19486503 0.1348426 0.061864845
0.039309274 -0.014526972 0.07015526 0.04117037 0.04703552 0.048765562 -0.03566136 0.087959595
00000000: 4629 1cbc bb22 56bc 7e21 89bd 86fa 193d
00000010: 199b 903d b38a 473e 2e14 0a3e fe65 7d3d
00000020: c302 213d 8902 6ebc 90ad 8f3d 43a2 283d
00000030: 51a8 403d 66be 473d a511 12bd 2924 b43d

conv4.weight f4 [16, 16, 5, 5]
-0.0073270514 -0.017387059 0.0033735372 -0.005603568 -0.031226775 -0.03976512 0.050113626 0.08498335
0.13965285 -0.06927992 0.07406373 0.073150985 0.16187267 0.15140188 -0.15534553 -0.08799611
-0.09862666 -0.02643227 -0.021075455 -0.05634542 -0.14620739 0.020987546 0.046585914 -0.111690804
-0.046803672 -0.20895797 -0.19791377 -0.012721433 -0.040790226 0.05929192 0.10061902 0.28298786
0.31714198 0.15810354 0.085102454 0.061470274 0.16156173 0.22730824 0.11292271 0.045532186
-0.031584095 0.11689116 0.011398388 -0.054735787 -0.08789062 0.06566149 -0.14611977 -0.017372519
0.02784486 -0.09892738 -0.08465423 -0.010946475 0.0178822 0.007969668 0.025925599 0.086772695
0.22938736 0.21131344 0.23803654 0.065068394 0.0023282617 0.020287056 0.2220414 0.016195811
0.086015224 -0.081572354 0.008089787 -0.15242709 -0.021535229 0.010333488 -0.14139892 0.08935158
0.047248036 0.2658084 -0.02837324 -0.0001480981 0.013295589 0.05322994 0.21056677 -0.037105553
0.11419713 0.14874081 0.26664928 0.1830237 0.066254884 -0.10330775 -0.10476951 0.101002626
0.06374329 -0.0027109126 -0.005158113 -0.045736782 -0.06929145 -0.05906593 -0.2432043 0.11351095
0.17885588 0.05754459 -0.121692754 -0.051971156 -0.17774293 -0.08004378 -0.01653333 -0.21023501
-0.12818965 0.035215404 0.12930086 0.08350027 0.08694099 -0.13792002 0.014493976 0.1245685
0.11954637 0.1114431 0.02006656 -0.20553319 -0.23044689 -0.05359585 -0.049514394 0.050587274
0.0005540115 0.091234505 0.06276167 0.030680925 -0.091462396 -0.013431453 0.06843951 0.066642225
0.010126243 0.043832242 0.061763372 0.109844856 0.11622439 0.11382694 0.11261909 0.08621277
-0.005339831 -0.0015364485 0.16812955 0.25030926 0.044821974 0.087590694 0.08777688 -0.020457525
0.14237665 -0.055913977 0.04369411 -5.63881e-05 0.0069877766 0.09875662 0.019609878 -0.08211502
-0.06878023 -0.070389934 -0.025656374 0.0383779 -0.032090537 -0.086261526 0.014461624 0.062148284
-0.08755265 -0.025450127 -0.08888686 -0.090684906 -0.00069757155 -0.1395754 0.028007235 -0.06928895
0.05119203 -0.12590496 -0.14696297 -0.14841375 -0.04452609 0.019398332 -0.13896953 -0.17621969
0.09156397 0.040637664 -0.029280009 0.025396831 -0.06287135 0.01760719 -0.022587003 -0.04046976
0.058416955 -0.006734589 0.07793431 0.055963736 0.07114181 -0.0018302645 -0.07700525 -0.08172508
-0.02897655 -0.07619331 -0.06079399 -0.009292041 -0.072167814 -0.008785337 0.08057522 0.012093533
-0.070588425 -0.098899096 0.07773373 0.063959405 -0.026556624 0.078541145 0.010126031 0.14574385
0.12782823 0.015718127 -0.026144719 -0.004854878 0.06165361 0.054074652 0.10556738 0.02952727
-0.13943543 -0.29179442 -0.06690097 0.039170556 -0.09142129 -0.28825805 0.0055513093 0.09408377
-0.06345339 -0.10379025 -0.11558762 -0.024913978 -0.065249965 -0.06656465 -0.0440404 0.056842238
0.10103817 0.018067278 -0.20770416 -0.1083324 0.07483623 0.09914684 0.03423321 -0.10968264
-0.010923942 -0.060446113 0.13011982 0.08982402 -0.104334034 -0.13898341 -0.074431054 -0.012484622
-0.09547101 -0.044550993 -0.1229054 -0.07980071 -0.16243966 -0.038480863 0.0060689896 0.008764296
00000000: c317 f0bb 4e6f 8ebc 9016 5d3b 239e b7bb
00000010: 4bcf ffbc c0e0 22bd f243 4d3d c00b ae3d
00000020: 2801 0f3e a1e2 8dbd baae 973d 2fd0 953d
00000030: f3c1 253e 1809 1b3e e612 1fbe 4e37 b4bd
00000040: c6fc c9bd 7d88 d8bc 6fa6 acbc 75ca 66bd
00000050: 64b7 15be 13ee ab3c dfd0 3e3d 26be e4bd
00000060: 35b5 3fbd 14f9 55be e8a9 4abe 8f6d 50bc
00000070: a713 27bd 16dc 723d 5811 ce3d c9e3 903e
00000080: 6f60 a23e e5e5 213e 324a ae3d 41c8 7b3d
00000090: 7070 253e 7ec3 683e 0644 e73d f57f 3a3d
000000a0: 535e 01bd a264 ef3d 4ec0 3a3c a232 60bd
000000b0: ffff b3bd 8879 863d 6ca0 15be d050 8ebc
000000c0: e71a e43c 709a cabd 325f adbd d858 33bc
000000d0: b17d 923c 3693 023c ec61 d43c e2b5 b13d
000000e0: 85e4 6a3e 8d62 583e dabf 733e 9442 853d
000000f0: c095 183b 0a31 a63c d25e 633e 14ad 843c
00000100: c028 b03d 680f a7bd 078b 043c d915 1cbe
00000110: a66a b0bc ca4d 293c e1ca 10be f6fd b63d
00000120: 2887 413d 0a18 883e ff6e e8bc c84a 1bb9
00000130: bed5 593c a307 5a3d d19e 573e fefb 17bd
00000140: 2fe0 e93d 834f 183e 4186 883e 916a 3b3e
00000150: a4b0 873d 0393 d3bd 6691 d6bd 77da ce3d
00000160: d88b 823d 91a9 31bb 6305 a9bb 7e56 3bbd
00000170: ade8 8dbd 1eef 71bd 8c0a 79be 6e78 e83d
00000180: ff25 373e e0b3 6b3d 0d3a f9bd b5df 54bd
00000190: 3e02 36be feed a3bd e870 87bc d947 57be
000001a0: 2644 03be 073e 103d 7267 043e 3102 ab3d
000001b0: 1e0e b23d e83a 0dbe 2478 6d3c c51d ff3d
000001c0: bad4 f43d 483c e43d a062 a43c 4b77 52be
000001d0: 45fa 6bbe 5287 5bbd 9bcf 4abd 9a34 4f3d
000001e0: 153b 113a 28d9 ba3d 3189 803d 9056 fb3c
000001f0: a350 bbbd 990f 5cbc 042a 8c3d b87b 883d
00000200: 8be8 253c 7089 333d 97fb 7c3d 57f6 e03d
00000210: 0e07 ee3d 191e e93d d6a4 e63d 5290 b03d
00000220: c0f9 aebb a862 c9ba 272a 2c3e 8928 803e
00000230: 3f97 373d c062 b33d 5dc4 b33d 8a96 a7bc
00000240: 2fcb 113e 0e06 65bd 98f8 323d 4382 6cb8
00000250: b8f9 e43b e940 ca3d e5a4 a03c eb2b a8bd
00000260: a6dc 8cbd 9928 90bd 512d d2bc 2532 1d3d
00000270: 5e71 03bd e2a9 b0bd 73f0 6c3c 338f 7e3d
00000280: ce4e b3bd c97c d0bc 500a b6bd 02b9 b9bd
00000290: 3cdd 36ba dbec 0ebe 6e6f e53c 5de7 8dbd
000002a0: bcae 513d 3bed 00be 767d 16be c6f9 17be
000002b0: fd60 36bd 40e9 9e3c 074e 0ebe ef72 34be
000002c0: e485 bb3d ae73 263d a1dc efbc 040d d03c
000002d0: b2c2 80bd f43c 903c 6108 b9bc 9ec3 25bd
000002e0: 9e46 6f3d d4ad dcbb 069c 9f3d 3b3a 653d
000002f0: ccb2 913d 7ce5 efba eeb4 9dbd 7b5f a7bd
00000300: 3b60 edbc 3d0b 9cbd 1e03 79bd a53d 18bc
00000310: b8cc 93bd 60f0 0fbc 9f04 a53d f423 463c
00000320: aa90 90bd 9c8b cabd dd32 9f3d 26fd 823d
00000330: 478d d9bc 2eda a03d a7e7 253c e03d 153e
00000340: 67e5 023e 4dc3 803c 732d d6bc ab15 9fbb
00000350: 7f88 7c3d 627d 5d3d b633 d83d 2ce3 f13c
00000360: 29c8 0ebe 1466 95be 6003 89bd 4e71 203d
00000370: 163b bbbd 8f96 93be c2e7 b53b feae c03d
00000380: daf3 81bd fc8f d4bd 34b9 ecbd 6618 ccbc
00000390: c6a1 85bd 0c53 88bd b563 34bd 68d3 683d
000003a0: 1aed ce3d d401 943c 66b0 54be 61dd ddbd
000003b0: bd43 993d 800d cb3d 1f38 0c3d 4ba1 e0bd
000003c0: 55fa 32bc 5896 77bd 213e 053e a8f5 b73d
000003d0: 15ad d5bd ab51 0ebe 4f6f 98bd 4d8c 4cbc
000003e0: 4e86 c3bd 1a7b 36bd d4b5 fbbd 8e6e a3bd
000003f0: 9556 26be 1c9e 1dbd 60de c63b 1f98 0f3c

conv4.bias f4 [16]
-0.2418602 -0.030826118 -0.0745294 -0.032885555 -0.19597663 -0.0143566495 -0.020459011 -0.14884408
0.07386533 -0.20092753 -0.1495331 -0.09927963 0.051088035 0.012469014 -0.13925627 -0.11601611
00000000: 33aa 77be 0e87 fcbc dfa2 98bd 01b3 06bd
00000010: 19ae 48be 2738 6bbc a899 a7bc 956a 18be
00000020: b546 973d f2bf 4dbe 341f 19be 1e53 cbbd
00000030: b041 513d d64a 4c3c 3299 0ebe db99 edbd

prediction_layer.weight f4 [10, 1024]
-0.18939242 -0.2389311 -0.019809151 -0.12875837 -0.07445463 -0.06592808 -0.18644981 -0.16668929
-0.050139554 -0.078947775 -0.0069978824 0.03169675 -0.13423236 -0.067226775 -0.09567259 0.10103449
-0.037057128 -0.072999336 -0.033925157 -0.07919871 0.026554016 0.05834901 0.06777792 0.03518696
0.017813474 0.21120024 0.047451656 -0.06497577 -0.025238754 0.15782806 0.044776477 0.09863267
0.027555816 0.2201945 -0.033825673 0.123302944 -0.111227795 0.082624935 0.15374076 0.13286133
-0.029548593 0.2323174 -0.060465593 0.05712393 0.050735395 -0.060210228 0.08317567 0.059615184
-0.026388325 -0.06062687 -0.08815222 -0.006987196 -0.037798088 0.015278471 -0.050404392 0.0498851
0.007116962 0.00763965 0.02090994 -0.00930455 -0.037674148 -0.035285596 0.048664015 -0.011646336
-0.008453482 0.12495415 -0.04154609 -0.028207082 0.021621197 0.13320944 0.04663495 0.0482209
-0.07897599 -0.051492658 -0.009484196 -0.07431975 -0.113599285 -0.019573074 0.03201562 -0.055221114
-0.19721168 -0.053928636 0.0521689 -0.08753151 -0.012857568 0.0285717 -0.021780618 0.021711376
-0.192664 -0.007929632 0.086328164 0.015859472 0.013033142 0.15546948 0.016671348 0.023829132
-0.10123862 -0.047163814 -0.09818267 0.05062418 -0.049673494 0.1256004 0.053390175 0.06680112
-0.15561333 -0.059154432 -0.18504128 -0.0021573491 0.18128824 -0.026015418 -0.07286209 0.097196974
0.06847415 0.08014279 -0.065677084 0.00012424571 0.052124575 -0.18497874 0.062057137 0.040339287
0.083731435 0.064725645 -0.012589497 0.120853886 0.016045926 0.07886785 0.045624826 -0.017568955
0.038493253 -0.021768818 -0.003713957 0.026059674 0.022118352 -0.02649542 0.07453377 0.016333038
0.1661895 0.08633127 0.017861104 0.058510844 -0.08495471 -0.12793633 0.092909984 0.13545461
0.052035715 0.106893584 0.0694194 -0.061159942 -0.08717792 -0.007449579 0.05748013 0.01857353
0.101392515 0.060251433 -0.03410232 -0.13462655 -0.01019645 0.036377177 0.1324066 0.13106987
-0.038266137 -0.021490255 -0.048595816 -0.16080426 0.025098767 0.02432301 0.011978879 -0.0960964
0.05150297 -0.06254142 0.04974085 -0.031304482 -0.1627108 -0.11319767 0.0024403252 0.03922465
0.018587666 0.012843198 0.00047520667 0.030730957 -0.10265092 -0.06276754 0.08839046 -0.015244481
0.0579703 -0.031011702 0.077142484 0.19993989 0.0789824 0.058925193 0.102473706 -0.046491753
-0.1950408 0.007322494 0.054426417 -0.022844426 0.058730375 -0.04411479 0.018472528 0.28852293
0.019046307 0.092276186 -0.11674673 -0.048680626 0.05172224 0.07000439 0.14806987 0.07891392
0.038901348 0.020163892 -0.04032705 0.02195155 -0.038524594 -0.063154034 0.010284958 0.044927843
0.016727298 0.14587033 -0.1102082 -0.092871435 -0.02805597 -0.116195165 -0.019937007 0.045849685
-0.047430173 0.07506555 0.025247034 -0.017563263 -0.09401925 -0.0144475205 -0.106534995 -0.11300997
-0.038500614 0.04521611 0.031016089 -0.11759844 -0.07360321 0.014995812 0.010487736 -0.119187415
0.10793866 0.08067317 -0.024920382 -0.07803965 -0.19462757 0.025245015 -0.022074478 -0.07221282
-0.010507383 -0.10905439 -0.023079738 0.051291887 -0.11098804 0.005569243 -0.010674319 0.15118875
00000000: 16f0 41be 5baa 74be cd46 a2bc 3cd9 03be
00000010: ab7b 98bd 4d05 87bd b3ec 3ebe 99b0 2abe
00000020: 225f 4dbd 5faf a1bd 7e4e e5bb 74d4 013d
00000030: 3574 09be 31ae 89bd feef c3bd 2ceb ce3d
00000040: 37c9 17bd ad80 95bd 1bf5 0abd ef32 a2bd
00000050: cf87 d93c 5fff 6e3d 26cf 8a3d 3420 103d
00000060: 90ed 913c e044 583e ab5c 423d 0412 85bd
00000070: 81c1 cebc ae9d 213e 8a67 373d edff c93d
00000080: bcbc e13c ab7a 613e ca8c 0abd 4186 fc3d
00000090: 66cb e3bd 4337 a93d 386e 1d3e cd0c 083e
000000a0: e40f f2bc 9de4 6d3e c5aa 77bd c8fa 693d
000000b0: ebcf 4f3d 009f 76bd 0158 aa3d 0d2f 743d
000000c0: 542c d8bc e153 78bd 2789 b4bd d9f4 e4bb
000000d0: 2bd2 1abd 8d52 7a3c d674 4ebd 5254 4c3d
000000e0: 6835 e93b 0756 fa3b 534b ab3c 1c72 18bc
000000f0: 3550 1abd a187 10bd eb53 473d 46d0 3ebc
00000100: 7980 0abc f6e7 ff3d 3c2c 2abd 8a12 e7bc
00000110: f01e b13c 0e68 083e 4a04 3f3d 4783 453d
00000120: 2abe a1bd f7e9 52bd 9a63 1bbc f434 98bd
00000130: bea6 e8bd b657 a0bc d022 033d 892f 62bd
00000140: dcf1 49be 46e4 5cbd 0eaf 553d b843 b3bd
00000150: 8da8 52bc 330f ea3c 446d b2bc 0edc b13c
00000160: b649 45be 4aeb 01bc d2cc b03d b9eb 813c
00000170: f688 553c 6433 1f3e 5a92 883c 5035 c33c
00000180: 3256 cfbd d82e 41bd ff13 c9bd 4d5b 4f3d
00000190: 6f76 4bbd 649d 003e a8af 5a3d 07cf 883d
000001a0: 1a59 1fbe eb4b 72bd 767b 3dbe 5062 0dbb
000001b0: a0a3 393e 491e d5bc b838 95bd 350f c73d
000001c0: 2d3c 8c3d e721 a43d b581 86bd f447 0239
000001d0: 9480 553d 116b 3dbe a02f 7e3d cf3a 253d
000001e0: 637b ab3d e18e 843d 2d44 4ebc 3e82 f73d
000001f0: bf72 833c 7885 a13d 19e1 3a3d c5ec 8fbc
00000200: 1aab 1d3d 8554 b2bc dc65 73bb 197b d53c
00000210: 8c31 b53c ec0c d9bc 29a5 983d ddcc 853c
00000220: 952d 2a3e 73ce b03d 7351 923c 11a9 6f3d
00000230: bcfc adbd be01 03be 9747 be3d 9db4 0a3e
00000240: 6723 553d 06eb da3d c22b 8e3d d982 7abd
00000250: 568a b2bd 991b f4bb 4970 6b3d 8427 983c
00000260: e1a6 cf3d 35ca 763d e0ae 0bbd 8bdb 09be
00000270: 030f 27bc 3c00 153d 9995 073e 2e37 063e
00000280: f4bc 1cbd 550c b0bc 680c 47bd dfa9 24be
00000290: ee9b cd3c 0d41 c73c 0f43 443c 30ce c4bd
000002a0: c7f4 523d b715 80bd 10bd 4b3d 2139 00bd
000002b0: a99d 26be 2ed4 e7bd dded 1f3b 07aa 203d
000002c0: 2945 983c 476c 523c 2925 f939 7dbf fb3c
000002d0: a53a d2bd 458c 80bd 0f06 b53d fdc3 79bc
000002e0: 4472 6d3d 410c febc e1fc 9d3d 0bbd 4c3e
000002f0: 86c1 a13d 8b5b 713d bcdd d13d 236e 3ebd
00000300: c7b8 47be 88f1 ef3b 3cee 5e3d 3c24 bbbc
00000310: 438f 703d b6b1 34bd b353 973c 47b9 933e
00000320: 0007 9c3c 4cfb bc3d e918 efbd 5665 47bd
00000330: b3da 533d 765e 8f3d a19f 173e 9f9d a13d
00000340: 0557 1f3d bf2e a53c fa2d 25bd bdd3 b33c
00000350: f7cb 1dbd e756 81bd 3e82 283c 4206 383d
00000360: b007 893c 085f 153e d6b4 e1bd 6133 bebd
00000370: a2d5 e5bc bbf7 edbd ef52 a3bc e1cc 3b3d
00000380: 2446 42bd f8bb 993d ded2 ce3c d5e0 8fbc
00000390: 2a8d c0bd 4bb5 6cbc 052f dabd c571 e7bd
000003a0: d2b2 1dbd 8734 393d 7415 fe3c 73d7 f0bd
000003b0: 48bd 96bd ffb0 753c c1d4 2b3c 8818 f4bd
000003c0: f20e dd3d fa37 a53d d425 ccbc 41d3 9fbd
000003d0: 734c 47be a2ce ce3c 89d5 b4bc 51e4 93bd
000003e0: 2927 2cbc e857 dfbd b811 bdbc 7117 523d
000003f0: b34d e3bd 327e b63b 57e3 2ebc 39d1 1a3e

prediction_layer.bias f4 [10]
0.151261 -0.21371295 0.13668382 0.122156054 0.13312326 -0.09766907 -0.09585353 -0.110290244
0.09605424 -0.18597877
00000000: 2ae4 1a3e 91d7 5abe d8f6 0b3e f42c fa3d
00000010: 7751 083e b906 c8bd db4e c4bd dadf e1bd
00000020: 16b8 c43d 3871 3ebe
