Homeworks/HW1/results/trained_models/cnn_5[3].pt (torch, 53323 bytes, 14 tensors)

conv1.weight f4 [8, 1, 3, 3]
000000 bc b0 51 bc 6b ff 5f be a2 4f 1d 3e 02 c8 10 3e
       -0.012798484 -0.21874778 0.15362409 0.14138797
000010 2b 11 12 3e 3d ba a6 3d 27 f1 48 be da 0b 01 bf
       0.14264362 0.08140991 -0.19623242 -0.5040871
000020 1c fe d8 3e 5a 86 e9 bd dc 8c 33 3e 2c 17 93 3c
       0.4238137 -0.11402579 0.17534202 0.017955385
000030 64 86 ac 3e 42 02 fa bd 97 09 19 be 98 7f 1e bd
       0.33696282 -0.12207462 -0.14945064 -0.0386959
000040 41 20 b6 be c2 c2 e2 bd a3 c6 69 3d be 9f 69 3e
       -0.35571483 -0.11072303 0.0570742 0.22814843
000050 e5 bc cc bd 12 c8 2b be ab 83 19 3f 49 df d4 3d
       -0.09996966 -0.1677554 0.59966534 0.10394151
000060 2d be ca be e7 11 17 3e 1f 2c da be 43 70 84 3e
       -0.39598218 0.14752923 -0.42611787 0.258669
000070 68 69 87 be 57 49 0d be f0 11 94 3e a5 e6 a5 3e
       -0.26447606 -0.13797508 0.28919935 0.3240253
000080 6c 46 d3 bd 00 6e 96 3d 16 f6 70 be e1 ae 6c be
       -0.10316166 0.073451996 -0.23531374 -0.23113586
000090 c7 f6 9c be 3e f9 46 3e 4e 08 e8 3c f5 76 07 3e
       -0.30657026 0.19431016 0.028324272 0.13228972
0000a0 94 82 58 be d6 51 90 3d 7a 59 1c 3f 42 ca 8d be
       -0.21143562 0.07046859 0.6107403 -0.27693373
0000b0 81 7b 7c be b4 d3 e6 bc 27 1c b0 be 6d 33 1b bd
       -0.24656488 -0.02817712 -0.3439648 -0.03789084
0000c0 4a c7 d1 be b3 e9 97 bd 90 7e 94 3e 4c 06 5d be
       -0.40972358 -0.074176215 0.2900281 -0.21584433
0000d0 bd 95 a4 3e 70 5c bc 3e 27 07 18 be 46 19 f4 3d
       0.3214549 0.36789274 -0.14846478 0.11918883
0000e0 12 28 49 be 27 83 d5 3e dc 6d 4d be 14 e1 ae bd
       -0.19644192 0.41701624 -0.2006144 -0.08539024
0000f0 0b b1 90 3e 9c cf 35 3e d6 d3 cb be b4 4e 0c be
       0.28260073 0.17754978 -0.39810055 -0.13701898
000100 5d 09 1f 3d 7e ed fb bc 32 76 40 3e 59 28 e1 3e
       0.03882729 -0.030752894 0.18795088 0.43976095
000110 3a 7f 75 3e 98 9c 87 3d 2a 39 d1 bb cd 23 01 bf
       0.23974314 0.06621665 -0.0063849883 -0.5044525

conv1.bias f4 [8]
000000 4d 3b ae 3d ef 18 09 be c3 13 1e 3e e6 8a 29 bd
       0.085074045 -0.13388418 0.15437226 -0.04139223
000010 5c 4f 6d 3d 83 fb 8b bd 7d f4 85 3d b6 cf a3 bd
       0.05793701 -0.068350814 0.06540773 -0.07998602

conv2.weight f4 [16, 8, 3, 3]
000000 a9 bf d6 3d 27 b8 89 3e 3a e7 75 3e 71 b6 49 bd
       0.10485775 0.2689831 0.24013987 -0.049246255
000010 85 7b 9a 3d 4b 0a a5 3d 29 05 7d bd 55 c7 68 3d
       0.07543091 0.08058604 -0.0617725 0.056830723
000020 be 3c c8 3d c5 f9 87 ba 37 9c 8a 3d 39 d0 25 bd
       0.09777211 -0.001037412 0.06768077 -0.04048178
000030 5a 6f 03 3e bc ec 10 3e 0c 9f 07 3d 51 f5 b3 3d
       0.12835446 0.14152807 0.033110663 0.08787025
000040 f0 ec c3 bc fd 8e 6e 3e 06 7a a9 bc ab 64 8a 3d
       -0.023916692 0.23296733 -0.020688068 0.06757482
000050 64 b7 0d 3e 3d 41 21 be fd 2d 0c bd b4 40 f1 3d
       0.13839489 -0.15747543 -0.034223545 0.11779919
000060 51 74 bd 3c df 5d dd bd e2 62 16 3a de 6a 03 be
       0.023126753 -0.1080892 0.00057367806 -0.12833735
000070 d6 4d 95 be ba 79 de bd 7b b7 e4 be 33 0c c6 be
       -0.29160947 -0.10863061 -0.44671234 -0.38681182
000080 88 6d 9c be f9 e7 30 be cf 7c 4b bd e3 66 70 be
       -0.30552316 -0.1727599 -0.049679574 -0.23476748
000090 85 13 b2 be 68 e0 c6 be 28 fe c0 be 79 6e e6 bd
       -0.34780517 -0.38843083 -0.37693906 -0.1125154
0000a0 95 fa 9e b9 03 9e 09 be 78 64 77 be d1 e2 04 be
       -0.00030322807 -0.13439183 -0.2415942 -0.12977149
0000b0 7e 01 7e be 4e 10 81 3e d3 75 33 3e e9 90 8b 3e
       -0.24805257 0.25207752 0.17525415 0.27258995
0000c0 40 be 42 3d 11 72 16 3e e1 1e 23 3e 44 4b ec bd
       0.047544718 0.1469195 0.15929748 -0.11537793
0000d0 60 af 69 3d a2 97 e0 3c 41 27 80 be 34 01 4f be
       0.057052016 0.027416054 -0.25029948 -0.20215303
0000e0 54 9e 7c be 26 0c 19 be e2 9f b4 be 1b 79 3a be
       -0.24669772 -0.1494604 -0.3527823 -0.1821026
0000f0 3b eb ee 3c 12 eb ff bd 53 40 75 be 17 5a 48 be
       0.029164901 -0.12496008 -0.23950319 -0.19565617
000100 bf db d7 3c c1 9f 65 3e ec f0 d1 bd 4a 64 fd bd
       0.0263499 0.22424223 -0.1025103 -0.12372644
000110 a7 07 45 3e fd 51 02 bd 28 e6 25 3b 95 24 9f 3e
       0.192412 -0.03181647 0.0025314186 0.31082597
000120 a3 a9 3a 3e 3a 4e 87 3e db a6 53 3e 66 54 37 3e
       0.18228774 0.2642687 0.20669119 0.17903289
000130 93 55 6b be 61 0a 9f be 49 00 73 bd 3f 92 bf 3d
       -0.22981863 -0.31062606 -0.059326444 0.09354066
000140 64 82 47 3e 92 45 74 3e e9 58 49 3e 54 25 8c 3d
       0.19483334 0.23854664 0.19662823 0.06843057
000150 78 55 37 3e 1a ee d8 bd 83 df 18 be 93 88 3f be
       0.17903697 -0.10592289 -0.14929013 -0.18704443
000160 3f d7 c6 bd 87 0a 34 3e ff a5 19 3e f0 45 86 3e
       -0.09709024 0.17582141 0.15004729 0.26225233
000170 a6 39 02 3e 17 f6 a1 be e3 09 ae bd bf 47 a5 bd
       0.12717304 -0.31633064 -0.084979795 -0.08070325
000180 0b 04 c4 3d 4d 17 71 3d 03 3b e7 3b 88 11 c9 3d
       0.09571084 0.058860112 0.0070565953 0.09817797
000190 ad c7 16 3e 2a 8e dd 3d 60 e1 67 be 7d 7b 34 be
       0.14724608 0.10818131 -0.22644567 -0.17625232
0001a0 be ff cd 3c 96 ec c9 bc 45 ed 68 3e 65 1d 0c 3e
       0.025146361 -0.024648946 0.22746761 0.13683088
0001b0 a2 56 95 3e 25 3f 34 3d 82 f8 88 be f4 7d 10 be
       0.29167658 0.04400553 -0.26752096 -0.14110547
0001c0 b7 27 1f 3c df e4 c7 3d 1b 5e 76 be c9 3f 17 3d
       0.009714059 0.097604506 -0.24059336 0.036926065
0001d0 97 14 40 3e 7c 7e 77 be 1b 67 0d be 1e 76 9e 3d
       0.18757854 -0.24169344 -0.13808863 0.07737373
0001e0 69 09 18 be 50 f5 45 3e 25 73 b9 3d dd 31 86 3d
       -0.1484734 0.1933186 0.09055165 0.065524794
0001f0 3b d7 65 3d 8c 9e 51 bd 3c f8 99 3d 03 d6 21 be
       0.056113463 -0.051176593 0.0751805 -0.15804295
000200 12 6b b1 bd 98 e6 cf bd c7 72 bd 3c 4e 9c 13 3e
       -0.08663 -0.10151404 0.02312602 0.14415094
000210 61 01 bd 3d 3e 36 74 bc fa 9e 7d 3e 47 08 52 3e
       0.09228779 -0.0149055105 0.24767676 0.2051097
000220 1d c0 c2 bd 94 e3 e5 3c fa 1c b5 be e2 3a cd be
       -0.09509299 0.02806262 -0.3537367 -0.40083987
000230 b3 5e 92 bc 48 a6 35 bc 1e 19 93 3d 61 19 06 3e
       -0.017867422 -0.011087008 0.07182525 0.13095619
000240 15 51 94 bd a3 6c a4 3d 35 38 3b be 77 d0 8e be
       -0.07242028 0.08028533 -0.1828316 -0.2789342
000250 81 aa 33 3e 71 29 08 bc 7e 40 09 be 85 7d 9f 3d
       0.17545511 -0.008310662 -0.13403508 0.07787613
000260 6b f7 92 bd ae 53 a2 bd ba 8b 14 3d d8 09 a1 3c
       -0.071760975 -0.07926117 0.036266066 0.019658014
000270 d0 02 24 be c7 8c 9c 3e 4a 06 56 be 55 28 35 3e
       -0.16016698 0.30576155 -0.20900837 0.17691167
000280 1d 87 13 3e 4a bb 61 be f6 6d 36 3e bb 42 71 be
       0.1440701 -0.22044101 0.17815384 -0.23560612
000290 7d ca 01 3c cb ae 82 3e c2 bd 91 be 90 7c 57 3e
       0.007921812 0.2552398 -0.28465086 0.2104361
0002a0 ff d6 51 bc 28 58 3f be 13 d9 d1 3d 2f c0 20 be
       -0.012807607 -0.18685973 0.10246482 -0.15698312
0002b0 15 3d 82 3d 9f a5 41 3d c1 7d 1c bd a4 0a 42 bb
       0.06359307 0.04727709 -0.038205866 -0.0029608393
0002c0 61 fe 43 be 62 83 91 bc 6a 4f cc bd 5f 07 93 3d
       -0.19140007 -0.017762844 -0.099760845 0.0717914
0002d0 41 4d 4b be 7c 92 c2 3e 7d c9 02 3e dd 52 c4 bc
       -0.19853689 0.38002384 0.12772174 -0.023965294
0002e0 44 19 85 3e c4 b5 01 bf 08 46 d3 bc 4d ea bf bd
       0.2599584 -0.5066798 -0.02579023 -0.09370861
0002f0 ff dd 9f bc 90 27 9e bd 7c a1 7e bc 69 e3 8d bc
       -0.019515036 -0.0772239 -0.015541431 -0.017320352
000300 d7 43 18 bd 0e 58 96 bd a3 ab ab 3d 07 6c bd 3c
       -0.037174072 -0.07341014 0.083823465 0.0231228
000310 81 56 af bc ff e5 63 3d 94 68 55 bd ae 97 9a 3d
       -0.021403553 0.055639263 -0.052101687 0.07548462
000320 17 a4 b9 bd 9c 01 0b 3e 5b a0 74 bd 01 70 0b bd
       -0.09064501 0.13574833 -0.05972324 -0.034042362
000330 7f 8f 48 3e ba 39 ac bd 2a fa 54 be 20 61 95 be
       0.1958599 -0.08409448 -0.20798555 -0.29175663
000340 42 75 94 bd 9f 85 ec 3d ac ab 37 bd 54 09 75 3c
       -0.07248928 0.11548924 -0.044841453 0.014955837
000350 0e 42 ae 3d bf cb 90 bd cb 55 cf 3c 0a 7f 89 3e
       0.08508693 -0.070701115 0.025309464 0.26854736
000360 42 1e 44 be f7 80 cf 3d 95 6b 90 3c 39 6f d5 bd
       -0.19152167 0.1013202 0.017629424 -0.10421605
000370 84 a4 79 3e 53 77 44 3d 35 4c d5 bd 93 66 6d 3d
       0.24379164 0.04796536 -0.10414926 0.05795915
000380 c9 e5 92 bd fd a0 a8 3d 8d b2 91 3d b5 75 5a bd
       -0.07172734 0.08233831 0.07114134 -0.05333491
000390 b6 27 bd 3d d2 fa 77 3e 5a 08 e3 bd f4 16 bf 3d
       0.0923609 0.24216774 -0.11085577 0.0933055
0003a0 fd 42 3e bc ea 36 cf bd cc c6 ea 3d 76 0b 6d 3d
       -0.011612651 -0.10117896 0.11463699 0.057872258
0003b0 71 1c 83 bc 82 a9 b9 bb 1c c9 89 be 54 2b 46 3e
       -0.016004773 -0.005665959 -0.26911247 0.19352466
0003c0 5d 01 3e 3d 2d 85 a0 be ef 3f 59 3e 73 bb bf bc
       0.04638802 -0.31351605 0.21215795 -0.023404812
0003d0 36 42 36 3e d0 72 62 3e ad 98 32 3d c4 29 6c bd
       0.17798695 0.2211411 0.043602634 -0.05765702
0003e0 65 77 5b be 51 86 04 3e 69 c3 03 bd 83 bc f8 bd
       -0.21432264 0.12941863 -0.03216878 -0.12145331
0003f0 5a f8 0a 3e b4 8c f1 3e 58 f2 85 be a2 5b e3 3c
       0.13571301 0.4717766 -0.26161456 0.027753655

conv2.bias f4 [16]
000000 4d 81 27 3d 21 ba 01 bd 32 b8 a8 3c e8 da c7 bb
       0.040894795 -0.031671647 0.020595644 -0.0060990937
000010 65 b8 0e 3e 84 6a d3 bd 3d 20 1c 3e f2 8c b1 3d
       0.13937528 -0.103230506 0.15246673 0.08669461
000020 cd 6e 8d bd 4b e7 a4 bb 52 3f f8 bc 20 39 70 3d
       -0.06905899 -0.005032455 -0.030303631 0.05864823
000030 a2 b6 bc bc f6 9d 21 be e3 4f c5 3b b3 82 2a be
       -0.023036305 -0.15782914 0.006021486 -0.1665142

conv3.weight f4 [8, 16, 3, 3]
000000 81 5d 28 3e 71 6f fa 3c 57 df 04 bd ea 24 1e 3e
       0.16441919 0.030570718 -0.032439556 0.15443769
000010 69 9d 46 bd bd 2a 18 bd 81 e7 54 3e 46 ab 94 3c
       -0.04848996 -0.037150133 0.20791437 0.018148076
000020 cb 87 b5 3c 34 b2 7b 3d f3 ea c9 bb 93 d1 20 be
       0.022159478 0.061449245 -0.0061620413 -0.15704946
000030 6e d6 21 3e 84 d2 92 3d 62 26 e0 3a b3 e4 b2 be
       0.15804455 0.07169059 0.0017101283 -0.3494011
000040 75 c9 77 be 0b f5 df bd 17 0c ec bc d1 cf de 3d
       -0.24197944 -0.1093541 -0.028814359 0.108794816
000050 f4 90 9e 3d 30 d2 c9 bc 8e a7 64 be ee 07 1b 3d
       0.07742491 -0.024636358 -0.22329542 0.03784936
000060 53 5e 10 3e 8e 1c 4e bc 0f 96 0b 3e f6 7b 17 3e
       0.14098482 -0.01258005 0.13631462 0.14793381
000070 bb 59 62 be 17 2f 90 bc be aa 59 bd 2b c2 01 bf
       -0.22104542 -0.01760058 -0.053141348 -0.506869
000080 f5 6a fe 3c 35 71 04 bd 86 58 83 be f5 63 2d bd
       0.03105686 -0.032334525 -0.25653476 -0.042331655
000090 51 41 60 be 19 54 83 be 84 47 f6 bd d7 1c f3 3d
       -0.21899916 -0.256501 -0.12025359 0.11870735
0000a0 21 17 12 3d 59 30 1b bc 2e 09 c7 3c f7 f9 a6 bd
       0.03566659 -0.009471976 0.02429637 -0.08153146
0000b0 97 a7 03 bd cf db 31 3c fd 5e e4 bc 0d c3 65 3b
       -0.032142248 0.010855629 -0.027877325 0.0035058886
0000c0 9d f5 c1 bd cf da cc bd ba 81 d2 3d a8 db 1c 3e
       -0.09470675 -0.10002672 0.1027865 0.15318167
0000d0 3b ee 96 3d 76 c4 11 3d b6 1b 25 3d e0 fd a3 3e
       0.073696576 0.03558775 0.04030963 0.3202963
0000e0 42 8c ee 3d 64 4a 74 be 53 88 07 be 23 7b 28 be
       0.11647846 -0.23856503 -0.13235597 -0.16453223
0000f0 85 16 94 bd 2b d9 3a 3e 88 29 1d be ee fe ba bb
       -0.07230858 0.18246906 -0.15347874 -0.0057066595
000100 e7 5b 7e 3c d9 83 3c 3c 2b b8 0f be 34 67 1a be
       0.015524841 0.011506044 -0.14035098 -0.15078431
000110 b8 31 c7 3c 15 21 1f 3e 4f d9 13 3e 76 65 15 3e
       0.0243157 0.15539964 0.14438365 0.14589486
000120 f0 68 fe 3c cb 1c 06 3d 8c 3e ae bd bd e3 0e bd
       0.031055897 0.032742303 -0.085080236 -0.034885157
000130 a1 7d 5c bd b9 d0 af 3c 6b 86 91 3d 25 52 41 3d
       -0.053830747 0.021461831 0.07105716 0.04719748
000140 02 5b e1 3c 7e 6e f5 3c 47 df b6 be da 50 32 bd
       0.027509216 0.029959913 -0.35717222 -0.043534137
000150 8e 0f 85 bd 56 80 60 be ef 39 a4 3c 8e 8c 6b bc
       -0.064971074 -0.21923956 0.020047156 -0.014376773
000160 e4 6b 9d bd 1d a3 de bd d4 be 26 b9 cc 24 44 bd
       -0.07686594 -0.10870955 -0.00015902083 -0.047886655
000170 93 88 91 be 5c 9d 78 3e f0 b0 9f 3e 1e e5 82 be
       -0.2842451 0.24278778 0.3118968 -0.25565428
000180 96 5f d9 bd 9e 7c fd 3d ea f3 e6 bd 85 86 9e be
       -0.10613935 0.123772845 -0.11276992 -0.30962005
000190 d2 47 0e be 74 77 4d 3e 4b e4 8a be 0f eb c3 bd
       -0.13894585 0.20065099 -0.271273 -0.09566318
0001a0 18 e2 a6 bc c7 11 84 bd 68 37 df 3d 31 ff 90 3e
       -0.020371482 -0.06448703 0.1089924 0.28319696
0001b0 3f d3 fe 3b 6e 67 08 be 6f 43 95 bd 6a 67 69 3d
       0.0077766473 -0.13320705 -0.072882526 0.05698339
0001c0 7e 43 09 be b9 36 8f bd a8 6e 4f 3e 95 37 7e 3d
       -0.13404652 -0.069928594 0.20257056 0.062064726
0001d0 6a 57 06 3c 4b e8 2c be b1 0e 57 bd e4 d4 b7 3d
       0.008199552 -0.16885488 -0.052504245 0.089761525
0001e0 68 a2 49 3e 64 ab f8 3b 28 3f 51 3d 72 6a cf 3d
       0.1969086 0.0075887907 0.05108562 0.10127725
0001f0 f2 8f 12 3d 48 e3 1c 3e d9 7d cb be 60 ac d8 bd
       0.03578181 0.15321076 -0.39744452 -0.10579753
000200 d8 da 50 bd 44 15 1a be 73 60 8d 3d e5 1a d8 bd
       -0.050989956 -0.15047175 0.06903162 -0.10552005
000210 36 71 ad bd 88 89 aa 3d 25 63 d9 3d e8 7b 76 be
       -0.08468859 0.08327013 0.106146134 -0.24070704
000220 a8 4a 22 be ea c3 5d be 9a 88 38 bc 67 72 70 be
       -0.15848792 -0.21656767 -0.011263037 -0.23481141
000230 59 33 15 3c 2a c5 f0 bd f8 2c 24 be f2 64 97 be
       0.0091064805 -0.11756356 -0.16032779 -0.29569203
000240 0f 04 23 bd b8 77 b4 be 2d 3e 86 bd 78 09 a2 bc
       -0.039798792 -0.35247588 -0.06554828 -0.019779906
000250 6f e6 45 bd 61 fa 2e bd 3b 08 8c 3d d9 c9 20 3e
       -0.04831546 -0.04271925 0.06837507 0.15701999
000260 94 2f 8c 3e 56 50 21 3d 6a 22 35 3e ab 19 b5 3d
       0.2738005 0.039383255 0.17688909 0.088427864
000270 e5 cf 02 be 5c 2b 86 be b1 7c 8a bd 8b b8 bb 3d
       -0.12774618 -0.26204956 -0.06762064 0.09166058
000280 03 33 1e 3e 64 54 59 3e 08 4e b2 3d ef 36 10 3d
       0.15449147 0.21223599 0.087062895 0.03520864
000290 54 70 1b 3e c7 46 92 3e a3 e2 67 3e a2 4b 60 3e
       0.15179569 0.28569624 0.22645049 0.21903852
0002a0 d0 2f 69 3e 9b bb ed 3d 3c 0c 5b bd 5e 68 83 bd
       0.22772145 0.116080485 -0.053478464 -0.06416391
0002b0 2e f7 f0 bd da 86 de ba b0 f6 19 3e 93 20 91 3d
       -0.11765896 -0.0016977445 0.1503551 0.07086291
0002c0 83 20 4f bd 3c ac 35 3e 77 eb 30 3e 5a 45 ae 3d
       -0.050568115 0.17741483 0.17277323 0.085093215
0002d0 60 92 38 bd 81 1b 48 3d 7f 4a a4 bd 07 4c b0 be
       -0.04506147 0.048854355 -0.080220215 -0.34433004
0002e0 ad 38 31 bf 64 bd 41 be 80 6a b2 bd 6a ca 06 be
       -0.69227105 -0.18919903 -0.087117195 -0.13163152
0002f0 81 d4 36 3e 1c 76 51 be 4b 3e 06 be f8 ab b2 bd
       0.17854501 -0.20455211 -0.131097 -0.08724207
000300 92 b2 7e bd 33 67 05 bc ed 8c 21 bd 34 82 7b 3d
       -0.062182017 -0.00814228 -0.039441038 0.06140347
000310 93 86 f6 3d bf d2 9b bd ed a3 bd bd 1f 0b bb bd
       0.12037387 -0.07608556 -0.09259782 -0.091329806
000320 37 dd 0c 3e 86 22 42 3b 15 f3 6e 3d 28 e3 03 3e
       0.13756262 0.0029622628 0.05833729 0.12879622
000330 8d c0 16 be c1 81 9c bb f3 f7 c7 bd 2b a2 9e be
       -0.1472189 -0.00477621 -0.097640894 -0.309831
000340 9a dd 8f be 92 ec 02 be b2 c8 c3 bd 2a 7c 15 be
       -0.28098756 -0.12785557 -0.09559764 -0.14598146
000350 cc e1 9d bd 82 04 78 3d 35 a9 a8 3d 27 d0 c0 3c
       -0.07709083 0.060551174 0.08235399 0.023536755
000360 9f 09 eb bc 12 8d 2a bd fd c4 d1 bc 79 9c 1d 3d
       -0.028691111 -0.04163844 -0.025606627 0.038479302
000370 71 b1 14 3d f4 ca a1 3d d8 ec 49 bd 2c 2f d0 bd
       0.036302034 0.07900038 -0.049298137 -0.10165247
000380 4c 6d 20 3d 9c de b0 be 1c 6c 21 be b5 3b ec 3b
       0.039166734 -0.34544837 -0.15763897 0.007209266
000390 c9 c5 63 bd c0 0a b1 bd 2a d2 0a 3d e7 d8 38 3e
       -0.055608544 -0.086446285 0.033891834 0.18051492
0003a0 88 7d 3c 3e 75 88 dd bd d4 79 c2 3d fb 9a 2c bd
       0.18407261 -0.10817043 0.09495893 -0.04213999
0003b0 9c a6 a9 3d 1d 3a 8f be 12 65 a4 be cf 67 65 be
       0.08283731 -0.27974024 -0.3210836 -0.22402881
0003c0 81 77 04 3d fa 7e 16 bd a8 65 2e 3d e0 8b 33 3e
       0.03234053 -0.036742188 0.042577416 0.17533827
0003d0 dc d6 3b 3d af 1f ae bd 2b 60 14 3e 50 d4 62 3d
       0.045859203 -0.08502137 0.1448981 0.05537826
0003e0 bb f5 bc bc 1b a8 ba be 39 6c c9 be 42 e7 8f be
       -0.023066392 -0.3645638 -0.3934038 -0.28106123
0003f0 ee 9d 26 3e 64 bf 5c 3d 59 09 1f 3e 52 a7 29 3e
       0.16271183 0.05389346 0.1553091 0.16567734

conv3.bias f4 [8]
000000 92 e8 a2 3d b1 ef 55 bd fd 20 04 be 0c cd d4 3c
       0.079545155 -0.05223054 -0.12903209 0.02597668
000010 f4 9d 1e 3d 7a 51 a5 3d d1 aa 18 3e ec 5c a0 3d
       0.038724855 0.08072181 0.14908911 0.078302234

conv4.weight f4 [16, 8, 3, 3]
000000 a6 7c 9b bd 28 44 a7 bd 4c 9e 64 bd ed 54 8f bd
       -0.07592134 -0.08167297 -0.055815026 -0.0699862
000010 dd fb a8 bd 97 82 38 3e 6a d0 02 be d7 c5 94 be
       -0.08251164 0.18018566 -0.12774816 -0.2905719
000020 c1 4c ce bd da 85 43 bd 36 cc 2c 3d a7 a3 8e 3e
       -0.100732334 -0.047735073 0.04218694 0.27859232
000030 28 e2 e2 3c e5 01 e7 3d 90 8a 22 3e 2a 1c 5f be
       0.02769573 0.11279658 0.1587317 -0.21788087
000040 29 40 5b be 8f 0a cf bd e3 9e 27 be 2b a8 3b 3d
       -0.21411194 -0.10109436 -0.16369204 0.045814674
000050 e9 74 34 be 16 a1 27 be 89 c0 da 3d 85 f8 88 3b
       -0.17622723 -0.16370043 0.106812544 0.0041800165
000060 bc 9b 86 bb 84 57 43 bc 97 fc c1 3d 77 fe 6b 3d
       -0.0041079205 -0.011922721 0.09472006 0.057615723
000070 d4 53 30 be 9c 02 4e bd c1 0a d6 3d 40 06 95 bc
       -0.17219478 -0.050295457 0.1045127 -0.018191457
000080 23 84 b6 bd f4 14 6f 3e 4e 56 81 3e 11 81 8c bd
       -0.08911922 0.23347837 0.25261158 -0.06860555
000090 54 5f 9d bc b8 d8 0f be dc c4 7d be 76 ab 02 3e
       -0.019210495 -0.14047515 -0.24782127 0.1276072
0000a0 34 69 38 be 28 52 05 bc 25 f1 46 3e 33 e5 b1 bd
       -0.18008882 -0.008137263 0.19427927 -0.086862944
0000b0 92 ed 75 be 40 d4 57 3d 01 3e 40 3c 46 74 8d be
       -0.24016407 0.05269265 0.011733533 -0.27627772
0000c0 e2 99 c5 3d d8 a0 66 bc af 64 65 be 22 29 00 3e
       0.096484914 -0.014076434 -0.22401689 0.12515691
0000d0 d6 42 a6 3c e6 30 3f be 06 bd 8a 3d 0f 13 c0 bc
       0.020295542 -0.18670997 0.067743346 -0.023446588
0000e0 94 ac a2 bc 3b 42 d9 3b f9 b1 ae bd 2f 0c 44 3d
       -0.019857682 0.0066302097 -0.08530039 0.04786318
0000f0 ab f0 ee bd 78 82 39 bd ff 52 cc bd 87 0b 0b 3b
       -0.116669975 -0.04529044 -0.09976768 0.0021216588
000100 e6 07 8b 3d 7c bc 6d 3e 89 61 1c be 73 d3 0c be
       0.06788616 0.23216432 -0.15271582 -0.13752536
000110 c6 5a 26 3e ac 81 48 be 56 08 38 bd 68 ac c7 3b
       0.16245565 -0.19580716 -0.044929825 0.0060935505
000120 e2 a4 05 3e 59 e7 14 bc 6e 86 6c 3d c9 15 31 be
       0.13051179 -0.009088361 0.05774539 -0.17293467
000130 0c 23 18 be ce 01 05 be fa 31 09 be 05 07 c0 3d
       -0.1485712 -0.1298897 -0.13397971 0.09376339
000140 9d e1 0c be 9d 06 84 bd 42 a1 24 3e 05 90 3d 3e
       -0.1375794 -0.06446574 0.1607714 0.1851197
000150 1c 84 2e 3e ad 23 6d 3e 48 63 4d 3e 2e 59 29 3e
       0.17042583 0.2315814 0.20057404 0.16537926
000160 e6 cb 49 3d 73 c2 72 bc 50 eb 87 be d5 a1 ba be
       0.04926672 -0.014816868 -0.26546717 -0.36451593
000170 5e ea 83 be 23 76 25 be e9 0e 05 be 71 ac 3c 3d
       -0.25764745 -0.16158347 -0.12993969 0.04606289
000180 e5 a0 14 be 7a 4e 78 bd 6b 8a 49 3d 2a a0 c6 bd
       -0.14514501 -0.060621716 0.04920427 -0.096985176
000190 b2 00 32 be 37 c6 91 bd f7 41 b6 ba a9 28 4c 3e
       -0.17383078 -0.071178846 -0.0013905157 0.19937386
0001a0 cc c1 02 3e aa 34 da 3d 88 c1 89 3d 6b 1c 33 3e
       0.1276924 0.10654576 0.06726366 0.1749131
0001b0 02 2c ed 3b f9 fc 81 3d 2a fc cd bd 57 92 0c bd
       0.007237912 0.06347079 -0.10057862 -0.034319248
0001c0 19 4c 86 be 9f 51 64 be 21 32 f9 bd 17 67 69 be
       -0.26229933 -0.22296761 -0.121677645 -0.22793232
0001d0 5f 47 38 3c 37 f9 d8 be 38 64 b8 be 85 e7 6c be
       0.011247485 -0.42377636 -0.3601396 -0.23135193
0001e0 c9 5a 00 3e 1a 76 ab 3c 36 5e 90 3e 57 c1 f3 3c
       0.12534632 0.020930339 0.28196877 0.029755278
0001f0 15 15 b7 3d c5 34 fe 3d 1d 76 9a 3d 7d 3a bc 3d
       0.08939568 0.12412409 0.075420596 0.09190843
000200 87 15 7e 3e a2 9a 60 be 11 f3 a5 bd 1f e1 6e 3e
       0.248129 -0.21933988 -0.08103002 0.23328064
000210 20 bb 87 bd c2 e2 ea 3d 93 0a 16 3e 1a 50 82 bb
       -0.06627488 0.11469032 0.14652471 -0.003976834
000220 1c 51 b4 bd 6b ba 2a bd b3 4a a4 bc 1c 6b 04 3e
       -0.08804533 -0.04168169 -0.02005515 0.12931484
000230 22 f0 20 bd 48 89 8c bb e3 ac a0 3d 06 c3 10 be
       -0.03929151 -0.004288826 0.078454755 -0.14136896
000240 da 2c a7 3d 46 bf 3b be 63 82 1b 3e 43 ac ef bd
       0.08162852 -0.18334684 0.15186457 -0.11702778
000250 99 8f 40 be 31 be 8f bd cf 6a ac be 21 10 14 be
       -0.18804778 -0.07018698 -0.33675238 -0.14459278
000260 78 a2 e7 bd e7 2f 34 be c1 4e 08 be 43 a3 71 3e
       -0.11310285 -0.17596398 -0.13311292 0.23597436
000270 7f 4c 8b be bb ac c8 be df 0f 99 3e 70 9f 48 bc
       -0.272068 -0.39194283 0.2989492 -0.012245044
000280 11 eb aa be ae aa 3e bd 42 22 70 bc 93 a0 08 3e
       -0.33382466 -0.04654949 -0.014656605 0.13342504
000290 98 15 6d 3d 76 34 32 be 6e c3 7f 3c 2d 51 81 3e
       0.05788192 -0.17402825 0.015610559 0.25257245
0002a0 3b 4e 2d 3d ed 60 af bd bb 58 18 bc 7a 3e 4a 3c
       0.042310935 -0.08563409 -0.009298499 0.012343997
0002b0 ad 16 08 be 66 0b 70 bc 2e 93 c8 bd fd 0e 2d bd
       -0.132899 -0.014651155 -0.09793697 -0.042250622
0002c0 98 ff 10 be de 76 8c be 68 73 9f bc 2b e9 95 3a
       -0.14160001 -0.27434438 -0.01946421 0.0011437287
0002d0 58 33 b7 bd 0b d7 96 be 68 fe 52 be 0e 58 c1 bd
       -0.0894534 -0.2946094 -0.20604861 -0.09440623
0002e0 3e 9b 17 be a7 1c 42 be 1d 5d 7d be 32 3f 09 3e
       -0.14805314 -0.18956243 -0.24742551 0.13403013
0002f0 42 9c d1 bc aa c7 07 3e de de f4 3d e7 f0 1f ba
       -0.025587205 0.1325976 0.11956571 -0.0006101266
000300 3d c8 b3 3c 8d bd 37 3e 89 9e 14 3e 58 9a 34 be
       0.021946067 0.17943402 0.14513601 -0.17637002
000310 04 b2 9d 3d 1b 1c 8e 3c 12 31 32 3e 74 9e 8f bc
       0.076999694 0.017347386 0.17401531 -0.017531611
000320 f9 95 0a bd 86 b0 ab be d4 9d ca bc d7 d6 ea bd
       -0.03383443 -0.33533114 -0.024733461 -0.11466759
000330 ff f4 8f bd c9 b0 07 be 81 90 33 3e ef 6d db be
       -0.07029151 -0.13251032 0.17535593 -0.4285731
000340 69 bf 83 be d2 ab 0f 3e 7c dc c7 be 97 95 48 be
       -0.25731972 0.14030388 -0.39035404 -0.19588314
000350 9c 95 1e 3d 53 ba cf bd 17 08 26 be 9e f9 1e be
       0.038716897 -0.101429604 -0.16214024 -0.15524909
000360 bd 4b f7 bc bb 00 ab bc fa 81 b1 bc aa 36 c6 3c
       -0.030187482 -0.020874372 -0.021668423 0.024195988
000370 19 8d 62 3d 57 8c bf bc 45 34 a5 bd 6d 8b ba bc
       0.055310342 -0.023382349 -0.0806661 -0.022771562
000380 ca ff f3 bd 18 0a 0a be 6b 36 95 be df 80 99 bb
       -0.11914022 -0.13480413 -0.2914308 -0.004684552
000390 bc 1e 9a bd b3 32 b7 be 71 b7 2a bd c3 0b 01 be
       -0.07525393 -0.35780868 -0.04167885 -0.12602143
0003a0 eb a7 26 be 8a 4b 5a bc 0a f4 1e be 22 1c 86 bd
       -0.16274993 -0.013323674 -0.15522781 -0.06548335
0003b0 84 da 8f bd e0 af 57 bd 39 b5 d2 bd ca af d9 bb
       -0.070241004 -0.05265796 -0.10288472 -0.00664327
0003c0 08 20 39 bd 2e a7 f5 3c 83 c5 75 3d b7 a3 16 3d
       -0.045196563 0.029986944 0.060002815 0.036777224
0003d0 d0 70 d1 bb e1 e1 44 3d 99 cf ea bd 14 18 0c bd
       -0.006391622 0.048066977 -0.11465377 -0.03420265
0003e0 0a aa ff bd 6b d5 34 3e cd a2 00 3e 83 fe 23 3c
       -0.12483604 0.17659537 0.12562104 0.010009411
0003f0 ea c6 06 bd 70 5f 08 bd 98 b3 1c 3d af 14 d5 bd
       -0.032904543 -0.03329414 0.03825721 -0.10404336

conv4.bias f4 [16]
000000 74 f5 35 3d fe 5d 90 bd 18 2e b1 3d d3 d1 2b 3e
       0.044423535 -0.070491776 0.0865137 0.1677926
000010 07 d5 15 be be 1c 16 bd cc 8e e1 3c 48 9a 37 bc
       -0.14632045 -0.036648504 0.027533911 -0.011206217
000020 93 33 a8 3d 17 7f 0a 3d 3f 98 66 3d c2 03 75 3d
       0.08212962 0.03381261 0.056297537 0.059818037
000030 76 40 8b 3e 7e 89 fb 3d 73 db 02 3d 7b 55 a0 bd
       0.27197617 0.12282084 0.031947564 -0.07828804

conv5.weight f4 [16, 16, 3, 3]
000000 9a d4 3b bd 1a 41 b5 3d bd eb c7 bd e3 a1 77 3d
       -0.04585705 0.08850308 -0.097617604 0.06045712
000010 75 55 bd 3d cf 66 40 be 92 39 59 3d 8b 83 3b b9
       0.09244815 -0.18789218 0.05303342 -0.00017882713
000020 fc d4 81 be 05 34 aa bd 9e 36 51 be 85 4e 55 3e
       -0.25357807 -0.08310703 -0.20430991 0.20830734
000030 03 2b dc be 2b 39 48 bd 09 98 ee 3d 58 9f c2 bd
       -0.43001565 -0.048882645 0.11650092 -0.09503049
000040 e7 f2 d8 3d af ee 62 3e d6 25 38 3d 88 b5 4d 3d
       0.10593205 0.22161363 0.04495796 0.05022195
000050 cc cf 48 bd 84 51 5b 3d 57 87 5d bd d1 ec 1f be
       -0.049026296 0.053544536 -0.05408415 -0.15617682
000060 41 ea 84 3d 7c 13 cc bd c4 3d 89 be a6 a7 9e bd
       0.06489993 -0.09964654 -0.26804936 -0.0774682
000070 8a 11 08 bd 03 b3 81 3d 7a 7a 83 3d a8 ff d4 bb
       -0.03321985 0.06332972 0.06419845 -0.006500203
000080 89 dc 8d bd da 58 0c 3d 5f 55 59 bd 75 62 02 3b
       -0.06926829 0.034264423 -0.05305993 0.001989511
000090 e0 96 a7 bd 08 04 e9 bd 36 d9 a0 bd e7 0e 97 bd
       -0.08183074 -0.11377722 -0.0785393 -0.07375889
0000a0 8a 0f 10 be cf 9d 29 be 18 8a ee 3c a9 8e a1 3c
       -0.14068428 -0.16564105 0.029118583 0.019721346
0000b0 44 93 1a be ef 95 3e be b1 36 88 be f1 1e 2c be
       -0.1509524 -0.18611883 -0.26604226 -0.16808678
0000c0 0c e2 20 be b9 07 6d bc b2 ce 62 bd f7 c5 0b 3e
       -0.1571123 -0.014467173 -0.0553729 0.13649736
0000d0 93 ba 09 3e 98 ef 12 3e bb 99 41 be 5d b5 f2 bc
       0.13450079 0.1434921 -0.189063 -0.029627496
0000e0 23 c1 da 3d 73 91 23 be 23 87 32 3d 6d 68 1b 3e
       0.10681369 -0.15973453 0.043585908 0.15176554
0000f0 f9 20 db bd f1 b5 21 3e a6 d5 07 3e 61 9b be bd
       -0.106996484 0.15792061 0.13265094 -0.0930698
000100 c5 16 0f bd 6f 12 79 bd d9 4a 25 be 41 4d 6d bd
       -0.034933824 -0.060808595 -0.16141833 -0.057935003
000110 d2 fb 48 bd 8a 72 19 3d 62 dd 45 3d 37 ee 4f 3e
       -0.04906828 0.03746275 0.04830683 0.20305716
000120 7e 9a 09 be 46 20 88 bd 1c 98 f1 bd 34 c0 06 bd
       -0.1343784 -0.06646781 -0.11796591 -0.032898143
000130 05 39 21 be 0e 48 34 be 92 3b d8 bd 72 56 03 be
       -0.15744407 -0.17605612 -0.10558237 -0.12825945
000140 1e 6d 97 be e1 2a 9a bd 9c 71 68 3d a8 29 8e 3e
       -0.29575437 -0.0752771 0.05674897 0.27766156
000150 85 44 ae be c4 92 be bd 1f 3c c9 3d fc c1 16 be
       -0.3403665 -0.09305337 0.0982592 -0.14722437
000160 a1 49 f9 3d 6c 7c 4e 3e b6 f8 8c bd cd 2e 94 bc
       0.12172247 0.2016465 -0.06883375 -0.018088723
000170 bd 9c c2 bd 75 36 8b 3c d2 a1 3d 3e 02 70 0b bd
       -0.09502552 0.01699374 0.18518761 -0.034042366
000180 bb 8f 82 3a 1d e2 07 3e bc 07 9e bd 9d 27 e2 3d
       0.0009961048 0.13269849 -0.07716319 0.11042712
000190 19 75 35 3e af 5f 19 3e a2 e8 da bd e6 c5 bd bc
       0.1772045 0.14977907 -0.106889024 -0.023165654
0001a0 63 18 fe 3d a3 b7 43 3d e1 be d8 3c 59 45 3d 3e
       0.12406995 0.04778255 0.026458206 0.18483485
0001b0 39 89 bf bd 1f 14 8f bd a3 b9 42 3e 03 c5 0d be
       -0.09352345 -0.0698626 0.19016127 -0.13844685
0001c0 d7 fa a6 bd 74 8c 45 3e 8d a5 d1 bd f6 0e 1e bc
       -0.08153313 0.1929186 -0.102366544 -0.009647122
0001d0 9a 29 5f 3e f2 7f 1b 3e 6f aa 81 3d ed 09 72 be
       0.21793213 0.15185526 0.06331336 -0.23636599
0001e0 26 ca e2 3d a4 25 ac bc 38 22 88 be 47 1f 2b 3e
       0.11073713 -0.021014042 -0.26588607 0.1671115
0001f0 aa 9a e3 bd f0 78 5c be c4 0d 7d be b2 43 c6 bd
       -0.11113484 -0.21530509 -0.24712282 -0.096808806
000200 79 67 7f 3e 3c 05 91 bd ce 3f 96 bc 61 8b 2f 3e
       0.24941815 -0.070810765 -0.018340971 0.17143013
000210 c6 a3 25 3e d4 50 72 3d 76 bc 0a 3e 40 06 08 bc
       0.16175756 0.059159115 0.13548455 -0.008302271
000220 e0 37 09 3e 39 54 18 be b6 41 85 3e 98 97 f4 3d
       0.13400221 -0.14875878 0.26026696 0.11942977
000230 65 a7 59 be a5 95 0a 3e 04 9b c5 3d 1f 8b 0e be
       -0.21255262 0.13533647 0.096487075 -0.13920258
000240 7b f6 7c bb 8e d9 65 3c 6d a0 1c 3e 3a 4b e3 bd
       -0.0038599062 0.01402892 0.15295573 -0.11098333
000250 41 86 e8 3d 3c d7 79 3d 11 e1 46 bd df c8 95 bc
       0.11353732 0.06099628 -0.048554484 -0.01828426
000260 49 21 22 3d 18 d5 40 be 1d ef 82 bd 54 e6 80 3d
       0.039582524 -0.18831289 -0.063932635 0.062939316
000270 c1 bb e7 be b5 e4 92 be f5 58 8b 3b e5 fb e8 bd
       -0.45260432 -0.28690115 0.004252548 -0.1137617
000280 26 5a 93 bb 7a 25 07 3e 23 37 cb 3c c9 8c 3c 3e
       -0.0044968305 0.1319789 0.024806565 0.1841308
000290 b1 a6 f5 3d 43 48 72 3d f0 2f 61 3e 4d ff 1a 3e
       0.119946845 0.059150945 0.21990943 0.15136452
0002a0 12 4a 96 bd d4 ca 38 3e da d4 38 3e cc 4c 99 bd
       -0.073383465 0.18046123 0.18049946 -0.07485351
0002b0 03 6f ff 3c c9 92 79 bd e7 a6 85 3d 17 36 e9 3c
       0.031180864 -0.060931 0.06525975 0.028468175
0002c0 9b ce 91 bd c0 0c 8e bc 27 9f 25 bd 46 eb 7b be
       -0.07119485 -0.017340064 -0.040434983 -0.24601468
0002d0 43 7f c6 bd 6a bb 82 be 1a 71 4f be ed bc 81 be
       -0.09692242 -0.2553361 -0.20257989 -0.2533945
0002e0 41 34 ef bd 2c e9 03 bc 90 7c a8 bd 9a ca 96 bd
       -0.116798885 -0.008051198 -0.082268834 -0.07362862
0002f0 14 1f 3f 3d b8 80 4c be cc 5e 04 bf 3b 12 37 be
       0.046660498 -0.19970977 -0.5170715 -0.17878048
000300 a1 1f 52 be af 23 9b be f4 9c 95 be 6e 94 1a bd
       -0.20519878 -0.30300662 -0.29221308 -0.03773921
000310 d9 e2 1a be 00 71 81 be 0c bb a2 3d 34 ca 9b 3d
       -0.15125598 -0.25281525 0.079458326 0.076069266
000320 a5 ac 56 3e c3 08 a3 3d bf a7 6e 3e 81 24 96 3e
       0.20964296 0.079606555 0.23306178 0.29324725
000330 74 92 3a bc 3b 59 88 bc a2 2c ef 3d 47 47 b0 3d
       -0.011387456 -0.01664411 0.11678435 0.08607345
000340 6c f1 50 be f1 92 84 be 1a bb cf bd fb 6d ed bd
       -0.20404595 -0.25893357 -0.10143109 -0.11593243
000350 34 44 4d be 5b 8d 91 bc 02 b7 67 bc 88 08 0c 3e
       -0.20045549 -0.017767599 -0.014142754 0.1367513
000360 02 e1 ab bc 31 78 f9 bc 61 78 11 3e 84 dd 14 bd
       -0.020981316 -0.03045282 0.14206077 -0.036344066
000370 50 71 24 be be d4 b6 bd f4 dd e1 bd 73 89 e8 bd
       -0.1605885 -0.08927296 -0.11028662 -0.11354341
000380 32 f2 b0 bd 03 47 42 3e cf 38 c9 bd b0 d0 24 be
       -0.08639945 0.18972401 -0.098252885 -0.16095233
000390 7c e9 10 3e 5c 40 2e 3d 6d a4 ce 3d bd e1 b7 bc
       0.14151567 0.042541847 0.100899555 -0.022446508
0003a0 83 ff 97 3e c2 ae d7 3e 64 7f a3 3c c8 30 1a bd
       0.29687127 0.42125517 0.019958206 -0.037644178
0003b0 7e eb c0 3d c1 82 01 3e cd 0a a5 bd e2 31 b1 bd
       0.094199166 0.12647535 -0.08058701 -0.086520925
0003c0 96 e3 9f 3d 52 05 84 3b 15 ff 89 bd e0 78 a0 3d
       0.078070804 0.0040289545 -0.06738106 0.07835555
0003d0 3b 64 3e be fa 5b 10 be dc 8f 2b 3d 08 4e 7f bd
       -0.18592922 -0.14097586 0.041885242 -0.062330276
0003e0 ea d0 4a 3b 0d dc 91 bd b2 f2 a1 bd 29 e9 84 3e
       0.0030947276 -0.071220495 -0.079076186 0.25959137
0003f0 91 3c dd bd ff 7d 80 bd 2f 05 9a 3d 17 6f 48 3d
       -0.10802568 -0.06274032 0.0752052 0.04893407

conv5.bias f4 [16]
000000 cf c6 89 3c 28 38 62 3e ef 33 86 3d 43 8e cd 3c
       0.016818432 0.22091734 0.06552874 0.02509225
000010 b6 f6 dd 3d 56 31 53 bd 2a d6 26 bd a7 83 7e 3d
       0.10838072 -0.051560722 -0.040731587 0.062137272
000020 99 d7 f9 bd 63 8a 5c bd 4c c5 44 3e 15 71 16 3e
       -0.12199325 -0.053842913 0.19215888 0.14691575
000030 23 11 eb 3d 60 ce d3 bb 0c b7 23 3e c4 23 17 3d
       0.11477878 -0.006463811 0.15987796 0.036899343

conv6.weight f4 [8, 16, 3, 3]
000000 fd f8 df bc 2d 1e 92 3d 2a 36 95 3e 08 b9 df ba
       -0.027340407 0.07134662 0.29142886 -0.0017068693
000010 46 88 fd bc 15 53 8d 3e af 6a 24 be 4b b4 8c be
       -0.03094877 0.2760245 -0.16056322 -0.27481303
000020 7c 2f 3b be 4d c7 b0 3d 5e 2e 52 bd 41 32 22 be
       -0.18279833 0.086317636 -0.05131375 -0.15839483
000030 4c 46 8c bd 8b 11 f0 bd 82 97 84 bd 69 25 26 3d
       -0.068493456 -0.11722096 -0.0647421 0.04056302
000040 82 9c ef bd 8b b3 d2 bd 8f 60 15 3e f1 d9 b0 3d
       -0.11699773 -0.10288151 0.14587615 0.08635319
000050 c7 11 41 bd b4 12 3f 3e 8e be ed 3d 02 78 42 3e
       -0.047136094 0.18659478 0.11608611 0.18991092
000060 72 df 6c 3e ac f1 77 3e e3 37 19 3e 0f 29 58 3e
       0.23132113 0.24213284 0.14962725 0.21109413
000070 65 6c e8 3d 70 f4 cd bb 27 b3 25 3e 00 bf f5 3d
       0.113487996 -0.0062852427 0.16181622 0.11999321
000080 a7 1a fe 3d e8 56 23 bd 9a 73 4f be 9a 75 5f bd
       0.12407427 -0.039877802 -0.20258942 -0.054555513
000090 9b 3c 2c bd de 88 e6 bd b8 47 a9 bd e8 5c 1f 3d
       -0.042049985 -0.11256574 -0.082656324 0.03890696
0000a0 51 b1 27 3e 59 f4 29 3e 18 1a 2e 3e e2 ad 87 bd
       0.16376235 0.16597117 0.17002141 -0.066249624
0000b0 e7 2f 01 3d 3e 9b 51 bd cb 09 9d 3d 14 77 52 bd
       0.031539824 -0.05117344 0.076678835 -0.051383093
0000c0 f6 95 a1 be e6 6a c3 bb 8e a8 47 3e 0d 21 4e be
       -0.31559724 -0.005963671 0.19497892 -0.20129795
0000d0 99 8a 39 be 14 d2 95 3b 8a e6 55 bd cc cf 1d be
       -0.18119277 0.0045721624 -0.052221812 -0.154113
0000e0 23 50 93 be 1d 35 47 be de af 56 be 95 a0 45 bd
       -0.28772077 -0.19453855 -0.20965526 -0.048248846
0000f0 88 d2 84 bd 24 b8 af 3c 92 29 10 be f2 11 6a be
       -0.06485468 0.02145011 -0.14078358 -0.22858408
000100 30 74 6d be 36 85 70 be 43 c1 44 bd bf 04 b9 bd
       -0.23188853 -0.23488316 -0.04803587 -0.09034108
000110 2d 58 d4 bd cb 80 04 3e e9 1e 88 3d c5 45 25 bc
       -0.10368381 0.12939756 0.06646521 -0.010087435
000120 00 57 06 3c 7f 37 ce bb 4a fb 0b 3d 93 9f 81 3d
       0.008199453 -0.0062932367 0.034175195 0.063292645
000130 c6 df ad 3c 61 12 26 3d 87 24 bf 3a 91 b5 fc bb
       0.021224868 0.04054487 0.001458303 -0.007712074
000140 51 ee 47 3d 29 b4 90 3d a7 35 af 3e 8e 27 e0 3e
       0.04881126 0.07065613 0.3422062 0.43780178
000150 f9 98 82 3e 32 a3 cb 3e e3 ae b2 3e 83 e7 9d 3e
       0.25507334 0.39772946 0.34899053 0.30840692
000160 91 80 9d 3e 0d 34 5e 3e b9 5f 91 bd 3a 60 b1 be
       0.3076215 0.21699543 -0.07098336 -0.34643728
000170 d6 85 37 be 65 36 01 3d 2b aa 05 be 4b f7 15 3e
       -0.17922148 0.031546015 -0.13053195 0.14645116
000180 9b cf 01 3e 53 91 c6 bd ef 07 2b 3d f4 fe 7a be
       0.12676851 -0.09695687 0.041755613 -0.2451132
000190 53 d4 c0 be 29 2b a5 be 27 6c 21 3e 99 be 17 be
       -0.3766199 -0.3225949 0.15763913 -0.14818801
0001a0 69 80 48 be 69 ab 5e 3d 7f 1a 4b bd 69 e7 5b 3b
       -0.19580235 0.05436269 -0.049585816 0.003355468
0001b0 bf a7 35 3d 6f cb 9c 3c ac be 73 bd e2 f7 0b 3e
       0.04434943 0.019139973 -0.05950801 0.13668779
0001c0 28 3b d3 3d 4a ed 8f 3d e6 c0 ae 3d cf 9e 5a 3d
       0.103140175 0.07027681 0.08532886 0.053374108
0001d0 62 5a a2 bd 0b b4 4e be f1 60 36 bb d0 2c 42 3d
       -0.079273954 -0.20185868 -0.0027828778 0.047406018
0001e0 df 6e aa be 95 7a 3d be 27 ad d7 3d fe d3 71 bb
       -0.33287713 -0.18503793 0.10531073 -0.0036900039
0001f0 d2 20 9e bd 4a 0f 6e 3d 55 ab 7b be de 80 ab be
       -0.07721104 0.05812005 -0.24577077 -0.33496755
000200 04 a9 a7 be 73 d7 9a 3d 7d db 94 3d 4b 10 42 3e
       -0.32746136 0.07560625 0.072684266 0.18951528
000210 d7 be 48 3d 91 48 db 3c 00 19 62 3e fb a2 d2 3d
       0.049010124 0.026768 0.22079849 0.10284992
000220 02 e5 a4 3c 73 10 99 3e fa 31 5d be b6 99 07 be
       0.02012873 0.29895362 -0.21601096 -0.1324223
000230 be 0c 13 be 15 8c 93 3d bc 9e c3 bd 19 27 a4 3c
       -0.1436033 0.07204453 -0.095517606 0.020038174
000240 68 99 0b be ce 6f 2a 3d 27 40 78 3e 34 e7 87 3d
       -0.13632739 0.04161053 0.24243222 0.06635895
000250 75 0c 06 3e 54 9e 4f bd 5e a7 80 be 96 f1 da 39
       0.1309069 -0.050688103 -0.2512769 0.00041760196
000260 a3 6e 76 bd 79 8a 02 3e b5 41 e3 bc e4 d0 36 3e
       -0.060164105 0.12748136 -0.027741292 0.17853123
000270 a5 1e ad bd 35 97 ea bd 01 a2 7b bd c0 d4 86 be
       -0.084531106 -0.11454622 -0.061433796 -0.2633419
000280 90 53 0b be 75 53 74 bb 3f 39 cd bd b6 61 98 be
       -0.13606095 -0.003728119 -0.100206845 -0.29762048
000290 fa 5e b4 bd 0c 49 0a be ad 60 0b be 57 48 83 3b
       -0.08807178 -0.13504428 -0.13611098 0.0040064263
0002a0 54 97 93 bd 99 46 08 3d 6b e9 09 3e 02 e5 1c be
       -0.07206598 0.033270452 0.13467948 -0.15321735
0002b0 f1 64 c2 3d fc 1e 06 3e 2e 27 20 bd e6 90 09 3e
       0.09491909 0.13097757 -0.039099865 0.1343418
0002c0 dc 86 65 3d 95 04 09 bd 8e fe 1d 3e 87 a1 fd 3d
       0.056036815 -0.033451635 0.15429136 0.123843245
0002d0 42 a1 68 be ad ef ed bc 45 43 aa be b2 17 0c be
       -0.22717765 -0.02904495 -0.33254448 -0.13680914
0002e0 f1 c7 c0 3d 39 3d 27 3e ba 89 f4 3d d9 18 04 3e
       0.09413136 0.16331948 0.11940332 0.12900104
0002f0 2c 97 6d 3d 29 c0 d1 3d f0 d5 3d 3d 1b 3e 24 3e
       0.058005497 0.1024173 0.046346605 0.16039316
000300 23 1f 52 be 75 d0 be bd 7e 67 c3 3d 9f a2 84 be
       -0.2051969 -0.09317104 0.09541224 -0.2590532
000310 93 4b af bd 6e a0 5a 3d e0 be c5 bd 7a 56 d4 bd
       -0.085593365 0.053375654 -0.09655547 -0.103680566
000320 c0 5e b9 bd 64 74 98 3c f8 cc 30 3d a4 cb 7a be
       -0.09051275 0.018610187 0.043164223 -0.24491745
000330 4f 65 e0 bd 85 a1 83 3d d3 4e af be 6a a2 b8 bd
       -0.10956823 0.06427292 -0.34239826 -0.09015353
000340 f4 67 75 3c 69 78 bc bd a3 79 28 bd 74 4c 23 bd
       0.014978398 -0.09202654 -0.041131627 -0.039867833
000350 1b f5 09 be d6 86 b4 bc 6b d8 20 3d 7c 7f b4 3d
       -0.13472407 -0.022036951 0.039268892 0.08813378
000360 40 4c a2 bb 60 d8 11 3b 90 15 8d bc 47 31 81 3d
       -0.0049529374 0.0022254214 -0.017222196 0.06308227
000370 08 ac 94 bc eb 2c c9 bd 68 89 7d bd 64 03 71 bd
       -0.018148437 -0.098230205 -0.06189862 -0.058841124
000380 0d e2 84 3d f0 f0 39 3d 77 b3 c1 3d b2 3d 7a 3e
       0.06488428 0.04539579 0.09458058 0.24437597
000390 cd 36 03 3e 1e 67 fc bd e3 4f 12 bd a9 13 aa bc
       0.12813874 -0.123243555 -0.035720717 -0.020761328
0003a0 77 6e d7 bc f4 6a d5 3b f6 92 21 3e 63 67 0d be
       -0.02629779 0.006512994 0.15778717 -0.1380897
0003b0 11 9f 9e be 45 ea 1a bd 54 42 8d be 0e 3d 84 be
       -0.30980733 -0.037821073 -0.27589667 -0.2582783
0003c0 d6 a4 15 be eb 92 63 be 57 70 c2 3d f9 0a 03 3e
       -0.14613661 -0.22224014 0.094940834 0.12797154
0003d0 e6 a3 9f bd 96 f7 33 be c0 4b 90 3d 7e c3 0d be
       -0.07794933 -0.17574915 0.07045698 -0.13844106
0003e0 85 9c c9 bd 1d 3f 41 3e 17 ea 10 be 40 d9 90 bd
       -0.09844307 0.18871732 -0.14151798 -0.07072687
0003f0 29 0a 60 bd e2 3c 89 3c eb 64 2b 3e 84 7e d6 3d
       -0.05469719 0.016752664 0.16737716 0.1047335

conv6.bias f4 [8]
000000 a1 c1 33 3e 4c 60 40 3e b6 80 6e 3e 96 0a ce bd
       0.17554332 0.18786734 0.23291287 -0.10060613
000010 27 e8 8f 3d 14 e2 d5 bd 62 55 a6 bd 1f 48 0f 3e
       0.070267014 -0.104435116 -0.08121754 0.13992356

prediction_layer.weight f4 [10, 512]
000000 63 5a 30 bc fc c7 17 be be 11 f8 bd 25 d4 48 bd
       -0.010763737 -0.14822382 -0.12112759 -0.04903044
000010 8c 08 2a 3c 8e ea 16 bd f4 1d 10 be 1b 04 29 be
       0.010378014 -0.036844783 -0.14073926 -0.16505472
000020 32 da dc bc ba 0b 06 be 86 25 cb be d1 df 23 be
       -0.026959512 -0.13090411 -0.39677066 -0.16003348
000030 42 a9 32 be 93 fe 7b be e3 1c 73 be 84 31 b5 bd
       -0.17447379 -0.24608831 -0.23741488 -0.08847335
000040 9d d1 19 be 4b 54 1e be 01 b4 95 bd bf fd 0c 3d
       -0.15021367 -0.15461843 -0.07309724 0.03442168
000050 04 b5 0a 3b 62 31 76 be 97 50 96 be 7b 67 c1 bd
       0.0021165023 -0.24042276 -0.2935836 -0.094435655
000060 61 a3 80 3d 61 2b b2 3d a2 91 e6 3d 87 27 f7 3c
       0.06281162 0.0869968 0.11258246 0.030170215
000070 2c 6b ba bc ab 13 2f 3d f2 f2 d2 bd 8d 58 d3 bd
       -0.022756182 0.042743366 -0.103002444 -0.10319624
000080 af 94 cb 3d 19 fe 25 3d fa 90 ac 3d 4d e5 c7 3d
       0.099404685 0.04052553 0.084260896 0.097605325
000090 bf 8e 1c 3e 99 ae a8 3c f5 4b 59 bd dd 28 2f 3d
       0.15288828 0.020591067 -0.053050954 0.04276358
0000a0 da 2a 9a 3c e7 4e 08 bd ad 57 8c 3d 55 8d e8 3d
       0.018819261 -0.033278372 0.0685266 0.11355082
0000b0 32 ed 67 3e a8 00 cf 3d f9 bc 6f bc b4 b7 be bd
       0.22649077 0.10107547 -0.014632457 -0.09312382
0000c0 52 62 32 bd 0c fe 01 be 97 4b 2d 3e 54 dd 12 3e
       -0.043550797 -0.12694567 0.16923366 0.14342242
0000d0 79 24 b3 3d 13 23 0f 3e b3 14 f3 3d 43 b1 a1 3d
       0.08747191 0.13978224 0.118691824 0.07895138
0000e0 16 c4 8c 3c 67 8a 5a bd 19 a3 09 3e cc 18 95 ba
       0.017183345 -0.053354647 0.13441123 -0.0011375188
0000f0 32 fd 17 3e f6 72 66 3d a3 2e 1b 3e bc 91 1c 3e
       0.1484268 0.05626198 0.15154509 0.15289968
000100 86 67 21 bd 34 40 22 bd d9 91 3b 3c 24 63 9a 3d
       -0.03940537 -0.03961201 0.011448347 0.07538441
000110 bf fc 25 3d 3f 8c e6 3d fe e9 7e 3e 6d 4b 7f bd
       0.04052424 0.112572186 0.24893948 -0.06232779
000120 77 6b d9 bc 9d 9d 26 bb f1 6b bb bd 5d 0a 98 bd
       -0.026540501 -0.0025423535 -0.091514476 -0.07423852
000130 a2 51 90 3d 5b f1 2e 3c 08 d9 8a 3e 68 ac 33 3c
       0.0704682 0.010677661 0.27118707 0.010966398
000140 65 d9 98 bd 73 85 46 be a8 c6 3e bd 20 ef ae bd
       -0.0746334 -0.19386844 -0.046576172 -0.08541703
000150 5b e3 89 bd da 1b ac 3d a5 22 76 3e 00 03 53 bd
       -0.06732818 0.0840375 0.24036653 -0.051516533
000160 6c fa 8d bd 0e e5 88 be c4 10 bb 3c 83 a5 08 3d
       -0.0693253 -0.26737255 0.022835143 0.03336097
000170 fc 10 b1 3b 32 a7 19 3e ce 29 4d 3e 41 1f 4c 3d
       0.005403636 0.15005186 0.20035478 0.049834494
000180 7e f7 86 be cf 51 60 be 2f c4 51 be b7 3e 88 bd
       -0.26360697 -0.21906208 -0.20484994 -0.06652587
000190 8e fd b4 bd 97 a4 61 bc 8e fe 99 3d 60 b8 8f 3d
       -0.08837424 -0.013772151 0.075192556 0.070175886
0001a0 24 e8 8c bd e1 0d 90 be f5 9a 78 be 47 9f 86 3d
       -0.06880215 -0.2813559 -0.24277861 0.065733485
0001b0 f4 83 82 3d 0f ad a3 bd a1 21 1c be e9 e6 0c 3e
       0.06372824 -0.07991993 -0.15247203 0.1375996
0001c0 2d 99 4f bd 0a 98 5b bd 00 38 c6 bd bf b2 f5 3d
       -0.05068319 -0.053611793 -0.0967865 0.11996984
0001d0 45 a9 a2 3e b7 40 91 3d 5d 67 96 3d d9 fa 86 3d
       0.31769767 0.070924215 0.07343934 0.06590814
0001e0 9d 46 11 3e 36 23 3e 3e fc d3 c0 3d ec b7 77 3c
       0.14187093 0.1856812 0.09415433 0.015119534
0001f0 15 57 3f bd 4a 76 40 3d a7 c8 08 3e 76 71 87 3d
       -0.046713907 0.04698781 0.13357793 0.06613438
000200 b7 5a f1 bd 4f 47 13 3d 06 cb 35 3d d3 92 df 3c
       -0.117848806 0.035956677 0.04438307 0.02729169
000210 ea 62 60 bd f4 21 62 bc cf ea 1b be 72 bb 2e be
       -0.05478183 -0.01380204 -0.15226291 -0.17063692
000220 98 42 b7 bd 22 90 00 3e c2 7b 10 3e ad 84 fd 3d
       -0.089482486 0.12554982 0.1410971 0.123788215
000230 9f 92 82 bc 73 21 f1 bd b2 0c 35 be db 26 62 be
       -0.015939055 -0.11773958 -0.17680624 -0.22085135
000240 04 42 fa bb 4c f6 93 3e 16 63 50 3b 68 1f 4e bd
       -0.007637264 0.28898847 0.003179734 -0.05032292
000250 26 cc b2 bd 35 8d b8 bd 3d d5 3b be 1c 49 08 be
       -0.087303445 -0.09011308 -0.18343063 -0.13309139
000260 19 dd e3 bd f2 89 0c 3e c5 9b 4d 3d 57 34 cb 3d
       -0.111261554 0.13724497 0.05019738 0.099220924
000270 90 84 0e be 7a fc 16 be e6 eb 6c bd bc bf 3d be
       -0.13917756 -0.1474475 -0.057842158 -0.18530172
000280 44 8e be bd 69 45 be 3d cd 11 11 be b7 85 ca bc
       -0.09304479 0.09290583 -0.14166947 -0.024721963
000290 d8 9e ef bd 9b 95 0f be 48 2d 95 bd ce 1c e7 bd
       -0.11700219 -0.14021914 -0.07284027 -0.11284791
0002a0 52 a7 be bd ff 9d 36 be 20 fb 1f be 43 7d af bc
       -0.093092576 -0.17833708 -0.1562314 -0.021422034
0002b0 14 bf 5a 3d 3c 7a cb bd 52 49 3b bd 65 ea 15 be
       0.053404883 -0.09935424 -0.04572422 -0.14640196
0002c0 fc 74 a4 bd 6c 9b 5f be 34 18 1f be 97 c6 c1 3c
       -0.080301255 -0.21836632 -0.15536577 0.023654265
0002d0 54 58 07 39 6a 7f 5e 3b 9e 8f df bc fa 8f fa bd
       0.00012907508 0.0033950456 -0.027290162 -0.122344926
0002e0 e9 40 81 3d 8c 9d 4b bd eb 12 cf bd a8 4e 84 bc
       0.06311209 -0.049710795 -0.1011103 -0.016150787
0002f0 67 a5 78 3d 9d 5a c3 3c 7d 19 f6 bc ee c8 d9 3d
       0.060704615 0.023846919 -0.03004145 0.106340274
000300 17 88 44 be 47 d1 70 be 89 8d 3e be 25 5f f5 3d
       -0.19192539 -0.23517333 -0.18608679 0.11981038
000310 4d e6 ad 3d 1e e2 49 bc 80 45 05 be 9e 5f ca 3c
       0.08491192 -0.012321977 -0.13014793 0.024703797
000320 f4 b2 d2 bd e6 48 02 be 82 bd f8 bc 6a ed 49 3c
       -0.10288039 -0.12723121 -0.030363802 0.01232467
000330 0d c3 b3 bb 0c 6b 0d 3e a1 5c 3f 3e 30 53 1f 3e
       -0.0054858983 0.13810366 0.18687679 0.15559077
000340 be 12 d9 bd 64 b5 06 be ba c2 58 be 72 45 79 3d
       -0.10599278 -0.13155133 -0.21168032 0.060857244
000350 ff de 12 3d 52 fb 63 3e d6 ab 8e 3e 68 91 1c 3e
       0.035857197 0.2226384 0.27865475 0.15289843
000360 f0 69 77 be f5 ef 08 3b ad d9 0d 3d 37 76 9e 3d
       -0.24161506 0.0020894979 0.03463142 0.077373914
000370 3d 16 75 3d 9f fa a3 3d b4 5a 32 3e 43 38 dd 3d
       0.05983566 0.080067866 0.17417413 0.10801747
000380 f9 ea 78 be 73 55 c1 3d 5b a9 ea 3d 79 22 0d bd
       -0.24308385 0.09440126 0.11458083 -0.034456704
000390 f5 36 0d bd 6a 12 b4 bc 20 9c 49 bd 8d f3 4b 3d
       -0.03447624 -0.021981437 -0.049221158 0.049792815
0003a0 0a d8 8c 3c b2 e5 80 3d 00 7a ef 3c 11 f9 81 3d
       0.01719286 0.06293811 0.029232979 0.06346334
0003b0 65 a0 eb bd 9e 56 69 be 0c 5c 69 be 7e 1a 16 be
       -0.11505202 -0.22786948 -0.2278902 -0.14658543
0003c0 21 5a 6a bd 7e 61 24 3e 3e 72 1f 3e 4f ee f0 3c
       -0.05721486 0.16052815 0.15570924 0.02941051
0003d0 b0 b1 a4 3d c9 fa 0d be ff 0c 3a be 62 b7 90 be
       0.08041704 -0.13865198 -0.1816902 -0.2826491
0003e0 ea 82 3e 3e 17 00 6e ba 79 c3 c1 3d ce 8f 84 bd
       0.18604627 -0.0009078993 0.094611116 -0.06472741
0003f0 a1 e1 ce 3d 63 95 19 bd 29 8b 6b be 6e db 92 be
       0.10101629 -0.037495982 -0.23002304 -0.28683037

prediction_layer.bias f4 [10]
000000 ee ac b2 bd 2f 45 ce be 63 4b 93 bc 8e 07 ad bd
       -0.0872439 -0.40287158 -0.017980283 -0.084487066
000010 e6 4c 8f 3e fd d1 e1 bd 65 68 47 3e 16 02 27 be
       0.27988356 -0.1102638 0.19473417 -0.1630939
000020 f1 a4 a0 3e bc 99 c9 bc
       0.3137584 -0.02460944
