Homeworks/HW1/results/trained_models/cnn_5[2].pt (torch, 53323 bytes, 14 tensors)

conv1.weight f4 [8, 1, 3, 3]
000000 31 ae 25 3e 3d 47 d5 3e 4c dd 37 3e 5e 21 c4 be
       0.1617973 0.41655913 0.17955512 -0.38306707
000010 de 06 e9 3d e7 ee 08 3e ea 0d 38 be e1 1d a4 3d
       0.11378263 0.13372384 -0.17974058 0.080135114
000020 d9 cd d9 be c0 8b cc bd d4 47 c7 3d c1 b6 68 3d
       -0.42539862 -0.09987593 0.09730497 0.056814913
000030 85 11 f3 be ab 85 98 3e b8 6e c1 be 4f f0 a1 3d
       -0.47474304 0.2978948 -0.37779784 0.07907163
000040 c3 49 00 3f ce 94 10 be d5 8a 81 3d a3 e4 c3 3c
       0.5011255 -0.14119264 0.06325308 0.023912733
000050 be 90 a1 be d3 8b f1 3e 23 50 25 3e 4c 46 e7 bd
       -0.31555742 0.4717699 0.16143851 -0.11292705
000060 ea 36 8e be 08 60 f9 bd 71 4e 25 be 93 c6 35 be
       -0.2777627 -0.1217652 -0.16143204 -0.17751531
000070 d9 94 84 3e 9d a4 5e bc d4 50 83 3e f0 b6 fb 3e
       0.25894812 -0.013589052 0.25647604 0.49163008
000080 03 25 a9 be dd f4 39 3e 86 43 6a be c2 b1 b4 be
       -0.3303605 0.18159814 -0.2287732 -0.35291868
000090 b0 7b 98 bd 49 c6 88 bd c7 7d 95 3d f8 7d 92 3e
       -0.074454665 -0.06678445 0.07299381 0.28611732
0000a0 da 58 e8 bd 67 18 9a be 89 a8 4d 3e 94 0d d8 3e
       -0.11345072 -0.30096743 0.20083822 0.4219786
0000b0 f0 d2 c6 be 79 c3 8f bc c7 4b 94 bd a7 c4 19 3e
       -0.38832808 -0.017549263 -0.07241016 0.15016423
0000c0 af 70 9b bd c6 c2 19 bd 1c 17 c7 3e 07 36 ca bd
       -0.07589852 -0.037539266 0.3888482 -0.09873586
0000d0 6a c7 29 be c3 9f cc be 74 7a b3 3e d8 af b9 be
       -0.16579977 -0.3996564 0.35054362 -0.3626697
0000e0 dd 46 3f 3e 68 04 aa 3e 52 72 3f 3c 21 2e d4 3d
       0.18679376 0.33206487 0.011684971 0.10360361
0000f0 4b 2a 89 be 2b b9 01 be f5 96 88 be 4e 54 fb 3d
       -0.2679008 -0.12668292 -0.2667767 0.12271939
000100 17 08 93 3e ff d4 71 be 0d b2 86 be bd ff 92 3e
       0.2871711 -0.23616408 -0.26307717 0.28710738
000110 dc 2c c4 3e e9 22 14 bd 70 06 c7 be ed a6 c4 3d
       0.38315475 -0.036166105 -0.388721 0.09602151

conv1.bias f4 [8]
000000 2a 97 97 3d d4 91 19 3e f6 7b 26 be 97 4e 6a 3e
       0.07401879 0.14997035 -0.16258225 0.22881542
000010 4b 07 01 3e 64 9d 0b be 55 3d 9b bc 70 67 2f be
       0.12600438 -0.13634259 -0.018950144 -0.17129302

conv2.weight f4 [16, 8, 3, 3]
000000 9b c8 88 bd 45 ee 8e 3c 64 7c 1c be aa 9f c9 3d
       -0.066788875 0.0174476 -0.15281826 0.09844907
000010 80 cc c9 3d 4f 86 ca 3d 3e 2f 31 bd 33 69 5a 3d
       0.098534584 0.098888986 -0.043257944 0.053322982
000020 46 ab 1d be 29 26 0a 3e 12 d2 a5 3c 48 b8 97 3d
       -0.15397367 0.1349112 0.02024177 0.07408196
000030 4d 8a 72 be ac 3f 73 be e1 6e 6b be df 2b 83 3e
       -0.2368557 -0.23754758 -0.22991516 0.25619408
000040 9a 9b 32 3d 0f ca c3 3c 32 6d 00 be 58 83 0a be
       0.043605424 0.02390006 -0.12541655 -0.13526666
000050 ff 42 78 3d 46 f7 93 3e 2f 02 89 3e d9 5e 9f 3e
       0.060610767 0.28899592 0.26759478 0.3112705
000060 63 91 b8 bd df fb c2 3d ab dc 30 be 8e 18 69 be
       -0.09012105 0.09520697 -0.17271678 -0.22763273
000070 cc 76 e9 bc 8d 70 ae 3b 61 2e 42 3d 63 e6 69 3e
       -0.02849903 0.0053234757 0.04740751 0.22841792
000080 bc 61 0a 3e 75 c3 cb bd 8e 39 a1 bc 31 6d 59 be
       0.13513845 -0.0994939 -0.019680765 -0.2123306
000090 8a 3b 18 3e a7 ec 91 3d 63 db 88 3d 43 b9 8c be
       0.14866462 0.07125216 0.0668247 -0.27485093
0000a0 5a b9 19 be 81 49 ec 3d 64 60 1c be d8 30 dd bd
       -0.15012112 0.11537457 -0.15271145 -0.10800332
0000b0 33 00 05 3d af 29 7c be da 0b 19 be 95 f4 df bd
       0.032470893 -0.24625276 -0.14945927 -0.10935322
0000c0 c7 95 b2 3e 1d a1 99 3d 78 ef a9 3d e8 ca a1 39
       0.34879896 0.07501433 0.08297628 0.0003085949
0000d0 67 81 e1 bd 1d af a6 3d 9d e6 74 be 40 7c 72 be
       -0.1101101 0.08138869 -0.23916097 -0.2368021
0000e0 08 51 3d be e3 c0 83 3e 3b fc 89 3d cf cf 91 3e
       -0.18487942 0.25733098 0.06737562 0.28478858
0000f0 50 63 32 be 77 27 80 be 98 ba 24 be 28 6b 53 be
       -0.17420697 -0.2503011 -0.16086805 -0.20646346
000100 db 04 e2 bd 2e 28 a9 bd 96 16 5d bd 24 4f 05 3d
       -0.11036082 -0.08259617 -0.053976618 0.032546178
000110 42 f9 e3 bd b5 0b 52 be 13 0e e3 bd 3d b4 1f 3e
       -0.111315265 -0.20512278 -0.11086669 0.15596099
000120 f1 42 aa bd 64 46 5b be 00 c8 86 be e0 6a 1b 3e
       -0.08313549 -0.2141357 -0.26324463 0.15177488
000130 79 f0 a3 bd ab f2 fb 3d 7a 28 fa bd 8f e1 68 3b
       -0.08004851 0.123021446 -0.122147515 0.0035534834
000140 db 9d 72 3e 76 00 18 3e 0c d9 01 3c 00 ce 0c 3e
       0.2369303 0.14843926 0.007925283 0.13750458
000150 8f cf a6 3d c7 75 9a be cf 28 6d 3e 31 ab c9 3d
       0.081450574 -0.30167982 0.23160098 0.09847105
000160 fb 2e fd bc 32 75 a5 3e 4b aa 09 3e a5 19 65 bb
       -0.030906191 0.32315975 0.13443868 -0.0034957912
000170 b9 4f be be 6c 76 ad bd 63 62 2e bd 27 10 a2 3d
       -0.371702 -0.08469853 -0.042574298 0.07913237
000180 d3 6d 45 bd cc 97 e5 be 61 23 98 bc 66 c5 b8 3c
       -0.04820044 -0.44842374 -0.018571557 0.022555064
000190 6b 96 f5 3c 52 da 5c bd 90 6e 35 bd 97 9a 4a bd
       0.029978951 -0.053919144 -0.044294894 -0.049463835
0001a0 82 80 25 be 86 81 d5 3d be 0d 37 be a8 22 0f 3d
       -0.16162303 0.10425095 -0.17876336 0.03494516
0001b0 f0 f5 9f 3d ad e0 28 bd a5 1d db 3d e9 20 2e 3d
       0.07810581 -0.041229893 0.106990136 0.042511854
0001c0 fc ae 23 be b4 74 d6 bd e7 93 87 bd 59 32 38 bd
       -0.1598472 -0.10471478 -0.06620007 -0.04496989
0001d0 34 52 3f be 47 de cb be aa 81 2d be c4 67 23 be
       -0.18683702 -0.39818022 -0.16943994 -0.15957552
0001e0 42 d8 5c 3e 67 eb 4a 3d 3e 71 8f be 39 b4 e9 bb
       0.21566871 0.049540903 -0.28016084 -0.00713208
0001f0 11 c5 a7 3e 2f 22 46 3e 25 b2 cb 3c 34 ec 1e 3e
       0.32767537 0.19348978 0.02486522 0.15519792
000200 7b c4 f8 bd 9c 27 a9 bd 20 91 a7 bd 91 78 cc 3d
       -0.12146851 -0.08259508 -0.08181977 0.09983934
000210 47 ef 0c 3a 49 a2 5d 3d ad 8b 8f 3d cb 0f 56 be
       0.0005376231 0.054109845 0.07009063 -0.20904462
000220 09 b6 0f be 1c 70 06 3c a1 b6 b8 bd 5c 8f 35 be
       -0.14034285 0.00820544 -0.09019209 -0.17730469
000230 d7 4c 86 be 60 3c 23 3d 4f 31 65 be 20 3a 32 be
       -0.262305 0.0398525 -0.22382091 -0.17404985
000240 7a a3 16 3e 76 28 67 bd 72 79 13 bd eb 15 c5 bd
       0.14710799 -0.05643507 -0.03600449 -0.09623321
000250 ad 8e 53 be 76 17 fb 3c 13 9e 7d 3d 1b 6f 65 bd
       -0.20659895 0.030650835 0.06191833 -0.05601416
000260 2f fb 9d be 35 27 10 bc eb 2c ef bc b7 27 83 be
       -0.308557 -0.00879841 -0.029196223 -0.25616238
000270 88 af 6b 3e d3 87 ae bd 68 f6 c1 bb ed 8a 40 3e
       0.23016179 -0.08522 -0.0059192665 0.18802996
000280 6c e5 1c 3d 7c d8 53 3e 84 a6 38 bd b7 50 b9 bd
       0.03830473 0.20688051 -0.045080677 -0.09048598
000290 a4 ff 7f 3e 0b 31 de bd e2 6e 03 3e e6 e6 34 3d
       0.24999863 -0.10849198 0.12835267 0.044165514
0002a0 37 0e 9b bd 58 72 c2 3d 2e 6a 26 bd 4f 18 a5 bb
       -0.07571071 0.094944656 -0.040628605 -0.005038298
0002b0 af e1 65 3e 4f c5 f7 bc 2e 01 96 3c 3f 12 17 be
       0.22449373 -0.030245451 0.01831111 -0.14753054
0002c0 05 bd 0e be 18 de 83 bd 62 89 22 3b 68 11 a0 bc
       -0.13939293 -0.064388454 0.0024801125 -0.01953955
0002d0 27 e7 32 3e f0 7c ec bd 5c 62 5d be d9 82 3a 3e
       0.1747099 -0.115472674 -0.21619552 0.18213977
0002e0 db 6e 53 3e 00 92 f1 3d 41 d5 b3 bd 47 d0 23 3e
       0.20647757 0.117954254 -0.08780909 0.1599742
0002f0 5a 02 91 3e 62 3a cc 3d 2e 18 b3 bd 86 56 33 bd
       0.28322107 0.09972073 -0.08744846 -0.043783687
000300 1c a3 64 bd d8 a3 a3 be b1 af ff 3c cc e7 96 3d
       -0.055819616 -0.3196094 0.031211706 0.073684305
000310 23 53 a5 be 24 ca a6 be 82 54 75 3e 59 58 30 bd
       -0.3228999 -0.32576096 0.23958018 -0.043053005
000320 05 07 3c 3e 29 96 e7 bd 71 65 33 be 96 19 7b be
       0.18362053 -0.11307938 -0.17519166 -0.24521479
000330 42 06 86 be a4 ea 39 bd 60 b7 28 be a1 63 3d be
       -0.2617665 -0.045389786 -0.16476202 -0.18495037
000340 1c 3b b3 be 1a 60 b8 be 4e a2 f6 bd 07 c4 81 bd
       -0.35006034 -0.3601082 -0.12042676 -0.063362174
000350 ea 97 24 3d d2 b4 ed 3e 51 18 2a 3d 2d 72 d3 3d
       0.04018394 0.46427017 0.041527096 0.10324512
000360 d4 c9 7d bd 58 0b 66 bd fe 89 06 be c2 28 4c 3e
       -0.061960056 -0.056163162 -0.13138577 0.19937423
000370 2c 25 1d 3e 03 b7 d9 3d 3b e6 4d 3c 86 a3 0c 3e
       0.15346211 0.1063061 0.012567098 0.13734254
000380 95 6c 74 3d d1 f1 f9 bc bc 51 3f be 31 75 89 be
       0.059673864 -0.030510815 -0.18683523 -0.26847222
000390 23 05 f2 bd ac d4 dc bd b0 1b fa 39 1f 5f 53 bd
       -0.11817386 -0.107827514 0.00047704345 -0.051604386
0003a0 c4 7d 18 bd 0f b2 29 3c 9d 55 a6 bc 63 5d af 3c
       -0.037229314 0.010357394 -0.020304495 0.021406835
0003b0 cc cb 9a 3d 45 df 2e bd 87 26 0e 3e 1e 24 37 be
       0.075584024 -0.042693395 0.13881885 -0.17884871
0003c0 7f 30 5d 3b c8 57 9c 3d ae 6b 22 bc 96 ae e4 bd
       0.003375083 0.076339304 -0.009913368 -0.11166112
0003d0 b9 a6 6d 3d 55 94 47 bd 54 15 35 3e e7 c0 9d 3d
       0.058020327 -0.048725445 0.17683917 0.07702809
0003e0 8f 57 97 bc 44 9c c4 3d 9e 56 05 be 80 6c da bd
       -0.018474368 0.09600118 -0.13021323 -0.10665226
0003f0 79 ae 62 3e 61 6b 52 3e 00 45 43 3d 41 65 17 3c
       0.22136869 0.20548774 0.047673225 0.009240449

conv2.bias f4 [16]
000000 1e 18 d4 bb 9a b9 7c ba 66 95 b2 bd 8c 1a d2 bd
       -0.0064726016 -0.0009640694 -0.08719902 -0.1025897
000010 2a b1 12 3d f2 42 40 bd 42 32 db 3d 36 c4 f4 bd
       0.035813488 -0.046938844 0.10702945 -0.11951487
000020 8c de ad bd ef 6d f4 3d 78 58 2b be 63 6d 94 3d
       -0.08489713 0.11935031 -0.16732967 0.07247426
000030 c7 5b 28 bd 28 76 d1 3c 6a 19 dc 3d 2b cb 64 bc
       -0.04110315 0.025569037 0.10747035 -0.013964455

conv3.weight f4 [8, 16, 3, 3]
000000 f2 e8 f2 bd 26 49 8a bd 2c 37 e9 be 31 60 b8 3d
       -0.11860837 -0.06752233 -0.45549905 0.09002722
000010 3a b0 8a be 8d b3 c1 bd 04 e0 44 be 07 e6 5a be
       -0.27087575 -0.09458075 -0.1922608 -0.21376811
000020 99 6e 92 be 30 69 28 be ba 7a c4 3d 36 f7 0c 3c
       -0.28600004 -0.16446376 0.09593721 0.008603862
000030 21 21 27 bd 33 70 3d 3e 9a 7e 6b bd 00 1c 24 be
       -0.04080308 0.18499832 -0.057493784 -0.16026306
000040 15 fe 6a be 41 0c 51 3c ee 70 45 be a1 9e bb 3d
       -0.22948487 0.012759269 -0.1928136 0.091611154
000050 28 0d 71 3e f6 94 ea bd 02 4c ac 3d fb f3 76 be
       0.23540175 -0.11454193 0.08412935 -0.24116509
000060 09 a8 fc 3d 01 35 f9 bd bd 22 f8 be 65 7d c2 bd
       0.12336738 -0.12168313 -0.48464003 -0.09496573
000070 6d e8 14 bd 08 ce 4c bc d8 7c 0c 3e 98 01 14 3e
       -0.03635447 -0.012500294 0.13719499 0.14453733
000080 15 07 17 bc 95 1e 81 bd b7 57 0d bb b5 a1 21 be
       -0.009217997 -0.06304661 -0.0021567175 -0.15784343
000090 75 a5 a5 bd e8 da b6 3e f0 cd 92 bc 20 b2 cf 3d
       -0.08088199 0.35713887 -0.017920464 0.101413965
0000a0 20 84 2b 3e 1c 40 83 be 4c b0 f7 bd 85 34 c4 bd
       0.1674962 -0.2563485 -0.12094173 -0.0958033
0000b0 7a 66 02 be ba 33 c7 bd 23 81 87 3d e0 77 07 3c
       -0.12734404 -0.09726663 0.06616428 0.0082683265
0000c0 4e 48 01 be dd 53 7d 3e 6e 45 ce be 25 7c d6 bd
       -0.12625238 0.24739023 -0.40287346 -0.104728974
0000d0 06 36 ed 3b 84 26 45 be c4 b6 d2 bd 20 00 66 3e
       0.007239106 -0.19252974 -0.10288766 0.22460985
0000e0 33 b3 a9 3e c5 b4 fc 3c fd 33 f3 3d 6d e6 a8 3d
       0.3314453 0.030847916 0.1187515 0.08247075
0000f0 1f e3 32 3e 1f 02 82 be 6d 7c 85 3d d4 fb b1 bd
       0.17469452 -0.25392243 0.06517873 -0.086906105
000100 16 56 6d 3e 42 85 97 3e a3 55 1e 3e 15 41 88 be
       0.2317737 0.29593855 0.15462355 -0.26612154
000110 00 85 9b be 57 ff 0a be fd 96 c5 be f6 92 14 bd
       -0.30374908 -0.13573967 -0.38591757 -0.036272965
000120 20 24 42 bc 8d 20 b8 3c 72 b2 1f bd a5 1c 06 3d
       -0.011849433 0.022476459 -0.038988538 0.03274216
000130 04 70 e4 3c 62 cc 2d bd 61 c6 7c 3d 8a b9 19 3c
       0.027885444 -0.042431243 0.061712626 0.009382615
000140 e7 d1 44 bc d0 82 ee 3d b3 58 f6 3d dc 4b ca 3e
       -0.012012935 0.11646044 0.12028637 0.39511
000150 63 67 05 3e a5 1a 75 3e 28 25 4a 3e 71 8f 42 be
       0.1302772 0.23935945 0.19740736 -0.19000031
000160 f3 81 eb 3e 3d d4 89 3e f8 ff 00 be 25 7a 8c be
       0.4599758 0.26919737 -0.12597644 -0.2743694
000170 d9 08 08 be c8 d1 1c 3c b5 c4 5d bd 8e 4f 90 be
       -0.13284625 0.0095715 -0.054142673 -0.28185695
000180 8f 79 8d bc 1e 30 ee 3d 91 c0 63 be 32 80 2e 3d
       -0.017269878 0.116302714 -0.22241427 0.042602725
000190 0a ce 23 3d b3 93 16 3b 82 56 50 3d 76 4a 20 bc
       0.039991416 0.002297622 0.05086375 -0.009783378
0001a0 73 35 24 be 0c 35 92 be 5a 4e 2b bd 41 63 b5 3d
       -0.16036014 -0.28556097 -0.04182277 0.08856822
0001b0 b9 03 9f 3d 95 e0 d7 bd b3 e9 d0 bd ca 97 cc bb
       0.07764382 -0.105408825 -0.102008246 -0.0062436806
0001c0 1a 74 55 bd 1c 59 81 3c e3 fe e3 bc 6a 43 63 be
       -0.052112676 0.015789561 -0.0278315 -0.22193685
0001d0 ec 12 29 be ce 01 51 3e 1a 4d a5 3d 6e cb 34 3e
       -0.16511124 0.20410845 0.080713466 0.17655727
0001e0 d4 45 9f 3e ec e1 76 3e 9f f9 70 be ea 9c 68 3d
       0.31107962 0.2410962 -0.23532723 0.05679027
0001f0 33 fc 0b 3e ab 1f 0f be 70 0d 20 be 0f 5f 1f be
       0.13670425 -0.13976924 -0.15630126 -0.15563606
000200 e2 8b 00 3e 2e 24 59 3e 5d 27 4b 3e c5 a2 30 be
       0.12553361 0.21205208 0.19839235 -0.17249592
000210 c2 52 4a 3e 7e b9 90 3e 8a b3 60 bd e8 2b be bd
       0.19758132 0.2826652 -0.05485872 -0.09285718
000220 7e a2 10 3e dc 8b 45 3e 3b 2d 45 3c 29 eb 00 bd
       0.14124486 0.19291633 0.01203471 -0.031474266
000230 d4 6f 36 bd 6e 13 29 3e b5 c3 24 be 20 11 9e 3d
       -0.04454024 0.16511318 -0.16090281 0.0771811
000240 8c d8 a6 be c6 10 69 be 18 4b 9d be 2d b9 2f bd
       -0.32587087 -0.22760305 -0.30721354 -0.042901207
000250 ba 30 8a be f8 ad ce be fb a2 57 bd 84 45 73 be
       -0.269903 -0.40367103 -0.052645665 -0.23756987
000260 8f 98 f5 bd b0 8c e5 bd e1 f9 eb 3d 14 00 07 3e
       -0.11991989 -0.11208475 0.1152227 0.13183624
000270 d4 1a bc bd a5 af 70 3e 5a 82 54 3d d4 5a 4e 3e
       -0.091848046 0.23504503 0.051882125 0.20151836
000280 ed 2e 4a 3e 94 39 1e bb 22 58 c3 3d 1b 05 ad bd
       0.19744463 -0.0024143206 0.095382944 -0.084482394
000290 79 4c 09 be 1c 3b 0c be 56 dc 88 bd 3e f1 49 3d
       -0.13408078 -0.13694423 -0.06682651 0.049302332
0002a0 c1 29 75 3d ed 50 60 b8 07 b8 d9 bb e6 f5 02 be
       0.059854273 -5.348113e-05 -0.006644252 -0.12789115
0002b0 85 5e 26 3d d5 4d 2d be 18 2a 5c bd 15 30 3a bd
       0.040617485 -0.16924222 -0.05375108 -0.04545601
0002c0 cf 44 be bc 40 75 05 be 3f a3 05 be 31 ac 96 bd
       -0.02322617 -0.13033009 -0.13050555 -0.07357062
0002d0 0d af 18 bd e5 37 25 3e 1d c2 2e 3e 30 2d 94 3c
       -0.037276316 0.16134603 0.17066236 0.018087953
0002e0 e8 37 89 3e 6b 70 08 3e 9f 2a 23 3e ff bc 41 3d
       0.26800466 0.13324134 0.15934227 0.04729938
0002f0 50 90 c4 bd 85 60 0a be 28 b9 3c bc 88 87 e6 3d
       -0.09597838 -0.13513382 -0.011518754 0.11256319
000300 6b e7 5c be ed d2 42 3e 3a b1 95 bc 18 86 b1 3c
       -0.21572654 0.19025774 -0.018272985 0.021670386
000310 59 f7 33 3d ca ee 4a bd 9f 1b 80 be c9 27 8e be
       0.04393706 -0.049544133 -0.25021073 -0.2776473
000320 ab 71 86 3c a6 19 95 bd c1 aa bb 3b 5d b9 30 3c
       0.016411623 -0.07280283 0.0057271426 0.010786382
000330 4d e5 07 3e 65 32 18 3e 9f 1b 72 be e3 9c e1 bc
       0.13271065 0.14862974 -0.23643349 -0.02754063
000340 75 1b 8e 3d 02 13 8d bc 1a 2b 16 3e 96 40 3a 3e
       0.06938831 -0.017220978 0.1466488 0.181887
000350 0e 72 cb bd 88 33 c9 3d 97 51 fa bd a8 ac 26 be
       -0.099338636 0.09824282 -0.12222593 -0.162768
000360 90 e7 60 bd 88 7e b2 bc ef f3 82 3d ca ec 35 3a
       -0.054908335 -0.02178885 0.06394183 0.00069398864
000370 b4 a6 66 3d de 5c 05 3d a9 c8 00 3c 1d 3c 5d 3b
       0.056311324 0.03255927 0.007860341 0.0033757754
000380 c4 50 9c 3d df 5b 90 3e 02 c9 8e 3e 11 0e e4 3d
       0.07632592 0.28195092 0.27887732 0.111354955
000390 dd 1e 82 3d d9 ed a4 3d 66 ef e1 3c ef 75 3b be
       0.06353543 0.08053178 0.027579974 -0.18306707
0003a0 10 78 a7 3d 6b c9 43 3d a3 49 18 be 90 08 e2 3d
       0.08177197 0.04779951 -0.1487184 0.110367894
0003b0 09 fd 5f be a8 43 a6 be 5a b5 0b 3e 74 a3 28 be
       -0.21873869 -0.32473493 0.13643399 -0.16468602
0003c0 ba d0 9b be 27 da 17 3e bf 7c 50 bd 92 2f 82 bb
       -0.30432683 0.14829312 -0.050900217 -0.003972956
0003d0 67 4d 9e 3d b5 eb 51 bd b1 f2 3a 3d 4f 03 27 3d
       0.07729607 -0.05125018 0.045641605 0.04077464
0003e0 ea 7c f9 3c cd d3 f2 bd f5 ee 87 bc 0b b3 c4 3d
       0.030455071 -0.11856804 -0.016593436 0.09604462
0003f0 aa 12 11 be e1 22 3c be 98 1c 71 be 5c b9 42 be
       -0.14167276 -0.1837268 -0.23546064 -0.19016021

conv3.bias f4 [8]
000000 63 39 1c 3e 45 0e c2 3d 35 26 84 3d 86 19 c1 3d
       0.15256266 0.09475378 0.064526 0.09428696
000010 7a 52 ac 3d 41 bf 0b 3e 4b 59 2a ba 0b 02 c3 3d
       0.08414169 0.13647176 -0.0006498291 0.09521874

conv4.weight f4 [16, 8, 3, 3]
000000 d1 43 b9 3e 1d 9c 5e be e0 4e 17 be a4 c9 cb bd
       0.36184552 -0.2173924 -0.14776182 -0.09950569
000010 2e 89 05 3e aa 19 26 3e 69 c5 33 3e 22 15 67 3e
       0.13040611 0.16220728 0.17555775 0.22566655
000020 fc e4 17 bd cd 83 92 be 65 1c 74 3b dc 58 cf 3d
       -0.03708361 -0.2861618 0.003724837 0.101243705
000030 b4 1e c2 bd cf fa 8c 3e 91 be 93 bd 4b 48 ff bd
       -0.094785124 0.27535102 -0.07214082 -0.12464961
000040 cf e8 0f be d7 cd ab be cb a9 c6 3d 6b 74 63 be
       -0.14053653 -0.3355548 0.09700354 -0.22212379
000050 cd 0d 1b 3d d9 05 3d bd 4d ec d0 3d df f0 00 bd
       0.03785496 -0.046148155 0.10201321 -0.031479713
000060 fc c7 6c 3d 3e d4 e7 bc ba cd a6 3d 1c 82 8e 3e
       0.057807907 -0.028299447 0.08144708 0.2783364
000070 ea 85 59 3e 20 58 8c 3e fd 2d 87 3d 9e e9 86 bd
       0.2124249 0.27410984 0.066005684 -0.06587528
000080 7d 0d e3 bd 31 78 9a be 66 ad 38 be 36 ad a0 be
       -0.11086557 -0.30169824 -0.18034896 -0.3138215
000090 a5 91 0b 3e 4b cf 03 3e eb d9 98 bd 32 06 d8 bb
       0.13629778 0.12872045 -0.074634396 -0.0065925354
0000a0 8b 9d 49 be f3 54 cf bd 47 56 d9 be 4c 4a d8 be
       -0.19689004 -0.10123625 -0.42448637 -0.42244184
0000b0 8f 4a 8f be 71 b9 fa bd ad 59 f3 3d a4 64 d1 3d
       -0.2798657 -0.122424014 0.11882339 0.10224274
0000c0 2e c6 39 3d 2f 10 3c 3e 88 95 67 3a c3 04 3c 3e
       0.045355015 0.18365549 0.00088342326 0.18361191
0000d0 89 6b 44 3d d3 57 2e 3c 82 bb c9 3d 35 09 9b bc
       0.047954116 0.010641056 0.098502174 -0.018925289
0000e0 5a 67 5d bd 5d f4 5f 3d 91 44 1e be ba bc a2 be
       -0.05405364 0.054676402 -0.15455844 -0.31784612
0000f0 3d 74 9a be 15 e6 af be 9b be 0f bd 75 4a 78 3e
       -0.30166808 -0.34355226 -0.035093885 0.24247153
000100 b5 6b 68 3e 9f fd 1f 3e 29 7b 17 3d d5 ed 41 be
       0.22697337 0.15624093 0.03698269 -0.18938382
000110 27 0b fd bd 71 e9 fe be d8 0e cc be 19 69 98 be
       -0.12355643 -0.49787477 -0.39855075 -0.29767683
000120 8a b3 8f be 5e 09 4c bd 1b 07 98 bd bc a6 73 bc
       -0.28066665 -0.04981362 -0.0742323 -0.014871296
000130 58 08 aa 3d 70 7a 2c 3e 7e 54 44 3e 4e a1 02 3d
       0.08302373 0.16843581 0.19172856 0.031892113
000140 15 3e 80 3d a6 57 5b bd a9 da c5 3d 43 b0 ab 3d
       0.06261841 -0.053550385 0.09660847 0.08383229
000150 8e 1b aa 3d 83 e5 3a 3e 2d e5 d6 bd 72 cd d8 bd
       0.08306037 0.18251614 -0.104929306 -0.105860606
000160 63 10 48 3d d2 14 69 3c 1e 2b 85 bc 2f 55 01 3e
       0.048843753 0.014226155 -0.016255911 0.12630151
000170 4a c8 d2 3c 6f f5 98 3d 5b f8 70 3e 6b 4a b8 3d
       0.02573027 0.07468688 0.2353224 0.08998569
000180 8f a5 03 3e b6 ea 09 3e 5b 8b d7 bd 63 9a 1b 3d
       0.12856124 0.13468441 -0.10524627 0.03798903
000190 b9 14 fe bc 70 61 a4 be 47 3c dd 39 6e a7 0b be
       -0.03101574 -0.3210559 0.00042197315 -0.13638088
0001a0 2f 4b 9f bd 70 a6 85 bd 6b 4d 0e be b6 21 b5 3d
       -0.07778012 -0.06525886 -0.1389672 0.088443205
0001b0 f8 1e cc 3c 71 fc 8a be e3 1f 8e be b7 4d 4e 3d
       0.02491711 -0.27145723 -0.27758703 0.050367083
0001c0 bc 84 3b be da c0 c4 bd a9 a0 3d 3d e0 01 99 bd
       -0.18312353 -0.09607096 0.046295796 -0.07471061
0001d0 43 34 72 be e3 6f 0a 3d 9f b9 cf 3d 2a c4 02 bd
       -0.23652749 0.03379811 0.10142826 -0.031925358
0001e0 a0 a7 dc 3c 8e 77 a5 3d d7 ca 79 3d 38 ea 9b bd
       0.026935399 0.08079444 0.06098446 -0.07613033
0001f0 95 7e 10 bb 66 83 bf 3c 16 08 a6 bd 7b 71 54 3d
       -0.0022048105 0.023378085 -0.08107011 0.051866036
000200 2e d1 80 bd 64 64 9d bc 3e de 0e 3e a3 bc 0a be
       -0.06289898 -0.019212909 0.13951966 -0.13548522
000210 24 cb f2 bd 30 eb cc be ed a1 01 be ce ec bb 3d
       -0.11855152 -0.40023184 -0.12659426 0.09176026
000220 75 93 f1 3c 86 74 33 be 68 01 e7 3d 5e b8 22 be
       0.029489258 -0.17524919 0.11279565 -0.15890643
000230 79 c3 70 be 7f 06 97 bc 61 84 23 be 0d 29 71 be
       -0.23512067 -0.018435715 -0.15968467 -0.23550816
000240 b9 c0 43 bd 7b cb 46 3e 73 68 33 be f8 8e 99 bd
       -0.047791217 0.19413559 -0.17520313 -0.07497972
000250 53 d3 1d 3e 2a aa 57 be 3d ef b3 ba 7e 2e 4b bb
       0.15412645 -0.21061006 -0.0013727915 -0.0031003053
000260 b7 d6 ad be 69 c3 91 3d 4f 97 75 be 0c ec 4f be
       -0.33952877 0.0711735 -0.23983501 -0.20304888
000270 15 8e ab bc a9 c5 99 3d 55 6a 5f be df 11 2f 3e
       -0.020941773 0.07508404 -0.21817906 0.17096661
000280 3d d0 de 3d 95 3f ff bc fc 69 8f 3d 74 a0 39 3e
       0.10879562 -0.031158248 0.07002637 0.18127614
000290 08 37 7a bd 9f 44 5b 3d b3 9f 34 3d d9 c6 49 be
       -0.06108764 0.05353224 0.044097614 -0.1970476
0002a0 58 3d 5b 3e 7f 0f ef 3d c1 e5 6c be 04 d1 5d be
       0.2141012 0.116728775 -0.23134519 -0.21661764
0002b0 db 79 ad 3d 60 53 1c 3e 93 2a 6e be 20 d4 05 3e
       0.08470508 0.1526618 -0.23258428 0.130692
0002c0 cc b9 11 3e 60 6f f9 3c a9 ae 82 3d f6 61 7b 3e
       0.14231032 0.030448616 0.0638097 0.24549088
0002d0 9c 7c 11 3d 83 a0 1f be 17 b1 5f 3e d3 80 ae bd
       0.035519227 -0.15588574 0.21844898 -0.08520665
0002e0 fe ae 4a bc f3 97 39 3d a9 58 48 be 88 49 d8 3d
       -0.012370823 0.045310926 -0.19565071 0.105609
0002f0 c6 52 ba 3b 31 72 39 3e 8b 7b 21 3d 0b 6c f4 bd
       0.005686137 0.18109967 0.03942446 -0.1193467
000300 6d 3a b5 bd 68 9f 41 3d 58 1a bb be bc ba 03 bd
       -0.088490345 0.047271162 -0.36543536 -0.032160506
000310 19 16 cb bd 5e 6c c6 be 02 24 eb 3c 40 f4 d9 be
       -0.09916324 -0.38754553 0.028703693 -0.4256916
000320 1b 53 a2 3e d0 d3 37 3d 15 58 63 be c0 f6 98 3e
       0.3170403 0.044879735 -0.2220157 0.29875755
000330 39 60 ec bd c2 76 9c be d7 cb 87 3e 7c e9 67 be
       -0.115417905 -0.30559355 0.26522705 -0.22647661
000340 73 a7 8e be 7e 5c ce 3c 6f e6 26 be dc 72 b6 bd
       -0.2786213 0.025190588 -0.16298841 -0.089086264
000350 26 83 05 3e cc 53 23 bd 19 97 71 bd 94 d5 e7 3d
       0.1303831 -0.039874837 -0.05898199 0.11320034
000360 ed ef 19 bf 2b ae b6 bc d3 42 76 3e 47 00 ba bd
       -0.6013172 -0.022299847 0.24048929 -0.09082084
000370 88 59 3e 3e ea 1f 9b bd 7f 0e 8e 3e 33 08 48 be
       0.18588841 -0.075744465 0.27745435 -0.19534378
000380 e6 17 5b be 12 cd f9 bd 72 0f 1b 3e 49 8a 01 bd
       -0.21395835 -0.12197317 0.1514261 -0.03162602
000390 86 f4 14 3e d4 1d 7e 3c f7 31 53 be fe f7 a2 bc
       0.14546403 0.015510041 -0.20624529 -0.019893643
0003a0 a3 f3 b0 be 63 47 84 3d 8f 31 61 be c1 9c 97 3e
       -0.3456088 0.064589284 -0.21991561 0.2961178
0003b0 84 a9 0e 3e 4c 8c a4 3d 7a e9 1b 3e f8 70 9a 3d
       0.13931853 0.08034572 0.15225783 0.07541078
0003c0 59 29 28 3d 63 72 bc be 87 bd 44 be 56 11 04 3d
       0.041055057 -0.3680602 -0.19212924 0.032243095
0003d0 82 71 9a bc db bc ab be 58 ca 0e be 8a 96 30 be
       -0.018852953 -0.33542523 -0.13944376 -0.17244926
0003e0 b3 f2 a0 bd 4c b2 17 be 10 0a d5 bd b3 1e 22 3e
       -0.07858791 -0.14814109 -0.1040231 0.15832023
0003f0 b2 c8 76 bd 3e 68 72 be ae ce 00 3e 30 fe cc 3d
       -0.06024999 -0.23672578 0.12578842 0.1000942

conv4.bias f4 [16]
000000 d4 f8 00 be 22 3c 44 bc 7b 6d ea bd ec a9 b7 3c
       -0.1259492 -0.011977227 -0.11446663 0.022419892
000010 ab 25 be bd b5 83 48 3e ce a2 da 3c d1 f1 97 bc
       -0.09284528 0.19581492 0.02668896 -0.018547924
000020 4c 53 98 3c ba f0 c8 bd df ba db bd 31 35 cb bd
       0.018594407 -0.0981154 -0.10729002 -0.09922255
000030 ef e8 17 3e 6d 4b 68 3d 72 9e bb 3d 3d 69 b6 3c
       0.14834951 0.056712557 0.091610804 0.022266978

conv5.weight f4 [16, 16, 3, 3]
000000 7d 26 1e be 78 4a 47 bd a2 ca 2e be f4 34 67 be
       -0.1544437 -0.048655003 -0.17069486 -0.22578794
000010 cb 67 12 3d d6 cb 50 bd ee d0 8f 3d cb b3 a4 bd
       0.035743516 -0.050975643 0.07022272 -0.08042105
000020 28 77 dd bd 0e 63 4d 3d e1 cc 3c be 53 76 bc bd
       -0.10813743 0.050143294 -0.1843753 -0.09202256
000030 f6 12 83 bc ea 7a bd bd 06 78 24 be 3b c0 c4 bd
       -0.016000252 -0.092519596 -0.1606141 -0.096069776
000040 47 20 ac 3d bd e4 06 bd 3f e0 bb 3c ac 20 99 bd
       0.08404594 -0.032932986 0.022934077 -0.07476935
000050 93 f3 18 3d 63 71 7d 3c 99 10 c6 bd a6 e3 78 3d
       0.037341665 0.015468928 -0.096711345 0.060763977
000060 e4 59 a6 3d 4a 76 9c bd f1 d4 8d 3d cf 07 94 bd
       0.08122614 -0.07639749 0.06925381 -0.07228052
000070 61 be a9 3c ec 93 90 bd c4 41 75 3d d0 80 4a bd
       0.020720663 -0.07059464 0.059877172 -0.04943925
000080 96 e5 f8 bd bd f4 7a 3e f0 5a be 3b 07 65 bd bd
       -0.12153165 0.24507423 0.0058091804 -0.09247785
000090 76 20 e4 bd 6f cf 87 bd 39 5a 05 bc 48 fa 8b be
       -0.11139004 -0.06631362 -0.008139187 -0.27339387
0000a0 04 f3 cd bd 19 7a a4 bd e6 9d ea bd 16 03 b9 3d
       -0.10056117 -0.08031101 -0.11455898 0.09033792
0000b0 09 fa ba bd c2 2f a0 3d 09 00 db bc 3e 38 81 be
       -0.09129722 0.07821609 -0.026733415 -0.25238222
0000c0 16 0f 62 bc c2 99 35 3b da e6 47 be 86 cd 98 bd
       -0.013797542 0.0027710055 -0.19521657 -0.074610755
0000d0 ed 2d a1 bd 92 4f e4 bc e7 2b 0b be 1f 89 34 bd
       -0.07870088 -0.027869973 -0.13590966 -0.04407608
0000e0 4d d5 e3 bc 0c e7 f9 bd 6d 67 ba bd b9 a2 09 be
       -0.02781167 -0.12202272 -0.09101758 -0.1344098
0000f0 1b dc 6c bd 40 2d 50 be 91 9e 03 be e2 8c a2 bc
       -0.057827096 -0.20329762 -0.12853457 -0.019842569
000100 5b 10 4b bc 7b 39 3c bd 55 b7 14 3d e0 fc de bc
       -0.012394036 -0.045953255 0.03630765 -0.02722019
000110 1b d1 9b bd 9d e8 34 3e 85 03 d3 3d 45 5b c2 bd
       -0.07608243 0.1766686 0.10303406 -0.094900645
000120 a7 4c 24 3e c0 36 e7 3c 5f 52 8a be c5 0d 94 3d
       0.16044866 0.028224349 -0.2701597 0.07229189
000130 64 73 17 3e 4c 8d ea bd 48 72 33 3e 78 f6 96 3e
       0.14790112 -0.114527315 0.17524064 0.29484916
000140 88 8f 01 3b 99 44 46 be 71 77 26 bc fe d8 1b bd
       0.001976939 -0.19362105 -0.010160313 -0.038048737
000150 54 2c 09 bd f8 11 84 bb bf d5 61 be 8b 79 d6 3d
       -0.03348954 -0.0040304624 -0.22054194 0.10472401
000160 a7 8e d3 3c da 98 30 be ad 82 da bd 76 d9 92 3d
       0.025824858 -0.17245808 -0.10669456 0.07170384
000170 ac f0 1f bd 7f 1d d0 bd 93 f9 1f 3e b2 86 30 be
       -0.039047882 -0.10161876 0.15622549 -0.17238882
000180 4d 7d b7 3e b8 24 db 3c 49 1e b4 bd 52 72 08 be
       0.35837784 0.026750907 -0.08794839 -0.1332486
000190 fd e2 4d 3d a2 12 10 be ac 52 7f 3d c9 d3 bd bd
       0.0502653 -0.14069608 0.0623347 -0.092689104
0001a0 e4 2a 8e be 0f 26 69 3e e7 8a 41 bd a2 4e 3c be
       -0.27767098 0.22768424 -0.04725161 -0.18389371
0001b0 e4 1e 93 3a 27 0d c2 bd 73 16 f7 bc c7 70 ae 3d
       0.0011224416 -0.09475165 -0.030162072 0.08517604
0001c0 04 b6 68 bd 44 ff 18 bd 45 3f 94 3d f7 f3 e9 3d
       -0.05681421 -0.037352815 0.0723863 0.11423486
0001d0 e2 3b 52 3d 90 14 cb 3d 9d 90 0b be 0f ac 7d be
       0.05132664 0.09916031 -0.13629384 -0.24772666
0001e0 76 29 12 bd 89 7a 65 3c e0 d5 75 be 86 7c cb bd
       -0.03568407 0.014006265 -0.24007368 -0.0993586
0001f0 7c 3d 5c 3c ae 73 92 bd 22 f2 70 bb 30 25 9d bc
       0.013442393 -0.071509704 -0.0036765416 -0.019182771
000200 ad 33 c5 bc 15 1b 73 bc 3c d5 d7 bd 12 e0 0e 3d
       -0.024072492 -0.014838 -0.10538718 0.03488166
000210 df d3 6e 3e 69 27 43 3c a6 6a 20 be 0c 74 24 be
       0.2332301 0.011911252 -0.15665683 -0.16059893
000220 c7 f6 d1 bd 0b e1 0d be 3c 73 3c be fd 33 03 3e
       -0.10252147 -0.13855378 -0.18403333 0.128128
000230 7e a8 aa bd e3 9f aa ba ac 09 91 bc fa 45 fd bd
       -0.083329186 -0.0013017621 -0.017704807 -0.123668626
000240 78 4e 1f 3d 61 7b bb bd 5b c5 36 bd 41 4b 90 bd
       0.038893193 -0.09154392 -0.044621807 -0.070456035
000250 a6 76 2c 3d 25 2d c9 3c 60 3f ea bb 80 de 41 bd
       0.04210534 0.02455766 -0.007148668 -0.047331333
000260 87 9b 4d bd 84 db d2 bd ad 3d 9c bd 48 ff 47 bc
       -0.05019715 -0.102957755 -0.07628951 -0.01220686
000270 ef 1f ad bc 6a 1b e4 bd ea ca b4 bc e8 ed cb bb
       -0.021133391 -0.11138041 -0.022069413 -0.006223429
000280 ee 4b e9 b9 3e 51 ff bc 6a 68 81 bb 3e 24 ab 3c
       -0.00044497795 -0.031166669 -0.0039492147 0.020891305
000290 7b 6b 9d bd 47 9a f0 bc cc 47 34 3d 98 7b 07 bd
       -0.07686516 -0.02937044 0.044013783 -0.033076853
0002a0 07 a8 a6 bd f4 cb 3d bd 5e 71 42 3d f1 cb 24 3d
       -0.081375174 -0.046337083 0.047471397 0.040233556
0002b0 9c 63 38 bd 01 11 c4 bb 51 aa a1 bd 42 0c 51 3d
       -0.04501687 -0.0059834723 -0.078938134 0.05103708
0002c0 c3 a3 d9 ba c0 3f df bb ad a6 1a 3d 01 99 db bc
       -0.0016604591 -0.0068130195 0.03775661 -0.026806356
0002d0 0b 94 a3 bc d7 64 13 3c 6a ae 8b 3d d4 2b 43 3d
       -0.019968053 0.00899621 0.06820376 0.04764922
0002e0 65 c6 a3 bd b3 cd ab 3c 71 e6 7d 3d 05 f2 f0 bd
       -0.07996825 0.020972108 0.061987344 -0.117649116
0002f0 c2 4c d0 bd 8e ab 4a 3d d3 d0 e7 bc 7e 72 23 bd
       -0.101708904 0.049480014 -0.028297817 -0.03990411
000300 e4 83 3f 3d 91 77 98 bc d6 aa af 3c 39 d3 3a 3d
       0.04675664 -0.018611701 0.021443766 0.045611594
000310 59 d5 8e 3b 62 d6 cc bd 8d d0 10 3d 43 c3 84 bd
       0.004358929 -0.10001828 0.03535514 -0.06482556
000320 80 66 a6 3c 27 c1 c8 bd d5 62 24 3d 33 10 70 bd
       0.020312548 -0.09802466 0.040133316 -0.0586092
000330 78 02 9f bd 23 76 03 be f6 bc dc bd 97 b6 c1 3c
       -0.07764143 -0.12838034 -0.10778229 0.023646636
000340 f8 56 b6 bb b9 82 1a bc e2 d3 d3 3c bb 13 e6 bd
       -0.0055645667 -0.009430581 0.02585787 -0.11234232
000350 aa 0d 3c 3d 19 14 87 bd c0 bb 51 3c 87 31 78 bd
       0.04591147 -0.0659563 0.012801111 -0.060594108
000360 0b 04 a5 3c 90 52 aa bd 53 7d 40 bd 53 b7 41 3d
       0.02014353 -0.08316529 -0.04699452 0.047293972
000370 d5 05 e7 bd a3 40 9d 3c cc c0 05 3d 2c 9c 1d 3c
       -0.11280409 0.01919586 0.03265457 0.009619754
000380 7f ad 70 bd f9 3c 48 3d ed 48 15 bc 68 5d 44 3d
       -0.05875921 0.048886273 -0.009111625 0.04794064
000390 78 d4 48 bd 26 b8 84 bd 73 05 89 bd b0 1a 8e bc
       -0.04903075 -0.06480436 -0.066904925 -0.01734671
0003a0 0b b3 2a bd 2a 72 4f 3d 4e e4 9b bd 2e 2b 80 bd
       -0.041674655 0.050645985 -0.07611905 -0.06258236
0003b0 f8 23 62 bd 37 19 94 bd 78 21 06 3c 55 c9 2d bc
       -0.055210084 -0.07231372 0.0081866905 -0.010607083
0003c0 c2 7c 3d 3d bf 17 14 bc 1c a8 aa 3c 5a 56 64 bc
       0.046261556 -0.009038865 0.020832114 -0.013936603
0003d0 88 a9 96 bd 5d 41 ac 3c 76 85 9f bd dd 1c c0 3c
       -0.07356554 0.021027261 -0.077891275 0.023451263
0003e0 88 b1 a3 bd e2 e9 7f bd 4c 7d db 3c 4a a4 ca 3c
       -0.07992846 -0.062478907 0.026793145 0.024736542
0003f0 52 47 7b bd 64 76 be bd dd a0 28 3d ab e1 4e bd
       -0.061347313 -0.09299925 0.041169036 -0.050508182

conv5.bias f4 [16]
000000 c8 43 d9 bd a0 dc 2a be b3 0c a5 3c 70 1d 02 3d
       -0.10608631 -0.16685724 0.020147657 0.031766355
000010 e5 93 4d 3d 7a 0f 9b 3d 0f 1e 86 bd 66 85 86 3e
       0.05018987 0.07571311 -0.06548702 0.2627365
000020 87 dd a7 bd 0a 19 e3 bd f7 88 19 3e b1 58 4a 3e
       -0.0819655 -0.1108876 0.14993654 0.19760396
000030 ce 9c 01 3e 2c a3 29 3d 2a 37 cc bd 59 f2 12 3e
       0.12657472 0.04141538 -0.09971459 0.14350261

conv6.weight f4 [8, 16, 3, 3]
000000 e2 0b 87 bc 7f a7 23 bd 37 ba 2d 3d ed ae 17 3d
       -0.016485158 -0.03995466 0.042413916 0.037032057
000010 99 a9 ff 3c f2 4a 5f bd 98 72 e1 bd 14 a4 d5 bd
       0.0312088 -0.054514833 -0.11008185 -0.10431686
000020 87 20 27 bc a2 4b 29 bc 7d 58 af bc a9 9e a0 3c
       -0.010200626 -0.010332974 -0.0214045 0.019606905
000030 7a a0 85 3d 18 4e 94 3d 58 71 7a 3c da bd 3f 3d
       0.06524749 0.07241458 0.015285812 0.046811916
000040 b7 e0 93 3c da b8 dc 3c cb e3 0f 3d a4 c2 a4 bd
       0.018051488 0.026943613 0.03512935 -0.08044937
000050 a5 1d 04 3e 0a 14 55 3d 3e 1c 46 be db 04 49 bc
       0.12901933 0.052021064 -0.19346711 -0.012269224
000060 79 b8 20 3d ba 0b cc bc c6 77 43 be c9 21 7f be
       0.039238427 -0.024907935 -0.19088659 -0.24915232
000070 17 77 7c bd 80 f2 07 bd eb dc b1 3b f8 e6 13 bd
       -0.06163701 -0.03319025 0.005427947 -0.03610894
000080 48 b8 99 3d 58 42 b6 bd ce cb 23 3e 65 09 2f bd
       0.07505852 -0.08899373 0.15995714 -0.04273357
000090 21 cf 55 3d 66 a5 09 bc e1 83 32 be 68 d7 32 3e
       0.052199487 -0.0084012505 -0.1743312 0.17464983
0000a0 99 19 fb 3d 07 63 1c be 22 87 50 3e 98 4a 34 3e
       0.12260742 -0.15272151 0.20364049 0.1760658
0000b0 f2 f3 bd bd 0b ae 7d bd e1 00 5c bd db 32 e8 3d
       -0.092750445 -0.06193356 -0.053711776 0.11337825
0000c0 48 d2 b1 bd 63 52 5d bd 78 f1 e4 3d 93 4e e4 bd
       -0.08682686 -0.05403365 0.11178869 -0.11147799
0000d0 9e 2c 1c 3e cf b1 c6 3d b6 37 2f be a1 1b df 3d
       0.15251395 0.09701883 -0.17111096 0.10893942
0000e0 47 a7 2b 3d f7 aa 15 be 42 9c e7 bd c2 91 c0 3d
       0.041907575 -0.14615999 -0.11309101 0.09402801
0000f0 f2 fa 60 3e 45 61 8e be 29 0a 5c be 0e 60 a5 be
       0.21970728 -0.27808586 -0.21488251 -0.32299846
000100 68 77 fd 3c 0e cd c8 3d 7c 1c d5 be 94 9d 2a 3d
       0.030940726 0.09804736 -0.41623294 0.041654184
000110 df 1f 54 bd f5 32 08 be 96 27 cb 3c eb ba 01 3e
       -0.051788207 -0.13300689 0.02479915 0.1266896
000120 c8 c9 44 3e f2 4b 54 3e 47 ed 2f bd 53 e1 aa bd
       0.19217598 0.20732096 -0.042950895 -0.083437584
000130 4b 2c 3a 3e af 5e cc 3d 26 23 d1 bd 0d 7a 39 3d
       0.18180959 0.09978997 -0.10211782 0.045282412
000140 c1 56 d8 bc 03 98 9a bc 83 f9 1d 3d 11 bc 1c 3d
       -0.026408555 -0.018871313 0.03856803 0.03826529
000150 94 0e 83 3d d5 0f 02 3e 70 1f 71 3d 21 cf 07 bd
       0.06399265 0.12701352 0.05886787 -0.033156518
000160 22 5b 4e 3e 24 68 f5 3d 88 68 74 be 65 03 18 3e
       0.20151952 0.11982754 -0.23868 0.14845045
000170 df ac c3 bd 5d 33 8a 3d 2b 82 d9 3c 57 b3 0c 3d
       -0.09554457 0.06748078 0.026551327 0.03435072
000180 f5 d3 14 3e de 28 c3 bd aa 2a 1f 3d 29 d3 c5 bc
       0.1453398 -0.09529279 0.038859047 -0.02414854
000190 1e 64 ed bd 88 e3 8a be 10 24 09 3e 28 ed d9 3c
       -0.115913615 -0.27126718 0.13392663 0.026602343
0001a0 3e 04 bb be fa 03 db bd 1e 88 38 3c ed c0 0a be
       -0.36526674 -0.10694118 0.011262922 -0.13550158
0001b0 d9 fd e7 3c 63 95 5c 3d 2b 57 9c bd 67 c6 71 3e
       0.028319286 0.053853404 -0.076338135 0.2361084
0001c0 3d 09 ba bc 67 79 d5 3c 18 e3 8b 3e 4f 07 2d 3a
       -0.022709483 0.026058866 0.27321696 0.00066005153
0001d0 96 3c e8 bd 52 c0 ef bc 2e 41 36 3d e5 dc 46 3e
       -0.11339681 -0.02926651 0.044495754 0.19420202
0001e0 e8 97 0f be 2c 40 13 3e a6 aa ab bc 28 ba 4f 3c
       -0.14022791 0.14379948 -0.020955395 0.01267866
0001f0 d3 5e 90 3d 60 66 f1 3d 14 e5 31 3e c5 08 b1 bd
       0.07049336 0.117871046 0.17372543 -0.08644251
000200 08 a8 42 be 39 39 d8 3d f5 e0 da bd 16 57 04 bd
       -0.19009411 0.10557789 -0.106874384 -0.032309614
000210 6e 9e 42 be 46 28 21 be 75 bf 38 be 06 94 c0 bc
       -0.19005749 -0.1573802 -0.18041785 -0.023508083
000220 9a d2 3d bd 52 f2 f4 bd d9 f8 03 be 52 d6 a6 3d
       -0.046343423 -0.119602814 -0.12887897 0.08146347
000230 72 66 43 be 15 05 74 be 13 70 87 bd 61 cf 79 bd
       -0.19082049 -0.23830064 -0.06613173 -0.060988788
000240 c5 c4 71 bd 36 60 04 3e 41 65 63 3d e0 71 c3 bc
       -0.059025545 0.12927327 0.055516485 -0.02385801
000250 de 9c 84 bd 96 32 b2 3d b8 9a 93 be 07 f8 e6 bd
       -0.064752325 0.08701055 -0.2882898 -0.11277776
000260 bf 44 42 be 40 ed 07 3d 47 1a 04 bc eb 8d 02 3b
       -0.18971537 0.033185244 -0.008062906 0.0019921015
000270 5a 63 e0 3d d6 47 3b 3d 2d 4a 9a 3d e9 ff 09 3d
       0.1095645 0.045722805 0.07533679 0.03369132
000280 a0 31 d8 3c 0a 09 3a 3d 3f 19 8b bc e1 6c c3 bb
       0.02639085 0.045418777 -0.016979812 -0.005963907
000290 8a a1 3d 3d 2b 0f 62 bd 77 95 df 3d 29 0b 8c 3d
       0.046296634 -0.055190247 0.1091718 0.06838066
0002a0 11 54 81 3e 22 81 5b 3d 10 b6 0e be e4 33 29 be
       0.2525945 0.053589948 -0.13936639 -0.16523701
0002b0 ab 60 1a be 42 cc 48 3d c5 cc 82 3d bd 3e d9 bd
       -0.15075938 0.04902292 0.06386713 -0.106076695
0002c0 36 70 84 be ce 0a 58 be a3 ff 41 bc 11 65 65 3a
       -0.2586686 -0.21097872 -0.011840734 0.0008750717
0002d0 f9 18 0d 3d ef 71 d4 3c 92 e6 47 3d f6 a9 ae 3d
       0.034447644 0.025933234 0.048803873 0.08528511
0002e0 40 2e ee 3d 9e 28 4b bd ca ad 50 3b 68 78 71 be
       0.11629915 -0.049599282 0.0031841868 -0.23581088
0002f0 d3 44 21 be 66 f6 27 bd a5 36 47 be 6d 3f ac be
       -0.1574891 -0.04100647 -0.19454439 -0.3364214
000300 76 b9 b1 be cd 3b 9d be 86 ce 69 bd 52 37 16 3e
       -0.34711808 -0.30709687 -0.05708172 0.1466954
000310 7f 3a e2 3c de bb cf 3d e9 bf 6e 3e 32 3e 7b 3d
       0.027615784 0.10143255 0.23315395 0.06133861
000320 ec 04 34 be b6 44 da 3d 17 c5 a1 3c 10 aa 5f 3d
       -0.17580003 0.10657637 0.0197473 0.054605544
000330 d2 44 7d 3d e9 b0 53 bd 09 aa 11 be af f7 11 3d
       0.06183321 -0.051682387 -0.1422502 0.0356366
000340 73 77 be bc c8 7c fa bd 0c fa 56 be 31 0e 71 be
       -0.023250317 -0.122308314 -0.20993823 -0.2354057
000350 79 52 f0 bd 71 4a 32 3c 8e 70 06 3d 9b c4 d3 bc
       -0.117344804 0.010882006 0.032822184 -0.025850585
000360 11 47 2b be fe ae 38 be 82 73 3a be 82 24 04 be
       -0.16726328 -0.18035504 -0.18208125 -0.12904552
000370 53 99 de 3d a9 ff 54 3b e1 be e1 bd d0 85 36 3e
       0.10869088 0.0032501018 -0.110227354 0.17824483
000380 66 a5 2f 3e 52 e0 5b 3d 33 76 05 bc b4 85 d4 bd
       0.17152938 0.053680725 -0.008145857 -0.10377064
000390 d7 52 0a 3d b5 91 d8 3d af 5e 13 3e 36 59 7c 3d
       0.03377041 0.105746664 0.14391588 0.061608516
0003a0 e2 3e 0d 3e a8 75 5d bc 9e 10 98 bd cf 87 72 bc
       0.13793519 -0.013516821 -0.074250445 -0.014802887
0003b0 a5 bb 20 3d f9 55 ae 3d 39 57 53 3d 8d e2 3c 3c
       0.03924145 0.08512492 0.051596854 0.011528623
0003c0 26 84 ee 3b 0a e7 28 bd fb c3 14 ba 24 4f f2 bd
       0.007278937 -0.04123596 -0.00056749553 -0.11831501
0003d0 96 d3 32 3e 99 fe 56 3e 9b 9f b4 bd c0 40 e3 bd
       0.17463526 0.20995559 -0.08819505 -0.110963345
0003e0 ea 5e 7c 3d 91 33 fd bd e8 b5 76 be d6 59 d5 bd
       0.061613955 -0.12363351 -0.24092829 -0.104175255
0003f0 69 71 a3 3d d9 48 28 3d 5e c7 b7 3b 30 39 4a 3e
       0.07980616 0.041085098 0.005608483 0.19748378

conv6.bias f4 [8]
000000 e9 5d 56 3d 58 e8 99 bb c4 12 89 3e 9b d1 0e be
       0.052335653 -0.004696887 0.2677213 -0.13947146
000010 b4 80 5e 3e de 88 94 3d cd 60 9b bc de 92 a6 3e
       0.21728784 0.07252668 -0.018967057 0.32533926

prediction_layer.weight f4 [10, 512]
000000 06 5a 51 be 80 ed 48 be 5a ac 30 be de 03 ce bc
       -0.20444497 -0.19621849 -0.17253247 -0.025148328
000010 62 f0 70 bd d5 f1 50 bc 09 7e 3d be a0 9f 4d be
       -0.058822997 -0.01275297 -0.1850511 -0.20080423
000020 81 72 14 bc 9f 8c 97 bd 5c f5 02 be 40 6b a2 bd
       -0.009060503 -0.07399868 -0.1278891 -0.079306126
000030 5e 60 19 be f2 b0 42 3d 5a 03 96 bd 5a 9d 33 be
       -0.14978167 0.04753203 -0.07324858 -0.17540494
000040 8c a1 8b bd 56 58 e8 bc 43 a5 3f bd 5b 21 c8 bd
       -0.06817922 -0.028362434 -0.046788465 -0.09771987
000050 a9 69 13 be e4 e0 1e be 32 80 18 3c ff 5c ca bd
       -0.14395775 -0.15515476 0.009307908 -0.09881019
000060 80 bf ba bc 7e 44 3c bd b0 f3 a8 bd 7c 09 ba 3c
       -0.022796392 -0.045963757 -0.08249605 0.0227096
000070 8b c8 f2 bd d3 41 bb bd 9d 4f f4 bd a3 0e 87 bd
       -0.11854657 -0.09143414 -0.119292475 -0.065945886
000080 77 04 01 3c 30 7e cb bd 37 f7 d8 bd 33 ba 84 3d
       0.0078746 -0.09936178 -0.105940275 0.06480827
000090 93 22 e1 3c 46 c7 ff bd 2f d4 d1 bd 0e 2b a3 bd
       0.027482307 -0.1248918 -0.10245549 -0.079671964
0000a0 e4 30 52 be ae a5 8d bd 36 92 8b bb 0e ee 3d bd
       -0.20526463 -0.069163665 -0.004259373 -0.046369605
0000b0 f9 08 60 3c 27 e0 6c 3c 92 e5 6b bd 63 e8 0b be
       0.013674014 0.014457739 -0.057591982 -0.13662867
0000c0 3f 62 fa bd 5d 54 59 bd 00 0d 25 3d 2b f2 08 3e
       -0.1222577 -0.05305897 0.0402956 0.1337363
0000d0 68 92 8c 3c 0e b7 31 3d d6 22 09 bd 34 18 da bd
       0.017159656 0.043387465 -0.033480488 -0.10649148
0000e0 99 68 83 be 89 0b 98 bd b5 21 f2 bd d0 e9 e1 3d
       -0.2566574 -0.07424075 -0.11822835 0.11030924
0000f0 72 81 3d 3d fe 96 8b bd 41 d5 32 be 82 6f 7f bc
       0.046266027 -0.06815909 -0.17464162 -0.01559055
000100 eb 77 ef 3b 50 27 89 be 43 d3 1e ba 64 4b 2b be
       0.0073079965 -0.26787806 -0.0006058702 -0.16727978
000110 b2 24 1b be 40 6e 55 bd 19 90 a0 3d 6f b3 93 bd
       -0.15150717 -0.052107096 0.078399844 -0.072119586
000120 4d ef f8 bd be 1a 15 be 96 e0 11 bd a2 cd ea bc
       -0.12155018 -0.14560983 -0.035614572 -0.028662506
000130 3c 99 af 3d 6e e8 cc 3c df 86 14 bd 38 79 74 3d
       0.08574149 0.025013175 -0.036261436 0.059685916
000140 5b 66 f9 bc fe ec ca bc ac cc 81 bc 98 31 93 bd
       -0.030444315 -0.02477121 -0.015844665 -0.07187194
000150 3f 56 2b 3d d3 75 6d 3d 76 00 3a 3e ff 7f 94 3d
       0.041830298 0.057973694 0.18164238 0.07250976
000160 c0 0f 9e 3d 56 73 22 3e 3d d8 2f 3e 16 1f f5 3d
       0.07717848 0.1586431 0.17172332 0.1196882
000170 03 8e 1c 3e 1f b2 2b 3e 3e ea 87 3e 4e ea ae 3d
       0.15288548 0.16767167 0.265459 0.08540784
000180 fc d5 f3 3d 31 76 6a 3e 6f f4 3f 3e 11 38 44 3e
       0.11906049 0.22896649 0.18745588 0.19162013
000190 19 7d 1a 3e 57 7c a7 3d ca 4c 18 3e 04 db 6b 3d
       0.15086783 0.08178013 0.14873043 0.057581916
0001a0 da f9 13 3e 2f 01 d7 3d c5 09 54 3e 86 fa 70 3e
       0.1445078 0.10498273 0.20706852 0.23533067
0001b0 61 8e a2 3c a4 9e 76 3c b6 3c dc 3d 6b fb dc bb
       0.019843282 0.015052471 0.10753767 -0.0067438385
0001c0 e7 ae ce 3d 73 85 d9 3d c8 f6 13 3e 93 b4 e0 3c
       0.10091954 0.106211565 0.14449608 0.027429854
0001d0 8e 8c 77 3d 03 83 14 3d ec 8f e5 bd a2 d0 63 bc
       0.060436778 0.036257755 -0.112090915 -0.013904722
0001e0 1e 27 dc 3d 3a 25 c9 3d d8 05 c1 3c c6 e0 96 bc
       0.107496485 0.098215535 0.023562357 -0.018417727
0001f0 38 ec 22 3d 82 92 6a 3a 17 e0 5e bd f4 f5 5b bd
       0.039776057 0.0008948223 -0.054412927 -0.053701356
000200 0c bb e1 3d 86 dc 62 3d 3d 39 97 bd 10 ea 00 3d
       0.110220045 0.05538609 -0.07383964 0.03147322
000210 ff ef c3 3d 98 7f 6c 3d 6a df fc 3d 58 e3 cd 3d
       0.0956726 0.05773887 0.123473 0.10053128
000220 c4 83 d3 3d ac 74 c4 3c cf 1d 57 bc 7f d2 86 bb
       0.10327867 0.023981415 -0.0131296655 -0.0041144486
000230 5f 9d 39 bc 8a 71 c0 bc 72 34 47 3d 3b 79 f8 3d
       -0.011329024 -0.02349164 0.048634 0.12132498
000240 c4 83 4c 3c 98 13 70 bc 08 c0 4c 3d 8d 12 4e 3d
       0.012482587 -0.014653109 0.049987823 0.05031066
000250 22 15 89 3d 47 bd 0e 3e 53 00 5c 3d 6a 35 56 3b
       0.06693484 0.13939391 0.053711247 0.0032685646
000260 11 00 56 bd 44 3b a5 3d ee bc 56 3d 5d f5 05 3e
       -0.052246157 0.08067945 0.05242627 0.1308188
000270 d9 46 d4 3d 8e 4b b3 3d c8 ce 68 3b 3b 37 be bd
       0.103650756 0.08754645 0.0035523642 -0.09287878
000280 a8 3b 90 bd 28 b6 30 3d a3 c8 95 3d c9 fd 6d 3e
       -0.070426285 0.043142468 0.07313659 0.23241343
000290 e5 11 79 3e 6e fd af 3c 3e 82 67 3d 1a f6 9a bc
       0.24323232 0.02148315 0.056520693 -0.018916178
0002a0 fd 2d ba bd 1b 9c 27 bd 30 67 ac 3d 7b 25 8e 3e
       -0.09090803 -0.04092036 0.08418119 0.2776297
0002b0 08 16 42 3e f3 53 be 3d b1 c5 bc 3c 8e f5 14 3e
       0.18953717 0.09293356 0.023043485 0.14546797
0002c0 e7 a5 4c bc 03 5e 96 3d 85 2b e0 3d 63 3e 4e 3e
       -0.012490726 0.0734215 0.10945801 0.20140986
0002d0 a2 ea 53 3e fb 3d 8c 3c 37 89 d2 3d ca 7c de 3d
       0.20694974 0.017119398 0.10280078 0.108636454
0002e0 48 a7 f1 3c 05 7f 71 3d 87 bf 38 3e d9 aa 2b 3e
       0.029498711 0.058959026 0.18041812 0.16764392
0002f0 36 92 5e 3e 0e 03 58 3e 0d e7 1a 3e 60 8d 45 3e
       0.21735463 0.21094915 0.15127201 0.19292212
000300 cc f2 0c be 73 0f 27 3e df e9 cb 3d a2 42 a0 3d
       -0.13764495 0.16314487 0.09956717 0.07825209
000310 94 49 c3 3c ac 6e 14 bd 1f 27 86 be c9 1a 42 be
       0.023838796 -0.036238357 -0.26201722 -0.1895553
000320 3e 19 61 bd 11 47 6a 3e 3a 46 33 3d db 56 4e 3b
       -0.054955713 0.22878672 0.043768145 0.0031484875
000330 6d e4 27 3e db d6 a7 bc 07 b7 c7 bd ba b2 80 bd
       0.16395731 -0.020488193 -0.097517066 -0.062840894
000340 73 ce 86 3d d2 4e bd 3e 34 6b ec 3d 33 f8 9a 3d
       0.06582346 0.36974198 0.11543885 0.075668715
000350 17 94 15 bd a2 68 5c 3d 0d a0 0e be 74 a8 e1 3a
       -0.036518183 0.053810723 -0.13928242 0.0017216341
000360 f9 32 6a 3d b9 10 4b 3e a9 aa 37 3e 48 8e a3 3d
       0.057177518 0.19830598 0.17936195 0.07986122
000370 8f d2 d3 3d ce 5a ea 3c e4 75 37 bd e6 10 a9 bd
       0.10342895 0.028607752 -0.044790164 -0.08255176
000380 91 d8 08 be 8d 8f ba 3d f5 c3 52 bd c5 04 09 ba
       -0.13363864 0.091094114 -0.05145641 -0.0005226846
000390 0c 28 f4 3d 0d b4 ea 3d fb f5 fc bd 75 73 94 bd
       0.11921701 0.11460123 -0.123516046 -0.07248584
0003a0 b6 0f 2d bd db 33 0a be e9 d3 27 be 10 b6 79 bd
       -0.04225131 -0.13496344 -0.16389431 -0.060964644
0003b0 81 37 05 3e 90 f4 88 3d d8 b6 88 3c 03 ce e8 bd
       0.13009454 0.066872716 0.01668875 -0.113674186
0003c0 7a fc bf bd 29 b2 ff bd 83 f9 61 bd 50 55 93 3d
       -0.09374328 -0.12485153 -0.055169594 0.071940064
0003d0 c0 33 06 bc c8 f4 9e 3d 1f 3a d6 3d 19 fc 14 3e
       -0.008191049 0.07761532 0.104603045 0.14549293
0003e0 95 9c a7 bc 7c 0b c4 bc 79 e5 49 3d 8a c7 81 3c
       -0.020460406 -0.023931257 0.049291108 0.015842218
0003f0 5b 8b 29 bc 2f 69 d3 3d e7 f1 cf 3d 95 8c 3d 3e
       -0.010348166 0.103227966 0.10153561 0.18510659

prediction_layer.bias f4 [10]
000000 08 e4 4e be 01 13 97 be 71 59 28 3e f5 01 fe bc
       -0.20204175 -0.29506686 0.16440369 -0.031006793
000010 48 eb d3 3e 53 8e 8b be 7d 7a 87 3e 1d 51 45 be
       0.41390443 -0.27257022 0.2646064 -0.19269224
000020 90 87 40 3e 24 18 f0 bd
       0.18801713 -0.117233545
