Homeworks/HW1/results/trained_models/cnn_5[0].pt (torch, 53323 bytes, 14 tensors)

conv1.weight f4 [8, 1, 3, 3]
-0.17368583 -0.42130125 -0.15500319 0.03340244 0.16695513 -0.08020927 0.1356226 0.37892517
0.08786987 0.06074577 -0.34831518 0.19339326 0.30798838 0.47989374 0.29195133 -0.13389449
-0.47767898 -0.27865902 -0.33030036 -0.066209525 0.67671216 0.32296932 -0.4390656 0.335041
-0.1262631 -0.0871911 -0.22723593 0.21892571 0.08520251 0.2715289 -0.0604365 -0.52394366
-0.13845965 0.34061846 -0.15490814 0.0021564974 -0.2587792 -0.33716962 0.07249388 0.30964178
0.054332454 -0.19364856 0.06429986 -0.19025363 -0.16631931 0.15492368 0.063461624 -0.25931817
0.051741883 -0.4858569 -0.35817814 -0.17311285 0.40955737 0.52134794 0.27912188 0.0010616697
-0.31600088 0.20672688 0.37016565 -0.5963591 -0.17020553 0.20585676 -0.0034291814 0.044001523
0.49400252 -0.15047075 -0.15163109 0.31835788 -0.35315737 -0.08380523 -0.004151129 -0.16773733
00000000: b3da 31be ccb4 d7be 28b9 1ebe ffd0 083d
00000010: 49f6 2a3e c244 a4bd a7e0 0a3e 7b02 c23e
00000020: 1ef5 b33d 8ed0 783d 5e56 b2be e208 463e
00000030: a7b0 9d3e a2b4 f53e a57a 953e a31b 09be
00000040: 5792 f4be 65ac 8ebe 211d a9be dc98 87bd
00000050: 023d 2d3f 3c5c a53e 35cd e0be 7e8a ab3e
00000060: 1d4b 01be 3f91 b2bd 89b0 68be 102e 603e
00000070: a77e ae3d d605 8b3e 438c 77bd 2c21 06bf
00000080: 5ec8 0dbe 8b65 ae3e 3da0 1ebe 0654 0d3b
00000090: b57e 84be 7fa1 acbe ac77 943d 5e89 9e3e
000000a0: b58b 5e3d cf4b 46be a5af 833d d9d1 42be
000000b0: 9c4f 2abe 50a4 1e3e 2bf8 813d 5ac5 84be
000000c0: 4cef 533d 3cc2 f8be 2063 b7be 7f44 31be
000000d0: 81b1 d13e 0f77 053f 10e9 8e3e b927 8b3a
000000e0: deca a1be 36b0 533e 5a86 bd3e fdaa 18bf
000000f0: 5c4a 2ebe 1dcc 523e 1ebc 60bb f13a 343d
00000100: e6ed fc3e 0115 1abe 2e45 1bbe ceff a23e
00000110: 0bd1 b4be 14a2 abbd 3206 88bb 56c3 2bbe

conv1.bias f4 [8]
0.26890862 0.07839192 0.21813165 0.14457664 0.02081624 0.022112459 0.1553036 0.12293857
00000000: 64ae 893e f18b a03d e75d 5f3e e60b 143e
00000010: d286 aa3c 3025 b53c e807 1f3e 38c7 fb3d

conv2.weight f4 [16, 8, 3, 3]
0.072051205 0.09223702 -0.22332016 0.06739992 -0.06305243 -0.028049571 -0.12460898 -0.1556228
0.09046728 -0.335633 -0.0851504 -0.23765536 0.2923877 0.26042134 0.0644623 -0.0007509415
0.020046426 -0.0902743 -0.08563975 -0.2247957 0.10211523 0.059443504 -0.028891267 -0.076095894
0.24665017 -0.0027586846 -0.05410768 -0.098636195 0.18412773 -0.009768373 -0.13248557 -0.20905712
-0.15816955 0.29152796 0.2598824 0.015300261 -0.09742647 -0.0895872 -0.19897787 0.06436997
0.24539815 0.114916556 0.08436284 -0.051170353 -0.058793418 0.28936028 0.20722888 0.022896511
-0.43369743 -0.16005157 0.18156485 0.15240835 0.11193028 0.09890608 0.022267312 -0.07057955
-0.19666253 -0.0014792947 0.12402906 0.057286948 -0.052641094 0.028176975 0.058175348 -0.09695529
-0.18321715 -0.11095772 0.035869695 -0.020092007 -0.072582036 0.12266449 0.07380669 0.15458299
0.08509618 0.045137584 0.040120713 0.080068566 0.085208625 0.15552631 -0.044735163 -0.1833115
0.0748371 0.016944818 -0.04000904 -0.13928169 0.05214354 0.01087034 -0.03467953 0.04976173
0.072746865 -0.13576458 -0.24904048 -0.011120995 -0.11522072 -0.28831524 -0.18969887 -0.19532798
-0.1360215 -0.137228 -0.07388248 0.14204459 0.1884347 -0.109701306 0.09116836 0.13237059
-0.061146688 0.009116361 0.100029744 -0.0124996565 -0.06364894 -0.14251515 -0.18958926 -0.08973447
-0.03563899 -0.002536353 -0.10754849 0.00059424445 0.0426215 -0.19678548 -0.0100056175 0.13245523
-0.3830704 -0.076522216 -0.011831104 -0.86612654 -0.50498146 -0.43067783 0.12036859 0.120006666
0.08467934 0.17718676 0.19308333 -0.03544929 0.13175172 0.07091178 0.16387375 -0.114358075
-0.08468108 0.15311174 -0.13900132 0.07921315 -0.064525574 0.07991285 0.06812569 0.15567753
0.051377356 0.04538444 -0.07218617 -0.12941979 -0.13784821 -0.091737874 0.018491417 -0.07950174
0.015183235 -0.11111996 -0.10680019 -0.16670692 -0.13177918 0.07519708 -0.019723672 0.0750167
-0.13930227 -0.048053294 -0.03998454 -0.072784185 -0.16621824 0.050175045 -0.13754807 -0.030203799
-0.1324306 0.053865574 -0.07002734 -0.08854083 -0.09119083 -0.13418403 0.016929459 -0.001857986
-0.0857046 -0.1507515 0.058641758 -0.16613746 -0.033954516 0.035745867 -0.06428209 -0.13862911
-0.12399098 0.006880207 0.005140125 -0.02348478 -0.099592224 0.039303612 -0.1077406 0.0053743976
-0.010869383 -0.04477465 0.06768403 -0.06659337 -0.069334984 -0.0039424254 -0.05761961 -0.016716696
-0.13801895 -0.07640052 -0.03226756 -0.001284096 -0.10320172 -0.06857815 -0.08066458 0.10886905
-0.14877142 -0.09640741 -0.144917 0.022361616 0.009959281 0.007208608 -0.13018432 -0.016604898
0.028156614 -0.067561336 -0.13756756 -0.034907524 0.17176458 -0.09191908 -0.14706892 0.1745402
0.14954247 0.014400421 -0.08083096 0.036726967 0.08122085 -0.04424043 -0.09134656 -0.053989373
0.01584776 -0.01242131 -0.09120376 -0.1634087 -0.1286599 -0.22631307 -0.029211234 0.090357535
-0.41231552 -0.123183586 0.175455 0.042676378 0.12496597 0.023280459 -0.1295074 0.2846096
0.035243656 0.13478181 0.17227553 -0.023922956 0.04709635 0.22359735 0.12608995 0.07867013
00000000: 958f 933d c3e6 bc3d 0aae 64be f808 8a3d
00000010: a221 81bd 37c8 e5bc fe32 ffbd 955b 1fbe
00000020: e946 b93d 17d8 abbe 5563 aebd ed5b 73be
00000030: d7b3 953e f255 853e cf04 843d d5da 44ba
00000040: 6738 a43c bbe1 b8bd e563 afbd d830 66be
00000050: ca21 d13d 087b 733d 61ad ecbc 2ad8 9bbd
00000060: dd91 7c3e 0ccb 34bb 04a0 5dbd c601 cabd
00000070: fb8b 3c3e 870b 20bc 4caa 07be 1213 56be
00000080: 33f7 21be 2743 953e 4e0f 853e f2ad 7a3c
00000090: 8787 c7bd 7e79 b7bd dbc0 4bbe 67d4 833d
000000a0: a749 7b3e 5f59 eb3d 6dc6 ac3d 0198 51bd
000000b0: 5ed1 70bd 0827 943e cf33 543e 7791 bb3c
000000c0: 970d debe 8fe4 23be 23ec 393e ef10 1c3e
000000d0: b43b e53d 458f ca3d f069 b63c 038c 90bd
000000e0: e761 49be e5e4 c1ba f302 fe3d b8a5 6a3d
000000f0: 309e 57bd 66d3 e63c 4649 6e3d 7f90 c6bd
00000100: 479d 3bbe cd3d e3bd 1aec 123d fe97 a4bc
00000110: e4a5 94bd 8537 fb3d f627 973d 014b 1e3e
00000120: e846 ae3d 30e2 383d 9e55 243d fdfa a33d
00000130: dc81 ae3d 4a42 1f3e 383c 37bd 03b6 3bbe
00000140: 3244 993d dccf 8a3c 85e0 23bd dc9f 0ebe
00000150: 7794 553d 8319 323c 1f0c 0ebd f5d2 4b3d
00000160: 4ffc 943d df05 0bbe 7804 7fbe d534 36bc
00000170: d7f8 ebbd 0e9e 93be 6c40 42be 0f04 48be
00000180: 3849 0bbe 7f85 0cbe b34f 97bd 2374 113e
00000190: 07f5 403e 14ab e0bd 7ab6 ba3d 288c 073e
000001a0: f374 7abd ca5c 153c 65dc cc3d 5ccb 4cbc
000001b0: 605a 82bd 7eef 11be b023 42be b5c6 b7bd
000001c0: 31fa 11bd f138 26bb 6242 dcbd 12c7 1b3a
000001d0: e293 2e3d 2282 49be 9aee 23bc 58a2 073e
000001e0: ce21 c4be aeb7 9cbd 3fd7 41bc 78ba 5dbf
000001f0: 7746 01bf ce81 dcbe cf83 f63d 0ec6 f53d
00000200: 5d6c ad3d 7270 353e a3b7 453e 4633 11bd
00000210: ece9 063e 323a 913d 85ce 273e 9134 eabd
00000220: 466d adbd 53c9 1c3e 5d56 0ebe 813a a23d
00000230: fc25 84bd 59a9 a33d 7b85 8b3d ee69 1f3e
00000240: 1071 523d 09e5 393d 58d6 93bd 9f86 04be
00000250: 1528 0dbe 11e1 bbbd 507b 973c cfd1 a2bd
00000260: 1ac3 783c dd92 e3bd 0fba dabd 38b5 2abe
00000270: 1ff1 06be ed00 9a3d 8a93 a1bc 5ba2 993d
00000280: 41a5 0ebe 88d3 44bd d4c6 23bd e00f 95bd
00000290: 1d35 2abe 5984 4d3d 67d9 0cbe f56d f7bc
000002a0: e39b 07be 26a2 5c3d 7e6a 8fbd e554 b5bd
000002b0: 42c2 babd 8a67 09be a6af 8a3c aa87 f3ba
000002c0: e585 afbd 9a5e 1abe 5732 703d f01f 2abe
000002d0: e413 0bbd 426a 123d 54a6 83bd caf4 0dbe
000002e0: fcee fdbd 5c73 e13b 7e6e a83b 2763 c0bc
000002f0: 02f7 cbbd d3fc 203d 1ba7 dcbd b71b b03b
00000300: 7f15 32bc a065 37bd ed9d 8a3d 1b62 88bd
00000310: 80ff 8dbd 762f 81bb 8a02 6cbd 74f1 88bc
00000320: d754 0dbe e077 9cbd fd2a 04bd 1d4f a8ba
00000330: 6c5b d3bd b372 8cbd 7933 a5bd bdf6 de3d
00000340: 8957 18be 4071 c5bd 1f65 14be b52f b73c
00000350: 412c 233c 3036 ec3b 0a4f 05be ff06 88bc
00000360: b3a8 e63c 995d 8abd 83de 0cbe 31fb 0ebd
00000370: 0ee3 2f3e 1240 bcbd 3c99 16be abba 323e
00000380: a921 193e beef 6b3c b48a a5bd 046f 163d
00000390: 1e57 a63d 7435 35bd e813 bbbd f623 5dbd
000003a0: 29d3 813c c082 4bbc 09c9 babd 9c54 27be
000003b0: 6cbf 03be 9dbe 67be 664c efbc 5f0d b93d
000003c0: 051b d3be ad47 fcbd 7aaa 333e 6dcd 2e3d
000003d0: 29ee ff3d a9b6 be3c 969d 04be 59b8 913e
000003e0: a75b 103d 3e04 0a3e ff68 303e 13fa c3bc
000003f0: 1ae8 403d b4f6 643e b91d 013e ce1d a13d

conv2.bias f4 [16]
-0.022690749 -0.054265786 -0.14887379 0.11203506 -0.054941803 -0.0034068597 -0.035747644 0.045091134
0.09323655 0.15883595 0.17483403 -0.10109007 -0.0021057462 0.084331326 0.15670104 0.1821221
00000000: f3e1 b9bc cd45 5ebd 5f72 18be a372 e53d
00000010: a80a 61bd 9f45 5fbb 1f6c 12bd 7bb1 383d
00000020: cef2 be3d e4a5 223e b107 333e 5008 cfbd
00000030: 8f00 0abb e7b5 ac3d 3d76 203e 377e 3a3e

conv3.weight f4 [8, 16, 3, 3]
-0.07564832 -0.09254622 -0.057119083 0.024875173 -0.062090084 -0.053642143 0.02760436 0.014379627
0.0012103046 0.012160137 -0.0031941917 0.034064315 -0.062984444 -0.08138345 -0.07535215 -0.017260699
-0.038979605 -0.054503642 -0.079094596 -0.02730448 -0.04222159 0.0116201425 -0.045125376 -0.0002097974
0.012304835 -0.061078303 0.044476364 -0.058087423 -0.025178757 -0.010823743 -0.021149188 -0.13187087
-0.05776177 -0.10959047 0.014189651 0.023286449 -0.032023054 -0.047960795 -0.04077006 0.044888824
-0.09064702 0.048920717 0.03960942 0.041727763 0.014496034 -0.122108154 -0.052998018 -0.046694264
-0.10837761 -0.040101472 -0.11279512 -0.05243912 0.00927051 0.031352833 -0.116783954 -0.00041200602
-0.11392439 0.062468085 -0.039720714 0.047197353 -0.107283495 0.04329284 -0.032815173 -0.029815622
0.0017395611 -0.020520931 -0.088470325 0.036560055 0.0029421025 -0.0070406306 -0.020757798 -0.07685021
-0.014874085 -0.048237327 -0.021301005 -0.06113821 -0.08482643 -0.037352696 -0.03795462 -0.0021475672
-0.095143914 -0.065322995 -0.10088568 -0.040713947 -0.028523745 -0.057413258 -0.08635445 -0.029712835
-0.080107376 0.026690632 -0.021535415 -0.05222847 -0.012927977 -0.06358811 0.046116255 -0.013197231
-0.01993905 -0.07017744 -0.04875502 0.060344607 -0.06494654 -0.061883308 0.035856824 -0.050477635
0.056669243 0.05394795 -0.01742757 0.04814253 -0.049735036 0.051719766 0.017906517 -0.052076664
-0.1268171 0.013796282 -0.07608368 -0.028811235 -0.04825957 0.047793876 -0.05495075 -0.009146684
-0.056381576 -0.047015477 -0.13734275 -0.10450902 0.0017219294 -0.08659944 -0.005697582 0.00033093092
-0.017237056 -0.021943036 -0.12635536 -0.067170076 0.029064711 -0.0076757646 -0.053166635 -0.10158621
-0.020345611 -0.06712041 -0.10797501 0.029272726 -0.09223626 -0.111880496 -0.009404708 -0.03654204
-0.2976933 -0.54426616 -0.37614146 -0.30367252 -0.34044582 -0.40102834 -0.24808988 -0.09701982
-0.040649157 0.17904793 0.035181124 0.036317572 0.030693172 0.031039588 0.08941908 0.070858866
0.16574353 0.15229146 0.03794652 0.032432687 -0.08096437 -0.031592257 -0.09163306 -0.0014304387
0.027610552 -0.07567493 -0.052633826 -0.054222673 0.14277132 0.04109288 -0.06674499 0.12328195
0.076573506 -0.13183214 0.0028192652 -0.037695337 0.08893119 0.035085376 -0.10673956 0.0825849
-0.054755263 0.036296688 0.060996544 0.029244805 -0.038566656 -0.19284725 -0.2535298 -0.14132349
-0.20006981 -0.18527602 -0.06985828 -0.33909938 -0.36804372 -0.009972666 0.07692035 -0.10625799
-0.0236411 0.00048889354 -0.17865284 -0.0044396347 0.2875753 0.04203324 -0.03341083 0.11845889
0.10170194 -0.17147101 0.035962734 0.07400828 0.012356517 -0.050171573 0.13278373 -0.03547922
-0.5107226 -0.39136088 -0.12334277 -0.5616187 -0.726728 -0.3690333 -0.44571304 -0.51309234
-0.324983 0.22099438 0.17329417 -0.0032034304 0.17495085 0.08627366 0.01388608 0.13589399
0.2008142 0.07299466 0.076369554 -0.019652149 0.04640295 -0.08065509 0.09212204 0.011197509
-0.07476152 0.020206021 0.02391007 -0.11347859 -0.047489267 -0.15687053 -0.072692715 0.026377428
-0.02229601 0.06583858 -0.108097546 -0.08319163 0.15668704 -0.083188824 -0.06539787 0.036946356
00000000: 82ed 9abd df88 bdbd b3f5 69bd 05c7 cb3c
00000010: 2c52 7ebd ddb7 5bbd 8a22 e23c 8798 6b3c
00000020: 15a3 9e3a 503b 473c a555 51bb 0687 0b3d
00000030: fdfd 80bd 5eac a6bd 3a52 9abd 4f66 8dbc
00000040: 14a9 1fbd 363f 5fbd 59fc a1bd a5ad dfbc
00000050: 8cf0 2cbd 6962 3e3c 63d5 38bd 10fd 5bb9
00000060: 389a 493c 3e2d 7abd d92c 363d 14ed 6dbd
00000070: ae43 cebc 1256 31bc 1041 adbc 2809 07be
00000080: 9b97 6cbd f870 e0bd b67b 683c 39c3 be3c
00000090: 9b2a 03bd 8a72 44bd 82fe 26bd 58dd 373d
000000a0: 25a5 b9bd 1761 483d 7d3d 223d bbea 2a3d
000000b0: c680 6d3c d713 fabd 7314 59bd 7c42 3fbd
000000c0: 15f5 ddbd 7141 24bd 2101 e7bd 67ca 56bd
000000d0: 56e3 173c d46b 003d 6d2c efbd 8302 d8b9
000000e0: 3151 e9bd 89de 7f3d 30b2 22bd 0352 413d
000000f0: 73b7 dbbd d553 313d 3469 06bd e43f f4bc
00000100: fc01 e43a 831b a8bc ee2f b5bd ffbf 153d
00000110: 4ad0 403b 17b5 e6bb 420c aabc a563 9dbd
00000120: 6fb2 73bc 8194 45bd 727f aebc 0f6c 7abd
00000130: 7bb9 adbd 24ff 18bd 4e76 1bbd 33be 0cbb
00000140: d0da c2bd 10c8 85bd 279d cebd abc3 26bd
00000150: a1aa e9bc 2a2a 6bbd 9ada b0bd 5568 f3bc
00000160: 560f a4bd 50a6 da3c 0a6b b0bc 85ed 55bd
00000170: decf 53bc 7c3a 82bd 66e4 3c3d 3339 58bc
00000180: 3857 a3bc 31b9 8fbd 58b3 47bd e82b 773d
00000190: b102 85bd 5a79 7dbd 9bde 123d a3c1 4ebd
000001a0: 021e 683d 87f8 5c3d 43c4 8ebc 1a31 453d
000001b0: f7b6 4bbd 1bd8 533d b0b0 923c 574e 55bd
000001c0: 58dc 01be cd09 623c c3d1 9bbd 8a05 ecbc
000001d0: d4ab 45bd 83c3 433d 0a14 61bd f9db 15bc
000001e0: 5ef0 66bd 4d93 40bd 94a3 0cbe d308 d6bd
000001f0: 5db2 e13a 0c5b b1bd c8b2 babb cc80 ad39
00000200: ba34 8dbc e2c1 b3bc 4d63 01be 7790 89bd
00000210: 1e19 ee3c fb84 fbbb 42c5 59bd 6e0c d0bd
00000220: d7ab a6bc 6d76 89bd 0122 ddbd 5bcd ef3c
00000230: 5de6 bcbd 9a21 e5bd 3416 1abc 1bad 15bd
00000240: 426b 98be 0755 0bbf 9d95 c0be f77a 9bbe
00000250: ea4e aebe 9653 cdbe 460b 7ebe 54b2 c6bd
00000260: bb7f 26bd 5758 373e 151a 103d bcc1 143d
00000270: 3f70 fb3c bc46 fe3c 5a21 b73d 741e 913d
00000280: acb8 293e 4bf2 1b3e cf6d 1b3d 23d8 043d
00000290: a6d0 a5bd e266 01bd 1daa bbbd 8f7d bbba
000002a0: 862f e23c 75fb 9abd 9196 57bd 9818 5ebd
000002b0: a532 123e 0251 283d 99b1 88bd 3f7b fc3d
000002c0: 92d2 9c3d 01ff 06be 6cc3 383b 6d66 1abd
000002d0: 8e21 b63d afb5 0f3d 459a dabd 4622 a93d
000002e0: 0e47 60bd d6ab 143d 83d7 793d cd92 ef3c
000002f0: 12f8 1dbd c079 45be a8ce 81be 1bb7 10be
00000300: 1adf 4cbe ffb8 3dbe dc11 8fbd 6f9e adbe
00000310: 3a70 bcbe 6564 23bc 6b88 9d3d ca9d d9bd
00000320: fbaa c1bc 1729 003a c5f0 36be 5b7a 91bb
00000330: 123d 933e 0c2b 2c3d cbd9 08bd 939a f23d
00000340: 1b49 d03d 1996 2fbe a94d 133d a791 973d
00000350: fd72 4a3c b580 4dbd 75f8 073e a952 11bd
00000360: b7be 02bf 7460 c8be 229b fcbd 3ec6 0fbf
00000370: d90a 3abf eff1 bcbe 8034 e4be 055a 03bf
00000380: 2c64 a6be 5a4c 623e 0774 313e a5f0 51bb
00000390: 5126 333e 3fb0 b03d 7182 633c cb27 0b3e
000003a0: 3da2 4d3e 397e 953d a467 9c3d 8bfd a0bc
000003b0: 0511 3e3d 7f2e a5bd 7baa bc3d c275 373c
000003c0: 911c 99bd 1987 a53c 0ddf c33c 7767 e8bd
000003d0: 1b84 42bd aba2 20be ebdf 94bd 7a15 d83c
000003e0: 1fa6 b6bc 61d6 863d 3f62 ddbd 6060 aabd
000003f0: 9172 203e e75e aabd 52ef 85bd 1055 173d

conv3.bias f4 [8]
-0.1253212 0.18196777 0.044296477 0.19745874 0.08642876 0.18248199 -0.0036188369 0.051943984
00000000: 3354 00be c255 3a3e 3970 353d a032 4a3e
00000010: 9001 b13d 8fdc 3a3e 022a 6dbb 37c3 543d

conv4.weight f4 [16, 8, 3, 3]
0.016985254 -0.10748085 -0.036826856 0.10400056 -0.0024117888 -0.06351385 -0.019594848 -0.01479045
0.024129737 -0.042951606 -0.18095121 -0.043593187 -0.07559249 -0.14119053 0.052299034 0.31837156
-0.0055944757 0.061179828 0.16155054 0.2132156 0.2683696 0.16941862 -0.034996122 0.09166593
-0.04920506 -0.1442452 -0.27879196 -0.13979137 -0.10224031 0.10408815 -0.21012607 0.025075939
0.15341337 -0.09516073 0.21579081 0.27631104 -0.23710015 -0.1133808 -0.22057712 -0.08604531
0.06690883 -0.14072548 0.055497825 0.0448626 -0.17266543 0.25630385 0.07669517 0.11055929
0.014272227 0.16818054 0.14376207 -0.15367757 -0.13076581 0.09168356 0.27140895 0.18543828
0.1903736 0.016977305 -0.05436709 0.015921663 -0.58069026 -0.39407587 -0.36460307 0.0021325198
0.012746741 0.014426116 -0.16507329 -0.22774448 -0.0803088 -0.46925348 -0.58440274 -0.34521046
-0.07690434 -0.016071402 0.07495628 0.077662356 -0.041002817 -0.07490168 -0.07138441 -0.06770849
0.03983583 -0.25893065 -0.072454296 0.083202325 0.15587528 -0.2617633 -0.1592896 0.03790628
0.38057032 -0.26146474 -0.1403587 -0.053674597 -0.022272756 0.1315172 0.023787843 0.1108894
-0.048164174 0.1098891 0.18242182 -0.045525376 0.19680803 -0.19323465 -0.35076553 -0.043227717
-0.1671811 0.100898944 -0.26530856 0.058952205 0.38373035 0.118932 -0.04295083 -0.11001549
0.17118038 0.04940024 -0.08379084 -0.026998129 0.032570966 -0.45270407 -0.16782029 -0.039134383
0.06302353 -0.35816994 -0.17616513 0.2519814 0.3246795 -0.0049014743 0.074537165 -0.09414068
-0.33602637 -0.15087938 0.13538183 -0.043780003 0.01577098 -0.1255797 -0.082209475 0.16799289
-0.07518916 -0.20609008 -0.20862354 0.19610468 0.029473668 -0.286414 -0.05175917 -0.048494183
0.047222428 0.08140543 -0.07814357 -0.08966186 -0.055006262 0.09175268 -0.015639054 -0.035519276
0.05495341 0.07148714 0.011260532 0.27603 0.0025712778 -0.10758839 0.21976183 -0.0003569899
-0.12480889 0.24478233 -0.26930547 0.024385938 0.07855126 -0.22378281 -0.17143595 -0.06672644
-0.08534476 -0.28762802 0.043728147 -0.25824568 -0.077755 -0.34791076 -0.3123313 0.06241556
-0.40737742 -0.30196255 -0.1068335 -0.48784167 -0.39069998 -0.18316467 0.09346366 -0.24426337
-0.20908935 0.010873295 -0.2768455 -0.031700198 0.16871043 -0.018376261 -0.016317155 -0.09561313
-0.2325431 0.20951468 -0.20032454 -0.09335022 0.22881162 -0.05256788 0.09012672 -0.3794806
-0.23192239 -0.071027994 -0.28426453 -0.0966656 -0.123945236 0.00797419 -0.13966371 -0.26307595
-0.19820875 -0.14934786 -0.32750246 -0.38386232 0.08825258 -0.2116682 -0.083638705 0.024310157
-0.079570755 -0.05800559 -0.012715637 0.0043965876 0.016887825 0.12004456 -0.04502636 -0.022611324
-0.086642504 0.21815999 0.1945168 -0.12857422 0.10642239 -0.06688114 -0.0913725 0.0527935
-0.114718065 -0.0792287 -0.044059187 0.044710625 0.21443282 -0.26231396 0.026991544 0.014481642
-0.04026689 -0.016343016 0.06746932 0.065045536 -0.4127569 0.029205991 0.043089766 -0.29562306
0.09816434 -0.28728005 -0.22075151 0.06469752 -0.19616432 0.2156154 0.16503964 -0.31578153
00000000: a924 8b3c eb1e dcbd c2d7 16bd 3ffe d43d
00000010: 1a0f 1ebb 8d13 82bd 6085 a0bc a553 72bc
00000020: baab c53c 06ee 2fbd 464b 39be c58e 32bd
00000030: 3cd0 9abd 4094 10be 8337 563d 9901 a33e
00000040: dd51 b7bb b397 7a3d 816d 253e 3155 5a3e
00000050: bd67 893e 137c 2d3e 1858 0fbd 59bb bb3d
00000060: 3f8b 49bd 04b5 13be d2bd 8ebe 7825 0fbe
00000070: 5e63 d1bd 2b2c d53d 4a2b 57be 0e6c cd3c
00000080: 6518 1d3e a1e3 c2bd 44f8 5c3e a478 8d3e
00000090: 62ca 72be 3134 e8bd f8de 61be 8638 b0bd
000000a0: 7f07 893d 571a 10be b051 633d d8c1 373d
000000b0: 35cf 30be 423a 833e 5b12 9d3d e96c e23d
000000c0: 0fd6 693c 8537 2c3e 5d36 133e a75d 1dbe
000000d0: 79e7 05be 97c4 bb3d 1df6 8a3e 88e3 3d3e
000000e0: 4cf1 423e fd13 8b3c 07b0 5ebd 266e 823c
000000f0: 1ea8 14bf 50c4 c9be 41ad babe bfc1 0b3b
00000100: b5d7 503c 845b 6c3c f908 29be d935 69be
00000110: f178 a4bd fe41 f0be 6b9b 15bf 6dbf b0be
00000120: 0680 9dbd 2ca8 83bc ae82 993d 710d 9f3d
00000130: 92f2 27bd 0d66 99bd fd31 92bd c0aa 8abd
00000140: e52a 233d 8f92 84be eb62 94bd fb65 aa3d
00000150: c59d 1f3e d705 86be d01c 23be 9e43 1b3d
00000160: 1dda c23e b5de 85be 31ba 0fbe e5d9 5bbd
00000170: 5b75 b6bc 72ac 063e b9de c23c fb19 e33d
00000180: cc47 45bd 890d e13d c9cc 3a3e d178 3abd
00000190: 0b88 493e 4edf 45be 8a97 b3be 8c0f 31bd
000001a0: 8631 2bbe 1ba4 ce3d 86d6 87be de77 713d
000001b0: 4e78 c43e 9f92 f33d 36ed 2fbd cd4f e1bd
000001c0: e949 2f3e e857 4a3d 889a abbd 2e2b ddbc
000001d0: 2269 053d d4c8 e7be 15d9 2bbe 604b 20bd
000001e0: 7b12 813d 0d62 b7be a264 34be b503 813e
000001f0: 643c a63e 8c9c a0bb f1a6 983d d4cc c0bd
00000200: a60b acbe 2080 1abe 89a1 0a3e a952 33bd
00000210: 2432 813c f797 00be 715d a8bd 5406 2c3e
00000220: c6fc 99bd 4709 53be 69a1 55be aacf 483e
00000230: c372 f13c dba4 92be 6c01 54bd d6a1 46bd
00000240: 4e6c 413d e4b7 a63d bc09 a0bd a3a0 b7bd
00000250: 3f4e 61bd d4e8 bb3d 791d 80bc a97c 11bd
00000260: d416 613d da67 923d 187e 383c ce53 8d3e
00000270: e282 283b 4d57 dcbd 3f09 613e 602a bbb9
00000280: ce9b ffbd 38a8 7a3e 68e2 89be 05c5 c73c
00000290: 7cdf a03d 5227 65be e88c 2fbe dfa7 88bd
000002a0: 3cc9 aebd fb43 93be 491c 333d c738 84be
000002b0: 033e 9fbd 5c21 b2be e3e9 9fbe 75a7 7f3d
000002c0: c693 d0be d69a 9abe 86cb dabd 62c6 f9be
000002d0: d409 c8be 858f 3bbe e069 bf3d 2d20 7abe
000002e0: 851b 56be e825 323c b2be 8dbe 11d8 01bd
000002f0: 6dc2 2c3e d089 96bc 8eab 85bc d1d0 c3bd
00000300: c71f 6ebe 048b 563e e021 4dbe 662e bfbd
00000310: 984d 6a3e 6b51 57bd 5c94 b83d 484b c2be
00000320: 107d 6dbe 2077 91bd 1f8b 91be 9df8 c5bd
00000330: 00d7 fdbd 2da6 023c 0104 0fbe e4b1 86be
00000340: 3cf7 4abe a5ee 18be 67ae a7be 9a89 c4be
00000350: c5bd b43d 8cbf 58be c54a abbd 1826 c73c
00000360: fef5 a2bd 4597 6dbd 3f55 50bc 4011 903b
00000370: 5658 8a3c ecd9 f53d 8f6d 38bd 623b b9bc
00000380: a071 b1bd 5565 5f3e 692f 473e f6a8 03be
00000390: fbf3 d93d fbf8 88bd 8121 bbbd ff3d 583d
000003a0: 4ef1 eabd a842 a2bd 6877 34bd 7d22 373d
000003b0: 4794 5b3e 044e 86be 5f1d dd3c 6944 6d3c
000003c0: e5ee 24bd cae1 85bc 5b2d 8a3d 9836 853d
000003d0: df54 d3be 6741 ef3c e57e 303d e85b 97be
000003e0: 630a c93d 5f16 93be af0c 62be 2280 843d
000003f0: 4ddf 48be 49ca 5c3e 2700 293e 1eae a1be

conv4.bias f4 [16]
0.11733605 0.07046762 -0.045565106 -0.035083037 0.14413735 0.3112517 0.04047375 0.049113892
-0.121192314 -0.16120869 -0.026275061 0.19727498 -0.002025075 0.045434486 -0.123495094 0.043059878
00000000: e24d f03d 5451 903d 7aa2 3abd 3bb3 0fbd
00000010: be98 133e 625c 9f3e cec7 253d a62b 493d
00000020: ad33 f8bd e413 25be cc3e d7bc 7402 4a3e
00000030: 1fb7 04bb 8319 3a3d ffea fcbd 8e5f 303d

conv5.weight f4 [16, 16, 3, 3]
-0.09055723 -0.12712978 -0.043058045 0.0533093 0.10031868 0.11673142 0.0014021359 0.083677605
0.120833576 -0.12615298 -0.04073607 0.18783136 -0.22966433 -0.08086046 -0.10663373 -0.11245768
0.13275725 0.1579169 0.12317218 0.13456447 0.01242278 -0.030989489 -0.24913324 0.040730357
-0.02565683 0.106930174 0.1998436 0.20752208 0.0043782466 -0.09753248 0.23675767 0.017479954
-0.15341365 0.12030793 -0.055953737 -0.19257304 0.0077888514 0.01992448 0.17624919 -0.029879952
-0.14898327 0.027134128 -0.27708495 -0.20607609 -0.24387398 0.18144093 0.03528511 0.30711192
-0.1124103 -0.5046583 -0.07167409 -0.21558982 -0.27056637 -0.031243619 0.113810696 0.08796119
0.04423443 0.0054973937 0.04966257 0.03729208 0.048136007 0.06338481 0.09331109 -0.12141404
-0.0075224033 0.12311359 -0.18745922 -0.01786134 0.029145172 0.0014745787 0.08620302 0.0952133
-0.047237914 -0.15918595 -0.19097678 -0.05089481 -0.12733005 -0.16541271 0.11235459 0.19834289
0.06571881 -0.12909152 -0.02251458 -0.06444024 0.0021351997 -0.039354786 -0.065989055 -0.016323745
0.13372557 0.07966048 -0.18501498 -0.06116338 0.18300189 -0.45657116 -0.18209216 -0.16922481
0.16690564 0.1015255 0.08311108 0.13755071 0.11099602 -0.046483148 0.23637752 0.0074327914
-0.06501354 0.030383473 0.106467806 0.063589714 0.028771935 -0.19795537 -0.20508161 0.050716486
-0.060329333 -0.2426122 -0.044489454 0.15139684 -0.06387939 -0.036825743 0.05302091 -0.079970576
0.10304493 0.05126035 -0.045627877 0.040871963 0.11216463 -0.027959136 0.10795193 0.1413396
-0.05670307 -0.02707691 0.05379909 -0.04071017 -0.09350928 -0.116365716 0.08363084 -0.28160498
-0.25760043 0.08836981 -0.3268 -0.3008782 -0.029648792 -0.015317911 0.035595488 0.051976122
-0.07661681 -0.059613414 -0.029066015 -0.004018115 -0.06372515 0.023120508 -0.043278165 -0.010271207
-0.011628512 -0.10247664 -0.081101485 -0.044900775 -0.06015646 -0.10570119 0.014146215 -0.021875473
-0.110872805 -0.04965068 -0.08030959 -0.06715673 -0.035922073 -0.03328681 0.06129957 -0.030183136
0.065454744 0.016343273 0.07302482 -0.01706608 -0.011197772 -0.06795942 0.019345647 -0.10514469
-0.04153374 -0.03287028 -0.024853172 0.0006126334 0.07688812 -0.03152936 0.038546566 0.009091007
-0.037443575 -0.059009124 -0.023100523 -0.05277272 -0.089592054 0.06046562 -0.044730917 -0.0022403188
0.020161962 -0.09878691 0.015358277 0.009681709 -0.027101416 -0.060404435 0.050362334 -0.046511862
-0.0031045189 -0.0085070245 -0.039745405 -0.031269062 -0.017185414 -0.0715563 -0.0059950766 -0.09954557
0.031273525 0.034124028 -0.048235238 -0.017230654 -0.07354886 -0.0340292 0.008053383 0.03903337
0.026872305 -0.07314681 -0.072117046 -0.0876099 -0.08058148 -0.07741245 -0.07582174 -0.094582364
-0.01030516 -0.040761452 -0.083095 -0.050085753 0.0622702 0.062432818 -0.055030644 0.06294731
-0.05010135 -0.040059417 0.06519698 -0.04559569 -0.099263206 -0.014798444 -0.10548658 -0.00675678
-0.017315956 -0.09071926 -0.06970282 -0.07889675 -0.033070743 0.0032551303 -0.016268967 -0.11181462
-0.027616749 -0.07314248 0.007685637 -0.007142958 -0.06360246 -0.032367803 0.014524675 0.037914984
00000000: 1276 b9bd 4f2e 02be a25d 30bd da5a 5a3d
00000010: e173 cd3d e210 ef3d e0c7 b73a 2a5f ab3d
00000020: 9877 f73d 3f2e 01be deda 26bd dd56 403e
00000030: 202d 6bbe 2b9a a5bd c962 dabd 3650 e6bd
00000040: 84f1 073e f8b4 213e b241 fc3d 45cb 093e
00000050: ea88 4b3c abdd fdbc c91c 7fbe e0d4 263d
00000060: 462e d2bc 35fe da3d cda3 4c3e ab80 543e
00000070: 6577 8f3b 1cbf c7bd 9a70 723e 1f32 8f3c
00000080: 7818 1dbe 0164 f63d bf2f 65bd de31 45be
00000090: 9f39 ff3b aa38 a33c ab7a 343e cdc6 f4bc
000000a0: 128f 18be 6448 de3c 14de 8dbe 9c05 53be
000000b0: 1aba 79be a7cb 393e 1f87 103d c63d 9d3e
000000c0: 5f37 e6bd 4931 01bf dec9 92bd 94c3 5cbe
000000d0: ad87 8abe 9ef2 ffbc 9515 e93d ff24 b43d
000000e0: 292f 353d 7b23 b43b fb6a 4b3d 94bf 183d
000000f0: 432a 453d e5cf 813d e219 bf3d eda7 f8bd
00000100: 7e7e f6bb fa22 fc3d 4ff5 3fbe f251 92bc
00000110: dbc1 ee3c a746 c13a 358b b03d 31ff c23d
00000120: 8b7c 41bd a401 23be 6b8f 43be 1477 50bd
00000130: cf62 02be f361 29be 2a1a e63d 661a 4b3e
00000140: 9597 863d 9130 04be 7f70 b8bc 3ff9 83bd
00000150: b5ee 0b3b 7c32 21bd 4525 87bd 60b9 85bc
00000160: 5bef 083e 0925 a33d 9174 3dbe 7486 7abd
00000170: d964 3b3e b2c3 e9be 5e76 3abe 4549 2dbe
00000180: 50e9 2a3e 9aec cf3d 2436 aa3d 18da 0c3e
00000190: e251 e33d 1d65 3ebd f30c 723e c68e f33b
000001a0: d225 85bd c3e6 f83c cb0b da3d 533b 823d
000001b0: 1fb3 eb3c d0b4 4abe ea00 52be 17bc 4f3d
000001c0: e41b 77bd 556f 78be 933a 36bd c607 1b3e
000001d0: 33d3 82bd 97d6 16bd 742c 593d 9dc7 a3bd
000001e0: 3809 d33d 5ff6 513d 4ce4 3abd 5c69 273d
000001f0: 92b6 e53d 8f0a e5bc e715 dd3d 54bb 103e
00000200: 7a41 68bd 65d0 ddbc 6f5c 5c3d b5bf 26bd
00000210: cb81 bfbd 2651 eebd a546 ab3d 872e 90be
00000220: 34e4 83be 3bfb b43d 5452 a7be b50c 9abe
00000230: 06e2 f2bc faf7 7abc 93cc 113d eae4 543d
00000240: 46e9 9cbd 322d 74bd da1b eebc 64aa 83bb
00000250: 5582 82bd 3867 bd3c 7244 31bd 9148 28bc
00000260: 8485 3ebc 46df d1bd 8918 a6bd e0e9 37bd
00000270: 9f66 76bd de79 d8bd 87c5 673c 3134 b3bc
00000280: 4811 e3bd 835e 4bbd 5b79 a4bd 7889 89bd
00000290: 0623 13bd c057 08bd 4215 7b3d a042 f7bc
000002a0: 230d 863d 54e2 853c 098e 953d 2ace 8bbc
000002b0: dc76 37bc 4f2e 8bbd c37a 9e3c 1956 d7bd
000002c0: 481f 2abd fda2 06bd e198 cbbc 2299 203a
000002d0: 8577 9d3d ee24 01bd 01e3 1d3d 72f2 143c
000002e0: 6f5e 19bd 8db3 71bd 4f3d bdbc 3528 58bd
000002f0: 0a7c b7bd ccaa 773d c437 37bd 50d2 12bb
00000300: b32a a53c cb50 cabd 48a1 7b3c 08a0 1e3c
00000310: ca03 debc a46a 77bd bc48 4e3d 3983 3ebd
00000320: 2f75 4bbb 0c61 0bbc 14cc 22bd fd13 00bd
00000330: 6dc8 8cbc 1c8c 92bd 5972 c4bb 8cde cbbd
00000340: ab18 003d a3c5 0b3d 5092 45bd 4d27 8dbc
00000350: c9a0 96bd 3462 0bbd 56f2 033c 74e1 1f3d
00000360: 4f23 dc3c ffcd 95bd 1ab2 93bd d26c b3bd
00000370: e707 a5bd 6b8a 9ebd 6e48 9bbd 66b4 c1bd
00000380: f9d6 28bc 7bf5 26bd b62d aabd b826 4dbd
00000390: 0a0f 7f3d 8eb9 7f3d d067 61bd 85ea 803d
000003a0: 1337 4dbd 5815 24bd ff85 853d 8cc2 3abd
000003b0: 824a cbbd 2c75 72bc 5909 d8bd fb67 ddbb
000003c0: 31da 8dbc 05cb b9bd 5ac0 8ebd 9f94 a1bd
000003d0: 3075 07bd 0654 553b 7f46 85bc 10ff e4bd
000003e0: 853c e2bc b9cb 95bd ccd7 fb3b 7a0f eabb
000003f0: 0242 82bd 1a94 04bd e7f8 6d3c be4c 1b3d

conv5.bias f4 [16]
0.29050702 -0.09595687 0.035911787 -0.107681826 0.039689403 -0.09710369 0.19474226 0.20142283
-0.19007145 -0.003590978 -0.12951641 0.15479039 0.17180488 -0.21746977 0.16006044 0.16594782
00000000: 56bd 943e 0985 c4bd 3d18 133d 4a88 dcbd
00000010: 5b91 223d 4dde c6bd 846a 473e c941 4e3e
00000020: 17a2 42be 9d56 6bbb f39f 04be 5f81 1e3e
00000030: 9eed 2f3e 65b0 5ebe e2e6 233e 3aee 293e

conv6.weight f4 [8, 16, 3, 3]
0.17403094 0.18888377 0.18576857 0.112297505 0.17002845 0.022587996 -0.21488647 -0.31784022
-0.10842479 0.07551462 -0.049556337 0.080994375 0.07064522 -0.020258546 -0.06247757 -0.023706865
0.08281001 -0.04145562 0.061350822 -0.086887375 0.04462898 0.008349945 0.058766916 -0.09375176
-0.13963957 0.23948589 0.11253227 -0.05550028 -0.055252463 -0.062288128 -0.015795492 -0.080712244
0.089239635 0.07258884 0.076317556 0.025045246 -0.12528302 0.07175577 -0.16055062 -0.0061394246
0.12635227 -0.063883975 -0.059238657 0.18152337 0.28451687 0.08030812 -0.045717213 0.058098026
0.07303745 -0.017873684 -0.084207706 -0.033403013 -0.06868952 0.047679905 0.0047042724 -0.08133541
-0.12976621 0.013138782 -0.19689877 -0.021474276 -0.22134776 -0.10835554 -0.016168376 0.11947181
0.23237859 0.107977524 -0.023548141 -0.439192 -0.108558536 0.0158321 -0.2403227 -0.026531717
-0.083710715 -0.20406951 -0.1999443 -0.15709107 0.0008770657 0.13883136 0.07350986 0.049577814
0.16683272 0.088860564 -0.08072675 -0.13747352 -0.25119305 -0.48774064 -0.4224155 -0.09711266
-0.35019678 -0.45735392 -0.42027152 -0.12780304 -0.19408482 -0.19239369 -0.120270364 -0.16615196
-0.13780354 0.009968438 0.26323134 -0.13880678 -0.16145724 -0.026467277 0.025819471 -0.13867858
-0.11847486 0.22749166 0.07450581 -0.054015998 -0.10245471 -0.09141198 -0.02925433 -0.109742865
-0.26929337 -0.32541487 -0.028969448 -0.22943957 -0.18719469 -0.08981602 -0.25678948 -0.2728633
-0.21984993 -0.24117327 -0.033633742 0.11562792 -0.042860266 0.1356899 -0.0066608456 -0.002194023
-0.085648775 -0.0039865198 0.12380307 -0.123414025 0.08247417 -0.06463741 0.045367528 0.14363225
-0.0025388002 -0.21866369 -0.054232888 -0.31585404 -0.030602792 0.23534203 -0.03836172 -0.2091114
-0.051620677 0.040287156 -0.07232977 0.011157395 0.030847078 0.06122282 0.05464711 -0.08420698
-0.104730226 -0.044370607 -0.020937946 0.0023625628 -0.0399835 -0.08297783 0.07723284 0.03382586
-0.04335618 0.065547295 -0.044697702 -0.14408651 -0.0736134 -0.0728575 0.037474267 0.051112805
-0.08824109 0.0063413056 -0.078316465 -0.08238108 0.049777493 -0.07983083 0.0003171349 -0.023756618
-0.026543153 0.07873943 0.061863385 0.06268646 -0.028181206 -0.06467116 0.064920865 -0.089752376
-0.028637424 -0.035637014 -0.03967511 -0.037934035 -0.12514664 -0.049453627 0.056529533 -0.029819265
0.037419096 0.06418018 -0.06350828 0.0049551926 -0.046097122 0.02041691 -0.0029471118 0.002491268
-0.034715872 -0.109447405 -0.07455811 -0.030248804 -0.037981126 -0.00669661 -0.027104698 -0.0966497
-0.0070917853 0.036222428 0.020329688 0.042740654 0.015373794 -0.025081469 -0.051533382 -0.043469287
-0.022327365 -0.10352227 -0.026852963 0.012934443 -0.093433596 -0.043342113 8.72349e-05 -0.06654286
-0.084754 -0.080670044 -0.022311876 -0.053948414 0.04467228 -0.04635741 -0.078900166 -0.015114734
-0.037249237 0.034054417 0.006693771 -0.0030250626 -0.045562897 0.08029039 -0.07340301 -0.051785894
0.022478329 -0.03477715 -0.052166965 0.07887955 -0.07796734 -0.027604802 0.028030768 -0.08133265
-0.061419327 -0.025989683 -0.099842556 -0.08167451 0.0326899 0.012709341 -0.058962982 0.035863154
00000000: 2b35 323e bf6a 413e 1e3a 3e3e 3cfc e53d
00000010: f01b 2e3e 760a b93c 330b 5cbe f4bb a2be
00000020: d10d debd 69a7 9a3d 96fb 4abd 61e0 a53d
00000030: 71ae 903d 40f5 a5bc 7be8 7fbd e634 c2bc
00000040: 4b98 a93d 5ecd 29bd 004b 7b3d 02f2 b1bd
00000050: e1cc 363d 35ce 083c 94b5 703d ec00 c0bd
00000060: adfd 0ebe ca3b 753e 5277 e63d 4354 63bd
00000070: 6850 62bd d621 7fbd 8c65 81bc 764c a5bd
00000080: 45c3 b63d 75a9 943d 614c 9c3d b02b cd3c
00000090: 314a 00be b0f4 923d 6267 24be 3a2d c9bb
000000a0: 7d62 013e 9ad5 82bd 3ca4 72bd 43e1 393e
000000b0: 32ac 913e 9578 a43d f941 3bbd 32f8 6d3d
000000c0: a994 953d d56b 92bc 1775 acbd 99d1 08bd
000000d0: 17ad 8cbd 014c 433d 4c26 9a3b 2e93 a6bd
000000e0: 6fe1 04be 0c44 573c d59f 49be d2ea afbc
000000f0: fda8 62be 82e9 ddbd 8b73 84bc a3ad f43d
00000100: a7f4 6d3e 5223 dd3d 08e8 c0bc c6dd e0be
00000110: f053 debd 52b2 813c 2717 76be 0b59 d9bc
00000120: 8670 abbd 99f7 50be 33be 4cbe 7bdc 20be
00000130: e2ea 653a cf29 0e3e 568c 963d 1b12 4b3d
00000140: 32d6 2a3e 87fc b53d 1154 a5bd dcc5 0cbe
00000150: 609c 80be 24b9 f9be d846 d8be 01e3 c6bd
00000160: fe4c b3be 4b2a eabe d42d d7be cdde 02be
00000170: 2cbe 46be da02 45be 4f50 f6bd bd23 2abe
00000180: 5f1c 0dbe a952 233c 42c6 863e 5d23 0ebe
00000190: 0c55 25be e7d1 d8bc 5b83 d33c c201 0ebe
000001a0: f3a2 f2bd 93f3 683e 8196 983d e13f 5dbd
000001b0: c6d3 d1bd 3436 bbbd c7a6 efbc dec0 e0bd
000001c0: d2e0 89be c79c a6be 5651 edbc 35f2 6abe
000001d0: f7af 3fbe 76f1 b7bd e979 83be bdb4 8bbe
000001e0: 5720 61be 20f6 76be 89c3 09bd 55ce ec3d
000001f0: 3f8e 2fbd 4bf2 0a3e 3943 dabb 99c9 0fbb
00000200: a068 afbd 5aa1 82bb 778c fd3d 7ec0 fcbd
00000210: 38e8 a83d 9e60 84bd 4dd3 393d 5514 133e
00000220: 0062 26bb 60e9 5fbe 4e23 5ebd 9fb7 a1be
00000230: b5b2 fabc 80fd 703e 2e21 1dbd 4d21 56be
00000240: 3470 53bd 2504 253d a121 94bd 82cd 363c
00000250: 03b3 fc3c c8c4 7a3d a6d5 5f3d b674 acbd
00000260: cd7c d6bd f4bd 35bd 0e86 abbc 3ad5 1a3b
00000270: bdc5 23bd 48f0 a9bd 402c 9e3d fc8c 0a3d
00000280: 4096 31bd a93d 863d f014 37bd 6a8b 13be
00000290: 9fc2 96bd 5036 95bd 9e7e 193d a95b 513d
000002a0: bfb7 b4bd baca cf3b 6264 a0bd 69b7 a8bd
000002b0: 7ce3 4b3d 597e a3bd 2045 a639 3d9d c2bc
000002c0: 0771 d9bc 2342 a13d 7664 7d3d c261 803d
000002d0: 46dc e6bc 5072 84bd 3bf5 843d 18d0 b7bd
000002e0: 0899 eabc 1ef8 11bd 5e82 22bd b860 1bbd
000002f0: 7126 00be e38f 4abd 838b 673d 8847 f4bc
00000300: c444 193d e670 833d a110 82bd 2b5f a23b
00000310: 56d0 3cbd 5d41 a73c 5524 41bb 8b44 233b
00000320: 3b32 0ebd f625 e0bd ecb1 98bd 57cc f7bc
00000330: 1992 1bbd 3c6f dbbb ac0a debc 47f0 c5bd
00000340: 3562 e8bb f85d 143d 728a a63c d310 2f3d
00000350: 5ee2 7b3c a777 cdbc ab14 53bd da0c 32bd
00000360: e1e7 b6bc 7c03 d4bd bffa dbbc fcea 533c
00000370: 1d5a bfbd 8087 31bd e1f1 b638 9f47 88bd
00000380: 8193 adbd 5636 a5bd 65c7 b6bc 03f9 5cbd
00000390: 48fa 363d 44e1 3dbd 6996 a1bd caa3 77bc
000003a0: a892 18bd a57c 0b3d 6c57 db3b 2140 46bb
000003b0: 29a0 3abd 4a6f a43d 5154 96bd 721d 54bd
000003c0: 7924 b83c 7c72 0ebd 07ad 55bd 9a8b a13d
000003d0: 57ad 9fbd 7723 e2bc c8a0 e53c bb91 a6bd
000003e0: d592 7bbd 51e8 d4bc 417a ccbd f744 a7bd
000003f0: d8e5 053d d73a 503c 2b83 71bd 3ee5 123d

conv6.bias f4 [8]
-0.08443378 -0.11968972 0.17081109 -0.055092737 0.0491499 0.19407998 0.3956629 -0.03594485
00000000: 9eeb acbd e21f f5bd 1ae9 2e3e eca8 61bd
00000010: 6851 493d e7bc 463e 5494 ca3e e83a 13bd

prediction_layer.weight f4 [10, 512]
0.07424215 -0.1013611 -0.16392992 -0.19789869 -0.045215495 -0.17877188 0.017327959 -0.16433558
-0.123306036 0.0283391 -0.031526808 0.018211273 -0.13043651 -0.15218106 0.32854387 -0.036956433
0.009601331 0.017662002 0.07065675 -0.06773866 0.08017878 0.19555598 0.33701324 0.013444213
-0.09516064 -0.06548181 0.0013572506 0.021529917 0.088198066 0.23689792 0.20475164 -0.007378443
-0.01936371 -0.05443831 -0.1317659 -0.31433508 -0.1857653 0.16354984 0.38761213 -0.029191175
-0.19592394 -0.07230668 -0.2013738 -0.07472783 0.057450164 -0.13342075 0.14131835 0.106237166
0.1047947 0.03322755 0.09364598 0.3326068 0.017536916 -0.07082189 -0.035274588 -0.033865012
-0.14475472 -0.10459103 -0.18182278 0.099117465 -0.16702911 -0.0028002267 0.018542992 0.0998453
-0.027032608 -0.008267336 -0.0074213766 -0.0031292653 -0.033412073 0.028265286 0.019089643 -0.022662753
0.029756684 -0.032433175 0.034679353 -0.02199591 0.03296045 0.034732427 -0.015485893 0.059380352
0.041371066 0.033829607 -0.0009359415 0.043152798 0.001391465 0.04114199 -0.019398173 0.034838207
-0.0170115 0.01838538 -0.03570193 0.018324837 -0.05440654 -0.026018124 0.0008925716 -0.0070277327
-0.0087880865 -0.039426163 0.02998383 -0.033071995 -0.017044025 0.020463528 0.022283202 -0.02991356
-7.629393e-05 0.0011937086 -0.038317144 -0.057684876 0.025913639 -0.042077623 0.016414931 0.004698293
-0.017297082 -0.0148665 -0.05138624 -0.05125512 -0.042976666 -0.03958759 0.024488896 -0.017936628
-0.061045486 -0.07156516 -0.021851296 0.029109163 -0.007780788 -0.019480871 -0.014917059 -0.016647147
-0.021988982 0.022264592 0.18150264 0.08542119 0.056414302 0.096482456 0.16390604 -0.08368919
0.112335585 0.19753207 0.19430615 0.08945754 0.00025110936 -0.014936292 -0.075791046 -0.061325323
0.18180008 0.21947451 0.2644187 0.21596295 0.062474612 -0.004111156 -0.025967691 -0.0058273682
0.14229251 0.1214116 0.1744954 0.08238244 0.027883906 -0.06392863 -0.0093781 -0.089410774
0.20853347 -0.0071198335 0.04516292 0.06783501 -0.013568571 0.012317807 0.030886231 0.017779402
0.22562544 -0.025508653 0.005272388 0.06076182 -0.04869237 0.048676807 0.033391148 -0.019061852
0.09675293 -0.031156285 0.020767156 -0.011825521 0.045149658 0.0024850229 0.026471674 0.06474202
-0.01832604 -0.07400379 0.13810426 0.095569655 0.1460758 0.13069773 0.13399172 0.14294043
-0.10910802 -0.1949913 0.0753267 0.014615189 0.093573086 0.04017588 0.023674006 -0.037644073
0.10014221 0.016701527 0.027434701 0.077262454 0.12105263 0.19939002 0.19181877 0.030145137
0.048482932 0.018694451 -0.051078275 0.14841284 0.13223302 0.19050172 0.24081805 -0.020074291
-0.21152067 -0.00929506 0.08015855 0.07335013 0.0040273815 0.1161488 0.20062482 0.08849199
0.021368809 -0.09891933 -0.14014708 0.1708387 0.045720387 -0.07596052 -0.120773844 -0.0028536615
0.017084707 -0.06425722 -0.06501196 0.0060620657 -0.06394392 -0.020303182 -0.23448163 -0.13052471
0.119180426 0.009869379 0.043000124 0.030676402 0.028936725 0.0025432112 -0.27694148 -0.07868816
0.20278843 0.09958889 0.015420867 -0.043213207 -0.040753745 -0.021891812 -0.1450918 0.101155125
00000000: 450c 983d 6996 cfbd 3fdd 27be f4a5 4abe
00000010: e233 39bd fa0f 37be 5df3 8d3c 9647 28be
00000020: e087 fcbd 6627 e83c 4122 01bd cf2f 953c
00000030: 2691 05be 5ad5 1bbe e736 a83e a15f 17bd
00000040: e74e 1d3c e7af 903c 7cb4 903d 91ba 8abd
00000050: c634 a43d d43f 483e 008d ac3e 1e45 5c3c
00000060: 95e3 c2bd 541b 86bd c6e5 b13a 825f b03c
00000070: 30a1 b43d 5e95 723e 6aaa 513e dec6 f1bb
00000080: a5a0 9ebc b5fa 5ebd a4ed 06be 87f0 a0be
00000090: 4239 3ebe 9c79 273e 1975 c63e 5522 efbc
000000a0: 49a0 48be 8615 94bd ef34 4ebe e80a 99bd
000000b0: dd50 6b3d 739f 08be c2b5 103e df92 d93d
000000c0: 9b9e d63d 9d19 083d 77c9 bf3d 704b aa3e
000000d0: 94a9 8f3c 110b 91bd 167c 10bd 0ab6 0abd
000000e0: 953a 14be d233 d6bd c02f 3abe 19fe ca3d
000000f0: ae09 2bbe 0284 37bb 79e7 973c b17b cc3d
00000100: 7d73 ddbc b873 07bc 052f f3bb 5c14 4dbb
00000110: 19db 08bd 9a8c e73c e261 9c3c 3da7 b9bc
00000120: 4ac4 f33c a6d8 04bd f00b 0e3d c430 b4bc
00000130: 8901 073d 9743 0e3d 8bb8 7dbc d038 733d
00000140: b574 293d ea90 0a3d f959 75ba fdc0 303d
00000150: d161 b63a 8184 283d ebe8 9ebc 82b2 0e3d
00000160: b45b 8bbc f09c 963c 303c 12bd f81d 963c
00000170: 64d9 5ebd f623 d5bc 77fb 693a e548 e6bb
00000180: e8fb 0fbc 547d 21bd a6a0 f53c 8076 07bd
00000190: e99f 8bbc 21a3 a73c 438b b63c 480d f5bc
000001a0: feff 9fb8 3776 9c3a 70f2 1cbd fa46 6cbd
000001b0: d748 d43c 9659 2cbd 9b78 863c 23f4 993b
000001c0: 9cb2 8dbc 9f92 73bc 617a 52bd e4f0 51bd
000001d0: 4d08 30bd 9926 22bd f09c c83c d6ef 92bc
000001e0: d50a 7abd c190 92bd 7d01 b3bc 5776 ee3c
000001f0: fbf5 febb 5996 9fbc ae66 74bc 995f 88bc
00000200: 3d22 b4bc 3c64 b63c d4db 393e 4ef1 ae3d
00000210: af12 673d 9898 c53d fcd6 273e 3d65 abbd
00000220: 3310 e63d d945 4a3e 31f8 463e 8435 b73d
00000230: 54a7 8339 59b7 74bc 5638 9bbd 4330 7bbd
00000240: cd29 3a3e edbd 603e e361 873e 6425 5d3e
00000250: 61e5 7f3d e0b6 86bb 32ba d4bc 82f3 bebb
00000260: 21b5 113e a5a6 f83d ecae 323e 20b8 a83d
00000270: ca6c e43c 03ed 82bd 9aa6 19bc ff1c b7bd
00000280: cc89 553e 7e4d e9bb c1fc 383d 15ed 8a3d
00000290: b64e 5ebc a1d0 493c 1f05 fd3c 1ca6 913c
000002a0: 5b0a 673e 86f7 d0bc ffc3 ac3b 63e1 783d
000002b0: a771 47bd 5561 473d 28c5 083d 9a27 9cbc
000002c0: 6626 c63d 773b ffbc e21f aa3c d4bf 41bc
000002d0: d9ee 383d c4db 223b 20db d83c 7797 843d
000002e0: 7e20 96bc 4d8f 97bd 346b 0d3e 06ba c33d
000002f0: e594 153e a0d5 053e 2035 093e fa5e 123e
00000300: 0774 dfbd cdab 47be e344 9a3d 8c74 6f3c
00000310: 3fa3 bf3d 778f 243d fdef c13c ac30 1abd
00000320: 5c17 cd3d a4d1 883c bdbe e03c c73b 9e3d
00000330: 71ea f73d e62c 4c3e 246c 443e eff2 f63c
00000340: 0a96 463d 1b25 993c 7437 51bd 89f9 173e
00000350: 1868 073e e212 433e 0299 763e d772 a4bc
00000360: e098 58be 4f4a 18bc 2a2a a43d 9838 963d
00000370: 20f8 833b 6cdf ed3d 9870 4d3e 4a3b b53d
00000380: a40d af3c 3896 cabd b782 0fbe 57f0 2e3e
00000390: 4d45 3b3d 3091 9bbd 4758 f7bd 7f04 3bbb
000003a0: 3af5 8b3c 4a99 83bd fe24 85bd 4ba4 c63b
000003b0: 08f5 82bd dc52 a6bc f41b 70be 45a8 05be
000003c0: de14 f43d 2db3 213c e620 303d 144d fb3c
000003d0: b60c ed3c 01ac 263b 46cb 8dbe 4227 a1bd
000003e0: c5a7 4f3e 43f5 cb3d cea7 7c3c 5500 31bd
000003f0: 66ed 26bd 7556 b3bc f292 14be 6b2a cf3d

prediction_layer.bias f4 [10]
-0.042766284 -0.22274926 -0.0009870566 -0.19634134 0.30030307 -0.06769266 0.36116138 -0.17369714
0.2123443 -0.18090099
00000000: b32b 2fbd 6218 64be 2060 81ba b40d 49be
00000010: 53c1 993e 73a2 8abd 25ea b83e aadd 31be
00000020: c970 593e 1c3e 39be
