Homeworks/HW1/results/trained_models/cnn_3[RL1].pt (torch, 82541 bytes, 8 tensors)

conv1.weight f4 [16, 1, 3, 3]
0.24348438 0.011234338 0.1262571 0.058637746 -0.3168928 0.17052808 -0.25150535 -0.30614144
-0.05446629 0.02051628 0.38739848 0.24500896 -0.25776213 -0.268879 -0.18997557 -0.08449005
-0.21773009 -0.44593662 0.46295658 0.4097785 0.020062897 0.11860133 -0.26226217 0.196633
-0.45774773 -0.5162164 0.07532884 0.54763484 0.106869824 0.13119279 0.2258074 -0.31977278
-0.7218964 0.4135619 -0.006546138 -0.5876641 -0.117839955 0.108989246 -0.17723557 0.046516925
0.35790208 0.32840085 0.13908125 -0.087456144 -0.12111868 -0.16278984 0.25637916 0.3545123
0.19280441 0.14804068 0.2293939 0.14167099 -0.4217879 -0.18065843 0.14861603 0.21249895
0.18144026 -0.040952172 -0.15751062 -0.026836472 -0.2050524 0.11300827 0.020304857 -0.40663886
0.3768439 0.43248165 -0.23015065 0.037573777 -0.05599426 -0.5148587 0.325596 -0.035760935
0.23084967 -0.08081437 -0.35711545 0.070441976 0.12019815 -0.32227233 0.0076461756 0.36249435
0.078301765 -0.123432025 -0.5801507 -0.2859681 0.16594465 0.32042333 -0.09650709 0.082617804
0.33345357 0.18606411 -0.30250487 0.098520875 -0.38153756 -0.18161431 -0.08866505 -0.025441714
0.095202126 0.38845927 -0.32078573 0.019485187 0.31017083 -0.23836373 -0.033406418 0.25888932
0.17479247 0.28646085 0.13989462 -0.23154555 -0.10326754 -0.48846686 -0.11815012 -0.21710743
-0.14794397 0.63947225 -0.32731625 -0.19152954 0.8421135 0.27737063 -0.10761297 -0.21943925
0.3122693 -0.057587873 -0.47678748 0.109993055 0.36503562 -0.28903532 -0.40058386 -0.38027713
0.005079188 -0.29255208 -0.13860363 0.14253603 0.31183323 -0.015674999 0.26134974 -0.4652396
-0.27009526 -0.40231025 0.2919879 0.42379275 0.15967987 -0.088043176 0.34203485 -0.17658606
00000000: f853 793e 3b10 383c 8b49 013e 222e 703d
00000010: c63f a2be ea9e 2e3e 4fc5 80be 92be 9cbe
00000020: 0b18 5fbd c211 a83c 1859 c63e a1e3 7a3e
00000030: 66f9 83be 82aa 89be f588 42be 1f09 adbd
00000040: a3f4 5ebe ce51 e4be a508 ed3e 7dce d13e
00000050: f25a a43c 41e5 f23d 3a47 86be 295a 493e
00000060: e95d eabe c226 04bf 0246 9a3d cc31 0c3f
00000070: 91de da3d 6757 063e 0e3a 673e 42b9 a3be
00000080: 34ce 38bf 63be d33e fc80 d6bb 2871 16bf
00000090: 1356 f1bd c135 df3d 3e7d 35be 8888 3e3d
000000a0: f13e b73e 2824 a83e 516b 0e3e 351c b3bd
000000b0: 120d f8bd 61b2 26be 2144 833e a382 b53e
000000c0: 856e 453e fa97 173e 3ce6 6a3e 3312 113e
000000d0: 95f4 d7be 86fe 38be cd2e 183e 5399 593e
000000e0: 7acb 393e 77bd 27bd 774a 21be 29d8 dbbc
000000f0: 42f9 51be e170 e73d 5f56 a63c f832 d0be
00000100: aff1 c03e 3c6e dd3e 9dac 6bbe f6e6 193d
00000110: 3d5a 65bd c8cd 03bf 85b4 a63e 0f7a 12bd
00000120: db63 6c3e 0182 a5bd d6d7 b6be e243 903d
00000130: 732a f63d e100 a5be c58c fa3b dc98 b93e
00000140: ad5c a03d eec9 fcbd c284 14bf 696a 92be
00000150: 65ed 293e 870e a43e 82a5 c5bd 8633 a93d
00000160: 6dba aa3e 9787 3e3e ebe1 9abe 50c5 c93d
00000170: e458 c3be 1af9 39be 0696 b5bd 246b d0bc
00000180: 55f9 c23d 22e4 c63e 073e a4be 669f 9f3c
00000190: b6ce 9e3e 9f15 74be 2bd5 08bd 248d 843e
000001a0: ccfc 323e ffaa 923e 8940 0f3e 471a 6dbe
000001b0: ef7d d3bd 5418 fabe b1f8 f1bd 6951 5ebe
000001c0: a07e 17be 74b4 233f ff95 a7be 5220 44be
000001d0: c094 573f 8603 8e3e 3064 dcbd afb4 60be
000001e0: c3e1 9f3e 43e1 6bbd 7d1d f4be 0a44 e13d
000001f0: f3e5 ba3e 70fc 93be 5419 cdbe afb3 c2be
00000200: 516f a63b 63c9 95be 1cee 0dbe f7f4 113e
00000210: 9ba8 9f3e db68 80bc a2cf 853e e333 eebe
00000220: ed49 8abe 9cfb cdbe 707f 953e 5dfb d83e
00000230: 1f83 233e fb4f b4bd 311f af3e fad2 34be

conv1.bias f4 [16]
-0.007985896 -0.37877262 -0.12723336 -0.03554492 -0.062854365 -0.2873073 -0.008080832 0.120003186
-0.13655849 -0.119269036 -0.33874702 -0.3313404 -0.058004547 -0.010940081 -0.26955986 -0.03833631
00000000: 47d7 02bc 7cee c1be 7649 02be 8d97 11bd
00000010: cab9 80bd f119 93be 7765 04bc 3bc4 f53d
00000020: fdd5 0bbe 5343 f4bd 4070 adbe 73a5 a9be
00000030: 2d96 6dbd 073e 33bc c003 8abe 8906 1dbd

conv2.weight f4 [8, 16, 5, 5]
0.027755445 -0.0472453 0.063953586 -0.041662574 -0.02756976 -0.024751326 -0.08622094 0.07964605
0.077874646 0.023779538 -0.070382684 -0.09249235 0.06147483 0.077939354 0.068813846 -0.08287637
-0.14533243 -0.03004421 0.03981886 -0.061512597 -0.067789875 -0.100777656 -0.028673856 0.014216824
-0.017364712 -0.014599928 0.009128369 -0.0056094397 0.0031790747 -0.11059643 -0.042989243 0.077614285
0.057982583 0.066958435 -0.03269934 -0.056224406 -0.05889857 0.029211989 0.14389427 0.07457159
-0.0535362 -0.051488373 -0.060434144 -0.02142215 0.041741855 -0.05071135 -0.038253408 -0.06200439
0.0056125377 0.019284984 -0.0056285067 -0.05884531 -0.026565133 0.011020332 -0.046700597 -0.083257854
-0.09195553 -0.057627715 0.001748336 0.022254404 -0.0072018723 -0.09375452 -0.03790085 -0.0129710995
-0.0073393993 -0.016903449 -0.019390922 -0.086161904 -0.018626738 0.049943075 -0.04141761 -0.04362999
-0.047932584 -0.007775177 -0.016521636 -0.07106266 0.1685992 -0.076674014 -0.23235303 -0.033413876
-0.08014592 0.22043939 0.10115014 -0.17381129 -0.10885075 -0.16524306 0.1651112 0.17054057
-0.10725694 -0.06758522 -0.14681101 0.1319129 0.17808728 -0.12324955 -0.09121622 -0.12929992
0.044048466 0.067878656 0.026800215 -0.04052857 -0.10236198 -0.04521647 -0.0030831087 -0.018487802
0.048856124 -0.0254377 -0.078110486 -0.038670003 -0.041937336 0.010143393 0.012703454 -0.078232475
-0.060389522 0.008004469 0.0021807605 0.026319407 -0.03609516 -0.022851579 -0.055448774 0.029473586
-0.042385675 -0.013764041 -0.04565623 0.0030767354 -0.05157874 -0.07042415 -0.023832504 -0.008206295
-0.00052680395 -0.0007910674 -0.02672555 -0.00096704863 -0.050153837 -0.03381503 -0.08341748 -0.0117484545
-0.068254575 -0.058512215 0.0069684167 -0.051090978 -0.077941425 -0.01705845 -0.06898638 -0.05458037
-0.057442434 -0.06856115 -0.069916084 -0.05509899 -0.04088219 -0.052818973 -0.080346905 -0.037827298
-0.0063239797 0.06937371 0.008562629 -0.013682976 -0.046071723 0.0026857867 -0.0065509723 0.04743608
-0.05685959 -0.038896833 -0.09375749 0.0044677444 -0.016146569 -0.019623056 -0.008610923 -0.017574081
0.01236556 0.049089924 0.059726454 0.018259564 0.015264508 -0.06547487 -0.03059261 -0.0523573
-0.0022941802 -0.057308193 0.17346391 -0.043167118 -0.0013419162 -0.05974679 -0.18229961 0.19299956
0.09012741 0.040108476 -0.060012028 -0.17497738 0.20948972 0.19355747 0.05732829 -0.13675313
-0.23718749 -0.012617109 0.14665607 0.057821438 -0.05935678 -0.19801283 -0.082036495 0.026353894
-0.035038266 0.011714356 -0.011144416 -0.00068218337 -0.014409089 -0.07569435 0.024609512 -0.03861254
0.030520288 -0.0017983535 -0.0804881 -0.0075381515 -0.05028566 -0.04665646 0.0014983848 -0.07599062
0.00948977 -0.018571895 0.00015341066 0.04554466 -0.024601199 -0.070729695 0.0014701727 -0.048101917
-0.028943572 0.024826657 -0.04726509 -0.07652842 -0.03174709 0.012294112 -0.08222157 -0.0010942849
0.00093463244 -0.03613801 0.006586016 -0.037876025 -0.027463507 -0.008618578 -0.061561566 0.03740158
-0.09753464 -0.06099659 -0.05084797 -0.07093328 -0.019355223 -0.056009643 -0.06140942 -0.09848257
-0.062231574 -0.027525121 -0.020383947 0.10627698 -0.10516828 -0.10225585 -0.10148534 0.013003888
00000000: 635f e33c 4a84 41bd 19fa 823d 60a6 2abd
00000010: fad9 e1bc 4bc3 cabc 9b94 b0bd 781d a33d
00000020: be7c 9f3d 4ecd c23c cc24 90bd a16c bdbd
00000030: 08cd 7b3d ab9e 9f3d 46ee 8c3d 16bb a9bd
00000040: 06d2 14be 461f f6bc 1a19 233d a2f4 7bbd
00000050: 6bd5 8abd 8464 cebd 6fe5 eabc afed 683c
00000060: 7140 8ebc 8934 6fbc 288f 153c 64cf b7bb
00000070: 0658 503b 6280 e2bd 7d15 30bd 3df4 9e3d
00000080: 257f 6d3d 8121 893d beef 05bd 904b 66bd
00000090: a03f 71bd fb4d ef3c 0559 133e fdb8 983d
000000a0: c648 5bbd 79e5 52bd cb89 77bd 817d afbc
000000b0: 82f9 2a3d b4b6 4fbd 9baf 1cbd 51f8 7dbd
000000c0: 61e9 b73b 8bfb 9d3c 566f b8bb c807 71bd
000000d0: 1f9f d9bc 9f8e 343c 2049 3fbd 1883 aabd
000000e0: 2e53 bcbd 0a0b 6cbd 6c28 e53a de4e b63c
000000f0: affd ebbb 5f02 c0bd ec3d 1bbd bc84 54bc
00000100: 587f f0bb 1a79 8abc b6d9 9ebc a775 b0bd
00000110: 1a97 98bc 1c91 4c3d 83a5 29bd 5cb5 32bd
00000120: f554 44bd e9c6 febb 6258 87bc 4d89 91bd
00000130: 45a5 2c3e 4407 9dbd f4ed 6dbe fddc 08bd
00000140: 8b23 a4bd ddba 613e ce27 cf3d 96fb 31be
00000150: 24ed debd 7a35 29be e912 293e 30a2 2e3e
00000160: 87a9 dbbd 1f6a 8abd a055 16be 2d14 073e
00000170: 835c 363e 436a fcbd 92cf babd 3367 04be
00000180: 2a6c 343d f703 8b3d 208c db3c 4901 26bd
00000190: 28a3 d1bd e834 39bd fb0d 4abb bb73 97bc
000001a0: 5c1d 483d b962 d0bc 64f8 9fbd 7064 1ebd
000001b0: 7cc6 2bbd 7930 263c 2622 503c 5938 a0bd
000001c0: 015b 77bd 2d25 033c 17eb 0e3b cc9b d73c
000001d0: 85d8 13bd 3c33 bbbc 411e 63bd 9772 f13c
000001e0: 9a9c 2dbd 9282 61bc 0702 3bbd 0ea3 493b
000001f0: 3b44 53bd 893a 90bd 623c c3bc b273 06bc
00000200: 3719 0aba a25f 4fba 8aef dabc 8981 7dba
00000210: 1c6e 4dbd a181 0abd c9d6 aabd 977c 40bc
00000220: 0ec9 8bbd 81aa 6fbd 5157 e43b c644 51bd
00000230: c19f 9fbd 2abe 8bbc bb48 8dbd ab8f 5fbd
00000240: c248 6bbd ca69 8cbd 2a30 8fbd 7baf 61bd
00000250: 1574 27bd b558 58bd eb8c a4bd ccf0 1abd
00000260: 6339 cfbb ce13 8e3d 454a 0c3c 902e 60bc
00000270: b4b5 3cbd 0604 303b 8aa9 d6bb 564c 423d
00000280: 9ae5 68bd 4952 1fbd ed03 c0bd 2866 923b
00000290: cf45 84bc 88c0 a0bc d414 0dbc 85f7 8fbc
000002a0: eb98 4a3c 8412 493d baa3 743d 1595 953c
000002b0: fd17 7a3c b017 86bd 5a9d fabc 9c74 56bd
000002c0: f559 16bb ffbb 6abd 86a0 313e 01d0 30bd
000002d0: 3ce3 afba 0db9 74bd c0ac 3abe ada1 453e
000002e0: b894 b83d c948 243d 2ccf 75bd 452d 33be
000002f0: 7984 563e ee33 463e 12d1 6a3d 0309 0cbe
00000300: 47e1 72be feb7 4ebc 022d 163e 2cd6 6c3d
00000310: 1820 73bd e0c3 4abe c002 a8bd 1fe4 d73c
00000320: 4984 0fbd 92ed 3f3c 1297 36bc 8dd4 32ba
00000330: 1a14 6cbc a405 9bbd e399 c93c 2f28 1ebd
00000340: af05 fa3c bbb6 ebba f2d6 a4bd 9902 f7bb
00000350: 56f8 4dbd d81a 3fbd 7365 c43a f8a0 9bbd
00000360: fb7a 1b3c 1624 98bc dcdc 2039 0a8d 3a3d
00000370: 7488 c9bc bbda 90bd cfb2 c03a 8406 45bd
00000380: 121b edbc 4661 cb3c 0a99 41bd efba 9cbd
00000390: 3d09 02bd 3e6d 493c c863 a8bd 1c6e 8fba
000003a0: 1f02 753a 7305 14bd 82cf d73b e423 1bbd
000003b0: 26fb e0bc f034 0dbc fb27 7cbd 6632 193d
000003c0: 3ec0 c7bd 8fd7 79bd f645 50bd 7845 91bd
000003d0: d88e 9ebc 5e6a 65bd 7288 7bbd 3bb1 c9bd
000003e0: 89e6 7ebd 5d7c e1bc 3cfc a6bc bfa7 d93d
000003f0: 7862 d7bd 846b d1bd 8cd7 cfbd 420e 553c

conv2.bias f4 [8]
0.06059908 0.022273557 -0.0570467 -0.04902097 0.48318976 -0.1470455 0.1503599 0.057924595
00000000: be36 783d 0977 b63c cda9 69bd 36ca 48bd
00000010: a664 f73e 1893 16be f2f7 193e 5742 6d3d

conv3.weight f4 [16, 8, 7, 7]
-0.08997915 -0.07078557 0.03178531 0.010389234 -0.0049743038 -0.025404 -0.04858648 0.009232869
-0.042548627 -0.056561828 -0.059597693 -0.047212247 -0.037220094 -0.0956455 -0.05445466 -0.11417506
-0.049059164 -0.10784438 -0.10577859 -0.09187438 -0.04916191 0.03380037 0.031544447 0.060987037
0.021051714 -0.06816736 -0.04186646 0.004724421 0.012647835 0.041606657 0.06362523 -0.030478694
-0.06502191 0.037492223 0.03620034 0.010324744 -0.03170616 0.014633602 0.0050882655 0.019304689
0.03698073 0.033694547 -0.008811463 0.063619785 0.02471421 0.035403136 0.037831627 0.09593563
0.014092416 0.05061792 0.0621708 -0.017833982 -0.016718322 -0.055475313 0.027117245 0.04851497
-0.06564711 0.026308948 0.045666516 0.030703597 0.029802589 0.05919765 0.060764283 0.00018530064
-0.05401028 0.050279576 0.06952335 0.10111756 0.080329314 -0.0024718912 0.04694203 0.03847897
-0.02531908 -0.0047340235 0.060278468 0.035390604 -0.0014292231 -0.035653662 -0.04448749 -0.033765905
-0.008107164 -0.044627894 -0.023174413 -0.013734909 -0.0019544736 0.00474944 -0.07650616 -0.009603354
-0.039270177 0.014667494 0.05916777 -0.07090887 0.012150327 -0.06320752 -0.051564403 0.025684314
-0.015216557 -0.046332985 -0.029926809 -0.078419514 0.04705391 0.075100884 0.09525798 0.08017874
0.027259357 0.06625971 0.07211004 -0.011239019 0.0047913957 -0.049552873 -0.070354156 0.016019111
-0.0298496 -0.022469405 -0.008426509 -0.00773545 0.004932487 0.066031754 0.052977882 -0.08374205
-0.09940064 0.004297817 0.08835378 0.10253409 0.034135927 0.031591248 -0.017854454 0.055905085
0.033229373 0.0022911627 -0.01966809 0.07064523 0.03655103 0.008622302 0.03500125 -0.044241097
-0.04218396 -0.005705421 -0.052251216 -0.038763583 -0.027397485 -0.06648002 -0.01747858 0.011735912
0.046958584 -0.0010454745 -0.008263874 -0.0077872486 -0.07704488 -0.015538129 -0.019524945 -0.07604387
-0.019363983 -0.015063401 0.010250062 0.034026418 0.06479888 0.028067552 0.0124172615 -0.04381946
-0.049221385 0.053505663 -0.029722478 -0.038025085 -0.06293218 -0.046152126 -0.0077759423 0.042370614
0.038295526 0.07662141 0.075969376 0.07694505 0.048439115 0.054165952 0.02580159 0.042232435
-0.021421377 0.08278297 0.057599626 -0.017301727 -0.021092974 -0.01257357 -0.025180055 -0.0007051102
0.01574012 0.03598169 0.036850624 0.042757474 0.025677767 -0.07003433 0.0034101924 0.0028232464
0.05656926 -0.032086194 -0.011835218 0.008653607 -0.025488835 -0.020287095 -0.018441275 0.049562685
0.050478037 0.04112787 -0.042504672 0.023234045 0.0027867388 0.041752916 0.06054318 -0.015215616
-0.02851611 0.016981069 -0.044485297 0.008814802 0.043360222 0.029792469 0.009591298 0.06266236
-0.026520016 -0.07760813 -0.050797053 0.008149162 0.0316484 0.030542577 -0.0065855407 0.06890698
-0.042788908 -0.108732104 -0.06829223 0.014658703 -0.036073446 0.02711839 0.049640115 -0.044049557
-0.08291373 -0.0162631 0.0033373802 0.017647352 -0.0014763123 0.043871164 -0.035082195 -0.044932734
-0.031683728 -0.0032039313 0.014809504 -0.03203144 -0.015983617 -0.024312302 0.07855784 0.03605019
-0.0330245 0.008457474 0.007789129 -0.042038612 -0.0009869105 0.0319133 -0.021808207 0.0442921
00000000: fd46 b8bd 06f8 90bd 5031 023d 9b37 2a3c
00000010: 7cff a2bb 0d1c d0bc 9e02 47bd 7645 173c
00000020: 7847 2ebd 60ad 67bd b61c 74bd a161 41bd
00000030: 1974 18bd cae1 c3bd d90b 5fbd 9dd4 e9bd
00000040: 43f2 48bd 84dd dcbd 72a2 d8bd a328 bcbd
00000050: 005e 49bd 4272 0a3d c034 013d 8bcd 793d
00000060: a574 ac3c 549b 8bbd 2a7c 2bbd 51cf 9a3b
00000070: dd38 4f3c be6b 2a3d f24d 823d 74ae f9bc
00000080: 352a 85bd 7291 193d cf46 143d 1d29 293c
00000090: 52de 01bd c7c1 6f3c 77bb a63b de24 9e3c
000000a0: 1b79 173d 4b03 0a3d f45d 10bc 174b 823d
000000b0: 7475 ca3c e102 113d 56f5 1a3d e679 c43d
000000c0: e0e3 663c bc54 4f3d cfa6 7e3d 9218 92bc
000000d0: ddf4 88bc 153a 63bd fc24 de3c a2b7 463d
000000e0: fe71 86bd dd85 d73c d00c 3b3d 1c86 fb3c
000000f0: 8f24 f43c 3c79 723d f8e3 783d 434d 4239
00000100: e239 5dbd f5f1 4d3d 4262 8e3d b916 cf3d
00000110: b283 a43d 74ff 21bb 4946 403d 209c 1d3d
00000120: f669 cfbc de1f 9bbb 8ee6 763d bdf5 103d
00000130: c554 bbba 9309 12bd 8438 36bd 1e4e 0abd
00000140: e9d3 04bc bdcb 36bd 44d8 bdbc 6208 61bc
00000150: a016 00bb 31a1 9b3b 43af 9cbd 6357 1dbc
00000160: c4d9 20bd ee4f 703c e759 723d ab38 91bd
00000170: 2a12 473c f272 81bd 3235 53bd e967 d23c
00000180: de4e 79bc a8c7 3dbd 1129 f5bc 699a a0bd
00000190: 9abb 403d 7ece 993d 9e16 c33d c034 a43d
000001a0: 044f df3c 2cb3 873d 6eae 933d dd23 38bc
000001b0: 2401 9d3b f4f7 4abd d715 90bd 833a 833c
000001c0: 2687 f4bc c211 b8bc 570f 0abc a879 fdbb
000001d0: b3a0 a13b a83b 873d 56ff 583d f480 abbd
000001e0: 9092 cbbd b4d4 8c3b d4f2 b43d 65fd d13d
000001f0: 1dd2 0b3d d365 013d 8143 92bc bbfc 643d
00000200: 861b 083d 5527 163b f91e a1bc 72ae 903d
00000210: 88b6 153d 8e44 0d3c 795d 0f3d 2736 35bd
00000220: 17c9 2cbd 8af4 babb 5f05 56bd 90c6 1ebd
00000230: b170 e0bc ad26 88bd 3d2f 8fbc fc47 403c
00000240: a557 403d 4e08 89ba 3365 07bc 2d2c ffbb
00000250: b5c9 9dbd a393 7ebc c7f2 9fbc e3bc 9bbd
00000260: 37a1 9ebc 7ccc 76bc e0ef 273c 495f 0b3d
00000270: 46b5 843d eced e53c c571 4b3c 097c 33bd
00000280: 5d9c 49bd c128 5b3d 8e7c f3bc 31c0 1bbd
00000290: 96e2 80bd 030a 3dbd 55cd febb cf8c 2d3d
000002a0: c5db 1c3d b0eb 9c3d d595 9b3d 5e95 9d3d
000002b0: 1868 463d 1edd 5d3d db5d d33c ebfb 2c3d
000002c0: e27b afbc 1e8a a93d 96ed 6b3d 5abc 8dbc
000002d0: 2ccb acbc 6001 4ebc 6746 cebc 25d7 38ba
000002e0: 6df1 803c 8961 133d aef0 163d 7622 2f3d
000002f0: 2e5a d23c 296e 8fbd 897d 5f3b 3706 393b
00000300: 2bb5 673d d06c 03bd 81e8 41bc dcc7 0d3c
00000310: f6cd d0bc 1f31 a6bc 2812 97bc 3e02 4b3d
00000320: 0fc2 4e3d b375 283d 6119 2ebd 5355 be3c
00000330: b8a1 363b 1b05 2b3d 20fc 773d eb4a 79bc
00000340: 9e9a e9bc e21b 8b3c 3736 36bd f66b 103c
00000350: 7d9a 313d 560f f43c d224 1d3c 2055 803d
00000360: 8140 d9bc 03f1 9ebd 9210 50bd 1084 053c
00000370: c1a1 013d 6d34 fa3c 85cb d7bb 1a1f 8d3d
00000380: 6c43 2fbd f0ae debd ccdc 8bbd 0e2b 703c
00000390: c0c1 13bd 6327 de3c 6f53 4b3d 4f6d 34bd
000003a0: acce a9bd 313a 85bc f3b7 5a3b 2e91 903c
000003b0: d280 c1ba 40b2 333d 59b2 0fbd 630b 38bd
000003c0: ccc6 01bd 0cf9 51bb 90a3 723c 6633 03bd
000003d0: 13f0 82bc 982a c7bc efe2 a03d 5da9 133d
000003e0: b344 07bd 3891 0a3c f33b ff3b ae30 2cbd
000003f0: 395b 81ba 85b7 023d 20a7 b2bc a26b 353d

conv3.bias f4 [16]
-0.21933676 -0.15945259 -0.12440848 -0.14357828 -0.11737562 -0.32766482 -0.11860441 -0.37999594
-0.26026434 -0.3328184 -0.123739846 -0.17266718 -0.068385914 -0.26087973 -0.079962984 -0.24451204
00000000: d199 60be 8a47 23be e0c9 febd 2f06 13be
00000010: a162 f0bd afc3 a7be dee6 f2bd d48e c2be
00000020: 5e41 85be 2c67 aabe 516b fdbd aacf 30be
00000030: ea0d 8cbd 0792 85be a2c3 a3bd 5d61 7abe

prediction_layer.weight f4 [10, 1024]
-0.0006882349 -0.022341529 -0.09034286 -0.09283669 -0.09635064 -0.04617418 -0.07406147 -0.07767249
0.016023802 -0.013811946 -0.016353285 -0.01751589 -0.033892203 -0.038247693 -0.081444584 -0.04221269
-0.019918015 0.009856214 -0.017560042 -0.014277774 -0.0267227 0.003196611 -0.03876896 -0.036920086
0.016690731 -0.02676925 0.04246127 -0.019048685 0.031424392 0.05810068 0.03377276 -0.04736268
0.06073211 0.005300216 0.043159492 0.021720361 0.04252087 0.026334675 0.006656361 -0.020452393
0.09299167 0.044101175 -0.0011283332 -0.0038056339 0.021737624 0.048306536 0.042511147 -0.07223607
0.120551646 0.03699154 0.027572602 0.018981207 0.01517634 0.0013717975 0.04656468 0.0027193557
0.084469676 0.09291899 0.03910394 0.0069350502 0.024272958 0.029873721 -0.009914608 0.024062604
0.039210483 0.03936462 0.025119325 -0.026166918 -0.004983854 0.024510108 0.030125778 -0.009376246
0.00052925834 0.010749498 -0.036124915 -0.07001708 -0.05659267 -0.07531339 -0.048607346 -0.00783225
-0.015032386 -0.014508823 0.007038288 -0.0484444 0.004716695 -0.022368735 0.019134864 -0.012805965
0.0130962115 0.04090898 0.08992924 0.029628856 0.10816289 0.11580957 0.07754455 0.019287176
0.012566556 0.015109139 0.015586773 0.012380919 0.051880788 0.095880225 0.05751918 0.031110467
0.0011139895 0.033074833 0.009559487 -0.03545474 0.024090517 0.041349556 0.037477113 0.056289554
0.03557176 0.035189487 0.018147817 -0.029057436 -0.03197952 0.00024533644 0.03400222 0.050417755
-0.022391627 -0.018232943 -0.011587852 0.027501905 0.024387393 -0.0029477633 -0.021127384 -0.035378795
-0.016723827 -0.039588116 -0.01958744 -0.030657178 -0.015162493 -0.05894518 -0.005152731 -0.003696634
0.047683228 0.027304979 0.001224484 -0.0796678 -0.026804596 -0.03882832 -0.015843915 0.030145684
0.08568981 0.07686042 -0.013905105 -0.026833128 -0.03651888 -0.02854462 -0.0029742853 -0.015063546
0.04133743 0.030528285 0.07082991 0.028562317 0.020564111 0.014897402 0.0039076023 0.046744823
0.024044596 0.014973367 0.062063925 0.021911796 0.023235062 0.047946572 0.05320213 0.047914866
-0.040705826 -0.029781612 0.039183352 -0.016808437 0.050195433 0.060528602 0.054287445 0.009832107
-0.08271833 -0.083229154 -0.040685344 -0.026393833 -0.010229779 -0.006908311 -0.0054201772 -0.024764678
-0.018941665 -0.04832632 -0.04706584 -0.06346407 -0.028103283 -0.016695637 -0.02660276 -0.00488085
0.03041814 0.06985739 0.05827795 -0.011829176 -0.030710004 -0.049760934 -0.0011819807 0.0048805177
0.019796656 0.011205646 0.015027233 -0.040534552 -0.06585193 -0.07131345 -0.0691436 -0.027124077
-0.014999503 0.031727098 -0.0027543392 0.016759655 0.020906167 -0.03890089 -0.06906307 -0.028787963
0.011046597 0.055899322 0.03337902 0.021115886 -0.031259015 0.0064628944 0.011537904 -0.022923896
0.005778295 0.015368384 0.08535132 0.09464138 0.08516556 0.0910755 0.070451595 0.038944148
-0.02661863 0.013976658 -0.027772095 0.019580213 0.056649067 0.065766826 0.03697348 0.06587848
-0.085452095 -0.0016462969 0.02707827 -8.841729e-06 -0.027471812 0.009478667 -0.010115112 -0.027971735
-0.013390417 -0.009792307 -0.042717833 -0.055033352 -0.043101683 0.01719542 -0.037417855 0.031012015
00000000: aa6a 34ba 9505 b7bc ad05 b9bd 2a21 bebd
00000010: 7c53 c5bd 2321 3dbd 8aad 97bd c112 9fbd
00000020: 5944 833c 804b 62bc 53f7 85bc 7c7d 8fbc
00000030: 8dd2 0abd 9da9 1cbd 6bcc a6bd 37e7 2cbd
00000040: 1b2b a3bc f57b 213c 14da 8fbc 53ed 69bc
00000050: 90e9 dabc 3c7e 513b 33cc 1ebd 8439 17bd
00000060: 00bb 883c 304b dbbc deeb 2d3d fd0b 9cbc
00000070: ddb6 003d fbfa 6d3d 4e55 0a3d 5fff 41bd
00000080: 3cc2 783d 6fad ad3b 02c8 303d e6ee b13c
00000090: 5d2a 2e3d d1bb d73c 9a1d da3b c78b a7bc
000000a0: 6b72 be3d 6fa3 343d 94e4 93ba f167 79bb
000000b0: 1a13 b23c 13dd 453d 2b20 2e3d 81f0 93bd
000000c0: c8e3 f63d 7184 173d f0df e13c 7a7e 9b3c
000000d0: 2fa6 783c e3cd b33a 9bba 3e3d 3837 323b
000000e0: 70fe ac3d 504c be3d 742b 203d 6b3f e33b
000000f0: 15d8 c63c bcb9 f43c e170 22bc f01e c53c
00000100: 2c9b 203d cc3c 213d 0bc7 cd3c 015c d6bc
00000110: 994f a3bb 6cc9 c83c 56ca f63c d39e 19bc
00000120: edbd 0a3a aa1e 303c b8f7 13bd 1d65 8fbd
00000130: b7cd 67bd e83d 9abd 7f18 47bd d652 00bc
00000140: 664a 76bc 6ab6 6dbc 70a1 e63b a36d 46bd
00000150: 818e 9a3b a33e b7bc b8c0 9c3c 1cd0 51bc
00000160: 7e91 563c 2d90 273d d22c b83d 37b8 f23c
00000170: 8184 dd3d 912d ed3d adcf 9e3d 2400 9e3c
00000180: f5e3 4d3c 528c 773c aa5f 7f3c 57d9 4a3c
00000190: f380 543d da5c c43d 3b99 6b3d 61db fe3c
000001a0: 4903 923a 7a79 073d 659f 1c3c fd38 11bd
000001b0: 7a59 c53c 275e 293d 9a81 193d e08f 663d
000001c0: b2b3 113d da22 103d bbaa 943c dc09 eebc
000001d0: f5fc 02bd 80a0 8039 e945 0b3d d982 4e3d
000001e0: a56e b7bc 415d 95bc f9da 3dbc ad4b e13c
000001f0: 12c8 c73c 432f 41bb 5613 adbc 5be9 10bd
00000200: 6800 89bc 2627 22bd d775 a0bc c324 fbbc
00000210: 1b6c 78bc 8070 71bd 3ed8 a8bb 3a43 72bb
00000220: 7d4f 433d b1ae df3c dd7e a03a df28 a3bd
00000230: 5095 dbbc 720a 1fbd 19cb 81bc 15f4 f63c
00000240: 247e af3d ff68 9d3d 3dd2 63bc 26d1 dbbc
00000250: d294 15bd 68d6 e9bc 3aec 42bb 17cd 76bc
00000260: 7051 293d 7416 fa3c 460f 913d 85fb e93c
00000270: 1176 a83c 3c14 743c 580b 803b 8077 3f3d
00000280: 2cf9 c43c da52 753c be36 7e3d 5e80 b33c
00000290: 7557 be3c a063 443d 7aea 593d 6142 443d
000002a0: 27bb 26bd 91f8 f3bc b97e 203d d9b1 89bc
000002b0: ba99 4d3d d7ec 773d 835c 5e3d d916 213c
000002c0: 3a68 a9bd 0c74 aabd ada5 26bd e137 d8bc
000002d0: ce9a 27bc 1d5f e2bb be9b b1bb 4bdf cabc
000002e0: 8d2b 9bbc d2f1 45bd 1cc8 40bd 73f9 81bd
000002f0: db38 e6bc 4ac5 88bc 08ee d9bc 8aef 9fbb
00000300: 772f f93c 6411 8f3d dcb4 6e3d 29cf 41bc
00000310: 8c93 fbbc 1fd2 4bbd b1ec 9aba c0ec 9f3b
00000320: 992c a23c e397 373c c934 763c 8f07 26bd
00000330: 60dd 86bd c90c 92bd 299b 8dbd 5033 debc
00000340: 7ac0 75bc 46f4 013d 2582 34bb 8b4b 893c
00000350: 6943 ab3c 8a56 1fbd f070 8dbd bcd4 ebbc
00000360: c9fc 343c b0f6 643d 70b8 083d 39fb ac3c
00000370: 7409 00bd b0c6 d33b 7a09 3d3c e5ca bbbc
00000380: da57 bd3b adcb 7b3c accc ae3d 57d3 c13d
00000390: 486b ae3d cb85 ba3d ed48 903d e683 1f3d
000003a0: 500f dabc 5afe 643c 4e82 e3bc af66 a03c
000003b0: da08 683d c2b0 863d 8171 173d 4ceb 863d
000003c0: 8201 afbd 8fc8 d7ba 40d3 dd3c f056 14b7
000003d0: 910c e1bc 694c 1b3c dbb9 25bc fb24 e5bc
000003e0: 7b63 5bbc ea6f 20bc e5f8 2ebd a76a 61bd
000003f0: 648b 30bd 69dd 8c3c 7743 19bd e90c fe3c

prediction_layer.bias f4 [10]
0.046754505 -0.2832653 0.19673239 0.13013224 0.23877674 -0.08134172 0.15088388 -0.05316726
-0.017490996 -0.3111537
00000000: a781 3f3d 2608 91be 3774 493e 6341 053e
00000010: e481 743e 7d96 a6bd 4e81 1a3e eac5 59bd
00000020: 4749 8fbc 8a4f 9fbe
