Homeworks/HW1/results/trained_models/cnn_3[3].pt (torch, 82521 bytes, 8 tensors)

conv1.weight f4 [16, 1, 3, 3]
0.22197488 -0.3306777 0.33434469 -0.17148417 -0.46698272 0.3765951 0.034119256 0.0868926
0.13827348 0.33093935 0.19888124 -0.49485096 -0.22916397 0.1745946 -0.069827884 -0.28403318
0.11397289 0.25356206 0.21797629 0.164058 0.27186522 0.24274583 -0.47031668 -0.22247578
0.26450166 -0.2897641 -0.14660297 0.0796235 0.16860597 0.09517688 -0.087426275 -0.13279615
-0.14611079 0.08763008 0.24642485 -0.29539445 -0.18437293 0.12553614 -0.034386408 0.13464093
0.017417481 -0.07645983 0.20216873 -0.31917283 -0.38409743 -0.52843356 0.4149754 0.20660481
0.20598526 0.16112064 -0.067203015 -0.22708362 0.0715873 -0.22187996 -0.0006370325 -0.053844795
-0.34393722 0.06229782 0.34428972 -0.37852028 0.22804987 0.20204449 -0.09239805 0.0028220513
0.19545592 0.16233373 0.25134078 0.0626259 0.17215027 -0.34145287 -0.31667703 0.19414914
-0.07455121 -0.016596053 0.28695694 0.35534552 -0.17354928 -0.4822381 0.4947539 -0.4621095
0.114953324 0.17751764 -0.05692546 0.46590936 -0.26696286 -0.45979515 0.37515202 -0.040747177
0.15889464 -0.40137538 0.025036924 0.13423902 -0.06710932 0.24944718 -0.5330366 0.003214912
-0.015699476 -0.20882204 0.4456057 0.44407815 -0.044129875 -0.16288649 -0.27464184 -0.2477354
0.028910078 -0.27739754 0.1886281 -0.28154883 -0.05907587 -0.20809048 0.16628017 -0.16903567
-0.28977373 0.1077681 -0.15141383 0.19800282 0.40783593 -0.37222233 0.08958422 0.55169874
-0.2803883 -0.19092375 0.15435348 0.18901426 -0.031249007 -0.22314253 -0.21356604 -0.18284957
-0.05046317 -0.15847166 0.16636473 0.04297435 -0.03824528 -0.073339455 0.36834627 0.16046223
-0.28908753 -0.27119216 -0.28884742 0.0024665436 -0.24406739 0.25992683 0.43736053 0.2685834
00000000: 624d 633e 964e a9be 3a2f ab3e 8c99 2fbe
00000010: 5c18 efbe 13d1 c03e a2c0 0b3d bff4 b13d
00000020: 9097 0d3e e270 a93e 86a7 4b3e 1b5d fdbe
00000030: f6a9 6abe edc8 323e ec01 8fbd cc6c 91be
00000040: 9e6a e93d e3d2 813e 2d35 5f3e d2fe 273e
00000050: eb31 8b3e 5d92 783e 59cd f0be b1d0 63be
00000060: c36c 873e f65b 94be 171f 16be a511 a33d
00000070: 0ba7 2c3e 19ec c23d 8c0c b3bd b7fb 07be
00000080: 119e 15be 6677 b33d cc56 7c3e f13d 97be
00000090: 42cc 3cbe 8c8c 003e c3d8 0cbd 50df 093e
000000a0: 1baf 8e3c f996 9cbd 5205 4f3e 9f6a a3be
000000b0: 6ba8 c4be 6c47 07bf a877 d43e 3690 533e
000000c0: cded 523e cffc 243e bca1 89bd 9c88 68be
000000d0: 5d9c 923d 8034 63be 87fe 26ba 5c8c 5cbd
000000e0: 8a18 b0be 002c 7f3d be46 b03e 69cd c1be
000000f0: e885 693e c0e4 4e3e 303b bdbd 2af2 383b
00000100: 9925 483e d03a 263e bdaf 803e 0242 803d
00000110: 2948 303e e9d2 aebe 7e23 a2be 08cf 463e
00000120: 4eae 98bd 72f4 87bc 05ec 923e d9ef b53e
00000130: e7b6 31be eae7 f6be 6250 fd3e 9e99 ecbe
00000140: a66c eb3d 2fc7 353e ac2a 69bd ac8b ee3e
00000150: 5baf 88be 456a ebbe ed13 c03e 83e6 26bd
00000160: 47b5 223e 1381 cdbe 3c1a cd3c f475 093e
00000170: 9c70 89bd 156f 7f3e 1675 08bf 46b1 523b
00000180: 309c 80bc 72d5 55be 6e26 e43e 365e e33e
00000190: 87c1 34bd b7cb 26be db9d 8cbe 59ae 7dbe
000001a0: d4d4 ec3c 0d07 8ebe ba27 413e 2b27 90be
000001b0: 8af9 71bd ac15 55be 5945 2a3e b017 2dbe
000001c0: 395d 94be 86b5 dc3d 3a0c 1bbe 40c1 4a3e
000001d0: dfcf d03e ed93 bebe ee77 b73d 213c 0d3f
000001e0: 0e8f 8fbe 8481 43be d70e 1e3e f48c 413e
000001f0: ebfd ffbc 7a7f 64be 0eb1 5abe eb3c 3bbe
00000200: 78b2 4ebd 6546 22be 845b 2a3e df05 303d
00000210: 15a7 1cbd ff32 96bd e297 bc3e 3650 243e
00000220: 4803 94be b3d9 8abe cfe3 93be bca5 213b
00000230: cdec 79be 2115 853e b8ed df3e c383 893e

conv1.bias f4 [16]
-0.16097957 -0.10562193 0.06558306 0.04904742 -0.23341724 0.061306406 0.0664684 -0.18302858
0.07434566 -0.12167631 0.05376248 -0.37216175 0.104427174 0.018334914 -0.05737742 -0.2704201
00000000: d4d7 24be 4f50 d8bd 6950 863d f3e5 483d
00000010: ee04 6fbe 6d1c 7b3d 9620 883d d86b 3bbe
00000020: 8a42 983d 6e31 f9bd 0c36 5c3d fc8b bebe
00000030: eadd d53d 1a33 963c 9604 6bbd 8174 8abe

conv2.weight f4 [8, 16, 5, 5]
-0.12944509 -0.057679653 0.023156377 0.027714571 0.039438907 -0.065852635 -0.046910953 0.17100799
0.02773621 -0.0041865488 -0.049163036 0.049337 -0.11581401 -0.29342958 -0.18436266 0.1159994
-0.06667204 -0.22927284 -0.29575226 -0.24222949 0.17701778 -0.12192168 -0.11889301 -0.095475584
-0.23586002 -0.06820873 0.00399034 -0.21319827 -0.08345333 -0.037023295 -0.24426395 -0.14926158
-0.12880678 0.004483608 0.08251506 -0.13931142 -0.0069284225 -0.17093332 0.03631681 0.049881786
-0.21617484 -0.1482158 -0.04450356 -0.018222384 -0.039094605 -0.14536445 -0.05656349 -0.009722108
-0.07786546 0.11692405 -0.080452494 -0.036812704 -0.16833293 -0.13574076 0.07685788 -0.1425654
0.03633041 -0.040830053 -0.0892393 -0.048121914 -0.12628669 -0.18664056 -0.21402408 -0.08644309
-0.008845913 -0.06326263 -0.12872826 -0.08139272 -0.19039804 -0.124510884 0.011731644 0.09244933
0.16067202 -0.032699067 0.022023981 -0.10915529 -0.10040835 -0.14514698 -0.0468205 0.08832181
-0.18749267 -0.14740172 -0.07937853 -0.08637989 -0.105710104 -0.18031733 -0.20787694 -0.11562615
-0.148667 -0.074802764 -0.03334587 -0.026877588 0.046662703 -0.26090628 -0.15079862 0.07548135
0.15463161 0.15228559 -0.020441152 0.096852444 0.12963556 0.06795219 0.045932334 0.026348488
0.026453827 0.079635 0.11918708 0.035360936 0.03377042 -0.027382106 -0.026094962 0.031712674
0.011577526 -0.03758754 -0.038596228 -0.009980793 0.028703833 -0.07594829 -0.11306893 -0.09345959
-0.20937823 -0.16321543 -0.1683025 -0.15255007 -0.21492848 0.0050959387 -0.11554228 0.088720776
0.09357258 0.027832502 -0.030275065 -0.12145484 0.0021641175 -0.062088642 -0.07873446 -0.23318963
-0.1937727 -0.102223374 -0.16375577 -0.16319665 -0.21108137 -0.079366334 -0.15969075 -0.2191599
-0.15799703 -0.017601196 0.04159612 -0.041763682 -0.061131243 0.0064434134 0.037060205 0.01737028
-0.11277557 -0.09994075 0.0076997816 -0.014607657 0.059363507 -0.02498995 0.035036933 0.0124473795
0.05960067 0.09293876 0.07628642 0.06292518 0.12887831 0.00022697789 0.076812506 0.11589758
0.07947189 0.14594293 0.0844251 0.05267588 0.060366753 -0.055679914 0.08767748 -0.13155992
-0.2783608 -0.27019554 -0.21994853 -0.20742877 -0.2444821 -0.19183996 0.10123158 -0.041595075
-0.10527751 -0.086538784 -0.0392966 -0.009883708 0.09696766 0.15941842 0.01118474 -0.1494952
-0.13043475 -0.20180148 -0.23448202 -0.1358614 -0.020862771 0.13624653 0.15039319 -0.017017344
-0.043298803 0.08771856 -0.020625895 -0.065111406 0.023589905 -0.044062577 0.01218348 -0.118656136
-0.12626272 -0.06947663 -0.059643973 -0.047577187 0.001952663 -0.06946012 -0.028616492 -0.0140408045
-0.092650644 -0.058787797 -0.18305235 -0.08569689 0.044073485 0.08071091 0.113891646 -0.04702602
-0.020515034 -0.29021266 -0.14260696 0.03160959 -0.16550307 -0.03458383 -0.12548469 0.070617996
0.28467506 -0.08937156 -0.07544879 0.042963304 0.08984102 0.02802943 0.11942279 0.007452194
-0.056218542 -0.12601538 -0.11330194 -0.11341587 -0.30376855 -0.17051323 -0.3161512 -0.2265733
-0.32466182 -0.16738345 0.010843393 0.041675568 0.06112365 0.09956568 0.05867417 0.06590367
00000000: 418d 04be 8041 6cbd 71b2 bd3c ab09 e33c
00000010: b18a 213d bfdd 86bd b325 40bd b81c 2f3e
00000020: 0c37 e33c 512f 89bb 2e5f 49bd 9815 4a3d
00000030: e52f edbd 673c 96be 91c9 3cbe 1891 ed3d
00000040: 5a8b 88bd 80c6 6abe d76c 97be 020b 78be
00000050: 2644 353e 13b2 f9bd 2e7e f3bd b488 c3bd
00000060: 4a85 71be 05b1 8bbd 66c1 823b a650 5abe
00000070: 94e9 aabd bda5 17bd 5420 7abe 07d8 18be
00000080: ede5 03be 3beb 923b a8fd a83d a7a7 0ebe
00000090: d207 e3bb 2509 2fbe efc0 143d d850 4c3d
000000a0: f05c 5dbe e2c5 17be 5d49 36bd 1c47 95bc
000000b0: aa21 20bd 6bda 14be 1eaf 67bd 7a49 1fbc
000000c0: ed77 9fbd e075 ef3d 47c4 a4bd ebc8 16bd
000000d0: 785f 2cbe a0ff 0abe aa67 9d3d aafc 11be
000000e0: 32cf 143d 6a3d 27bd 18c3 b6bd 7c1b 45bd
000000f0: 4c51 01be b41e 3fbe 2129 5bbe 1309 b1bd
00000100: 73ee 10bc d68f 81bd 57d1 03be 3ab1 a6bd
00000110: b4f7 42be 90ff febd 1536 403c 1356 bd3d
00000120: 3587 243e 75ef 05bd a36b b43c cf8c dfbd
00000130: e5a2 cdbd 69a1 14be dac6 3fbd 11e2 b43d
00000140: 14fe 3fbe 7af0 16be 3691 a2bd f1e7 b0bd
00000150: 8a7e d8bd 1ba5 38be b1dd 54be 67cd ecbd
00000160: 293c 18be 3132 99bd ae95 08bd 632e dcbc
00000170: 6421 3f3d 8295 85be f46a 1abe f795 9a3d
00000180: c057 1e3e c1f0 1b3e 3474 a7bc 935a c63d
00000190: 2fbf 043e 852a 8b3d 8b23 3c3d c9d8 d73c
000001a0: b2b5 d83c ad17 a33d 5b18 f43d a1d6 103d
000001b0: da52 0a3d 7050 e0bc 1ac5 d5bc 26e5 013d
000001c0: aaaf 3d3c 64f5 19bd 1417 1ebd 7b86 23bc
000001d0: 4d24 eb3c c78a 9bbd af90 e7bd be67 bfbd
000001e0: 3f67 56be f221 27be 7e57 2cbe 1636 1cbe
000001f0: 3616 5cbe d5fb a63b 6ea1 ecbd 3db3 b53d
00000200: fba2 bf3d fd00 e43c 6a03 f8bc 51bd f8bd
00000210: ded3 0d3b a950 7ebd 883f a1bd 43c9 6ebe
00000220: 5a6c 46be 7d5a d1bd 98af 27be 061d 27be
00000230: b725 58be d18a a2bd f985 23be 746b 60be
00000240: f9c9 21be 6230 90bc b160 2a3d 6510 2bbd
00000250: c164 7abd 4523 d33b 71cc 173d 1e4c 8e3c
00000260: e1f6 e6bd bcad ccbd 734e fc3b f454 6fbc
00000270: 2627 733d b9b7 ccbc e382 0f3d 18f0 4b3c
00000280: d51f 743d ad56 be3d 0e3c 9c3d ebde 803d
00000290: adf8 033e ea00 6e39 e04f 9d3d b65b ed3d
000002a0: 29c2 a23d 1072 153e 11e7 ac3d aac2 573d
000002b0: 2143 773d 9f10 64bd 4090 b33d a5b7 06be
000002c0: 4f85 8ebe 1257 8abe 303a 61be 3568 54be
000002d0: 8459 7abe b271 44be 8152 cf3d 995f 2abd
000002e0: bc9b d7bd 3f3b b1bd 79f5 20bd 47ef 21bc
000002f0: fb96 c63d 953e 233e 3340 373c 4515 19be
00000300: b090 05be 0ca5 4ebe 0e1c 70be 401f 0bbe
00000310: 67e8 aabc 3684 0b3e ac00 1a3e f567 8bbc
00000320: 165a 31bd caa5 b33d a3f7 a8bc 2159 85bd
00000330: 9e3f c13c f67a 34bd 389d 473c fd01 f3bd
00000340: 044b 01be c349 8ebd 3d4d 74bd 4ce0 42bd
00000350: 7ff0 ff3a 1b41 8ebd 226d eabc 670b 66bc
00000360: 9fbf bdbd 79cb 70bd 1372 3bbe da81 afbd
00000370: 6686 343d c34b a53d 0640 e93d 5b9e 40bd
00000380: 250f a8bc c196 94be 8f07 12be 0f79 013d
00000390: a379 29be c6a7 0dbd 0f7f 00be 2ba0 903d
000003a0: eec0 913e 7008 b7bd e584 9abd 4afa 2f3d
000003b0: 92fe b73d fa9d e53c f093 f43d 8931 f43b
000003c0: 6a45 66bd 2d0a 01be d90a e8bd 9446 e8bd
000003d0: 8d87 9bbe 059b 2ebe 92de a1be d502 68be
000003e0: 133a a6be 9166 2bbe 7da8 313c 00b4 2a3d
000003f0: cb5c 7a3d 17e9 cb3d 5454 703d 81f8 863d

conv2.bias f4 [8]
0.039397243 0.10599852 0.008592414 0.03364009 0.048111428 -0.01740023 0.10560498 0.051736806
00000000: 015f 213d c115 d93d 32c7 0c3c 31ca 093d
00000010: 7d10 453d ed8a 8ebc 6c47 d83d f9e9 533d

conv3.weight f4 [16, 8, 7, 7]
-0.18921234 -0.2474224 -0.21854982 -0.19699614 -0.16762547 -0.11870902 0.03661358 -0.13637999
-0.070487216 -0.05163805 0.027198303 -0.053514324 0.05085185 0.0015876318 0.034263823 0.0921895
0.053715393 0.13062105 0.09990053 -0.039965145 -0.0093786735 0.18719539 0.088951685 0.12353017
0.0779148 -0.019278111 -0.10675532 -0.033188697 0.0737539 -0.049612418 0.08817151 0.15038857
0.046166014 0.075929075 0.12609525 0.016551692 0.06552002 0.09233939 0.09080706 0.02390631
-0.034656834 -0.09733104 -0.076024376 -0.13642868 -0.060091667 -0.08501699 -0.15077852 -0.09428552
-0.09090468 0.009886049 0.006993537 -0.09213864 -0.043103375 -0.075091824 -0.124816634 0.002867737
-0.12571271 -0.1134059 -0.039048847 0.0039460063 -0.12563865 -0.12587081 0.0025070067 -0.061994918
-0.028585488 0.016370298 0.0749531 -0.031322315 -0.054707363 0.04647753 0.019606642 0.061561592
0.09565795 -0.03156052 -0.07793331 0.016748525 0.10744167 0.020445129 0.0048349244 0.051833045
-0.09627011 -0.15368299 -0.019615175 -0.015098497 0.074819304 -0.035475772 -0.0070190486 -0.13105504
-0.18350935 0.060343448 0.019657752 0.00031053417 -0.111156486 -0.06934894 -0.14119993 0.019657034
0.06124086 -0.115746625 -0.05084236 -0.115997225 -0.18376733 -0.119976446 -0.03621891 -0.13507558
-0.010353342 -0.13289693 0.07014965 0.022951933 0.13506328 0.063580565 -0.004001652 0.09402722
0.023810958 -0.006143412 0.0448302 0.149806 0.00049262465 -0.07227042 0.07498445 0.12427866
0.16946295 0.23117009 0.22264397 0.06790856 0.010471378 -0.0072408104 -0.02871902 0.06809042
0.14865626 0.10700886 0.03272522 0.022048004 0.03252175 -0.13696662 0.021247147 0.018545516
0.015382087 0.08182286 -0.06958616 -0.05485068 0.06361135 -0.032771226 -0.059803266 -0.027832393
0.028269589 -0.011533764 -0.067861006 0.020893918 -0.07352959 -0.0023938508 0.01599529 0.048068
0.07041462 -0.025054092 -0.1461184 -0.05776574 -0.069600135 -0.08780629 0.04811692 0.07958872
-0.11344714 -0.122862004 -0.17327222 -0.0991868 -0.11118793 0.023227623 0.12336055 -0.0026592184
-0.056405194 -0.068235844 -0.18553427 0.008026249 0.09244234 0.020487497 0.048233055 -0.042875912
-0.12620173 -0.0925589 0.018121945 -0.0024391436 -0.030828245 0.058387183 -0.019906256 0.07232959
-0.1927201 0.03720636 -0.013020669 -0.032175295 0.096965335 0.015724853 0.049310543 -0.1447849
-0.13801074 -0.09757568 0.048495952 0.08126225 -0.049363088 -0.0852224 -0.04706216 -0.03515855
-0.030427333 -0.032011822 -0.0019471855 -0.109773904 -0.14993145 -0.06621024 -0.088551 0.020558165
-0.0630713 -0.07815212 -0.0042991494 0.08530509 0.24451815 0.1735448 -0.042549185 -0.0016051569
-0.074231386 -0.13314684 -0.0033067614 0.1256463 0.16215567 0.13540809 0.03582676 0.040356584
0.18853115 0.2528442 0.2095667 0.17125383 0.075507455 -0.046934865 -0.11605801 0.11560974
0.09519273 0.17261009 0.20764925 0.16600594 -0.01277193 -0.027753986 0.07676082 0.08151946
0.10147208 0.18213332 0.18936375 0.03757771 -0.00042747866 -0.20342337 -0.07365578 -0.06972888
-0.03487017 -0.050343554 -0.044310447 -0.085116155 -0.08469284 -0.024258586 0.079046145 0.03099373
00000000: e1c0 41be 4c5c 7dbe 86cb 5fbe 5bb9 49be
00000010: 03a6 2bbe b71d f3bd 1ff8 153d 32a7 0bbe
00000020: 9a5b 90bd 6b82 53bd face de3c d631 5bbd
00000030: 084a 503d 1518 d03a 3958 0c3d d9cd bc3d
00000040: ac04 5c3d 86c1 053e a698 cc3d 7eb2 23bd
00000050: 02a9 19bc 26b0 3f3e 4d2c b63d 63fd fc3d
00000060: cb91 9f3d 21ed 9dbc 89a2 dabd dff0 07bd
00000070: 490c 973d 6436 4bbd 4493 b43d 76ff 193e
00000080: 9318 3d3d b480 9b3d 1d1f 013e 6a97 873c
00000090: 5c2f 863d 6f1c bd3d 0df9 b93d 2ad7 c33c
000000a0: 53f4 0dbd 7f55 c7bd abb2 9bbd f6b3 0bbe
000000b0: ae22 76bd 631d aebd af65 1abe c418 c1bd
000000c0: 3c2c babd 18f9 213c 0a2a e53b 2fb3 bcbd
000000d0: 2a8d 30bd bec9 99bd dd9f ffbd a5f0 3b3b
000000e0: d5ba 00be 5a41 e8bd aff1 1fbd 804d 813b
000000f0: 6ba7 00be 47e4 00be 984c 243b 62ee 7dbd
00000100: 1d2c eabc 011b 863c 0381 993d d44b 00bd
00000110: d414 60bd 395f 3e3d 1c9e a03c 0228 7c3d
00000120: 51e8 c33d 9b45 01bd 809b 9fbd 3434 893c
00000130: 610a dc3d 8b7c a73c 496e 9e3b e34e 543d
00000140: 4329 c5bd 135f 1dbe 01b0 a0bc b05f 77bc
00000150: dd3a 993d 0b4f 11bd 0c00 e6bb 4b33 06be
00000160: e0e9 3bbe b12a 773d 4b09 a13c 31cf a239
00000170: 03a6 e3bd d106 8ebd b796 10be ca07 a13c
00000180: b2d7 7a3d 910c edbd 1440 50bd f48f edbd
00000190: 812d 3cbe 36b6 f5bd 485a 14bd 4151 0abe
000001a0: 10a1 29bc 2216 08be 9faa 8f3d b105 bc3c
000001b0: 074e 0a3e 8736 823d 4a20 83bb 5891 c03d
000001c0: 330f c33c ad4e c9bb df9f 373d be66 193e
000001d0: 7b23 013a 8402 94bd 7391 993d cf85 fe3d
000001e0: b287 2d3e dab7 6c3e c8fc 633e a513 8b3d
000001f0: 2590 2b3c 5244 edbb 2644 ebbc fd72 8b3d
00000200: 5939 183e 7627 db3d e10a 063d 049e b43c
00000210: 8735 053d fa40 0cbe 7f0e ae3c c4ec 973c
00000220: 2605 7c3c be92 a73d 3083 8ebd 1bab 60bd
00000230: ab46 823d 1f3b 06bd 45f4 74bd c200 e4bc
00000240: a095 e73c 1df8 3cbc b6fa 8abd b929 ab3c
00000250: af96 96bd 27e2 1cbb 8e08 833c f3e2 443d
00000260: 8a35 903d 3d3e cdbc 10a0 15be c59b 6cbd
00000270: 848a 8ebd c9d3 b3bd 3f16 453d 69ff a23d
00000280: f956 e8bd 139f fbbd 466e 31be 7322 cbbd
00000290: 7fb6 e3bd db47 be3c 75a4 fc3d 4846 2ebb
000002a0: 2209 67bd 3cbf 8bbd b2fc 3dbe 8780 033c
000002b0: 6952 bd3d 65d5 a73c 0690 453d a79e 2fbd
000002c0: 073b 01be 858f bdbd 7974 943c 0ada 1fbb
000002d0: 848b fcbc 6627 6f3d 7212 a3bc 8921 943d
000002e0: 6b58 45be b265 183d a554 55bc 3eca 03bd
000002f0: c395 c63d 68d1 803c daf9 493d 7e42 14be
00000300: b052 0dbe c2d5 c7bd b1a3 463d d36c a63d
00000310: f330 4abd 1589 aebd 40c4 40bd 6902 10bd
00000320: be42 f9bc d41e 03bd b438 ffba 24d1 e0bd
00000330: a187 19be 3c99 87bd 3a5a b5bd 9969 a83c
00000340: 872b 81bd 380e a0bd e1df 8cbb 6fb4 ae3d
00000350: f762 7a3e bab5 313e 0e48 2ebd 2164 d2ba
00000360: a006 98bd a557 08be 40b6 58bb 6ca9 003e
00000370: 230c 263e 6ba8 0a3e 15bf 123d f24c 253d
00000380: 4f0e 413e cc74 813e a798 563e 2a5d 2f3e
00000390: a7a3 9a3d c63e 40bd d2af edbd cdc4 ec3d
000003a0: 68f4 c23d b3c0 303e 01a2 543e 76fd 293e
000003b0: 5b41 51bc 545c e3bc c734 9d3d adf3 a63d
000003c0: 98d0 cf3d 2881 3a3e 92e8 413e 16eb 193d
000003d0: 371f e0b9 374e 50be d7d8 96bd 04ce 8ebd
000003e0: 06d4 0ebd 0b35 4ebd df7e 35bd 6151 aebd
000003f0: 7173 adbd f1b9 c6bc f2e2 a13d 90e6 fd3c

conv3.bias f4 [16]
-0.059226315 0.22803375 -0.32548764 0.05443982 -0.043040257 0.11944655 -0.07292657 -0.1464594
0.11623413 -0.01135017 -0.19616532 -0.13371992 -0.0013501061 0.18142612 0.012336702 -0.13414699
00000000: 4b97 72bd ae81 693e 51a6 a6be 4afc 5e3d
00000010: fb4a 30bd 65a0 f43d 875a 95bd 74f9 15be
00000020: 290c ee3d 10f6 39bc 90df 48be e0ed 08be
00000030: 0bf6 b0ba c5c7 393e e11f 4a3c d45d 09be

prediction_layer.weight f4 [10, 1024]
0.04196772 0.032132953 -0.0054190443 -0.06680664 0.038971517 -0.014678057 -0.12712745 -0.08563129
-0.023579145 0.015653023 0.097348824 0.00036502825 -0.01071566 -0.0004906307 -0.0314611 0.0642212
-0.04608845 0.17335606 0.1801213 0.12060804 0.089048736 0.21929727 0.16270585 0.075300306
0.15512969 0.10315319 0.12024838 0.08216082 0.060067587 0.15417747 0.11481044 0.22365531
0.23035651 0.26700112 0.029292243 0.05483875 0.007227561 0.05869148 0.026626766 0.1367097
-0.056058396 -0.0072698803 -0.074853525 -0.10254013 -0.1251089 -0.09222581 0.09156448 0.032219563
-0.09349308 -0.2182206 -0.17429121 -0.052484494 -0.037906323 -0.030552046 -0.111406095 -0.07220017
-0.15872248 0.008464413 -0.15136306 -0.13688064 -0.21704471 -0.15537322 -0.07178661 0.040306997
0.2136047 0.17085592 0.20697886 0.13741323 0.100187734 0.15608817 0.21019484 0.29965708
0.18547495 0.19047832 0.06690884 -0.002662622 0.027090881 0.034608614 0.054601282 0.15867001
0.08525285 0.07467148 0.13682508 -0.0016708883 0.001558097 0.051029555 -0.0071706814 -0.058457583
-0.06792652 -0.083221294 0.07503042 -0.029831186 -0.020304628 0.017129904 0.027431583 0.05029265
0.10419958 0.13926356 0.05788273 0.010840734 0.08342861 0.068152964 0.13453135 -0.01887442
0.16944718 0.010319395 0.08668623 0.079733044 0.04503509 0.07413791 0.045813028 -0.060768697
0.11148488 0.029593864 0.11737346 0.046093088 0.15342379 0.106560856 0.10003911 0.10119799
0.08655477 0.055641007 -0.05354824 0.13712507 0.13099897 0.08279738 0.051936164 0.18058173
-0.07351533 -0.18974578 -0.1572586 -0.046067584 -0.04578966 -0.047308058 -0.08059258 -0.15006213
0.02430721 -0.021262655 -0.048159838 -0.067088045 -0.030755721 0.06811089 0.09898726 0.03725714
-0.10218836 -0.026985971 -0.18815681 0.04374414 -0.10930135 -0.017248165 0.13521655 0.050271977
-0.04638458 -0.05862454 0.022122232 0.00821308 0.06690673 0.044224698 0.21432249 0.014887006
-0.05940405 -0.05627303 -0.058512863 0.10885943 0.072909534 0.007951536 -0.08554874 0.005706007
0.07218405 -0.031247592 -0.107894674 0.13045283 0.08939291 -0.15654154 -0.13415791 -0.21033591
0.11670747 -0.04428139 -0.0029603515 0.055626076 0.13766861 -0.015539693 -0.08449225 -0.056701563
0.064444296 -0.015133024 -0.09918977 0.016813928 0.12809806 0.12890123 -0.13453497 -0.1057663
0.048800953 -0.008053328 -0.045363575 -0.0093890475 0.0030893018 0.0009437174 0.18265073 -0.122962
-0.08229282 -0.10029936 -0.06156976 -0.15388775 0.09465927 0.016451778 0.2360167 0.0041393503
0.10152002 -0.035477154 0.16894092 0.0065641645 0.06925876 0.04339895 0.034566514 -0.045788787
0.16497721 0.04951505 0.09905771 0.119268514 0.050418478 -0.020846011 0.038018793 -0.10067261
0.16574173 0.122047976 -0.062188618 0.071167454 0.004259691 -0.057570852 0.05485806 0.05383937
0.23233964 0.18828952 0.028446842 0.0071175755 -0.03864192 0.077569224 0.097130775 -0.0032242392
0.034980312 0.06426869 -0.041883133 -0.05839307 0.027090192 0.22629675 0.040993318 -0.16429257
0.11115491 0.15809774 0.15742211 0.026720509 -0.044891905 0.27989373 0.025904028 -0.1373569
00000000: 58e6 2b3d d89d 033d 3d92 b1bb ebd1 88bd
00000010: 99a0 1f3d 3c7c 70bc b32d 02be 755f afbd
00000020: 0d29 c1bc c53a 803c d25e c73d 4361 bf39
00000030: bc90 2fbc ab9d 00ba 5bdd 00bd 6886 833d
00000040: 3ec7 3cbd 4084 313e b871 383e 5901 f73d
00000050: 2f5f b63d 778f 603e 5d9c 263e 0c37 9a3d
00000060: 51da 1e3e fb41 d33d c844 f63d ef43 a83d
00000070: 6e09 763d b3e0 1d3e bc21 eb3d e605 653e
00000080: 94e2 6b3e 5fb4 883e 49f6 ef3c 999e 603d
00000090: 2dd5 ec3b 7a66 703d 6020 da3c a1fd 0b3e
000000a0: 7d9d 65bd 2d38 eebb ce4c 99bd 8f00 d2bd
000000b0: 8c1c 00be e3e0 bcbd 2886 bb3d a9f8 033d
000000c0: 4d79 bfbd 3975 5fbe 6579 32be fbf9 56bd
000000d0: a943 1bbd 4948 fabc e128 e4bd afdd 93bd
000000e0: 2588 22be 52ae 0a3c ebfe 1abe 702a 0cbe
000000f0: f840 5ebe 281a 1fbe dc04 93bd f318 253d
00000100: 31bb 5a3e dbf4 2e3e 44f2 533e 0eb6 0c3e
00000110: 3a2f cd3d 94d5 1f3e 513d 573e a76c 993e
00000120: 25ed 3d3e c00c 433e 8007 893d 627f 2ebb
00000130: b2ed dd3c c3c1 0d3d 98a5 5f3d 647a 223e
00000140: 0c99 ae3d 5ced 983d e01b 0c3e b501 dbba
00000150: 0f39 cc3a 5e04 513d 09f8 eabb 3871 6fbd
00000160: 0f1d 8bbd ed6f aabd 8da9 993d 8860 f4bc
00000170: e455 a6bc 0354 8c3c 33b8 e03c aaff 4d3d
00000180: 9766 d53d 1b9b 0e3e 7116 6d3d 559d 313c
00000190: 9edc aa3d c893 8b3d 96c2 093e 879e 9abc
000001a0: 9083 2d3e ae12 293c 8d88 b13d 144b a33d
000001b0: b776 383d 9ed5 973d 71a6 3b3d 99e8 78bd
000001c0: 2f52 e43d d56e f23c 7f61 f03d 1bcc 3c3d
000001d0: 201b 1d3e 943c da3d 4ee1 cc3d e440 cf3d
000001e0: a143 b13d d3e7 633d 6655 5bbd 846a 0c3e
000001f0: 9824 063e ac91 a93d 04bb 543d 6bea 383e
00000200: 358f 96bd b84c 42be 6608 21be 5db1 3cbd
00000210: f08d 3bbd 18c6 41bd b90d a5bd e3a9 19be
00000220: ea1f c73c 052f aebc 4043 45bd 7565 89bd
00000230: 6cf3 fbbc b97d 8b3d d5b9 ca3d f19a 183d
00000240: 2248 d1bd af11 ddbc 2eac 40be 0e2d 333d
00000250: 63d9 dfbd 064c 8dbc 3576 0a3e fde9 4d3d
00000260: c2fd 3dbd 4920 70bd af39 b53c 2790 063c
00000270: 6506 893d f524 353d 5b77 5b3e a1e8 733c
00000280: a951 73bd 8c7e 66bd 2fab 6fbd b1f1 de3d
00000290: 9851 953d 2947 023c 2e34 afbd 75f9 ba3b
000002a0: 3bd5 933d f3fa ffbc e2f7 dcbd 6d95 053e
000002b0: a113 b73d 6d4c 20be b160 09be 4c62 57be
000002c0: 5304 ef3d 6760 35bd 7502 42bb 2bd8 633d
000002d0: 00f9 0c3e 329a 7ebc 460a adbd e63f 68bd
000002e0: 5ffb 833d 81f0 77bc 0224 cbbd 5dbd 893c
000002f0: 232c 033e affe 033e 89c3 09be 009c d8bd
00000300: 82e3 473d 1bf2 03bc 28cf 39bd 85d4 19bc
00000310: e275 4a3b cd63 773a cb08 3b3e 80d3 fbbd
00000320: 2389 a8bd c069 cdbd 9330 7cbd c094 1dbe
00000330: b8dc c13d e1c5 863c 5dae 713e 63a3 873b
00000340: bae9 cf3d 7e50 11bd d9fe 2c3e 3418 d73b
00000350: 89d7 8d3d 19c3 313d 9e95 0d3d 068d 3bbd
00000360: c9ef 283e 4bd0 4a3d c5de ca3d 0d43 f43d
00000370: 9b83 4e3d 41c5 aabc 98b9 1b3d 712d cebd
00000380: 33b8 293e 4af4 f93d 7eb9 7ebd 3ec0 913d
00000390: e194 8b3b 6acf 6bbd d8b2 603d ac86 5c3d
000003a0: 71ea 6d3e f8ce 403e 5a09 e93c 8d3a e93b
000003b0: fd46 1ebd 9ddc 9e3d 80ec c63d c24d 53bb
000003c0: 8447 0f3d 4e9f 833d a68d 2bbd 922d 6fbd
000003d0: 40ec dd3c 56ba 673e 9ce8 273d 503c 28be
000003e0: 2fa5 e33d 60e4 213e 4333 213e f8e4 da3c
000003f0: 93e0 37bd 3b4e 8f3e af34 d43c 4aa7 0cbe

prediction_layer.bias f4 [10]
0.09433207 -0.2193606 0.1631832 0.019815603 0.1516312 -0.043752763 -0.06660385 -0.12512495
0.10107175 -0.1999858
00000000: 2c31 c13d 11a0 60be 7f19 273e 5554 a23c
00000010: 3645 1b3e 1936 33bd 9967 88bd c120 00be
00000020: b5fe ce3d 14c9 4cbe
