Homeworks/HW1/results/trained_models/mlp_2[1].pt (torch, 144479 bytes, 6 tensors)

fc.0.weight f4 [32, 1024]
0.23591301 0.06108635 -0.0069117364 0.038603935 0.05930313 -0.010376242 0.041026786 0.02466678
-0.027015539 -0.029817855 0.03832021 -0.003133245 0.022226594 -0.017871143 -0.013759155 0.05397518
0.049866315 0.03252287 -0.003362293 -0.047932472 0.036849502 0.076039225 -0.036647223 -0.08348729
-0.02542621 0.016689109 -0.026720723 -0.017770898 0.0053542824 -0.0016374602 0.07214272 0.3172405
0.12910272 -0.025669916 -0.058391657 -0.0063870344 -0.015855312 -0.054220304 0.026183417 0.005668125
0.02942523 -0.016288396 -0.12591328 -0.1456784 -0.062298626 -0.12544687 -0.104378976 -0.03211558
-0.04273802 -0.043053526 -0.007985067 0.028321901 -0.05619571 0.015102783 -0.05690447 0.022807492
-0.018272901 -0.04831586 -0.035219695 0.008288689 0.008733728 -0.043643996 0.0059739756 0.21438944
0.028727489 -0.14717524 -0.09206455 0.023374463 -0.05469969 -0.053721994 0.013495398 -0.027679995
0.039444543 0.09006732 -0.075312845 -0.13489676 -0.023446605 -0.03162633 -0.029417375 0.057802703
-0.0077656056 -0.011672444 0.021944197 -0.0023294913 -0.10603156 -0.02920151 -0.04240727 -0.016919037
-0.09703582 -0.051711194 0.03544867 0.062454898 0.019634258 -0.07386693 -0.021686103 0.13419901
-0.0052295313 -0.080812365 -0.0045887544 0.072635844 -0.010426559 -0.027376607 -0.018196557 -0.045380317
0.0733243 0.088342294 -0.013135705 -0.0720414 0.07432311 0.08108637 -0.027896922 -0.011558553
-0.023279449 -0.062032003 0.005033867 0.051778425 0.026730763 0.039847773 0.040801696 0.0056927567
-0.03401582 -0.012228304 0.0014405857 0.09006631 0.040238924 -0.057711963 -0.08618149 0.023486156
-0.011472487 -0.07669772 0.025759427 -0.09151931 -0.043966703 -0.009184574 0.02999966 -0.046698682
-0.040729135 -0.00030072744 -0.014248788 -0.08809808 0.024264535 0.0098319175 0.038853902 -0.06445497
-0.10857484 -0.056987543 -0.05991991 0.024829853 0.0471624 0.0042010313 0.035815224 0.029794432
0.021184947 0.107618 0.04302599 0.040545985 0.09095917 0.04916058 -0.07135868 0.007617132
0.041797258 -0.036188304 -0.0040875967 -0.06702579 0.005452103 0.057626646 0.07198947 0.026224427
-0.031779837 -0.009703665 -0.08545377 -0.0026592414 -0.022214545 -0.007876789 0.08541206 0.02805078
-0.102490924 -0.05238039 0.007919013 -0.026643481 -0.06879497 -0.054810405 -0.10877279 -0.00744569
-0.04766791 0.0819255 0.013437662 -0.009862464 0.06444645 0.03469574 0.02565131 0.01371573
0.08716259 0.046252403 0.07749124 0.035694864 0.0066541363 0.05308764 0.09277556 -0.054851353
-0.02208216 -0.015231299 -0.13530484 -0.09658881 0.04438048 -0.013584303 0.007140805 -0.00530144
-0.08468239 -0.10846437 -0.05977476 -0.15885274 -0.087581165 -0.006685907 -0.08353742 -0.08272138
-0.15818399 0.0040223426 0.08897089 0.054679397 -0.035111684 -0.049562618 -0.053505816 -0.059568323
0.012108447 -0.07574017 0.04718543 -0.03042251 -0.061687466 -0.02569163 -0.012406941 -0.0027354779
-0.06406046 -0.1479331 -0.048035253 0.076778956 0.06586677 0.042244658 0.013775552 0.020642666
-0.08463038 -0.15905245 -0.07974489 -0.050104354 0.045985714 0.11083711 -0.0024758095 -0.046745297
0.033631936 0.10629941 0.116293795 0.1049447 0.04813556 -0.005726709 0.0865466 0.11198386
00000000: 2e93 713e ae35 7a3d d97b e2bb 291f 1e3d
00000010: d7e7 723d 1d01 2abc b40b 283d fd11 ca3c
00000020: b14f ddbc 9344 f4bc a7f5 1c3d 2157 4dbb
00000030: 8c14 b63c 8166 92bc 146e 61bc 1415 5d3d
00000040: 9f40 4c3d b336 053d ea59 5cbb d754 44bd
00000050: 81ef 163d 74ba 9b3d 661b 16bd 62fb aabd
00000060: a14a d0bc 99b7 883c 6be5 dabc 4694 91bc
00000070: fa72 af3b 0ca0 d6ba 90bf 933d 596d a23e
00000080: 8133 043e b749 d2bc 172c 6fbd 544a d1bb
00000090: 00e3 81bc 1c16 5ebd 9b7e d63c aebb b93b
000000a0: 2e0d f13c 3e6f 85bc 69ef 00be b82c 15be
000000b0: d82c 7fbd 2575 00be a5c4 d5bd a08b 03bd
000000c0: 100e 2fbd e558 30bd ccd3 02bc 5503 e83c
000000d0: 792d 66bd aa71 773c a914 69bd c7d6 ba3c
000000e0: 0db1 95bc dae6 45bd 8742 10bd 48cd 073c
000000f0: e917 0f3c 0cc4 32bd 57c1 c33b e888 5b3e
00000100: e955 eb3c 1bb5 16be 578c bcbd cd7b bf3c
00000110: c80c 60bd 980b 5cbd cd1b 5d3c 28c1 e2bc
00000120: 9a90 213d 3775 b83d 9f3d 9abd 6022 0abe
00000130: 1813 c0bc 9c8a 01bd b5fc f0bc 87c2 6c3d
00000140: 9f76 febb c73d 3fbc 51c4 b33c 61aa 18bb
00000150: 1327 d9bd 0138 efbc 3fb3 2dbd cb99 8abc
00000160: b7ba c6bd 1ecf 53bd a032 113d b5d0 7f3d
00000170: 06d8 a03c 8c47 97bd 0ea7 b1bc 776b 093e
00000180: 7d5c abbb f480 a5bd 435d 96bb 1ac2 943d
00000190: 28d4 2abc e844 e0bc f210 95bc b6e0 39bd
000001a0: 0d2b 963d ceec b43d 2437 57bc 718a 93bd
000001b0: b736 983d 9c10 a63d 1688 e4bc 1660 3dbc
000001c0: 8bb4 bebc 4515 7ebd 23f3 a43b 9d15 543d
000001d0: 79fa da3c 6b37 233d ae1f 273d 4e8a ba3b
000001e0: 2c54 0bbd 3959 48bc 09d2 bc3a af74 b83d
000001f0: 92d1 243d 6163 6cbd ec7f b0bd 0a66 c03c
00000200: 19f7 3bbc b213 9dbd 6f05 d33c 7a6e bbbd
00000210: 6e16 34bd e57a 16bc d9c1 f53c 1e47 3fbd
00000220: 98d3 26bd f4aa 9db9 c073 69bc c46c b4bd
00000230: 6bc6 c63c 0d16 213c 4525 1f3d f800 84bd
00000240: 7c5c debd c56b 69bd 946e 75bd fa67 cb3c
00000250: 5c2d 413d cea8 893b fcb2 123d 7413 f43c
00000260: 0e8c ad3c d366 dc3d 053c 303d 8c13 263d
00000270: cd48 ba3d 9b5c 493d 8024 92bd 2299 f93b
00000280: 9a33 2b3d 303a 14bd 3ff1 85bb d144 89bd
00000290: 8ea7 b23b eb09 6c3d 376f 933d 9cd4 d63c
000002a0: 932b 02bd 1ffc 1ebc 6302 afbd ab46 2ebb
000002b0: 47fb b5bc a60d 01bc 85ec ae3d c0ca e53c
000002c0: c3e6 d1bd d28c 56bd bfbe 013c 6e43 dabc
000002d0: 61e4 8cbd e080 60bd 45c4 debd fafa f3bb
000002e0: 6d3f 43bd 8ec8 a73d a429 5c3c 2c96 21bc
000002f0: 80fc 833d 1f1d 0e3d b222 d23c f1b7 603c
00000300: 4d82 b23d 2973 3d3d bab3 9e3d c734 123d
00000310: f10a da3b 6d72 593d 1d01 be3d d0ab 60bd
00000320: a5e5 b4bc b38c 79bc 5a8d 0abe 5bd0 c5bd
00000330: 4ec8 353d b290 5ebc 6afd e93b b4b7 adbb
00000340: f66d adbd 9122 debd 61d6 74bd 4baa 22be
00000350: c15d b3bd 7415 dbbb ab15 abbd d469 a9bd
00000360: fcfa 21be dbcd 833b 5f36 b63d 81f7 5f3d
00000370: 45d1 0fbd 2c02 4bbd ea28 5bbd eafd 73bd
00000380: 8262 463c aa1d 9bbd 8245 413d a138 f9bc
00000390: ffab 7cbd 4177 d2bc 7b46 4bbc b445 33bb
000003a0: 2132 83bd c67b 17be 9dc0 44bd 493e 9d3d
000003b0: 28e5 863d bc08 2d3d dab2 613c cf1a a93c
000003c0: b152 adbd a5de 22be 4a51 a3bd 393a 4dbd
000003d0: 845b 3c3d 91fe e23d 3141 22bb ff77 3fbd
000003e0: a4c1 093d 81b3 d93d 712b ee3d 3fed d63d
000003f0: cb29 453d 1ea7 bbbb 583f b13d cb57 e53d

fc.0.bias f4 [32]
-0.43694204 -0.47549626 0.2276681 0.48226315 0.32091707 -0.19192238 -0.43355975 -0.6742545
-0.52563155 -0.38156623 -0.3803289 0.1619628 -0.048701126 -0.39371338 -0.40398303 -0.13091156
0.0061464375 -0.3385681 -0.40571293 -0.6521969 0.20382442 -0.3631626 -0.47215852 -0.16381347
-0.05101075 -0.24447711 0.06786129 -0.10134735 -0.19027282 -0.63548654 -0.40023145 -0.22109269
00000000: deb6 dfbe 3f74 f3be d421 693e 32eb f63e
00000010: 3e4f a43e 4d87 44be 8bfb ddbe f19b 2cbf
00000020: ca8f 06bf a65c c3be 78ba c2be 94d9 253e
00000030: d57a 47bd cd94 c9be ddd6 cebe ae0d 06be
00000040: 0e68 c93b cc58 adbe 9bb9 cfbe 60f6 26bf
00000050: 59b7 503e 73f0 b9be c3be f1be b8be 27be
00000060: a6f0 50bd 3558 7abe dcfa 8a3d 338f cfbd
00000070: e1d6 42be 3faf 22bf 23eb ccbe 1f66 62be

fc.2.weight f4 [64, 32]
-0.15161534 0.11101715 -0.12759112 0.056557763 0.0036538274 -0.0077423663 0.12558362 -0.16710712
-0.031373296 0.12657107 -0.031154681 -0.0008228978 -0.084343426 -0.08290137 0.038367547 -0.030586088
0.05436249 -0.0011473672 -0.041254938 -0.030784123 0.050057683 0.067167714 0.09372331 -0.021600274
0.013354459 -0.029371182 -0.19343339 -0.09376873 -0.1454781 -0.20517842 -0.054564357 0.10639651
-0.023534002 -0.2086847 -0.047093228 0.009300125 -0.031422507 -0.10647188 0.026638938 0.16587189
0.11217958 0.1140408 0.03836832 0.122692585 -0.14236985 -0.035707965 0.17929761 -0.1387742
-0.15492529 0.025446005 -0.19003265 -0.22755204 0.07091352 0.11845536 -0.18570788 0.15281396
-0.020198843 0.013516706 -0.14151718 0.20590894 -0.086311735 -0.08711561 0.18617508 0.12304845
-0.1325499 0.10844756 -0.14058952 0.20601365 -0.13062415 -0.081102386 -0.0028086102 -0.26361278
-0.08017463 0.14385693 0.156724 0.10800235 0.08631767 0.06359292 0.03184642 -0.00095136097
0.117439605 -0.11482613 0.22183992 0.25756517 -0.13582209 0.20997718 0.2251135 -0.095233686
-0.024655305 -0.16045125 0.00026080266 -0.13989583 0.16178712 -0.03628936 -0.012406081 -0.008400738
-0.090170704 0.24554415 -0.017346213 0.048053212 0.100978516 -0.10038612 -0.08085303 0.010521695
-0.2425812 -0.058836646 0.07126519 -0.22280845 -0.21292539 -0.08967519 0.15994258 -0.10140024
-0.04930019 -0.13975693 0.23230281 0.16235487 0.03996097 0.099014215 0.15260959 -0.113551855
0.110338524 0.095334515 0.014136373 -0.028763207 -0.029011898 -0.048613664 -0.2082344 -0.10767393
0.010312925 0.10277189 0.044128764 -0.00045075463 -0.08342577 0.08536779 0.1450719 -0.07690039
0.18468109 -0.06734326 0.10849675 -0.16614346 -0.08439586 0.088787705 -0.24395774 -0.09107733
-0.029064922 0.12248082 0.029358743 0.2363787 -0.008148384 -0.03629296 0.13906105 -0.3412299
-0.25731587 0.21876489 0.010285655 -0.19072154 0.00174548 0.03183914 0.008309437 -0.114867136
-0.08495689 -0.019361231 -0.0822166 -0.00752005 0.08855243 -0.1424787 -0.07159087 -0.11323318
0.021148685 0.17605977 0.16012673 -0.02785167 0.18067765 0.0688458 -0.038775694 0.22940713
-0.09980873 -0.11829516 0.035937093 -0.11221702 0.12822008 0.20479718 0.058600027 0.081998415
0.11117684 -0.04424547 0.07456311 0.071459435 0.0274825 0.060995087 0.10544349 -0.0025796671
0.05731262 0.0059222095 0.012288393 -0.06118984 -0.07164885 0.03762038 0.0081604235 -0.0011764305
0.07310401 0.009568463 -0.124899186 -0.020220544 0.07793348 0.09583251 -0.063050225 -0.097552955
-0.09967215 0.019723833 0.053989116 -0.13968202 0.0049915463 -0.02113662 -0.17980963 0.11002742
-0.045391407 0.058157355 -0.055004913 0.024594946 -0.09828809 0.07121641 0.044124395 0.17656296
-0.06361691 0.024612429 0.014932963 -0.19068213 0.12617865 0.014408041 -0.07203142 -0.11918225
-0.17125958 -0.09809238 0.03890869 -0.04627828 0.080237776 -0.14417148 0.004360405 0.007829971
0.05764881 -0.1768948 -0.06621141 0.010915256 -0.091049835 0.105622426 0.024550084 -0.09908989
0.04017037 -0.05795981 0.105911225 0.023931203 -0.0015959773 0.06149258 0.008259272 -0.19628747
00000000: 0d41 1bbe f65c e33d 3fa7 02be 1da9 673d
00000010: 0d75 6f3b adb3 fdbb fe98 003e 211e 2bbe
00000020: 4981 00bd d99b 013e 1a38 ffbc bdb7 57ba
00000030: 3fbc acbd 32c8 a9bd 4a27 1d3d ad8f fabc
00000040: 34ab 5e3d 4163 96ba f0fa 28bd fc2e fcbc
00000050: 4909 4d3d 3a8f 893d 02f2 bf3d 0ff3 b0bc
00000060: a9cc 5a3c d59b f0bc 6713 46be d209 c0bd
00000070: 36f8 14be 4b1a 52be e07e 5fbd 6ae6 d93d
00000080: 61ca c0bc 71b1 55be d4e4 40bd 8d5f 183c
00000090: e3b4 00bd ee0d dabd e739 da3c 52da 293e
000000a0: 68be e53d 398e e93d 1928 1d3d 4046 fb3d
000000b0: 67c9 11be 8442 12bd cb99 373e d31a 0ebe
000000c0: bca4 1ebe 2474 d03c eb97 42be 6703 69be
000000d0: 1c3b 913d b998 f23d 352a 3ebe 437b 1c3e
000000e0: 0b78 a5bc 2d75 5d3c e1e9 10be cbd9 523e
000000f0: 35c4 b0bd ab69 b2bd aea4 3e3e d300 fc3d
00000100: 29bb 07be c119 de3d b3f6 0fbe 3ef5 523e
00000110: 56c2 05be 0219 a6bd a910 38bb 41f8 86be
00000120: 9932 a4bd 3b4f 133e 427c 203e 5630 dd3d
00000130: 52c7 b03d 013d 823d 6471 023d c164 79ba
00000140: 2d84 f03d f629 ebbd 012a 633e 95df 833e
00000150: f214 0bbe 4204 573e 2784 663e e109 c3bd
00000160: ecf9 c9bc 554d 24be 57bc 8839 da40 0fbe
00000170: 86ab 253e 27a4 14bd e042 4bbc 40a3 09bc
00000180: 6bab b8bd ed6f 7b3e a519 8ebc 72d3 443d
00000190: d3cd ce3d 3d97 cdbd 4696 a5bd 3063 2c3c
000001a0: 3567 78be b2fe 70bd 7cf3 913d e627 64be
000001b0: 1d09 5abe a0a7 b7bd fdc7 233e eeaa cfbd
000001c0: ffee 49bd 711c 0fbe cae0 6d3e 5b40 263e
000001d0: 1dae 233d f7c7 ca3d b045 1c3e e08d e8bd
000001e0: 2af9 e13d be3e c33d 3f9c 673c d1a0 ebbc
000001f0: 5caa edbc 1f1f 47bd 663b 55be 2684 dcbd
00000200: 8bf7 283c 127a d23d 5dc0 343d 4353 ecb9
00000210: 21db aabd 4fd5 ae3d ba8d 143e f47d 9dbd
00000220: 0a1d 3d3e 43eb 89bd 8b33 de3d 8321 2abe
00000230: bdd7 acbd 54d6 b53d 0fd0 79be c086 babd
00000240: 8f19 eebc 39d7 fa3d bf81 f03c 420d 723e
00000250: cd80 05bc eda7 14bd 0566 0e3e afb5 aebe
00000260: e8be 83be e703 603e 2a85 283c 824c 43be
00000270: 97c8 e43a c269 023d 4e24 083c 763f ebbd
00000280: e1fd adbd 729b 9ebc 2d61 a8bd c06a f6bb
00000290: fa5a b53d f0e5 11be 3c9e 92bd cce6 e7bd
000002a0: 0240 ad3c 0349 343e 43f8 233e 2f29 e4bc
000002b0: 9003 393e 07ff 8c3d 43d3 1ebd b4e9 6a3e
000002c0: 8568 ccbd bc44 f2bd c632 133d 09d2 e5bd
000002d0: 204c 033e 5ab6 513e 9506 703d c9ee a73d
000002e0: afb0 e33d bd3a 35bd 8bb4 983d 5359 923d
000002f0: fb22 e13c fcd5 793d c2f2 d73d a20f 29bb
00000300: a3c0 6a3d 180f c23b 4255 493c 33a2 7abd
00000310: a2bc 92bd d417 1a3d 4cb3 053c 7532 9aba
00000320: 8eb7 953d 0bc5 1c3c 25cb ffbd 8ea5 a5bc
00000330: 979b 9f3d d643 c43d 7a20 81bd d8c9 c7bd
00000340: ea20 ccbd e093 a13c b123 5d3d ce08 0fbe
00000350: 2090 a33b b426 adbc 0420 38be 0e56 e13d
00000360: 57ec 39bd 6836 6e3d d54c 61bd 577b c93c
00000370: 444b c9bd e9d9 913d c8bb 343d eccc 343e
00000380: 9549 82bd 01a0 c93c 63a9 743c 2d42 43be
00000390: fa34 013e b40f 6c3c 3685 93bd d315 f4bd
000003a0: ac5e 2fbe a8e4 c8bd b85e 1f3d 4b8e 3dbd
000003b0: b453 a43d b0a1 13be bae1 8e3b 4749 003c
000003c0: 2921 6c3d e923 35be d999 87bd e7d5 323c
000003d0: 5678 babd 9250 d83d 421d c93c a4ef cabd
000003e0: b089 243d 4467 6dbd fce7 d83d 5f0b c43c
000003f0: 1d30 d1ba a5df 7b3d e651 073c 95ff 48be

fc.2.bias f4 [64]
0.55424047 0.3522061 -0.22751933 0.08269214 0.14578006 -0.7122945 0.25719023 0.55070984
0.3901093 -0.26353586 -0.31245136 0.2588604 -0.16682827 -0.7504206 0.22293757 -0.5628454
-0.32680207 -0.78704816 0.2444048 -0.4971837 -0.5273851 -0.1906859 -0.25221142 0.32749003
-0.52250725 -0.79133993 0.7219616 -0.42559767 0.2679919 0.38301557 0.26071438 0.3830149
-0.1471207 -0.2877273 0.39229846 0.18408753 -0.027652804 -0.67508185 -0.38768613 -0.2661393
-0.6695042 0.10105976 -0.61137104 0.4814492 0.31004694 -0.25405017 -0.08336416 0.23081157
0.19282453 -0.17380653 -0.7280926 0.0005339795 0.22738473 -0.4591383 0.09964523 -0.52574503
-0.35701832 -0.055624194 0.15808488 -0.31806585 0.0054288534 0.36612478 0.21485648 0.54230165
00000000: b4e2 0d3f 5c54 b43e d4fa 68be 7f5a a93d
00000010: 5e47 153e ef58 36bf 70ae 833e 52fb 0c3f
00000020: 68bc c73e 2cee 86be a0f9 9fbe 5a89 843e
00000030: 08d5 2abe 901b 40bf bf49 643e a316 10bf
00000040: 9a52 a7be fd7b 49bf 4045 7a3e dd8e febe
00000050: b602 07bf 2a43 43be db21 81be c6ac a73e
00000060: 09c3 05bf 4195 4abf 7ad2 383f f0e7 d9be
00000070: 3c36 893e 9e1a c43e 5b7c 853e 871a c43e
00000080: cfa6 16be fe50 93be 58db c83e 7181 3c3e
00000090: 2288 e2bc 2ad2 2cbf cc7e c6be 6943 88be
000000a0: a164 2bbf 6bf8 ce3d d082 1cbf 8280 f63e
000000b0: 79be 9e3e dd12 82be d4ba aabd de59 6c3e
000000c0: cb73 453e 57fa 31be 4764 3abf c2fa 0b3a
000000d0: 8bd7 683e 2d14 ebbe cc12 cc3d 3a97 06bf
000000e0: 1bcb b6be 32d6 63bd 01e1 213e 87d9 a2be
000000f0: 86e4 b13b b574 bb3e 5603 5c3e 48d4 0a3f

prediction_layer.weight f4 [10, 64]
-0.12095963 -0.065641716 -0.12188035 -0.07154962 0.07322928 -0.052881494 -0.003496385 0.023799758
0.08624446 0.041354205 0.054590944 0.1731505 -0.037268594 -0.07400019 -0.017103316 -0.04584909
-0.02707452 -0.009733829 0.06772463 -0.05284663 0.05799777 0.09819059 0.032166954 -0.15027189
-0.008049282 0.03127332 0.04250498 0.050980426 0.017784221 0.004782372 -0.03417651 0.16805308
0.016631426 -0.04918011 -0.05539596 0.098439105 -0.1136926 -0.040364165 -0.045761503 0.04837568
-0.053896464 -0.094600216 0.024295943 0.0072843586 0.08760211 -0.042135295 -0.02211627 -0.118268654
-0.08664917 -0.07725359 0.006257982 0.055551715 -0.09016082 -0.025935384 0.015943464 0.059944626
-0.08518861 -0.13296936 0.048798975 0.041555624 0.1591207 0.119599596 0.08028956 0.0761447
-0.042037398 -0.19677441 0.11489465 0.0907101 0.09487042 0.13282222 -0.028641913 -0.04086866
-0.10769315 0.09417031 0.053958595 0.026277894 -0.031667065 0.14114699 -0.10305212 0.066998
0.035703257 0.19138475 0.094513796 0.13905495 -0.042186588 0.1651727 -0.042903826 -0.0066711
0.13003916 0.3641349 -0.03843792 0.03800208 0.029200688 0.00019122484 -0.07397642 -0.030330308
0.06131291 -0.07039554 -0.0038231283 -0.13137306 -0.08484614 0.14574023 0.10269887 0.03922286
0.13607258 -0.13677074 0.11573084 -0.025030458 0.048968628 0.044415046 0.003251006 -0.025709294
-0.076721296 -0.01797072 0.16081174 0.08831588 -0.035889894 0.038868826 0.031311307 0.15711536
-0.043524075 -0.17076817 -0.17106566 0.059566524 -0.114850625 0.109942265 0.1281982 -0.15528204
0.06588189 -0.035567068 -0.053439412 -0.047547627 0.10570152 -0.021506997 -0.006842282 0.07619818
-0.041937884 -0.11598042 -0.07865189 0.023734983 0.071717896 -0.121522844 0.088764004 0.011372539
-0.064286664 -0.018302511 0.015528894 -0.0807988 -0.10986545 0.06089505 0.1274674 0.016511314
-0.148923 -0.08333275 0.15281124 0.026840461 0.06321454 0.13451679 0.064894274 0.09499302
-0.026961705 0.022827618 0.026237195 0.061269302 -0.07897921 -0.079270616 -0.052997183 0.012990237
-0.20969495 0.07928101 -0.08557019 -0.024124345 0.0009402091 0.064518854 0.052104846 -0.029678052
0.10515453 -0.038326602 -0.09165702 0.07233236 -0.024306878 -0.113238156 0.035021685 0.029290784
-0.09808953 -0.013032335 0.07017064 0.030861812 -0.0695409 0.034017302 0.018830465 0.03756505
0.0006775306 -0.076437205 0.13614425 -0.051583175 -0.016234703 0.09872597 -0.045853604 -0.067140825
-0.02447695 -0.07882182 -0.045689624 -0.108864434 0.053664498 -0.01763582 0.08458263 0.038109157
-0.061488442 0.09529034 -0.09301497 -0.023268685 -0.03799165 0.10453724 0.043465506 -0.011229853
-0.037485342 -0.00063864817 -0.0005872493 0.029195117 -0.026127206 -0.0004989921 0.05276595 -0.05316341
-0.040695842 0.07114723 -0.07792542 -0.050130215 -0.1013178 -0.06815136 0.009277186 0.034060773
0.046070136 0.044360008 -0.038171753 -0.10048429 -0.011445356 -0.04822413 0.029821198 0.0057524135
0.028194437 0.025075173 0.026892249 -0.07948396 0.023027463 -0.05016749 -0.0032644344 -0.0073446543
0.061462477 0.015842397 0.041835945 0.01159998 -0.08307306 -0.000894683 -0.04677924 -0.041462734
00000000: afb9 f7bd 2a6f 86bd 689c f9bd 9b88 92bd
00000010: 3cf9 953d 449a 58bd 9b23 65bb b6f7 c23c
00000020: efa0 b03d 0763 293d c19a 5f3d 5d4e 313e
00000030: f4a6 18bd 698d 97bd 411c 8cbc 41cc 3bbd
00000040: 62cb ddbc a37a 1fbc 36b3 8a3d b575 58bd
00000050: 128f 6d3d 2618 c93d 7fc1 033d e0e0 19be
00000060: 23e1 03bc 7418 003d b419 2e3d dad0 503d
00000070: 37b0 913c 72b5 9c3b abfc 0bbd 1b16 2c3e
00000080: a13e 883c 1571 49bd e0e6 62bd 719a c93d
00000090: aad7 e8bd e554 25bd 6a70 3bbd 9425 463d
000000a0: 8ac2 5cbd c2bd c1bd 4908 c73c a1b1 ee3b
000000b0: bc68 b33d 0f96 2cbd 2e2d b5bc d636 f2bd
000000c0: 1f75 b1bd 2137 9ebd c20f cd3b 328a 633d
000000d0: 3ca6 b8bd 7176 d4bc de9b 823c 7f88 753d
000000e0: 5e77 aebd 1f29 08be 6fe1 473d 3b36 2a3d
000000f0: 89f0 223e a2f0 f43d da6e a43d c1f1 9b3d
00000100: 682f 2cbd 3b7f 49be e34d eb3d 38c6 b93d
00000110: 6c4b c23d 8c02 083e 72a2 eabc e565 27bd
00000120: 3a8e dcbd 5ddc c03d b003 5d3d bd44 d73c
00000130: 53b5 01bd d688 103e fd0c d3bd 3f36 893d
00000140: 943d 123d 5dfa 433e 7390 c13d 6c64 0e3e
00000150: d8cb 2cbd 0823 293e ecbb 2fbd 3e99 dabb
00000160: fc28 053e e46f ba3e 1571 1dbd 12a8 1b3d
00000170: 4836 ef3c 8783 4839 f380 97bd 4477 f8bc
00000180: 3f23 7b3d 892b 90bd 738d 7abb a986 06be
00000190: d0c3 adbd ed3c 153e c953 d23d 26a8 203d
000001a0: 9c56 0b3e a10d 0cbe 4a04 ed3d ad0c cdbc
000001b0: 5493 483d 8dec 353d d40e 553b 4c9c d2bc
000001c0: 0e20 9dbd 5537 93bc d5ab 243e f5de b43d
000001d0: 4801 13bd eb34 1f3d 4940 003d d9e2 203e
000001e0: 4d46 32bd dadd 2ebe d62b 2fbe 07fc 733d
000001f0: ce36 ebbd 6929 e13d 6446 033e 4102 1fbe
00000200: 16ed 863d c6ae 11bd 49e3 5abd 4dc1 42bd
00000210: 0a7a d83d 712f b0bc 3935 e0bb cb0d 9c3d
00000220: 0fc7 2bbd 2487 edbd 3e14 a1bd de6f c23c
00000230: d5e0 923d f8e0 f8bd e7c9 b53d e353 3a3c
00000240: baa8 83bd 26ef 95bc e76c 7e3c d779 a5bd
00000250: 2301 e1bd 176d 793d d086 023e bc42 873c
00000260: 457f 18be 5caa aabd 8d7a 1c3e 87e0 db3c
00000270: a076 813d c5be 093e 4ae7 843d b38b c23d
00000280: cbde dcbc fc00 bb3c 63ef d63c 85f5 7a3d
00000290: dabf a1bd a258 a2bd 9313 59bd 01d5 543c
000002a0: 46ba 56be 155e a23d 6c3f afbd 6ba0 c5bc
000002b0: 5d78 763a 7622 843d e46b 553d 631f f3bc
000002c0: 425b d73d 5bfc 1cbd adb6 bbbd fd22 943d
000002d0: 381f c7bc 68e9 e7bd e672 0f3d 3af3 ef3c
000002e0: 2ae3 c8bd 9385 55bc a0b5 8f3d e9d1 fc3c
000002f0: 766b 8ebd ba55 0b3d 5942 9a3c cfdd 193d
00000300: 4f9c 313a 1c8b 9cbd 6669 0b3e e148 53bd
00000310: a4fe 84bc d730 ca3d fdd0 3bbd 2181 89bd
00000320: e283 c8bc 566d a1bd 0b25 3bbd 51f4 debd
00000330: 4ecf 5b3d ff78 90bc a839 ad3d 5918 1c3d
00000340: 4edb 7bbd 9527 c33d a27e bebd f89d bebc
00000350: 229d 1bbd 9f17 d63d e308 323d 6bfd 37bc
00000360: 3b8a 19bd f46a 27ba a2f1 19ba 992a ef3c
00000370: b908 d6bc cbce 02ba 1c21 583d e0c1 59bd
00000380: afb0 26bd a4b5 913d 5d97 9fbd 5755 4dbd
00000390: b57f cfbd f192 8bbd 57ff 173c 4f83 0b3d
000003a0: 0ab4 3c3d d7b2 353d fc59 1cbd b5ca cdbd
000003b0: 4d85 3bbc aa86 45bd 964b f43c be7e bc3b
000003c0: 05f8 e63c 736a cd3c 224d dc3c 7dc8 a2bd
000003d0: 17a4 bc3c 6d7c 4dbd 1ff0 55bb 6dab f0bb
000003e0: 14c0 7b3d eac7 813c 2b5c 2b3d d80d 3e3c
000003f0: 3522 aabd 2989 6aba 979b 3fbd d4d4 29bd

prediction_layer.bias f4 [10]
0.12721217 -0.34905136 0.2692571 -0.024180539 0.3229804 -0.1528665 0.29017368 -0.27753893
-0.013225241 -0.32745042
00000000: e843 023e dcb6 b2be 11dc 893e 4416 c6bc
00000010: b05d a53e 0989 1cbe a591 943e 9519 8ebe
00000020: aeae 58bc 95a7 a7be
