Homeworks/HW1/results/trained_models/mlp_2[0].pt (torch, 144479 bytes, 6 tensors)

fc.0.weight f4 [32, 1024]
-0.28143972 -0.12104035 -0.058143545 -0.08487668 -0.0019722993 0.05323454 0.11195283 -0.061269127
-0.12930939 -0.041597627 0.025934739 -0.049810477 -0.17614014 -0.2070359 -0.21019816 -0.068332255
-0.0759305 -0.11354013 -0.2183533 -0.18821572 -0.084497295 -0.04715348 -0.02621797 -0.024943927
-0.035278328 -0.033302836 -0.06806 -0.051802788 -0.07813849 -0.032857314 -0.08743246 -0.27120477
-0.3148945 -0.14659193 -0.104183 -0.032246225 0.010481815 0.10749211 0.11004448 0.028593365
-0.040482976 0.0030032375 0.064537786 0.0524942 -0.05833747 -0.14627951 -0.10945139 -0.018994415
0.028547501 -0.02229357 -0.11509883 -0.15617943 -0.16810387 -0.13629833 -0.12376833 -0.052979466
0.09990278 0.049311336 0.013482354 0.040099077 -0.026427368 0.0040884377 -0.006231992 -0.12618446
-0.2763258 -0.09859768 -0.024381306 -0.0054427446 0.040769167 0.08267623 0.09334707 0.098317884
0.098359294 0.08639532 0.08987617 0.13072926 -0.022408292 -0.19267361 -0.06996475 0.0075021554
-0.02327239 0.07494203 0.019058548 0.0013293927 -0.053225774 -0.026738781 -0.07183333 0.0020960514
0.14267708 0.09449247 0.19566599 0.18522763 0.11860999 0.10014406 0.090576135 -0.07154492
-0.21181576 0.015949793 0.06017124 0.03628528 0.035617743 0.023531105 0.06952661 0.15411736
0.118178464 0.034311965 0.036840983 0.08365201 -0.03760293 -0.114967816 -0.043541476 -0.053924173
-0.084465496 0.019321887 0.12634295 0.07892766 0.049967308 0.017623806 -0.03553516 0.041894622
0.12646608 0.038145036 0.04381 0.1609848 0.13210145 0.1505342 0.11262961 -0.03496323
-0.11386511 -0.006751985 -0.038164463 -0.029807698 0.07604667 0.11295398 0.058755066 0.050686467
0.008242573 0.00020619063 0.014917496 0.06770083 0.01196786 -0.061335273 -0.055935867 -0.0360743
-0.1553674 -0.14178967 0.089525834 0.053561203 -0.12208199 -0.1375181 -0.0050913077 -0.08389536
-0.1150372 -0.091276675 -0.04144426 0.049045265 0.14986551 0.14256206 0.044939905 0.020826597
-0.13979532 -0.09744515 -0.11621281 0.029391216 0.13989823 0.024290837 0.04364755 0.04205931
-0.003836339 -0.0709533 -0.01072644 -0.007433368 0.047410373 0.06965483 0.015646774 -0.072966486
-0.112368524 -0.07220905 0.09903236 0.1316675 -0.05747896 -0.07488471 0.04284506 -0.057988852
-0.15781581 -0.095614634 -0.0027785967 0.037901953 0.11798001 0.10901961 0.112183504 0.048950702
-0.08746586 0.004697646 -0.076410234 0.10306494 0.22765133 0.072026856 0.104453646 -0.05452753
-0.108467825 -0.063643344 0.017632682 0.061572537 0.21460705 0.22181773 0.04561918 -0.12428209
0.033261485 0.2019204 0.26944038 0.12085053 -0.041967236 -0.09022393 -0.040185515 -0.1610617
-0.20332254 -0.10130553 -0.045209326 0.022835676 0.14811426 0.18061474 0.11013056 -0.03410227
-0.0776353 0.04279671 0.08736306 0.1503699 0.09797543 0.08468849 0.019755358 -0.15588497
-0.15511349 -0.13785307 -0.041420802 0.04786826 0.104724474 0.13675685 0.015195082 -0.02666944
0.102582 0.17871022 0.26363012 0.21915635 -0.009154142 -0.14948632 -0.090985656 -0.12360613
-0.23060416 -0.17721231 0.004821702 0.099978276 0.17445529 0.11359731 0.030573219 -0.053059284
00000000: de18 90be 01e4 f7bd ed27 6ebd d3d3 adbd
00000010: b141 01bb 760c 5a3d 8647 e53d 56f5 7abd
00000020: ae69 04be 4662 2abd 1775 d43c 1206 4cbd
00000030: 155e 34be 3801 54be 303e 57be c8f1 8bbd
00000040: 7381 9bbd ba87 e8bd 0298 5fbe 9fbb 40be
00000050: eb0c adbd 0224 41bd 11c7 d6bc 3557 ccbc
00000060: 0280 10bd 8e68 08bd 0b63 8bbd 292f 54bd
00000070: 1307 a0bd 6495 06bd ca0f b3bd 5adb 8abe
00000080: da39 a1be 321c 16be e65d d5bd 9e14 04bd
00000090: ebbb 2b3c d324 dc3d 005f e13d a23c ea3c
000000a0: 7ad1 25bd f7d1 443b 632c 843d 2904 573d
000000b0: 45f3 6ebd 4cca 15be 0d28 e0bd 2d9a 9bbc
000000c0: 73dc e93c 01a1 b6bc efb8 ebbd 80ed 1fbe
000000d0: 6c23 2cbe ca91 0bbe 407a fdbd ff00 59bd
000000e0: d499 cc3d affa 493d 17e5 5c3c ee3e 243d
000000f0: 357e d8bc 4df8 853b bd35 ccbb 8036 01be
00000100: 937a 8dbe 95ed c9bd 4ebb c7bc 0d59 b2bb
00000110: 92fd 263d 2852 a93d c02c bf3d e35a c93d
00000120: 9970 c93d 08f0 b03d ff10 b83d e4dd 053e
00000130: 9891 b7bc 3b4c 45be ae49 8fbd a4d4 f53b
00000140: bda5 bebc 357b 993d ac20 9c3c 043f ae3a
00000150: 4503 5abd 4a0b dbbc 5a1d 93bd e85d 093b
00000160: f119 123e 4585 c13d aa5c 483e 50ac 3d3e
00000170: cbe9 f23d 5418 cd3d fb7f b93d 2586 92bd
00000180: 3be6 58be 24a9 823c 1e76 763d e09f 143d
00000190: e9e3 113d 4ec4 c03c f863 8e3d f1d0 1d3e
000001a0: 8d07 f23d b48a 0c3d 92e6 163d bf51 ab3d
000001b0: 8805 1abd 3f74 ebbd 8c58 32bd 98df 5cbd
000001c0: 3ffc acbd ef48 9e3c 0c60 013e d3a4 a13d
000001d0: 85aa 4c3d cd5f 903c 518d 11bd b299 2b3d
000001e0: 5380 013e f83d 1c3d 1d72 333d 33d9 243e
000001f0: 9a45 073e a325 1a3e 5aaa e63d 9b35 0fbd
00000200: 1c32 e9bd c13f ddbb 5752 1cbd 462f f4bc
00000210: 5bbe 9b3d 6b54 e73d 27a9 703d 9d9c 4f3d
00000220: db0b 073c e034 5839 8368 743c bca6 8a3d
00000230: d814 443c b23a 7bbd 021d 65bd a5c2 13bd
00000240: a218 1fbe 5031 11be 5259 b73d fe62 5b3d
00000250: 1f06 fabd 8bd1 0cbe fcd4 a6bb 55d1 abbd
00000260: a098 ebbd 44ef babd 75c1 29bd b0e3 483d
00000270: 5876 193e cafb 113e e812 383d 8a9c aa3c
00000280: 8126 0fbe 5391 c7bd fb00 eebd d9c5 f03c
00000290: 7b41 0f3e 94fd c63c c6c7 323d 6246 2c3d
000002a0: 176b 7bbb f74f 91bd f3bd 2fbc 9c93 f3bb
000002b0: 6131 423d 31a7 8e3d aa2d 803c 746f 95bd
000002c0: 7821 e6bd 57e2 93bd 7ad1 ca3d d8d3 063e
000002d0: 0f6f 6bbd 285d 99bd 4d7e 2f3d b885 6dbd
000002e0: 789a 21be 9bd1 c3bd 1e19 36bb 143f 1b3d
000002f0: 819f f13d ac45 df3d 77c0 e53d 8880 483d
00000300: 4d21 b3bd b6ee 993b f87c 9cbd b613 d33d
00000310: 6e1d 693e d182 933d cbeb d53d 4258 5fbd
00000320: 6124 debd 7157 82bd 6a72 903c 7c33 7c3d
00000330: f3c1 5b3e 3024 633e 2ddb 3a3d 9c87 febd
00000340: 323d 083d 39c4 4e3e 17f4 893e 7c80 f73d
00000350: d6e5 2bbd 53c7 b8bd 9199 24bd 5ced 24be
00000360: c933 50be 4679 cfbd 6a2d 39bd e211 bb3c
00000370: 44ab 173e 12f3 383e 228c e13d d2ae 0bbd
00000380: 42ff 9ebd 9a4b 2f3d 67eb b23d 91fa 193e
00000390: 58a7 c83d 2971 ad3d fdd5 a13c 4fa0 1fbe
000003a0: 12d6 1ebe 5b29 0dbe dca8 29bd 8211 443d
000003b0: c979 d63d fd09 0c3e cbf4 783c df79 dabc
000003c0: 8316 d23d d0ff 363e 87fa 863e 866a 603e
000003d0: 41fb 15bc f112 19be b056 babd 3625 fdbd
000003e0: 7f23 6cbe 2577 35be 5eff 9d3b 69c1 cc3d
000003f0: 68a4 323e b5a5 e83d b074 fa3c b154 59bd

fc.0.bias f4 [32]
-0.058932323 -0.4429039 0.20431316 0.35815498 -0.067471385 -0.2544254 0.37257287 -0.3414744
-0.5172932 -0.12168706 -0.12573436 -0.39841235 -0.38288328 -0.001492991 -0.18070845 -0.20470642
0.26115495 -0.40394026 -0.16887952 -0.13708058 -0.0048646126 0.12364062 -0.1781561 -0.12305727
-0.36176768 -0.33313522 -0.2420252 -0.26665038 -0.29040942 -0.68045163 -0.013824281 -0.46176687
00000000: 0563 71bd 4dc4 e2be 7837 513e 1760 b73e
00000010: 702e 8abd 0c44 82be dfc1 be3e bcd5 aebe
00000020: 546d 04bf 1137 f9bd 82c0 00be b4fc cbbe
00000030: 4709 c4be 77b0 c3ba a30b 39be 8f9e 51be
00000040: 1ab6 853e 42d1 cebe c1ee 2cbe da5e 0cbe
00000050: 5467 9fbb 4b37 fd3d 8d6e 36be 7305 fcbd
00000060: 9d39 b9be b390 aabe 74d5 77be 6686 88be
00000070: 8bb0 94be 1432 2ebf 3d7f 62bc b56c ecbe

fc.2.weight f4 [64, 32]
0.060062766 0.07880766 0.07631277 -0.04698758 -0.07174527 0.0689277 -0.043607056 -0.049285714
-0.045557924 -0.014682636 0.1272798 -0.028350338 -0.03557074 -0.0023038653 0.019613262 0.034534164
-0.047920857 -0.061305974 0.025479157 -0.07814239 0.047952503 -0.029890122 0.06293007 0.019632177
0.04025525 0.052843988 -0.058587894 -0.0666407 0.07172014 -0.00297877 -0.08350468 -0.013420167
-0.15744606 -0.18534935 0.08178639 -0.039255973 -0.005619028 0.0074627963 0.19906677 0.068307705
0.06927034 -0.0138467485 0.10405892 0.017420704 0.006911893 -0.15963577 0.101825885 -0.09417251
0.0075621447 -0.22032256 0.086071834 -0.067231715 -0.023558477 -0.011677686 -0.20809439 -0.20590281
-0.1483446 0.05530207 -0.094273135 0.08647659 0.046193328 -0.17023386 0.12856196 -0.2019825
0.1739638 -0.049463976 -0.010854691 0.01740764 -0.08565258 -0.013534597 0.022238357 0.022927226
0.06130425 0.13797742 -0.019284217 -0.13957551 0.034542132 -0.02545228 0.06515457 0.023150908
0.11914442 -0.051125966 0.048922516 0.20790996 0.07964073 0.00409592 0.07789589 -0.1287082
-0.050784394 -0.19624555 0.14601995 0.10424317 -0.06316046 -0.11107185 0.02326986 -0.023179194
-0.026760645 0.034856226 -0.15218756 -0.10178094 0.088240005 -0.14241645 0.008586808 0.03438609
0.04461324 -0.0537789 -0.15273972 0.024943618 0.17375445 -0.08929167 -0.0909344 0.060124043
-0.16447161 0.14531563 0.19630742 0.17197554 -0.06558419 -0.0002020058 -0.124967515 0.05364397
0.077717945 -0.066190355 0.17516513 0.085368715 -0.005737253 0.12717752 -0.09933745 0.1953467
0.07361305 0.104643084 0.21417257 0.14729172 -0.0933164 0.08808546 0.06162947 -0.06428168
-0.22713013 0.17912807 0.014100413 -0.19764502 0.24796934 0.08545408 0.1474862 -0.1771091
0.056059033 -0.19085243 0.15830949 0.12670077 0.07744458 0.0022193987 0.025364883 -0.15755998
-0.030511374 -0.062360566 -0.14807567 -0.0379272 -0.23539527 -0.15668312 -0.05173606 -0.030540485
-0.20386003 0.060428668 -0.018091239 -0.066387005 0.04936573 0.24735081 -0.09688082 -0.026324147
0.094947554 -0.09596495 0.121330306 0.06160365 0.14517011 -0.044094525 0.022235028 -0.16561061
-0.015374058 -0.18501209 0.120592386 -0.15167917 -0.008104434 -0.0120929 0.022982808 -0.2165797
0.07412115 0.035481427 -0.14208098 -0.08976433 0.0642846 -0.28201094 0.14901765 -0.0077348496
-0.084364735 -0.03790554 0.15173368 0.08114531 0.097977355 -0.07054942 0.09250843 0.093712226
-0.019430298 -0.0177369 -0.1406013 -0.05951391 -0.15535156 -0.03120124 0.04452881 0.015156041
-0.03455222 0.15402809 0.07529777 0.07202097 -0.007055062 0.039373808 -0.12045488 -0.008888563
-0.18264459 0.019132756 -0.1356637 -0.06515007 0.14172105 0.009615764 -0.15005396 -0.009942075
-0.03342961 -0.014874415 -0.22160807 -0.17054024 -0.05917113 -0.18888775 -0.064306214 0.009382819
0.19163166 0.083116986 -0.0634327 0.045537423 0.0029737859 -0.06391486 -0.024137454 0.038494702
0.042309146 -0.10818785 0.079673134 0.017140388 0.10773644 0.059709027 0.2033642 -0.047947172
0.06368071 0.10807942 -0.10421648 0.0859941 -0.094786935 0.17766309 0.136455 0.12931183
00000000: 6004 763d e965 a13d df49 9c3d 0c76 40bd
00000010: 2fef 92bd f729 8d3d 509d 32bd d1df 49bd
00000020: f29a 3abd 708f 70bc a355 023e f83e e8bc
00000030: a0b2 11bd 72fc 16bb feab a03c b273 0d3d
00000040: a948 44bd f91b 7bbd aab9 d03c 1e09 a0bd
00000050: d869 443d 21dc f4bc 7be1 803d a9d3 a03c
00000060: b0e2 243d f072 583d dcf9 6fbd eb7a 88bd
00000070: 02e2 923d 7837 43bb 8004 abbd 43e0 5bbc
00000080: 8a39 21be 38cc 3dbe 9f7f a73d dfca 20bd
00000090: d31f b8bb 798a f43b 29d8 4b3e e9e4 8b3d
000000a0: 9cdd 8d3d 79dd 62bc d81c d53d ddb5 8e3c
000000b0: 297d e23b 8f77 23be 178a d03d 84dd c0bd
000000c0: decb f73b 3d9c 61be 6e46 b03d c8b0 89bd
000000d0: b5fd c0bc c453 3fbc b216 55be 30d8 52be
000000e0: a6e7 17be 6c84 623d 4612 c1bd a31a b13d
000000f0: 3735 3d3d c951 2ebe bfa5 033e 80d4 4ebe
00000100: 9123 323e bd9a 4abd e0d7 31bc 789a 8e3c
00000110: 9f6a afbd 37c0 5dbc 372d b63c e1d1 bb3c
00000120: 2a1a 7b3d f449 0d3e eff9 9dbc e2ec 0ebe
00000130: 0d7c 0d3d 4d81 d0bc c26f 853d f9a6 bd3c
00000140: fd01 f43d 7669 51bd fa62 483d 59e6 543e
00000150: ae1a a33d 1137 863b e187 9f3d 15cc 03be
00000160: 4c03 50bd 98f4 48be 4186 153e 717d d53d
00000170: 455a 81bd a379 e3bd 6fa0 be3c 4be2 bdbc
00000180: 2439 dbbc 67c5 0e3d 0ed7 1bbe 8772 d0bd
00000190: 2db7 b43d 9ed5 11be afaf 0c3c 6ed8 0c3d
000001a0: 5fbc 363d 4447 5cbd cd67 1cbe 8f56 cc3c
000001b0: b0ec 313e 8dde b6bd d13b babd a144 763d
000001c0: 3f6b 28be 9fcd 143e d004 493e 5b1a 303e
000001d0: 0151 86bd 85d1 53b9 f8ee ffbd c8b9 5b3d
000001e0: 962a 9f3d cf8e 87bd 7d5e 333e cbd5 ae3d
000001f0: 91ff bbbb d33a 023e 6f71 cbbd f708 483e
00000200: 70c2 963d 1d4f d63d 0e50 5b3e a4d3 163e
00000210: ab1c bfbd 2666 b43d 2f6f 7c3d 1da6 83bd
00000220: cd94 68be 596d 373e 6b05 673c 7563 4abe
00000230: adeb 7d3e 8c02 af3d 9f06 173e 175c 35be
00000240: 289e 653d d26e 43be e21b 223e d9bd 013e
00000250: 449b 9e3d 5573 113b 04ca cf3c 6757 21be
00000260: fdf2 f9bc cb6d 7fbd 26a1 17be 8d59 1bbd
00000270: 750b 71be 8a71 20be 31e9 53bd 0a30 fabc
00000280: afc0 50be 0d84 773d 1434 94bc e9f5 87bd
00000290: b833 4a3d 8849 7d3e 7469 c6bd bda5 d7bc
000002a0: dd73 c23d 4689 c4bd 067c f83d 1c54 7c3d
000002b0: 79a7 143e 769c 34bd 3c26 b63c d495 29be
000002c0: 79e3 7bbc cf73 3dbe 24f9 f63d c951 1bbe
000002d0: 76c8 04bc 4d21 46bc 7146 bc3c 12c7 5dbe
000002e0: d4cc 973d f954 113d ad7d 11be 5cd6 b7bd
000002f0: a5a7 833d bd63 90be 1598 183e 9f74 fdbb
00000300: 6bc7 acbd d742 1bbd 1360 1b3e 832f a63d
00000310: 5aa8 c83d 377c 90bd 0f75 bd3d 32ec bf3d
00000320: 4a2c 9fbc fa4c 91bc caf9 0fbe dcc4 73bd
00000330: 7b14 1fbe be99 ffbc d763 363d 0b51 783c
00000340: a186 0dbd 8ab9 1d3e b835 9a3d bb7f 933d
00000350: 262e e7bb 6e46 213d 0cb1 f6bd 56a1 11bc
00000360: 2f07 3bbe 4cbc 9c3c 6deb 0abe 666d 85bd
00000370: 531f 113e 708b 1d3c bfa7 19be 16e4 22bc
00000380: 7ded 08bd d1b3 73bc 3aed 62be 1aa2 2ebe
00000390: 6d5d 72bd ca6b 41be fab2 83bd 65ba 193c
000003a0: 173b 443e 3d39 aa3d 01e9 81bd 7385 3a3d
000003b0: d9e3 423b cbe5 82bd e9bb c5bc 9fac 1d3d
000003c0: 5b4c 2d3d 9791 ddbd ab2b a33d 006a 8c3c
000003d0: eca4 dc3d 7491 743d b43e 503e 4164 44bd
000003e0: 086b 823d be58 dd3d 736f d5bd ad1d b03d
000003f0: a71f c2bd 50ed 353e dcba 0b3e 526a 043e

fc.2.bias f4 [64]
0.14801723 0.75957847 -0.29151398 -0.23051271 0.01239786 0.35634807 0.01951973 -0.2556652
0.37334642 0.33460402 -0.57945424 -0.23686527 0.7990187 -0.46595907 -0.14163125 -0.48358363
0.13296032 0.40267402 -0.33625984 -0.029563705 -0.10537374 0.036149636 -0.6218528 0.56646377
0.7805312 -0.35857457 -0.30240375 0.5853711 -0.69029003 -0.45510724 -0.366625 -0.32229227
-0.3809426 0.56344134 -0.62663996 -0.27200535 0.33802745 -0.15602666 -0.4123253 -0.24154733
-0.39527014 -0.45212328 0.12662984 -0.56126726 -0.03161294 -0.7103062 -0.005902965 0.23529698
-0.12832598 0.6654391 -0.7647252 -0.0850251 -0.17363964 0.30957583 -0.03525317 -0.23375891
0.042160723 -0.15781394 -0.10740503 0.26789805 0.4649258 -0.1077361 -0.4183418 -0.15977928
00000000: d491 173e bc73 423f 5241 95be 860b 6cbe
00000010: 6520 4b3c 4173 b63e d7e7 9f3c 8de6 82be
00000020: 4327 bf3e 3851 ab3e 1d57 14bf cf8c 72be
00000030: 7d8c 4c3f 3092 eebe c807 11be 4698 f7be
00000040: c026 083e 4a2b ce3e 402a acbe 952f f2bc
00000050: 30ce d7bd a411 143d bf31 1fbf c503 113f
00000060: e5d0 473f 1697 b7be aad4 9abe e1da 153f
00000070: d9b6 30bf d103 e9be 46b6 bbbe 7e03 a5be
00000080: e90a c3be b13d 103f 7a6b 20bf 4944 8bbe
00000090: ef11 ad3e 74c5 1fbe 4d1c d3be 2f58 77be
000000a0: d960 cabe b47c e7be 41ab 013e 36af 0fbf
000000b0: 927c 01bd a1d6 35bf a96d c1bb b1f1 703e
000000c0: e367 03be 385a 2a3f 08c5 43bf a421 aebd
000000d0: 97ce 31be b980 9e3e a165 10bd 7f5e 6fbe
000000e0: b9b0 2c3d fa99 21be 2bf7 dbbd ef29 893e
000000f0: c10a ee3e bfa4 dcbd e530 d6be 2e9d 23be

prediction_layer.weight f4 [10, 64]
-0.014880255 0.009506822 -0.05411175 0.034747384 -0.15866819 -0.14095905 0.03709859 -0.0073391637
-0.055099733 -0.09325051 -0.09095668 0.018522622 0.098356634 0.007672262 -0.01712345 -0.108329415
-0.013453334 0.061245006 0.040027138 0.067141674 -0.02066468 -0.034749612 0.07482891 -0.0672075
0.016365837 -0.019780956 0.06379169 0.04860561 -0.041605387 0.06939289 -0.11281216 -0.1081201
0.06505443 -0.0020756389 -0.12575813 -0.13777895 0.13383524 -0.1304377 -0.15592423 0.043570008
0.0789935 -0.07846837 -0.038960014 0.01703927 0.0976017 -0.062076434 0.00891625 0.08135679
0.017693887 0.16475298 -0.0862335 0.11830697 -0.07974478 0.005115324 -0.042644717 0.022620108
-0.13165364 0.058758736 0.005054873 -0.07703265 -0.12651029 -0.034440614 0.039131932 0.018543882
-0.0016028096 -0.19478257 -0.05191571 0.045395963 -0.08332191 -0.09431764 -0.078226216 0.08562588
-0.14616972 -0.068561845 0.104372405 -0.036235817 -0.073412366 0.07213916 0.09527151 0.21103793
0.06397383 -0.21743031 -0.013183572 -0.022184504 -0.04390721 -0.0035193188 0.087563366 -0.035049636
-0.1461611 0.053348757 0.089281894 -0.052455228 0.057728995 0.04534595 0.05564647 0.14312021
0.020976897 -0.12379755 0.04063144 -0.09164851 -0.11015517 0.11775739 0.078715004 0.13019636
0.22657931 0.032721244 -0.007317073 0.12551445 0.04896639 0.20205347 0.036260255 -0.0055314954
-0.02288609 -0.041600455 0.102983736 0.079228275 0.0660447 -0.074953504 0.03210335 -0.04239514
-0.019575214 0.2547891 -0.04428102 -0.02117558 0.01697374 0.0021103804 0.15543121 -0.008870661
0.010078457 0.1133924 -0.03229603 0.010273154 0.07603192 -0.061169855 0.010326306 -0.071381204
0.09355479 -0.0038974045 -0.098551966 0.040444218 0.11181264 -0.11158568 -0.0054281875 -0.13297155
0.1224111 -0.021156035 -0.102447644 -0.039763324 -0.05117003 0.012620513 -0.11772374 0.031619392
0.07321457 0.040993866 -0.0031667145 0.08402276 -0.06419411 -0.08653608 0.072615005 -0.16001299
0.075117685 0.045012098 -0.054499637 0.0032070768 0.1180569 -0.03071318 -0.108970664 -0.04153043
-0.09112755 -0.06436914 -8.1441955e-05 -0.082047194 0.05384162 -0.08734294 0.029696105 0.02598875
0.009052736 -0.025853265 -0.13721065 0.008253669 -0.0018202573 0.06794536 0.043612856 -0.028249744
0.09822625 -0.123055935 0.08437964 0.06796981 0.08998204 -0.009798522 -0.071709976 0.062444564
-0.0031647563 0.064354524 0.0405403 -0.05230777 0.065983385 0.016918344 -0.04697128 -0.01472543
-0.08310378 -0.02864562 0.091572985 0.018004812 -0.16456327 -0.071991056 0.025253447 -0.096285276
-0.0158628 0.03506746 0.077254735 -0.04166897 -0.053248294 -0.06345142 -0.01047329 -0.034327444
-0.07114051 0.048230954 0.054411888 -0.08480795 0.11520392 0.010890565 0.008628718 -0.070869155
0.07731817 0.04548418 0.018739829 0.1052988 -0.086948656 -0.038620416 -0.005818445 -0.033654667
-0.07181779 -0.011748952 0.03779223 -0.042405594 0.045610446 0.11715523 -0.00037055844 -0.054197434
0.025192916 -0.11979504 0.043829918 -0.06254813 -0.0126763545 0.100700684 0.03463128 0.0003804301
0.11088011 -0.087765045 0.0016826873 0.050727654 0.07318832 0.06636443 -0.015532405 0.046481125
00000000: 50cc 73bc 80c2 1b3c 48a4 5dbd 4653 0e3d
00000010: ea79 22be 9257 10be b1f4 173d 5e7d f0bb
00000020: 42b0 61bd 20fa bebd 7f47 babd c1bc 973c
00000030: 346f c93d 9967 fb3b 7a46 8cbc d0db ddbd
00000040: 5f6b 5cbc 0bdc 7a3d 7ff3 233d 9381 893d
00000050: fa48 a9bc 9c55 0ebd e63f 993d 16a4 89bd
00000060: a611 863c ac0b a2bc 38a5 823d ad16 473d
00000070: 696a 2abd dc1d 8e3d 100a e7bd 126e ddbd
00000080: 423b 853d 7107 08bb bdc6 00be ed15 0dbe
00000090: 1b0c 093e 7691 05be 9aaa 1fbe 7776 323d
000000a0: 58c7 a13d 06b4 a0bd 8994 1fbd f095 8b3c
000000b0: 66e3 c73d dc43 7ebd 7715 123c 649e a63d
000000c0: c5f2 903c 01b5 283e 309b b0bd ed4a f23d
000000d0: 3b51 a3bd 739e a73b 3aac 2ebd ce4d b93c
000000e0: 36d0 06be 00ad 703d 59a3 a53b 4bc3 9dbd
000000f0: ea8b 01be 9a11 0dbd ce48 203d 57e9 973c
00000100: 5e15 d2ba 1575 47be 91a5 54bd 1ef1 393d
00000110: ada4 aabd 9b29 c1bd 1135 a0bd 9f5c af3d
00000120: 84ad 15be 276a 8cbd 33c1 d53d 026c 14bd
00000130: 3959 96bd b2bd 933d b61d c33d 541a 583e
00000140: b604 833d 0da6 5ebe e9ff 57bc 47bc b5bc
00000150: 0cd8 33bd 5fa4 66bb 6c54 b33d 3590 0fbd
00000160: 41ab 15be 3a84 5a3d 6dd9 b63d 4bdb 56bd
00000170: 3d75 6c3d adbc 393d 8eed 633d 1b8e 123e
00000180: bed7 ab3c 9289 fdbd 276d 263d 37b2 bbbd
00000190: 0999 e1bd c92a f13d 5535 a13d 3252 053e
000001a0: 6804 683e b606 063d 0fc4 efbb dc86 003e
000001b0: fb90 483d 1be7 4e3e a285 143d 8c41 b5bb
000001c0: 9c7b bbbc 3d65 2abd 23e9 d23d 6f42 a23d
000001d0: 7242 873d 3981 99bd cd7e 033d 87a6 2dbd
000001e0: 335c a0bc b873 823e 0460 35bd 6978 adbc
000001f0: 830c 8b3c 4f4e 0a3b 5c29 1f3e 4056 11bc
00000200: 1d20 253c 463a e83d d848 04bd bb50 283c
00000210: a0b6 9b3d 3e8d 7abd ab2f 293c 4f30 92bd
00000220: a799 bf3d 996b 7fbb 9dd5 c9bd d6a8 253d
00000230: 07fe e43d 0887 e4bd f0de b1bb b229 08be
00000240: acb2 fa3d 6c4f adbc 12d0 d1bd dede 22bd
00000250: aa97 51bd 45c6 4e3c 2519 f1bd 5683 013d
00000260: 85f1 953d 2fe9 273d a788 4fbb 2014 ac3d
00000270: 3478 83bd d439 b1bd 2db7 943d 72da 23be
00000280: 4dd7 993d 9b5e 383d 033b 5fbd d22d 523b
00000290: d1c7 f13d 359a fbbc 032c dfbd d01b 2abd
000002a0: 15a1 babd f8d3 83bd d1cb aab8 5c08 a8bd
000002b0: 0889 5c3d dbe0 b2bd 3f45 f33c 5ce6 d43c
000002c0: ed51 143c 3aca d3bc f380 0cbe 663a 073c
000002d0: b395 eeba f026 8b3d 65a3 323d 026c e7bc
000002e0: d82a c93d c004 fcbd 3ccf ac3d c133 8b3d
000002f0: 8148 b83d fb89 20bc aedc 92bd dfc5 7f3d
00000300: cd67 4fbb 4ecc 833d 960d 263d ac40 56bd
00000310: 4c22 873d 5798 8a3c f564 40bd ee42 71bc
00000320: 5132 aabd 38aa eabc 9e8a bb3d d47e 933c
00000330: 4683 28be 0c70 93bd 51e0 ce3c 3731 c5bd
00000340: b4f2 81bc e6a2 0f3d bb37 9e3d 15ad 2abd
00000350: e21a 5abd d1f2 81bd 2a98 2bbc ef9a 0cbd
00000360: 1eb2 91bd d28d 453d 00df 5e3d caaf adbd
00000370: 08f0 eb3d 576e 323c 775f 0d3c d923 91bd
00000380: fd58 9e3d 9f4d 3a3d 4584 993c e6a6 d73d
00000390: 2312 b2bd 7130 1ebd a7a8 bebb 7ad9 09bd
000003a0: 3515 93bd ad7e 40bc 06cc 1a3d 7db1 2dbd
000003b0: 05d2 3a3d 15ef ef3d 8347 c2b9 21fe 5dbd
000003c0: 6061 ce3c 1a57 f5bd 0087 333d 3c19 80bd
000003d0: 7cb0 4fbc 293c ce3d 87d9 0d3d 7774 c739
000003e0: 1c15 e33d 29be b3bd 9e8d dc3a cdc7 4f3d
000003f0: c2e3 953d 13ea 873d a17b 7ebc fe62 3e3d

prediction_layer.bias f4 [10]
0.17815554 -0.2750176 0.2233526 -0.07430937 0.4263238 -0.138883 0.34781498 -0.11917117
-0.034310583 -0.23625033
00000000: 686e 363e 1bcf 8cbe 8bb6 643e 832f 98bd
00000010: 1d47 da3e 5837 0ebe ce14 b23e 0410 f4bd
00000020: 4189 0cbd 9beb 71be
