Homeworks/HW1/results/trained_models/mlp_1.pt (torch, 134035 bytes, 4 tensors)

fc.0.weight f4 [32, 1024]
00000000: d608 20be 6cfc d3bd 6af6 e4bd b4e6 04bc
00000010: 6f9d 94bc ee72 e0bc 15fc 32bd 9e4f d9bd
00000020: 5fad 0bbd 5e79 813b c7bc 61bc b1f5 ac3c
00000030: 7b4e aabd fcf7 debd 32d9 ccbd 3581 c8bd
00000040: 80f6 a5bd 7523 17bd 99db 863c 2a04 343c
00000050: 86ea 33bd fe52 3cbd 5f1a ca3c 96c2 953b
00000060: f2dc 0ebd d272 b33c 81a7 e63c 396f e2bd
00000070: 2b86 c7bd 9cf5 13be 4e7d 24be 85af 55be
00000080: d3dc 50bd 9380 c4bd 8d61 97bd 7d1b 99bd
00000090: 4010 c8bb 5b21 dcbc 80ba bebd 613e eabc
000000a0: 12ce 723d 77ff ec3c ffd8 cf3c a33f 663d
000000b0: f606 3dbd 0ac9 39bd 2e95 57bd a503 f5bc
000000c0: 1255 223d 8694 e93c f1ce 4b3c 5896 afbb
000000d0: 7bdf 14bc f0a8 17bd dafc a63b cc40 913c
000000e0: a086 263d 9224 9b3d 9a6c ab3c be82 e8bd
000000f0: 321a 0abe 509f acbd 6d7b c3bd d7fa 97bd
00000100: 421f babc f751 47bd cd4e 18bd 5c71 723c
00000110: a95f 833c 7d76 cebd ec13 93bd ee7d 49bd
00000120: c5e2 a23c 7232 41bc 2e26 5d3d b741 823d
00000130: 3f48 e5bd 830b 20be 6abb 4fbd 88ca f2bc
00000140: 05cf ac3c 6507 63bc 23a6 a5bc 0bac 883d
00000150: 15f8 a73d 9a0c 873d 87ee 3d3d b63a 2b3d
00000160: a81b ac3d e7f1 663d 6e6a 723c c9a4 8e3c
00000170: a585 3fbd e20d a8bc b591 8abd 8d9e dbbb
00000180: 955a 9e3b 4d08 44bb 305a 64bc 5e95 c4bc
00000190: 6986 913b 7908 fabd b50d f6bc 6272 d2bc
000001a0: 4111 19bc 9ea5 953d e262 113e 8ee0 363d
000001b0: cc8f 0fbe fbf2 42be 71ad 54bd ce29 9ebd
000001c0: a284 b9bc 39bc 2e3d 1a9c ab3d c12d fb3d
000001d0: af72 253e e6d0 f03d 33a1 e13c 720e 073b
000001e0: e121 0f3d 9ba7 7fbd 76f0 56bd adba b1bd
000001f0: 2a5d b2bd b391 abbd c4b1 0fbd 0727 c43c
00000200: 3996 593d fc82 e03d faf0 963d 3270 f33c
00000210: e151 923d 14ac 9c3c 586e 83bd 7a07 92bd
00000220: e8f0 ab3c 95db 283d 0f17 5a3d 8ec3 a23c
00000230: 5a84 3ebd 5c8f 52bd 35a3 233c 1ea4 afbd
00000240: 338e 12bd 1df1 6cbc f4ba 433c 622d e73d
00000250: 9bf7 d53d 7344 b33d 2a12 0a3e db46 0c3d
00000260: db39 74bd 436d 08be 40dc 0fbd d230 21bd
00000270: a11a cbbd dcb4 6e3c 3ab2 2c3d 228e c43c
00000280: 8eca ab3c 6bca ae39 d28d 86bc d8e8 493d
00000290: 6ad4 053d 4af1 84bd ebf5 11bd 527f 64bc
000002a0: edc7 60bd 2f4f 3bbd 13f1 83bd c200 2cbd
000002b0: c50f a03d e7c9 473e 898a 3d3e 5986 00bd
000002c0: 93b9 b8bc 31d8 57bd 06bf a9bd 93d1 873d
000002d0: 815e 013e 0b81 863d aa41 103d 84ab 8ebd
000002e0: 2a90 f4bd c403 1fbd 7861 d43c 5f57 30bd
000002f0: 8fa9 013d 5944 303d cf45 8a3d 09cf 7a3d
00000300: 593a 493d 80d9 15bd 5c0b bdbd f28f f33c
00000310: 1dc0 083d ff83 b8bd 9e3d 7b3c d9ad 883d
00000320: f109 49bc 9ea1 e3bd 2a5f 7cbd 6bb5 b53c
00000330: 536f 9a3d 4020 373e 4618 b13d 7127 8fbd
00000340: 6364 12bd 8167 fa3d ca66 ea3c 6fa1 ca3d
00000350: 5eaa 8d3d 3dc9 183d d8ae 0ebc 7d9d d9bd
00000360: d673 03be 9be2 0ebd d2eb 36bc 49e0 cfbd
00000370: ca4f 9cbc 7f6a 303d b61d 743d 206c 8f3d
00000380: b643 103e 635c a13d 4657 ebbc b6f1 e73c
00000390: 2832 8d3d cff2 9abd 6b73 44bd e6c0 0dbc
000003a0: 0f5a 41bd 4839 cdbd 5bbe 98bd 56e8 b03c
000003b0: d480 1e3d f645 033d 4441 563d 6d04 a1bc
000003c0: 5fa2 193d e253 d43d f864 ad3d 83ae 373e
000003d0: 712e c73d 2ece 19bc a1c3 14bd d9e0 afbd
000003e0: 126f 32be 61f0 f7bd 216e d4bc ee1e c0bc
000003f0: 9e7f 89bd 093b adbc 6a8b 8abc aed4 1f3c
-0.1562837 -0.1035088 -0.11179812 -0.008111645 -0.018141476 -0.027398553 -0.043697435 -0.10610889
-0.034100886 0.0039512357 -0.013777918 0.021113249 -0.0831575 -0.10887143 -0.10002364 -0.09790269
-0.08103657 -0.03689905 0.016462134 0.010987321 -0.04392483 -0.045977585 0.024670778 0.0045703156
-0.03487868 0.021905337 0.028156044 -0.1105637 -0.097423874 -0.14449161 -0.16063425 -0.20867737
-0.050991844 -0.09594836 -0.07391653 -0.07475946 -0.006105453 -0.026871374 -0.09312916 -0.028594198
0.059278555 0.028930409 0.025372026 0.056213032 -0.046149217 -0.04535774 -0.052632503 -0.029908964
0.03963191 0.028513204 0.012439475 -0.0053584985 -0.009086485 -0.037026346 0.00509606 0.017731093
0.040655732 0.075753346 0.020925809 -0.11353062 -0.13486555 -0.08428824 -0.09545026 -0.07420891
-0.022719983 -0.048662152 -0.037184525 0.014797535 0.016036825 -0.100811936 -0.07181534 -0.04919236
0.019883523 -0.011791812 0.05399149 0.0636019 -0.111954205 -0.15629391 -0.05071584 -0.02963759
0.021094808 -0.013856743 -0.020220822 0.066734396 0.08201615 0.065942004 0.046370056 0.041804038
0.084037125 0.05638304 0.014795883 0.01741256 -0.046758313 -0.020514432 -0.06766073 -0.0067022503
0.0048325756 -0.0029912174 -0.013937518 -0.023997005 0.004441072 -0.12208647 -0.030035833 -0.025689308
-0.009342493 0.073069796 0.14197877 0.044647746 -0.14019698 -0.19038002 -0.05192322 -0.07722817
-0.022646252 0.042659972 0.083793834 0.12264586 0.1615703 0.11758594 0.027542686 0.0020607975
0.03494442 -0.0624157 -0.052475415 -0.08678184 -0.08709176 -0.08377399 -0.03508164 0.023944391
0.05312178 0.10962483 0.073701814 0.029716585 0.071445234 0.019125022 -0.06417531 -0.07130332
0.020988896 0.041225035 0.053244647 0.019868638 -0.04651294 -0.05140625 0.009987642 -0.08576225
-0.035780143 -0.014461783 0.011946429 0.11287953 0.104476176 0.0875329 0.13483492 0.03424726
-0.059625488 -0.1332293 -0.035122156 -0.0393532 -0.099171884 0.014569487 0.042162158 0.023993555
0.020970609 0.0003333868 -0.016425047 0.049294323 0.032673277 -0.06491335 -0.035634916 -0.013946371
-0.054878164 -0.045729812 -0.06442466 -0.04199291 0.07815508 0.19510613 0.18509878 -0.031378124
-0.022549426 -0.05269641 -0.08288388 0.0663177 0.12633707 0.06567582 0.035218872 -0.06966308
-0.119415596 -0.03882195 0.025925383 -0.043052074 0.031655844 0.04303393 0.06751596 0.0612326
0.04912791 -0.036584377 -0.09230682 0.029731724 0.03338634 -0.09009551 0.015334515 0.06673784
-0.012270437 -0.111148104 -0.061614193 0.022181233 0.07540765 0.17883396 0.08647208 -0.06989945
-0.035740267 0.12226773 0.028613467 0.09894072 0.069172606 0.03730129 -0.008708678 -0.10625742
-0.12837157 -0.034884077 -0.011164622 -0.10150201 -0.019081015 0.043070313 0.059598647 0.07003045
0.1408833 0.078789495 -0.028728139 0.028313499 0.06894332 -0.07565843 -0.047961634 -0.008651948
-0.047205027 -0.10020691 -0.074581824 0.021595161 0.03869708 0.03204914 0.052308336 -0.01965543
0.037508365 0.10367562 0.08466524 0.17937665 0.09725655 -0.009387536 -0.03631938 -0.08587808
-0.17425182 -0.121063955 -0.02593142 -0.023452248 -0.06713794 -0.021146314 -0.01691218 0.009755297

fc.0.bias f4 [32]
00000000: 4467 1a3f a3c4 cf3e 6fa5 353e d14c 0bbf
00000010: 3a4c 06bf 07a0 aabe d88f a73e 6a7a 15bf
00000020: 70de bc3e a18d 9d3e 921d b0be d136 99be
00000030: 1817 623e 5dc0 44be 25e6 05bf 06a3 113f
00000040: 7319 babe 71b1 993f a8ed e9be 8e9e 3fbf
00000050: 41bf 50bf 9369 31be 3b05 923f 3b27 14bf
00000060: 7797 a4bc 023b babc 5e4d dabe dfe6 1fbf
00000070: 1175 373f 2c2c 4dbf 5a2f 94be 12a9 993f
0.6031382 0.4057971 0.17738889 -0.5441409 -0.5246006 -0.33325216 0.32726932 -0.58389914
0.36888456 0.30772117 -0.3439756 -0.29924634 0.22079122 -0.19214006 -0.523043 0.5688938
-0.3634754 1.2007276 -0.4568913 -0.7485131 -0.8154183 -0.1732543 1.1407846 -0.5787236
-0.020091755 -0.022733215 -0.4263715 -0.62461656 0.71663004 -0.80145526 -0.28942376 1.2004721

prediction_layer.weight f4 [10, 32]
00000000: 756e 883d bae1 b8bd 8882 2f3e 0f44 9cbc
00000010: bc06 91be d5e6 7a3e 1ff3 173e 8a18 71be
00000020: cc4a 00be 98c6 13be a1b5 9ebd cb25 3ebe
00000030: a889 12be 3de8 c9bb 2551 c6bc e05d 2cbe
00000040: 30a2 28be 579c d73d 556f d5bd 381e 0a3e
00000050: a700 92bd 5674 cd3d 8022 3c3e 1a70 493e
00000060: f08d 193e 6343 84be c024 e5bd 6147 8fbe
00000070: 7b7d be3c 8291 df3d b624 a63c 7684 81bd
00000080: 4a4d aabd b490 a5be b3a6 2fbe 798f 0e3e
00000090: 539f 5d3e d34b 843e ee85 cdbd 523e 9c3e
000000a0: 5382 833c 2670 5a3a 9848 f33d 7142 4bbe
000000b0: 0d16 a33c 5851 2cbe e95c 2cbe 8152 d0be
000000c0: 6bce 8ebd 2cd3 1fbe 634e d3bd d277 9e3d
000000d0: d3c3 acbc c23e 743e 0f0e 9fbc 76d3 443e
000000e0: fa3f b33d efc5 723d f859 f8bd 43a8 313e
000000f0: 65ef c3bd 06e6 703e 21fb 893e cef3 38bd
00000100: 68c9 a1bc 8c67 063e d8fb 523d a832 0ebc
00000110: a825 70be 7a42 fcbd 164b 74bd a2ef 48be
00000120: 89f7 6d3d 1ae2 e43d 91f5 8cbe 9c02 463d
00000130: 7456 b9bd d0a4 e7bd 3f0b 603e 5201 923d
00000140: e3b1 dd3c a798 3d3e 346a 0ebe 276a babd
00000150: 7362 7ebe d966 edbd 8d83 733d 33a2 1fbe
00000160: 2c68 9a3d 314c c3bd 0f6c ab3c 2152 8ebd
00000170: fdaa d5bd b26a 0cbe 12a9 60be f5f3 0f3c
00000180: 3c85 2cbc 380d 0b3e f220 9cbd e448 a4bd
00000190: 2687 6cbd 0c62 77be 6a56 bc3d a5d2 f3bc
000001a0: 59a7 93bd d29f a13c 40d9 f4bc 7566 da3d
000001b0: 31a6 5a3d 0d31 783d dd24 313e d0a9 f83d
000001c0: 4319 2c3e 4cdc 29bd c99e e1bc 00f1 5cbe
000001d0: dd86 28be 7857 c83d 33ff 19bc 13ca 86be
000001e0: 1ec6 e939 9e2f 373e fccb ba3d a7b3 f7bc
000001f0: 3df0 05bc bd8f 8bbd bc59 c13b 83da 0fbd
00000200: 17ad 113e 4ee7 8d3d 8186 67bd 1806 a3bd
00000210: 6508 57be 5820 26bd f32f aa3d 863a 73be
00000220: 002f 6d3d 690c c33d bfd5 b1bd 882a 12bd
00000230: d3b6 183e 00e2 10be a98e edbb 07d7 e7bc
00000240: b628 c8bd c18f 2ebd f530 57bc 33f4 a9bd
00000250: 353d 7fbd 5e90 e1bd eaea 343e 5446 adbd
00000260: 1d0b e1bd b17b 49be e8dd fbbd 1477 81be
00000270: de13 e9bb 7937 9bbd 31e9 28be 7051 643d
00000280: 4bac a83d 57c4 4a3e 5615 a2bd eef1 8d3d
00000290: 24b5 0cbe 28d4 64be 5c4b 163c badc 26be
000002a0: 3901 cdbd 8dae c13d ee0d 08be cf96 123e
000002b0: 871e 06be 5c7c ef3d d7de 333e 380b ec3d
000002c0: 27a2 b83d e50f cbbd d5c3 3d3d 2c77 51be
000002d0: 2304 60be 40c3 de3d 5f32 793d 71ae 92be
000002e0: a9ac 10be a173 203e 238d c63d cfb2 043e
000002f0: e8c2 3b3d 59cf ad3d f737 1c3d 5eac d1bd
00000300: 0dac a4bb 2b49 01be 70bf f1bc 21f9 cdbe
00000310: b926 bfbc 68b0 a1be 3ab9 e5bd 93be 383b
00000320: a709 b7be 88b9 bbbc fce5 3d3d f6c3 c5bd
00000330: fd94 75bd 12e8 21bd e145 28be 3db2 8238
00000340: 0679 e83c 748b 493e ad1e aa3d 87c6 98be
00000350: 4a68 afbe 3c31 ccbc 42eb 463e 2af9 9cbe
00000360: 9750 be3d 6c04 063e 8e8a 79be 5467 f83d
00000370: 78f3 d63c 47ba 8fbe 0990 f33d 94f8 0e3e
00000380: 8d70 d33d 629e 8d3d a81e 4a3e 6de0 203e
00000390: b604 98be 9286 babc 3b55 ddbd 8877 a0be
000003a0: ac21 653d a49c 633c 95e5 19be 859a 953e
000003b0: 76e8 163e 74bd 8d3e 339c 8f3d a7cf c6bd
000003c0: 1165 91bd 8452 40be e0ce d73e 490f 2f3d
000003d0: 81ad 973d f84b c8bd 24a8 1fbe 8c59 43bd
000003e0: 8511 4fbe b906 f83a 8e84 d03d c25c 563e
000003f0: 6de9 eebc 5322 793d 22cb 9abe 3851 d8bd
0.06661693 -0.09027429 0.17139637 -0.019075422 -0.2832545 0.24502118 0.14838837 -0.23544517
-0.12528533 -0.14431226 -0.07749487 -0.18569104 -0.14310324 -0.006161718 -0.024208615 -0.16832685
-0.1646812 0.10527866 -0.104216255 0.1348809 -0.07129031 0.10031955 0.18372536 0.1967167
0.14995551 -0.25832662 -0.1118865 -0.27984145 0.023253193 0.10916425 0.020281177 -0.06324093
-0.08315523 -0.32336962 -0.17153434 0.13921918 0.21642809 0.258391 -0.10035311 0.30516297
0.016053354 0.00083327515 0.118790805 -0.19849564 0.019907976 -0.16827905 -0.16832317 -0.40687945
-0.06972965 -0.156079 -0.103176855 0.07737698 -0.02108947 0.23852065 -0.019415883 0.19221291
0.08752437 0.059270795 -0.12126535 0.17349343 -0.09567145 0.23525247 0.2694941 -0.045154385
-0.019749358 0.13125437 0.05150971 -0.00867907 -0.23451865 -0.12317367 -0.05964192 -0.19622663
0.058097396 0.11175938 -0.27531102 0.048342332 -0.09049693 -0.11310732 0.2187929 0.07129158
0.027062362 0.18515263 -0.13907701 -0.09102278 -0.24842243 -0.11591882 0.05945163 -0.15589218
0.075394005 -0.09536017 0.02092555 -0.069492586 -0.10433004 -0.13712576 -0.21939495 0.008786191
-0.010529812 0.13579261 -0.07623471 -0.08021715 -0.057746075 -0.24158496 0.0919617 -0.02976353
-0.072096534 0.019729529 -0.02988875 0.106640734 0.05338115 0.060593653 0.17299218 0.12141764
0.16806512 -0.041469857 -0.027541535 -0.21576309 -0.16457696 0.09782308 -0.009399223 -0.26326045
0.00044588832 0.17889258 0.09120938 -0.030237032 -0.008174953 -0.06814525 0.0059005897 -0.0351205
0.14226185 0.069288835 -0.056524757 -0.07960147 -0.20999296 -0.04055819 0.08309927 -0.23752794
0.05790615 0.095238514 -0.08683347 -0.035685092 0.14913492 -0.14148712 -0.0072496724 -0.028300775
-0.0977339 -0.042617563 -0.013134231 -0.082985304 -0.06231423 -0.11013864 0.17667738 -0.0846068
-0.10988448 -0.19676091 -0.12298185 -0.25286162 -0.007112964 -0.0757894 -0.16495205 0.055741727
0.08235987 0.1980146 -0.07914226 0.0693091 -0.13740975 -0.22346556 0.0091732405 -0.16295138
-0.10009999 0.09457121 -0.13286564 0.14315341 -0.13097583 0.116936415 0.17565475 0.11525577
0.09015303 -0.09915141 0.046329338 -0.20455617 -0.21876578 0.10877085 0.060839053 -0.28648713
-0.14128365 0.15669109 0.096948884 0.12958835 0.045840174 0.08486814 0.03813931 -0.102379546
-0.005025393 -0.12625568 -0.02951023 -0.40229133 -0.023333894 -0.315799 -0.1121697 0.0028189763
-0.35749552 -0.022915617 0.04636191 -0.09656517 -0.05995654 -0.03952796 -0.16432907 6.2320825e-05
0.028378021 0.19682103 0.08306632 -0.29838964 -0.34259254 -0.02492582 0.19425681 -0.30658847
0.09292715 0.13087624 -0.2436926 0.12129083 0.026239142 -0.28071806 0.11892707 0.13962013
0.10324202 0.06914975 0.19738257 0.15710612 -0.29691094 -0.022769246 -0.10807272 -0.31341195
0.055940315 0.0138923265 -0.15028985 0.29219452 0.14737114 0.27683604 0.070122145 -0.09707575
-0.07099355 -0.18781477 0.4215002 0.042739186 0.0740614 -0.09780115 -0.15591484 -0.04769282
-0.20221527 0.0018922902 0.10181533 0.20933822 -0.02916404 0.06082375 -0.30233103 -0.10562366

prediction_layer.bias f4 [10]
00000000: 2fd6 d33d 4010 52bf 1878 503f 053b 0fbf
00000010: 93e7 753f 1c27 dcbe 9183 743f 833e a3be
00000020: 96b8 3b3d 6de6 3bbf
0.10343587 -0.82056046 0.8143325 -0.5594943 0.9605648 -0.42998588 0.95513254 -0.3188363
0.04583033 -0.73398477
