Homeworks/HW1/results/trained_models/mlp_2[1].pt (torch, 144479 bytes, 6 tensors)

fc.0.weight f4 [32, 1024]
000000 f3 e2 a6 be cb 23 50 be 24 03 e2 bd 11 0c d6 bd
       -0.32595024 -0.20326154 -0.11035755 -0.1045152
000010 44 03 83 bd 57 bf af bd 07 0c 57 bd c3 05 06 be
       -0.06397107 -0.08581417 -0.052501705 -0.13088135
000020 04 81 a3 bd ad 80 8b bd 03 3d b6 bd 73 5d a4 bd
       -0.07983592 -0.06811652 -0.08898356 -0.080256365
000030 08 25 0f be 46 be 17 be 02 2b 10 be ca b9 b8 bd
       -0.1397897 -0.14818677 -0.14078906 -0.090198115
000040 50 0d c0 bd ca cc cd bd 4c b2 10 be 13 7a 05 be
       -0.09377539 -0.10048826 -0.14130515 -0.13034849
000050 22 1b cb bd a3 80 fb bd ee 65 74 bd e2 b3 94 bd
       -0.099172845 -0.12280395 -0.05966752 -0.072608724
000060 b6 a6 04 be 05 5c b8 bd 06 7a 82 bd 59 7d a3 bd
       -0.1295422 -0.09001926 -0.063709304 -0.079828925
000070 81 5a e1 bd 1e 9b df bd 08 29 4e be 54 af a4 be
       -0.110035904 -0.10918258 -0.2013284 -0.32165015
000080 59 f3 8c be 9d 53 19 be 82 b8 d2 bd 0e 99 15 bd
       -0.2752941 -0.14973302 -0.10289098 -0.036522917
000090 0a d8 82 bd ce 96 88 bd e2 96 e3 bc 4f 9a 82 bc
       -0.063888624 -0.06669389 -0.027781907 -0.01594272
0000a0 55 e8 10 bd 69 44 e0 3a a2 61 8e 3c 83 ab 09 3c
       -0.03537782 0.0017110232 0.01738054 0.008402708
0000b0 44 a0 96 bc 35 ea 3d bd 7f 99 25 bd 63 37 23 bd
       -0.018386967 -0.046365935 -0.04042959 -0.039847743
0000c0 c0 54 8d bc 67 0a 09 bd 21 31 95 bc be dd 26 bd
       -0.017252326 -0.033457186 -0.018211903 -0.040738814
0000d0 77 7f df bd e6 54 09 be 26 b5 ad bc bb ac 81 bc
       -0.10912984 -0.13411292 -0.021204542 -0.015829435
0000e0 09 3b bc 3c 01 a2 0d 3d cc d4 19 3d f4 b5 cb 3b
       0.022977369 0.034578327 0.037556455 0.006216759
0000f0 7e 20 d9 bd 7e a1 af bd bd 64 f8 bd 53 92 5c be
       -0.106019005 -0.08575724 -0.12128589 -0.21540193
000100 66 6e 66 be 6a ed 01 be 67 b6 59 bd 2c eb bb bc
       -0.22503051 -0.12688223 -0.053152468 -0.022939287
000110 38 fe 61 bb c1 ac 42 bc 6a be 5e 3d 49 d0 76 3d
       -0.0034483802 -0.011882008 0.05438081 0.06025723
000120 87 27 01 3d ac 27 0b 3d b1 19 48 3d 40 41 9e 3d
       0.031531837 0.03397338 0.048852626 0.07727289
000130 f4 03 4d bc a1 c1 1d bd ac 68 84 bc e1 09 0a bd
       -0.0125131495 -0.038514737 -0.016163193 -0.033700828
000140 a9 5e ee bc 64 6c 66 3a 29 b9 60 3c 95 91 90 3c
       -0.029097872 0.0008789955 0.013716021 0.017647544
000150 7c 1d f7 3c a3 e7 36 3d 6d f2 da 3d 04 03 18 3e
       0.030165426 0.0446545 0.1069077 0.148449
000160 8f 77 28 3e cc 03 a0 3d 2e 78 be 3d b8 92 ad 3d
       0.16451858 0.07813224 0.09300266 0.0847525
000170 2a 46 51 3b 8e 48 86 bd 92 06 90 bd 1c 70 36 be
       0.003193269 -0.065568075 -0.07032503 -0.17816204
000180 c7 41 6f be 53 b9 c4 bd 45 0c a6 bc dd 10 b1 3c
       -0.23364936 -0.0960566 -0.020269522 0.021614486
000190 bb 20 1c 3d f9 a9 fe 3c e8 94 a9 3d 63 bc f2 3d
       0.03811715 0.031086909 0.08280355 0.11852338
0001a0 38 14 b6 3d 0a b0 b7 3d 44 ef a5 3d 55 2b 89 3d
       0.08890575 0.08969124 0.08102277 0.06697718
0001b0 2b 7d 1f 3d 82 32 7a 3d 4e 42 83 3d 77 63 32 bc
       0.03893773 0.061083324 0.06409131 -0.010887972
0001c0 ed d7 12 bd e8 27 c0 bc 16 9a 1d 3d 61 50 bc 3c
       -0.035850454 -0.023456529 0.038477026 0.022987546
0001d0 bb 13 de 3d 87 24 04 3e aa 3d eb 3d dc a3 07 3e
       0.10843607 0.12904559 0.11486371 0.13246101
0001e0 24 5d 1c 3e a8 35 85 3d 6d a6 fb 3c 9c cc af 3d
       0.15269905 0.06504375 0.030719006 0.08583948
0001f0 5e 7c 83 3c ab 51 6b bd 8d 74 9b bd 09 b6 c8 bd
       0.016050514 -0.05745093 -0.0759059 -0.098003455
000200 0b 02 06 be 62 5e 11 bd bd c1 18 bd 50 ae 8f 3b
       -0.13086717 -0.0354904 -0.03729414 0.0043847933
000210 22 47 8c 3d bd e9 0e 3e c4 50 e7 3d 1e d9 9f 3d
       0.06849505 0.13956352 0.11294702 0.07805084
000220 24 28 86 bc c9 2b 5e 3d b4 63 66 3d 21 b4 88 3d
       -0.016376562 0.054240976 0.056247428 0.06674982
000230 d0 6d 55 3d 1c c0 4a 3d a0 a0 96 3d bd 06 6e 3c
       0.05210668 0.049499616 0.073548555 0.014527974
000240 1b 77 bd bd 2a c9 c5 bd c4 be 07 3d f2 c0 74 3c
       -0.09251233 -0.096575096 0.033140913 0.01493858
000250 b8 79 83 bc 34 d7 ae 3c c0 d1 d3 3d 51 14 8b 3c
       -0.016049251 0.021342851 0.10342741 0.016977461
000260 3a 64 1c bc 2f 4f 98 3c 37 b3 b5 3d c5 62 69 3d
       -0.00954538 0.018592445 0.08872073 0.05697896
000270 c9 21 86 3c 6f a3 4f bd c2 50 ac bd 62 ef 86 bd
       0.016373532 -0.05069297 -0.08413841 -0.065886274
000280 d2 1f 05 be 36 f0 c8 bd fa a7 6e bd 78 e9 2a 3d
       -0.1300042 -0.098114416 -0.058265664 0.04172656
000290 52 aa 84 3c db 87 3b bc 21 98 9c 3d c4 8f 43 3d
       0.016194496 -0.011445965 0.07646204 0.047744527
0002a0 cb 03 f4 bc f3 0b 2a bd 36 f4 2a bd f3 be f3 3c
       -0.029786965 -0.041515302 -0.041736804 0.029754138
0002b0 67 c5 18 3d 63 6b a8 3d c9 45 97 3d 5e b0 49 bd
       0.037297633 0.082236074 0.07386357 -0.049240462
0002c0 2e 75 c0 bd 57 5b d9 bd a4 8a 13 bc 55 ed 9e 3d
       -0.0939735 -0.10613125 -0.0090052225 0.07760111
0002d0 49 be 2c 3d 60 4e 53 3d 1a 94 2d 3e b4 e7 ad 3d
       0.042173658 0.051588416 0.16951028 0.084914595
0002e0 4c 9e cd 3c cb 71 81 3d 99 f7 d3 3d 31 f7 4d 3d
       0.025099896 0.063205324 0.1034996 0.05028457
0002f0 86 fd 00 3c 0e 22 8e bd c8 50 f6 bc 07 bd 4b bd
       0.007872945 -0.06940089 -0.030067816 -0.049740817
000300 fb 5d 00 be 58 01 9a bd 76 e9 fe bd 12 6d 35 3c
       -0.1253585 -0.075197875 -0.12446873 0.011073368
000310 86 ad c0 3d df 33 9b bc c8 f3 fc 3d ae 39 d4 3c
       0.09408097 -0.018945633 0.12351185 0.02590641
000320 bd cb 8c bc 76 39 9d 3d 18 79 83 3d 73 60 19 3d
       -0.017186994 0.076769754 0.06419581 0.037445497
000330 d9 6e db 3d 63 bf ac 3d c6 3e 05 bc 8d 66 29 be
       0.10714502 0.084349416 -0.008132642 -0.16543026
000340 c0 d3 0b be 71 0f 70 bd 2b af 17 3d 4e e4 83 3b
       -0.13654995 -0.058608476 0.037032288 0.004025019
000350 c0 78 94 bb 0e da ac 3c 95 21 be 3d 71 54 1a 3d
       -0.004530996 0.02110007 0.09283749 0.037678186
000360 d6 7a 06 bd c4 e8 2c 3d 38 d0 81 3c 94 cc 97 bc
       -0.03283199 0.04221417 0.015846357 -0.018530168
000370 ec 07 2d 3d a4 62 2c 3b c1 38 f4 bc 26 f2 91 bd
       0.042243883 0.0026303912 -0.029812219 -0.07126264
000380 f7 bd fa bc 2d 6a a1 bc 14 39 14 bd b0 e3 2b ba
       -0.03060816 -0.019703949 -0.036187246 -0.00065570604
000390 e9 34 b2 3c f6 7f 44 3d c6 a6 a9 3d ec 57 5e 3b
       0.021753745 0.047973596 0.08283763 0.0033926917
0003a0 23 0e 43 bc 88 ab 87 3d e1 fe b6 3d 56 d2 98 3d
       -0.011905226 0.06624514 0.08935333 0.074619934
0003b0 6e 27 e2 3d d7 74 5c 3d 0a 15 5a bd b1 73 d1 bd
       0.11042677 0.053822365 -0.05324272 -0.102271445
0003c0 20 ef 92 bd 20 49 19 bd aa 8d dc 3d 4a 30 da 3d
       -0.07174516 -0.037423253 0.10769208 0.10653742
0003d0 9b e4 d6 bd 84 bf e7 bd 33 e1 05 bd 59 3a a8 3c
       -0.10492822 -0.113158256 -0.03268547 0.020535635
0003e0 23 8a 79 bd 8d f7 4b bd 82 20 c8 bb 56 46 6e bc
       -0.060922753 -0.04979663 -0.006107391 -0.014543137
0003f0 87 ad 15 3d 85 11 07 bc 21 de c2 bd 62 78 da bd
       0.03654244 -0.008243923 -0.09515024 -0.106674924

fc.0.bias f4 [32]
000000 3f d4 9f 3e 34 b8 d7 be f1 e8 cc 3e 93 98 f2 3d
       0.31216618 -0.42132723 0.4002147 0.118455075
000010 b2 cf 01 be e8 53 e2 3d d9 82 96 3d b9 31 f9 bc
       -0.12676886 0.1105116 0.07349176 -0.030419217
000020 f5 1b bc be 98 c9 b4 bd 91 ab 0b be b9 17 24 3d
       -0.3674008 -0.088275135 -0.13639666 0.040061686
000030 2a 31 0f be 54 e3 91 be 07 d5 35 be 02 52 76 be
       -0.13983598 -0.2849375 -0.17757045 -0.24054721
000040 ba 86 0b 3d 29 22 ba be cf 1c 2c be 3e f8 b3 be
       0.034064032 -0.36354187 -0.16807865 -0.3515033
000050 d8 fd b0 be d5 b0 10 be c1 37 93 bd 57 d7 5b bd
       -0.34568667 -0.14129956 -0.071883686 -0.05367216
000060 43 2d ef bd 7d 4c a6 be ef b6 73 bd be a9 70 bd
       -0.11678555 -0.3248023 -0.05950063 -0.05875563
000070 07 43 62 be c1 92 7d be 97 23 8d be 28 c7 be be
       -0.22095881 -0.24763013 -0.27566215 -0.3726132

fc.2.weight f4 [64, 32]
000000 93 4a 57 3e f3 3e 64 3e c7 54 3f 3e 74 cc 09 bd
       0.21024542 0.22289638 0.18684684 -0.033642247
000010 3e 77 18 be 45 02 1c 3e d6 1b 68 be b4 bb b6 bd
       -0.14889237 0.15235241 -0.22666869 -0.0892252
000020 ee 3b 1a be cf 23 27 3d 2e f8 5a 3e dc ed 14 3d
       -0.15061924 0.040805634 0.21383736 0.036359653
000030 59 b0 f9 3b 51 c7 e7 3c 70 82 89 3e d6 5a 8c bd
       0.007619899 0.028293284 0.26857328 -0.06853263
000040 b8 36 32 be ec 80 1b be 6e b2 aa 3e e6 58 a1 3d
       -0.17403686 -0.15185899 0.33339256 0.07878284
000050 17 1e a0 bc cf 63 84 3d 33 2f 75 3e e2 69 5d 3d
       -0.019545598 0.064643495 0.23943786 0.054056056
000060 fe 87 18 3d e4 60 b1 bd e9 4d ac be 41 47 95 be
       0.037239067 -0.086610585 -0.3365319 -0.29155925
000070 84 d0 5c bd 44 2b 13 bc 1e 37 9f bd a5 54 69 3e
       -0.053909793 -0.008982483 -0.07774185 0.22786196
000080 59 6c db bd 11 3f fe bd bd 40 2e 3d 9f 8d b4 bc
       -0.10714025 -0.12414373 0.042542208 -0.022040186
000090 17 a3 c6 bd d6 ec 09 bd 2b b5 2c 3e 9e 9a 2e bc
       -0.09699076 -0.03367313 0.16865985 -0.010656981
0000a0 26 41 8d 3d 04 29 e1 bc 94 61 f5 3c 40 39 0e 3d
       0.06897192 -0.027485378 0.029953755 0.034722567
0000b0 59 24 9d 3d c9 ae f2 bd 0d 5e 69 3d 0a e4 b6 bc
       0.076729484 -0.11849744 0.05697446 -0.022325534
0000c0 c0 49 33 bb bf 44 2b be fb 10 b5 3d 60 8e ee bd
       -0.002735719 -0.16725443 0.088411294 -0.116482496
0000d0 24 5e 90 bb c4 f1 1a bd d5 3e 14 be f0 14 ca bd
       -0.0044057537 -0.037828222 -0.14477094 -0.09867275
0000e0 25 13 32 be 82 61 53 3d 0e d6 23 be e7 af 08 3e
       -0.17390116 0.051606663 -0.15999624 0.13348351
0000f0 be cd 49 3c 16 17 b0 bd 84 6d d6 3d ee da 34 be
       0.012317119 -0.08598153 0.10470107 -0.1766164
000100 33 b5 59 3e a8 8f 24 bc 19 ff b3 3d b3 37 06 3e
       0.21260528 -0.010044016 0.087888904 0.13107185
000110 81 e0 05 be bf d5 c9 3c ca 8e 2b bc b4 15 d4 bd
       -0.13073923 0.024638055 -0.010471055 -0.10355702
000120 e3 a0 98 3d db 7b 7c 3d 25 c2 35 bd 13 72 e9 bc
       0.07452562 0.061641555 -0.044374604 -0.028496778
000130 ae 9e 02 3e bd 22 d1 bd f1 b3 c1 3d a7 9f e2 3c
       0.12755844 -0.10211704 0.09458149 0.027664019
000140 2a ec fa 3d 0e 82 9b bd d7 44 91 3c bb 9f a9 3e
       0.12252076 -0.07593165 0.01773302 0.33129677
000150 c1 88 35 bd 6a 18 ac bc e8 bd f7 3d 1c e4 03 be
       -0.04431987 -0.021007735 0.120967686 -0.12879986
000160 f7 38 34 bd e0 51 59 be ba 43 fe bc d7 b6 e2 3d
       -0.04399964 -0.21222639 -0.031038154 0.1107003
000170 38 d6 ce bd 37 43 0d be d9 bf 98 bc 0d eb 0b bc
       -0.10099453 -0.13795172 -0.018646168 -0.008539927
000180 30 ad 8d bd a5 41 29 3c e8 8a 3c be 3c 5c 1a be
       -0.069177985 0.010330592 -0.18412364 -0.15074247
000190 38 b0 1b 3d 2b 19 41 be 32 75 c3 bc 30 1d 00 3c
       0.038009852 -0.18857257 -0.023859594 0.007819459
0001a0 8e b5 0f 3d 68 94 5d 3c 56 c8 31 bd e2 cc 5d bd
       0.035085253 0.013524152 -0.043403946 -0.05415047
0001b0 1d dd 1c 3e e0 61 84 bd 68 b3 d8 bd ed 02 db 3d
       0.15318723 -0.06463981 -0.10581094 0.106939174
0001c0 2b 4f 0f be a6 4e 10 3e 36 f6 4b 3e a5 3e f4 3d
       -0.13995044 0.14092502 0.19918141 0.11926011
0001d0 74 49 86 3d 8b 6d 22 bd ff de f2 bd 95 09 fc 3c
       0.06556979 -0.03965525 -0.118589394 0.030766288
0001e0 fe 9c af 3d ed 51 46 bd a0 be 40 3e ab 1c 6d 3d
       0.08574866 -0.048417974 0.18822718 0.057888668
0001f0 b5 85 0a 3c b8 9e 90 3d 96 f7 52 bd e8 f6 19 3e
       0.00845473 0.07061523 -0.051505648 0.15035594
000200 27 ce 2d 3d a0 46 94 3d 1e 82 40 3e 42 d5 4a 3e
       0.04243293 0.07240033 0.18799636 0.19807914
000210 a6 03 14 be a1 70 25 3e f4 08 c0 3d da 61 1d be
       -0.14454517 0.16156246 0.09376708 -0.15369359
000220 1f 24 45 be d8 a6 d1 3d 18 b0 6a bd 78 15 09 be
       -0.1925206 0.10236901 -0.057296842 -0.13387096
000230 2f eb 53 3e 76 1e ab bd 87 38 4e 3e 2f 35 55 be
       0.20695184 -0.08355419 0.20138751 -0.20821069
000240 1e 3f e8 3c 5f 0c 1b be da f4 0a 3e 50 aa 01 3e
       0.02835041 -0.15141438 0.13569966 0.12662625
000250 a4 d9 a7 3d 74 dc 02 bd 6a 03 1c bd 24 e1 c3 3c
       0.081958085 -0.03194852 -0.038089193 0.023911066
000260 ba 9f b4 3d 59 ef 9a bd 42 42 8c be 6c ef 3b 3d
       0.08819528 -0.07565183 -0.273943 0.045882627
000270 32 9b 9c be 52 65 c5 bd 25 cc 17 3c 1b c4 c1 3d
       -0.30587155 -0.09638466 0.00926498 0.09461232
000280 d9 38 1c be 56 e0 92 3d a7 5f 27 bd 60 00 1e bd
       -0.1525606 0.07171695 -0.040862706 -0.038574576
000290 a1 13 f7 3c bf 56 00 3e e2 a6 b6 bd b6 47 b3 bc
       0.030160727 0.12533091 -0.08918549 -0.02188478
0002a0 6b 9c c9 3d b0 b6 1b be 12 b9 5a 3d 97 7b c3 bd
       0.098442875 -0.15206409 0.053399153 -0.09545057
0002b0 1b 81 20 3e 72 8a df bb 6e 33 ed 3c bb 1b fb bd
       0.1567425 -0.006821924 0.028955188 -0.122611485
0002c0 1c 65 3d bd 27 ab f7 bd 87 fd 9c 3d 97 c8 07 be
       -0.046239004 -0.120931916 0.07665544 -0.13260113
0002d0 48 ae d4 3d 2f ff 43 3d 4f 33 e7 3c 2a ca ca bd
       0.10384804 0.047850784 0.028222708 -0.09901841
0002e0 09 d2 83 3c 60 da da bc 02 08 47 be 38 96 7e bd
       0.016091364 -0.026715457 -0.19436648 -0.06215498
0002f0 44 17 f9 3b da 5c 15 be ec aa 45 3e 3d d5 35 bc
       0.0076016504 -0.14586201 0.19303483 -0.011098203
000300 2d 2a b6 bd 65 2e cd bb 3b fd 4d 3e 3f e6 9e 3d
       -0.08894763 -0.006261634 0.20116131 0.0775876
000310 96 96 17 3e de 24 9f 3d f4 2e 98 3d 0d b5 b0 3d
       0.14803538 0.07770704 0.074308306 0.08628283
000320 a6 a1 34 bd 1b ce 08 3e 22 3b 8f bc f8 69 43 3d
       -0.044099472 0.13359873 -0.017484251 0.04770848
000330 4d b2 56 be 61 6b b3 bd 75 db df 3c ea 64 61 3c
       -0.20966454 -0.08760715 0.027326325 0.01375697
000340 64 f3 cd 3c 01 12 09 3e cc 5f 14 3d 90 39 b8 3d
       0.025140472 0.13385774 0.03622417 0.08995354
000350 4c 4b 7a bd b9 11 07 bd cb 06 32 bd 10 7c d9 bd
       -0.061106965 -0.032975886 -0.04346351 -0.10619366
000360 a6 85 7c be d7 80 5d 3d 77 02 5d bd 28 ea 7a bd
       -0.24660358 0.05407795 -0.05395743 -0.061258465
000370 0f fa 2c 3e 24 2f b6 bd 2b d0 62 be 73 74 1d 3d
       0.16892265 -0.0889571 -0.22149722 0.038441133
000380 6f 4e a5 bc cf 99 57 bd d3 bb 4b be 7d f8 51 be
       -0.020179002 -0.052636918 -0.19895868 -0.20504947
000390 28 e6 84 bd 2c 7b 88 be 95 66 e5 bc 84 b7 16 3e
       -0.06489211 -0.26656473 -0.028003016 0.14718443
0003a0 e1 13 10 3e b9 c4 63 3d 2f 22 5f bd 8f 6a b4 bc
       0.14070083 0.05560753 -0.05447596 -0.022023467
0003b0 a0 26 f2 3c e6 2f 8e bd 3a 45 1d 3d 56 1d 71 3d
       0.029559433 -0.0694273 0.038396098 0.058865868
0003c0 51 8f 34 bc ec 27 ae bd 0a e5 93 3d 22 d6 5b bd
       -0.011020497 -0.08503708 0.0722142 -0.05367101
0003d0 08 90 28 3e 51 ce b7 3d c7 bf fe 3d 1a 22 15 be
       0.16461194 0.089748986 0.124389224 -0.1456379
0003e0 aa 19 30 3d 08 07 aa 3d 26 0c 1c bd 4d d7 3a 3d
       0.042993225 0.08302122 -0.038097523 0.045615483
0003f0 ae 54 86 bd a3 88 6f 3e 67 68 25 3e cf 13 4b 3d
       -0.0655912 0.23391967 0.16153108 0.049579438

fc.2.bias f4 [64]
000000 22 60 5b 3e 3d 28 13 3f 0d d5 09 be e3 9e 22 be
       0.2142339 0.57483274 -0.13460179 -0.15880923
000010 07 a4 58 3d 7d 10 9d 3e 7b 82 33 3c 19 c2 8e be
       0.052890804 0.30676642 0.010956402 -0.2788246
000020 18 2f ba 3e 3c f2 b2 3d 06 a0 1d bf 4e ff ee bd
       0.36364055 0.08737609 -0.615723 -0.11669789
000030 0c 23 25 3f a8 95 ba be bd 48 f0 be 09 be bc be
       0.645066 -0.36442304 -0.46930495 -0.36863735
000040 63 08 38 3b a9 37 b0 3e d7 b0 81 be df d7 0b 3e
       0.002808117 0.34417465 -0.2533023 0.13656567
000050 72 9e 1f be e1 d5 90 3d 86 ae 1b bf e4 73 17 3f
       -0.15587786 0.07072044 -0.60813177 0.5916121
000060 62 c1 12 3f e0 e4 81 be 55 09 d1 be 2c 2b 0a 3f
       0.5732633 -0.2536993 -0.40827432 0.53972125
000070 3f 7c 20 bf 1b 51 bf be b5 df 8b be 59 b7 a5 be
       -0.62689584 -0.37366566 -0.27319112 -0.32366446
000080 f1 63 d0 be 21 5e 1f 3f dc ea 08 bf 0c df 69 be
       -0.4070125 0.62253004 -0.53483367 -0.22838992
000090 b8 8f 83 3e 2c f6 21 be 98 86 a0 be 31 0d 94 be
       0.25695586 -0.15816563 -0.31352687 -0.28916314
0000a0 e4 4f 92 be c3 68 d0 be e5 a1 33 3e 63 e1 0b bf
       -0.28576577 -0.40704927 0.17542227 -0.5464079
0000b0 50 82 87 3e 31 7d 0e bf 53 e7 31 be c0 d0 11 3d
       0.26466608 -0.55659777 -0.173734 0.03559947
0000c0 eb 33 3d be d3 af 08 3f e5 a1 0d bf b0 f2 76 bd
       -0.18476836 0.53393286 -0.55325156 -0.06029004
0000d0 7e 1b 89 be 13 a4 95 3e 11 1c 94 bc 96 71 49 be
       -0.26778787 0.2922674 -0.01807979 -0.19672236
0000e0 6c 39 95 3d 89 25 02 be 45 72 a9 3c 01 81 97 3e
       0.07286343 -0.12709631 0.02068437 0.2959061
0000f0 d8 b4 c0 3e d5 af ee bd 0a db b6 be d1 59 a5 be
       0.37637973 -0.11654631 -0.3571399 -0.32295087

prediction_layer.weight f4 [10, 64]
000000 a0 5f 00 be b8 83 92 3c ed 3e f5 bd 0d ab 1b 3d
       -0.12536478 0.017885074 -0.11974893 0.038004924
000010 fd 2a 47 be 07 0e ba bd a9 cc 87 3d 2b bd b7 3a
       -0.19449992 -0.09084707 0.06630833 0.0014018168
000020 d0 b4 8b bd 02 60 74 bd 51 4d 80 bd d0 67 86 3c
       -0.068215966 -0.059661873 -0.06264747 0.016406924
000030 1c 2d 02 3e 1b 7d 8e 3d b3 6f d4 bc a9 eb 28 bd
       0.1271252 0.06957456 -0.025932169 -0.041240368
000040 54 35 0d 3d ed a0 f1 3c 39 ee ad 3c 99 df 42 bc
       0.034474686 0.02949568 0.021231757 -0.01189413
000050 b6 ea b1 bc c3 30 90 bc 02 b3 9f 3d 9e 99 66 3c
       -0.021718364 -0.017601376 0.07797815 0.014074711
000060 fd a9 81 bc 1f 46 af bd 86 ab 92 3d 7b 7a 4c 3d
       -0.015828127 -0.085582964 0.07161622 0.049921494
000070 5f 1c ad bc a1 9f 01 3e b2 fe 63 bd 56 12 e0 bd
       -0.021131692 0.1265855 -0.05566282 -0.10940997
000080 d8 24 6c 3d b9 22 a6 3d bb 54 19 be 15 e9 d7 bd
       0.057652324 0.081120916 -0.14973728 -0.10542504
000090 c7 da 0b 3e 58 bb cb bd 2b 2b 0a be 04 b5 c3 bc
       0.13657676 -0.09947842 -0.1349303 -0.023890026
0000a0 5b 3a f8 3b 0b 4d 8c bd 4b 13 10 be c1 4f ac bc
       0.007575316 -0.06850632 -0.1406986 -0.021034123
0000b0 34 e6 1f 3e 14 f9 39 bc b3 42 30 3d 72 dd de 3d
       0.1561516 -0.011350889 0.04303236 0.10882081
0000c0 e0 48 50 3c 59 57 ba 3d 53 a6 72 bd 2a d0 ed 3d
       0.012712687 0.090986915 -0.05924065 0.1161197
0000d0 56 d9 cb bc ec fa e2 3d 37 a6 1b bd 1c 25 be 3d
       -0.024883907 0.11083016 -0.03800031 0.09284422
0000e0 55 25 f0 bd 2f 72 12 3d 80 49 3a bc 70 30 ba bd
       -0.117258705 0.035753425 -0.011370063 -0.0909127
0000f0 cb ac 5a bd 98 37 1f be 9d b4 3f 3d 3f 63 03 bb
       -0.053387444 -0.15548551 0.046803106 -0.002004817
000100 be 63 13 bd 7b 7a ec bd 46 a3 03 be b5 af e6 3d
       -0.035983793 -0.11546799 -0.12855253 0.11263982
000110 9a a6 e7 bd 0d 3b db bd f1 89 a0 bd 46 86 f9 3d
       -0.113110736 -0.107046224 -0.0783881 0.12183814
000120 4a 52 21 be 27 cd b6 bd 8b 20 3f 3e a4 84 6a 3c
       -0.15754047 -0.089258485 0.18664758 0.014313851
000130 61 0d 0d be 4c 21 82 3c 2d b1 59 3e 93 d2 1b 3e
       -0.13774635 0.015885018 0.21258993 0.15217046
000140 c9 fa 00 3e 7c 2d 27 be 09 79 af bc 58 7b a7 39
       0.12595667 -0.16325945 -0.021420019 0.0003194462
000150 c8 ad 28 bd 6a b2 59 bc cd c7 f5 3d d1 ef 56 bd
       -0.041181356 -0.013287166 0.120009996 -0.0524748
000160 89 69 3f be 11 7f 57 3d df 18 09 3e 15 69 ff bd
       -0.18692602 0.052611414 0.13388394 -0.12471215
000170 b0 2f a2 3d d4 99 74 3c a7 90 43 3d 5c 8c 35 3e
       0.07919252 0.014929254 0.047745373 0.17729324
000180 66 62 4c 3d 32 85 0f be 1f 28 27 3c 6a 2f 04 be
       0.049898528 -0.14015654 0.010202437 -0.12908712
000190 b0 a0 cf bc b0 4a 0e 3e ec 0a b6 3d 6c 39 00 3e
       -0.025345176 0.13895679 0.08888802 0.12521905
0001a0 ad 5b 2e 3e 6a 42 85 3d bc a2 9e 3d 71 de 11 3e
       0.17027159 0.06506808 0.07745883 0.14245011
0001b0 8e 6a 98 ba 4f b0 42 3e f7 87 37 3d 45 5b 05 bc
       -0.0011628435 0.19012569 0.0448074 -0.008139436
0001c0 8a c8 41 bd 83 75 0b be 3a b4 94 3d 4b bc 03 3e
       -0.04731039 -0.13619046 0.07260938 0.12864797
0001d0 c7 42 82 3d 5f c6 9f bd eb aa 06 3d 83 23 b2 3c
       0.06360393 -0.07801508 0.032877844 0.021745449
0001e0 38 ab 15 3c 95 46 27 3e 1c 64 0c bd ef 14 8f bd
       0.00913506 0.16335519 -0.03427516 -0.06986415
0001f0 71 c3 39 bd 2f 72 06 3d d4 fa b9 3d 3a 19 e1 3d
       -0.045352403 0.032823738 0.09081045 0.1099114
000200 bf ed 0c 3e 9c 5a 86 3d 38 86 3f bc ee 72 de bc
       0.13762568 0.06560251 -0.011689715 -0.027154412
000210 c9 7e 5e 3d 29 ef 1a bd 1e f3 7a 3d 50 73 16 be
       0.05432013 -0.037825737 0.06126701 -0.14692426
000220 f8 3b 26 3e 4f 8b 88 3b 78 f7 c8 bd c6 5b 91 3c
       0.16233814 0.0041669975 -0.09812826 0.017743956
000230 ba 3f e2 3d 59 aa d3 bd 74 ce 14 be 52 85 69 bd
       0.11047311 -0.103352256 -0.1453188 -0.05701191
000240 69 5f a9 3d b3 19 e8 3c 3b 8c ad bd f7 6f 40 bd
       0.08270151 0.028332567 -0.084740125 -0.046981778
000250 cb ba 37 bd 2f b1 61 3b 87 4d 06 be f5 20 94 3d
       -0.044855874 0.0034437885 -0.13115512 0.072328486
000260 60 cb 53 3d ff 97 81 3d 6e 4d fb bb fb f3 f8 3d
       0.051707625 0.06327819 -0.0076691424 0.121559106
000270 be 35 a3 bd 35 45 a0 bd e4 7c 7b 3c fd cd d6 bd
       -0.07969235 -0.078257 0.0153496 -0.10488508
000280 26 d5 8a 3d 0e c9 98 3c 6d ed 6a bd d6 64 43 bd
       0.06778936 0.018650558 -0.057355333 -0.047703587
000290 be 7e f3 3d f7 5f d8 3c 74 26 0b be 3f 51 0d be
       0.118894085 0.026412947 -0.13588887 -0.13800524
0002a0 4f 9b f5 bc ee 72 4e bd 26 a2 15 bd 81 50 93 bd
       -0.029981283 -0.050402574 -0.03653159 -0.07193089
0002b0 6f b8 14 3e fd c6 fb bd 90 55 49 3d 99 ea a4 3d
       0.14523481 -0.122938134 0.049153864 0.080525585
0002c0 15 bb bf 3c a3 c3 ac 3b 9e 20 90 bd 47 93 1a bd
       0.023404637 0.005272345 -0.07037471 -0.03773811
0002d0 ae 65 0c bd 62 38 c1 3d 62 2a b8 3d bd b6 88 bd
       -0.034276657 0.09434582 0.08992459 -0.066754796
0002e0 88 b7 94 3d dd 65 c7 bd fc 34 b3 3d 09 4d 64 bc
       0.07261568 -0.09736226 0.0875034 -0.013934382
0002f0 84 97 30 3e 84 b3 c6 bc 3c 44 9f bc b1 97 ec 3d
       0.17245299 -0.024255522 -0.019441716 0.1155237
000300 f8 52 00 3e 2f 50 2e 3c 2c 5b 94 3d 92 4c 97 bd
       0.1253165 0.010639234 0.07243952 -0.073876515
000310 e8 f7 a5 3d f9 bf ff bc ae ad 9c bc 1d 58 a0 bd
       0.08103925 -0.03121947 -0.019125786 -0.07829306
000320 20 73 55 bd 6e 89 7a bd 7b 88 f9 3d e1 81 53 3c
       -0.052111745 -0.06116622 0.12184235 0.0129093835
000330 9a 21 e1 bd 01 1a 37 bd 3d 1a 24 3c b9 92 ef bd
       -0.10992737 -0.044702534 0.010016021 -0.11697907
000340 52 2d e7 bd 76 85 34 3d 9e cf 9e 3d e6 9b 2e bd
       -0.11287941 0.04407259 0.077544436 -0.042629145
000350 b9 85 1c bd 62 bc 35 bd ed bd cb bc 1d 8a b2 bd
       -0.038213465 -0.04436911 -0.024870837 -0.08717749
000360 c8 bb c4 bc b9 fb 44 3d 31 15 7d 3d 55 d5 13 bd
       -0.024015322 0.048091624 0.061787788 -0.03609212
000370 99 7c c4 3d b1 92 06 3d 0c ff f9 bb 04 19 4b bd
       0.095940776 0.03285474 -0.007629281 -0.049584404
000380 29 50 d7 3d 9a 2e 5b bc e8 57 b2 3c ab bd 96 3d
       0.10513336 -0.01337781 0.021770433 0.07360395
000390 4f 0e cc bd e6 bb 74 bd e4 c7 16 bd ac b1 d4 bc
       -0.09963667 -0.059749506 -0.036811724 -0.025963627
0003a0 62 a8 f4 3c a4 be 6b 3c 69 fe 6a 3b 14 85 1c bc
       0.029865447 0.014388714 0.0035857207 -0.009553213
0003b0 56 98 df 3c 03 1d 40 3d 67 2b 6f bb e6 6d 9a bd
       0.02729432 0.046902668 -0.0036494376 -0.07540493
0003c0 9d 71 91 3d 96 c4 82 bd 72 16 ad 3d 40 a8 79 bd
       0.07101748 -0.06385152 0.08451547 -0.06095147
0003d0 23 77 71 bd d4 1e a4 3d 03 97 4a bc eb d6 60 bd
       -0.05895151 0.080136925 -0.012365106 -0.05489246
0003e0 94 80 bc 3d ac 2e 20 3b 7d 22 6a 3c dd 28 3f 3c
       0.09204212 0.002444188 0.014290449 0.011667457
0003f0 12 35 06 3e df ac f7 3d 4a 35 38 3c d1 77 40 3b
       0.13106182 0.120935194 0.011243174 0.002936829

prediction_layer.bias f4 [10]
000000 f2 95 36 3e 0e b7 97 be 95 65 40 3e bc 35 9c bd
       0.17830637 -0.29631847 0.1878875 -0.076274365
000010 95 ad b8 3e ae 04 ac bd 8b 66 b4 3e d1 8c 81 bc
       0.36069933 -0.0839933 0.35234484 -0.015814217
000020 bd cf 65 bd 44 af 57 be
       -0.056106318 -0.21062952
