Homeworks/HW1/results/trained_models/mlp_1[2].pt (torch, 134245 bytes, 4 tensors)

fc.0.weight f4 [32, 1024]
0	0xbcae5ed1	-0.021285446
1	0xbcd22c95	-0.025656024
2	0xbc2de878	-0.010614507
3	0xbcd69432	-0.026193712
4	0x3c2cc648	0.010545321
5	0xbc599468	-0.013280012
6	0x3c602dd5	0.013682802
7	0xbce5ae04	-0.028037079
8	0xbcb30a91	-0.021855624
9	0xbb6a08e3	-0.0035710863
10	0x3a80925e	0.0009809246
11	0x3cacb5a1	0.021082701
12	0xbcb9f9ce	-0.022702124
13	0xbc2b9670	-0.010472879
14	0xbd072065	-0.03298988
15	0xbca71b06	-0.020398628
16	0xbbadeb2b	-0.005307575
17	0xbc2a1d30	-0.010382935
18	0x3c904592	0.017611299
19	0x3cb07f68	0.021545127
20	0xbc49c057	-0.012313924
21	0xbd145c1f	-0.036220666
22	0xbcef5c56	-0.029218834
23	0xbcf44e29	-0.029822426
24	0xbd577151	-0.0525983
25	0xbbf9b217	-0.007620107
26	0xbd7d008f	-0.06176811
27	0x3b535083	0.0032244034
28	0xbd74c2f5	-0.059756238
29	0xbce3d56e	-0.027811732
30	0xbd557674	-0.05211492
31	0xbcee7902	-0.029110435
32	0x3c8a80f7	0.016907198
33	0xbce92c29	-0.02846344
34	0xbcba91a1	-0.02277452
35	0x3a8ea835	0.001088387
36	0x3a339e31	0.00068518805
37	0x3b6cb348	0.0036117602
38	0xb8870f9b	-6.4402084e-05
39	0x3c88e533	0.016710853
40	0xbb194802	-0.0023388867
41	0xbbfbb4da	-0.0076814713
42	0x3c1c641e	0.009545354
43	0x3ceb2886	0.028705847
44	0xba8b7485	-0.0010639584
45	0x3b182b64	0.0023219222
46	0x3a500278	0.0007934938
47	0x3c9abfdc	0.018890314
48	0x3d708b1b	0.05872641
49	0x3d8df942	0.06932308
50	0x3ccdb7d0	0.025112063
51	0x3cfb737a	0.030694712
52	0x3c4a18cd	0.0123350145
53	0xbcbf5a80	-0.023358583
54	0xbce18bc4	-0.027532466
55	0x3c27d357	0.010243258
56	0xbb756ce4	-0.0037448937
57	0xbc0757f3	-0.008260715
58	0xbb6af15c	-0.0035849428
59	0x3b4e4dee	0.0031479555
60	0xbd370e62	-0.04469145
61	0xbd2c6682	-0.042089947
62	0x3c85cf4d	0.0163342
63	0xbd1a07ab	-0.03760497
64	0x3a72cdaf	0.00092622166
65	0x3c8b137f	0.01697707
66	0xbd1d64b9	-0.038426135
67	0xbc376980	-0.011194587
68	0x3d01eabe	0.03171801
69	0xbc946c5f	-0.018118082
70	0xbce9d9dc	-0.028546266
71	0x3bbe8863	0.0058145984
72	0xbcb70a35	-0.022343734
73	0xbc224fe5	-0.009906744
74	0x3cba2f41	0.02272761
75	0x3ccfa33e	0.025346395
76	0x3c17c564	0.00926337
77	0x3ccbe117	0.024887605
78	0x3d94fe3c	0.07275054
79	0x3d190bb2	0.03736467
80	0x3d128711	0.03577334
81	0x3da6ee06	0.08150868
82	0x3d975268	0.073887646
83	0x3c75b9bd	0.014997897
84	0x3bfcffe1	0.007720933
85	0x3c764073	0.015030014
86	0x3d001919	0.031273935
87	0x3b70b439	0.0036728515
88	0x3ca0631e	0.019578513
89	0xbbf673af	-0.007521115
90	0x3c05faf2	0.008177506
91	0x3ccf2fac	0.025291286
92	0xbcd01633	-0.02540121
93	0x3c7a87b6	0.015291145
94	0x3cbfd3dc	0.023416452
95	0x3d152baa	0.036418594
96	0x3c82b375	0.015954712
97	0x3ca11ca6	0.019666981
98	0xbd17ab3e	-0.037028544
99	0xbd196c5b	-0.03745685
100	0xbc83d728	-0.016093805
101	0xbbc3d7bc	-0.0059766453
102	0x3c770f43	0.015079322
103	0x3c1af913	0.009458798
104	0xbc93a9ed	-0.018025363
105	0x3cd3059f	0.025759516
106	0x3d3343f0	0.043765962
107	0x3c7a15ba	0.015263969
108	0xba876a0f	-0.001033129
109	0x3bb31244	0.005464824
110	0x3d362726	0.04447093
111	0x3d0a0292	0.033693857
112	0x3d383c81	0.044979576
113	0x3d8a31fa	0.067478135
114	0x3cff4f40	0.031165719
115	0x3dba4206	0.09094624
116	0x3cd3875c	0.02582138
117	0x3cef2a19	0.029194878
118	0xbbcc6df3	-0.006238693
119	0x3d3404e0	0.04394996
120	0x3cdf0436	0.027223688
121	0xbca8486e	-0.02054235
122	0xbc03588f	-0.0080167195
123	0x3c304030	0.010757491
124	0x3c85694e	0.016285565
125	0xbc7193d6	-0.0147447195
126	0x3cc793fd	0.024362558
127	0xbcaba8f9	-0.020954596
128	0xbba33bfa	-0.004981515
129	0x3ce6d4a9	0.028177576
130	0x3c4debdd	0.012568441
131	0x3c40b517	0.011761925
132	0x3c839b75	0.016065339
133	0x3a8ad658	0.0010592444
134	0xbcc88560	-0.02447766
135	0x3c625c0d	0.013815892
136	0xbce47d0b	-0.027891656
137	0x3c384aaa	0.01124827
138	0xbaa202be	-0.0012360436
139	0x3c011e07	0.007880694
140	0x3cb5ed2c	0.022207819
141	0x3d05c9f9	0.03266332
142	0x3c0a5044	0.008441988
143	0x3d53b681	0.05168772
144	0x3d822fa5	0.06356744
145	0x3cfe6609	0.031054514
146	0x3cffdb19	0.031232404
147	0x3bb619a3	0.0055572554
148	0x3cf780cc	0.030212782
149	0x3b58fd20	0.0033109859
150	0xbb0a9415	-0.0021145393
151	0x3cb12947	0.021626128
152	0x3cf6502c	0.030067526
153	0x3c0fdb3c	0.008780297
154	0x3c6e7718	0.014554761
155	0x3c5162a1	0.012779863
156	0xbcc6ed42	-0.024283055
157	0xbae02d56	-0.0017103355
158	0x3cb0e2c1	0.0215925
159	0xb9b7d72b	-0.00035064793
160	0x3c9514ff	0.018198488
161	0xbc9867eb	-0.01860424
162	0xbcc33d05	-0.023832807
163	0x3cc13aba	0.023587573
164	0xbc429e6e	-0.011878593
165	0x3ad9958b	0.0016600353
166	0x3c1bc8c6	0.009508317
167	0x3c58eeae	0.013240499
168	0xbcc2f266	-0.023797225
169	0xbc63b6f9	-0.013898605
170	0xbcb9c0e1	-0.02267498
171	0xbc87a749	-0.01655926
172	0x3ce011cd	0.027352238
173	0x3c02abbc	0.007975515
174	0x3c29fa02	0.010374548
175	0x3b3251c1	0.0027209374
176	0x3c6ec7c5	0.014573996
177	0x3cc90a3f	0.024541019
178	0xba214717	-0.0006152256
179	0x3cd7f1e9	0.026360469
180	0xbcc67b90	-0.024228841
181	0x3b81db60	0.003962919
182	0xbcecb30a	-0.028893966
183	0xbb8cff00	-0.0043028593
184	0x3cdc6e7a	0.026908148
185	0xba17d6fa	-0.0005792227
186	0x3cad73b0	0.021173328
187	0xbbfea816	-0.0077715022
188	0x3c1c384b	0.009534906
189	0xbab0234b	-0.0013438252
190	0x3b763366	0.0037567257
191	0x3d153be1	0.036434058
192	0x3cefa2d8	0.029252455
193	0xbd10ccfd	-0.035351742
194	0x3b428516	0.0029681376
195	0xbae549a8	-0.0017493265
196	0xbcdb0299	-0.026734637
197	0x3c1d4818	0.009599708
198	0xbcc4ebda	-0.024038244
199	0x3ad2bb11	0.0016077479
200	0xbd103e49	-0.03521565
201	0x3ac571c0	0.0015063807
202	0xbd283aae	-0.041071586
203	0xbc2d1ee8	-0.010566451
204	0x3cc2e0ea	0.023788888
205	0x3d1bd4da	0.038044788
206	0x3b948f4b	0.0045336834
207	0x3d3ee219	0.046602342
208	0x3d8f7f77	0.07006734
209	0x3d8b66c1	0.06806708
210	0x3c7daab7	0.015482596
211	0x3d2dd47c	0.04243897
212	0x3d1362ac	0.035982773
213	0xbcd8312a	-0.02639063
214	0xbd3fb870	-0.046806753
215	0xbc04a17a	-0.00809514
216	0x3cdf094a	0.027226109
217	0xbd235962	-0.039880164
218	0x3b48f93d	0.0030666136
219	0x3cf60320	0.030030787
220	0x3a9b8c37	0.0011867349
221	0xb92c41bd	-0.00016427688
222	0xbc4bfe51	-0.0124507705
223	0x3d2a41ec	0.041566774
224	0x3bf676d1	0.0075214882
225	0x3c2eb9d3	0.010664421
226	0xbcf31f0b	-0.029677888
227	0x3c968bb4	0.018377163
228	0xbcaeb32d	-0.021325672
229	0x3c1ca539	0.0095608765
230	0xbb8b2f84	-0.0042476077
231	0xbbfc64eb	-0.00770246
232	0x3c5b95c0	0.013402402
233	0xba536411	-0.0008063922
234	0x3b0e55a5	0.0021718529
235	0x3ce8ff57	0.028442068
236	0x3cae00b5	0.021240572
237	0x3c54e9e0	0.012995213
238	0x3d97a536	0.07404558
239	0x3d7c78d4	0.06163867
240	0x3d1e7e08	0.03869441
241	0x3d4e0e5f	0.050306674
242	0x3d80419c	0.06262514
243	0x3d1814fb	0.037129384
244	0x3d42b1c6	0.04753282
245	0x3ce6d7cf	0.028179077
246	0x3c01b1d4	0.007915933
247	0x3d0e37f0	0.034721315
248	0xbc8a97f0	-0.016918153
249	0xbb92ac12	-0.004476079
250	0xbabfa356	-0.0014620821
251	0x3d1beaf6	0.038065873
252	0x3cbf7079	0.02336906
253	0x3c7c9be2	0.015418025
254	0xbd25f794	-0.040519312
255	0xbc870313	-0.016480958

fc.0.bias f4 [32]
0	0x3e8d200f	0.2756352
1	0x3e28ebd1	0.16496207
2	0xbd9cb518	-0.076517284
3	0xbe6d97ce	-0.2320244
4	0xbcf8c689	-0.030368106
5	0xbda35c73	-0.07976618
6	0xbe4f7574	-0.20259649
7	0x3dce9bc4	0.10088304
8	0xbe3b0aca	-0.18265834
9	0x3e8ac049	0.27099827
10	0xbd9ac85c	-0.07557747
11	0x3d5b50db	0.053543907
12	0x3e2cbbf0	0.16868567
13	0xbe61ea0c	-0.22061938
14	0xbe6288ae	-0.22122452
15	0x3e9e4741	0.30913737
16	0xbe4e7b21	-0.20164157
17	0xbe5aa2da	-0.21351185
18	0xbe9426c4	-0.28935826
19	0xbc1c925c	-0.009556379
20	0xbd57dc65	-0.05270042
21	0xbdbda2cf	-0.09259569
22	0x3bcf760e	0.006331212
23	0x3df55e83	0.11980917
24	0xbe236504	-0.15956503
25	0x3d37e0a7	0.04489198
26	0x3e5b80b8	0.21435821
27	0x3e4d6530	0.20058131
28	0x3e2ea6f4	0.17055875
29	0x3e39f353	0.18159227
30	0x3e48b0c8	0.19598687
31	0xbd9072ee	-0.07053171

prediction_layer.weight f4 [10, 32]
0	0x3dd9f3d2	0.10642208
1	0x3e2d587c	0.16928285
2	0xbd58c9a0	-0.05292666
3	0xbe23bc9e	-0.1598992
4	0xbe648a5b	-0.22318403
5	0xbdb24d95	-0.08706204
6	0x3d4c4530	0.04987067
7	0x3e0a4dc6	0.1350623
8	0xbe50d5e2	-0.2039409
9	0x3cc30224	0.023804732
10	0xbe044260	-0.12915945
11	0xbe32d122	-0.1746259
12	0x3e119a5c	0.1421904
13	0x3dedf9a5	0.116198815
14	0x3ddc60f9	0.107606836
15	0xbe2dd15a	-0.16974393
16	0xbddc087c	-0.10743806
17	0xbd0a2936	-0.033730708
18	0xbc3fe4ab	-0.011712234
19	0xbd3a48ab	-0.045479458
20	0xbd29fc6d	-0.041500498
21	0x3e00995f	0.12558506
22	0x3dcb94c4	0.09940484
23	0xbdd17b79	-0.10228629
24	0xbe0cb170	-0.13739562
25	0xbd0edaab	-0.034876507
26	0x3e4fd02d	0.20294257
27	0x3e08d0e2	0.13360932
28	0xbe156c88	-0.14592183
29	0x3dd9facf	0.10643541
30	0xbd9808f6	-0.07423584
31	0x3e85841d	0.26077357
32	0xbd0a1f2f	-0.033721145
33	0x3d0c1ee9	0.034209166
34	0x3bd5c94f	0.006524242
35	0xbd110ff1	-0.035415594
36	0xbdf9c195	-0.12195126
37	0xbcbd7f94	-0.023132123
38	0x3e32ef9f	0.1747422
39	0xbc584fce	-0.013202621
40	0xbe112756	-0.14175162
41	0x3e0ae312	0.13563183
42	0xbd938e81	-0.07204915
43	0xbe1abbf8	-0.15110767
44	0xbe22c05e	-0.15893695
45	0x3d7f9777	0.062400308
46	0x3e444b98	0.19169462
47	0xbd8953ba	-0.06705423
48	0x3e891c28	0.26779294
49	0x3e3e1cce	0.18565676
50	0x3d49f439	0.049305174
51	0x3d281f66	0.04104557
52	0xbe173781	-0.14767267
53	0x3e295154	0.1653493
54	0x3ddda767	0.10822945
55	0xbe4d1daa	-0.20030847
56	0x3e07ded5	0.13268597
57	0xbd83adb4	-0.064296156
58	0xbe3f201f	-0.18664597
59	0xbdf0cd14	-0.117578655
60	0xbd811f69	-0.06304819
61	0xbdc59af3	-0.09648695
62	0xbe2ac878	-0.16678035
63	0x3e426425	0.18983515
64	0x3e2c5ef6	0.168331
65	0x3df7135d	0.1206424
66	0xbe206675	-0.15664084
67	0xbe17f56f	-0.14839719
68	0x3abda905	0.0014469927
69	0x3d9aaa43	0.07552006
70	0x3d0d458d	0.034490157
71	0xbdacd12b	-0.08438333
72	0x3e1866a2	0.14882901
73	0x3e3d9a1c	0.1851582
74	0xbe253c1f	-0.16136216
75	0xbb2d3d44	-0.0026434222
76	0xbcba50db	-0.022743633
77	0xbe1fa531	-0.1559036
78	0xbe0656f1	-0.13119103
79	0x3d533b0f	0.051569995
80	0xbe09a124	-0.13440377
81	0xbe09e39c	-0.13465732
82	0xbb1b56f2	-0.0023702946
83	0x3e084588	0.13307774
84	0xbc090fda	-0.008365596
85	0x3d872cca	0.0660034
86	0xbd104114	-0.035218313
87	0x3e26e3c5	0.16297825
88	0xbe024534	-0.12721711
89	0xbdc9b94b	-0.09849795
90	0x3ca58427	0.020204617
91	0xbc7cad0f	-0.01542212
92	0xbdaef2df	-0.08542418
93	0x3e3c8c54	0.18412906
94	0x3d146487	0.036228683
95	0xbdf2c7d0	-0.118545175
96	0xbd211033	-0.03932209
97	0xbd6f55e5	-0.058431525
98	0xbe0f60fe	-0.14001843
99	0xbe1c1caa	-0.1524531
100	0x3e47871d	0.19485135
101	0xbbe13988	-0.0068733133
102	0x3db70aac	0.089375824
103	0xbdec5f1a	-0.11541577
104	0x3e212ab0	0.1573894
105	0x3ddf62e1	0.109075315
106	0x3d8762d1	0.066106446
107	0xbc25e723	-0.010125908
108	0x3cb17d11	0.021666082
109	0xbd7a90e6	-0.061173342
110	0xbddbf0a0	-0.10739255
111	0xbd51a9fa	-0.051187493
112	0x3e14b75a	0.14523068
113	0xbe606549	-0.21913637
114	0x3de514b9	0.11185593
115	0x3e50573c	0.20345777
116	0x3ca3c796	0.01999263
117	0x3e2deb86	0.16984376
118	0x3e1c2f6e	0.15252468
119	0xbd3b42d8	-0.045718044
120	0xbcda3f57	-0.02664153
121	0xbce25c18	-0.027631804
122	0x3e04b986	0.12961397
123	0x3c39dd66	0.011344289
124	0x3e180d2d	0.14848776
125	0x3e2e1bc7	0.17002784
126	0xbcd1d38f	-0.025613574
127	0xbe6bb192	-0.23016956
128	0x3e18a4bf	0.14906596
129	0x3b73d057	0.0037203038
130	0x3cefce6e	0.029273238
131	0xbd6227ad	-0.05521362
132	0x3cf810ca	0.030281443
133	0xbe36dc15	-0.17857392
134	0xbd60928f	-0.05482727
135	0x3d6aac8c	0.05729346
136	0xbd9ddef1	-0.07708538
137	0x3e19471c	0.14968532
138	0xbe45aae5	-0.19303472
139	0x3d100a4b	0.035166066
140	0xbdd62114	-0.10455528
141	0x3da3d89a	0.08000298
142	0xbc9652c3	-0.01835001
143	0x3e0ff49c	0.14058155
144	0xbcbd96fd	-0.023143286
145	0xbe55c2ce	-0.20875093
146	0xbe683da6	-0.22679767
147	0x3cf74a75	0.030186871
148	0xbbffe352	-0.007809081
149	0xbd7ef74c	-0.06224756
150	0x3e2fe1a6	0.17175922
151	0x3c79929f	0.015232711
152	0xbd5d8fa7	-0.054092076
153	0x3e1f47a7	0.15554677
154	0x3df007a8	0.1172021
155	0x3e02f0d4	0.12787181
156	0x3d353241	0.04423738
157	0x3dd2a963	0.10286214
158	0xbd217bd0	-0.039424717
159	0x3d87f1c5	0.06637911
160	0x3df15cf5	0.11785308
161	0xbe4517c8	-0.19247353
162	0x3db76a51	0.08955825
163	0xbe430337	-0.19044195
164	0x3c09bee4	0.008407328
165	0xbda3a125	-0.0798972
166	0x3d6cc37d	0.05780362
167	0xbdba2d01	-0.09090615
168	0x3e2b6059	0.16735972
169	0x39fdfd0a	0.0004844445
170	0x3cc14518	0.023592517
171	0x3e03e29f	0.12879418
172	0x3ca4c9d9	0.02011578
173	0xbe1cde55	-0.15319188
174	0xbdcfef6d	-0.10153089
175	0xbdc0fae4	-0.094228536
176	0xbd3d4bb8	-0.04621479
177	0xbe41a010	-0.18908715
178	0x3e489dc1	0.19591428
179	0x3e2b1bd1	0.1670983
180	0x3ddf17d9	0.108932205
181	0x3e0d256a	0.13783804
182	0x3da1ccea	0.079004124
183	0x3c7703d2	0.015076594
184	0x3db25d5b	0.087092124
185	0xbc6488b5	-0.013948609
186	0x3de50933	0.11183395
187	0x3c0ccba2	0.008593472
188	0x3e2967ba	0.16543475
189	0x3e26e4ac	0.16298169
190	0xbd0c0998	-0.034188837
191	0xbe61eec7	-0.22063743
192	0x3d617870	0.0550465
193	0x3da0e8c3	0.07856896
194	0xbde04fee	-0.109527454
195	0xbe5e20aa	-0.21692148
196	0x3e1e895f	0.1548209
197	0x3d55544b	0.05208234
198	0xbe13d85a	-0.14438
199	0xbcc36f0a	-0.023856658
200	0xbdf447de	-0.1192777
201	0x3e5494a7	0.20759831
202	0x3e32890f	0.17435096
203	0xbe17aef4	-0.14812833
204	0x3db24499	0.0870449
205	0xbdc9147d	-0.09818361
206	0xbd8d6272	-0.069035426
207	0x3dc77dd5	0.097407974
208	0x3d28d9d0	0.041223347
209	0xbe23770b	-0.1596338
210	0x3c5cd3bd	0.013478217
211	0x3da99dc8	0.082820475
212	0xbe76451c	-0.240498
213	0x3d84db77	0.06487172
214	0xbe2d0ab5	-0.16898616
215	0xbe4875c3	-0.19576173
216	0x3da70dd4	0.081569344
217	0xbc041162	-0.008060785
218	0x3d332b64	0.043742552
219	0xba126e32	-0.00055858784
220	0x3e07afd3	0.13250665
221	0xbdf36171	-0.1188382
222	0x3e37c0f5	0.17944701
223	0xbe52fda4	-0.20604569
224	0xbe1e1267	-0.15436707
225	0xbcbc7a8a	-0.02300765
226	0x3e0f7203	0.14008336
227	0x3da9595f	0.08268999
228	0x3e69304a	0.22772327
229	0x3d7388f5	0.059456784
230	0xbce3e8e0	-0.027821004
231	0x3db2ea8d	0.08736143
232	0x3c9ea69a	0.019366551
233	0xbd90ba5e	-0.07066797
234	0x3b10a11e	0.002206869
235	0xbe12c633	-0.1433342
236	0xbe579fbb	-0.21057026
237	0x3d98e5c3	0.074656986
238	0xbdd6af92	-0.10482706
239	0x3db294c8	0.08719784
240	0xbc1b142e	-0.00946526
241	0xbdcca060	-0.099915266
242	0x3e5a268e	0.2130377
243	0x3d8df779	0.06931967
244	0x3e793611	0.24337031
245	0xbe03a18e	-0.12854597
246	0x3de6e204	0.11273578
247	0x3dae1df1	0.085018046
248	0xbe16fa2c	-0.1474387
249	0x3de2e7b2	0.110793486
250	0x3dc1b057	0.09457462
251	0xbd98b03a	-0.074554875
252	0xbe200d73	-0.1563013
253	0x3e41b0f3	0.18915157
254	0x3cd1a17e	0.0255897
255	0x3db01959	0.08598585

prediction_layer.bias f4 [10]
0	0x3dc2a32b	0.09503778
1	0xbe145b12	-0.14487866
2	0x3e68fbd9	0.22752322
3	0xbe5a660a	-0.21327987
4	0x3dd1639e	0.102240786
5	0xbdb9e439	-0.09076733
6	0x3dadb9e7	0.08482724
7	0x3d13802d	0.03601091
8	0xbdf1a556	-0.117991135
9	0xbdecfe0c	-0.11571893
