Homeworks/HW1/results/trained_models/mlp_1[1].pt (torch, 134245 bytes, 4 tensors)

fc.0.weight f4 [32, 1024]
000000 7b 5d 75 bc 17 7c 9b bc b2 b6 5c bb 48 83 18 bc
       -0.014975901 -0.01898007 -0.003367823 -0.009308644
000010 7f 59 e3 3c 08 16 72 39 ad 79 bb 3c aa 1a ba bc
       0.027752636 0.00023087126 0.022885168 -0.022717793
000020 0b d5 82 bc ad 04 81 bb 60 19 cc 3a b5 ba c5 3c
       -0.015970727 -0.003937325 0.0015571527 0.02413688
000030 ed 9c 9f bc 80 a6 be bb e6 3a c4 bc f6 11 01 bc
       -0.019484008 -0.005818188 -0.023953866 -0.007877817
000040 fa db 84 3b a3 0c ca bb cd d6 af 3c 6f 63 e4 3c
       0.0040545436 -0.006166057 0.02146473 0.027879445
000050 b4 ae 22 bb d9 9f f4 bc 01 08 a2 bc 08 9a bb bc
       -0.002482337 -0.029861378 -0.019779207 -0.022900596
000060 f4 80 44 bd 26 e8 41 ba 13 0c 7c bd c2 17 fc bb
       -0.04797454 -0.00073969585 -0.061534952 -0.007693262
000070 8a 6b 86 bd d6 b7 eb bc 42 9c 59 bd 3c 6b f9 bc
       -0.0656348 -0.028774183 -0.053127535 -0.030446641
000080 08 f7 78 3c 30 6c e9 bc 13 db c7 bc 7b 93 d2 3b
       0.015195616 -0.02849397 -0.024396455 0.0064262724
000090 c2 93 13 3c 07 72 43 3c c5 0d 7e 3b 92 5c 8a 3c
       0.009007396 0.011929042 0.0038765531 0.016889844
0000a0 3f af 93 3a 67 ff 31 bc 5c df 46 3b b3 6b ce 3c
       0.0011267437 -0.010864115 0.0030345535 0.02519784
0000b0 94 f3 bd bb 44 b6 93 bb b4 93 82 39 f6 38 be 3c
       -0.005796859 -0.0045078117 0.0002490558 0.02322052
0000c0 10 a4 6f 3d 90 a7 82 3d fc c9 a7 3c d9 53 06 3d
       0.05850607 0.06379616 0.020482056 0.032794807
0000d0 05 44 92 3c 8b 9c c6 bc c2 28 ae bc f4 85 80 3c
       0.0178547 -0.024244567 -0.02125967 0.015688874
0000e0 38 62 70 bb bd 7d 1c bc d2 09 58 bc d9 4b 8b bc
       -0.0036679637 -0.009551463 -0.013185935 -0.01700394
0000f0 f5 13 68 bd 81 3d 55 bd 97 11 f6 3b 31 b3 30 bd
       -0.056659658 -0.052060608 0.007509421 -0.04313964
000100 5c b2 b3 b9 54 e6 66 3c b4 02 30 bd ce e2 39 bc
       -0.0003427443 0.014093 -0.042971328 -0.011345578
000110 14 20 13 3d 86 48 6d bc 40 57 cc bc 0f 0f fc 3b
       0.035919264 -0.014482623 -0.024943948 0.007692225
000120 7e df 97 bc 3b 4d 28 bc 25 75 aa 3c fb 37 c2 3c
       -0.018539187 -0.010272319 0.020807812 0.023708334
000130 68 15 b3 3b 73 61 84 3c db a2 89 3d 47 d4 25 3d
       0.0054651983 0.016159749 0.06720515 0.040485647
000140 12 28 19 3d d4 c1 a2 3d 2a 4d 8f 3d e6 5d 88 3c
       0.03739173 0.07947126 0.0699714 0.016646337
000150 89 09 32 3c 5f fa 7f 3c 62 6b 27 3d 3f 3f 3f 3c
       0.010866531 0.015623658 0.040873893 0.011672794
000160 0d 11 cb 3c b9 9d ac bb 54 27 74 3b 1a ac 5f 3c
       0.024788404 -0.0052678254 0.0037254887 0.013651872
000170 82 15 09 bd 65 a5 ac 3b a8 99 48 3c 4e 04 dd 3c
       -0.033467777 0.00526874 0.012243666 0.026979592
000180 66 ac b4 3c 1c 44 9c 3c 0e d3 1f bd 17 ca 0f bd
       0.022054862 0.019075446 -0.039019637 -0.035104837
000190 31 8e 36 bc ee 61 a0 bb 4e 45 9b 3c 17 fa 5b 3c
       -0.0111422995 -0.0048944866 0.018953945 0.013426325
0001a0 0a 64 59 bc 2a cf 10 3d 66 ac 3c 3d 27 5b 7b 3c
       -0.01326848 0.035353817 0.04606285 0.015341557
0001b0 d5 cb 06 bb 01 af 89 ba 26 0b 10 3d f5 73 0b 3d
       -0.002056827 -0.0010504426 0.035166882 0.034046132
0001c0 4e f4 34 3d ea 08 80 3d 3e 3c c0 3c b4 1e a8 3d
       0.0441783 0.062517 0.023466226 0.08208981
0001d0 3f f0 be 3c 91 ae ed 3c b8 bf 34 3a 79 c3 4c 3d
       0.023307918 0.029013904 0.00068950234 0.049991105
0001e0 ca db 10 3d 19 b4 68 bc 1a f3 a6 bb fd fa 08 3c
       0.035365857 -0.014203095 -0.005094898 0.0083606215
0001f0 a4 bd 05 3c fe f4 c9 bc 84 e4 84 3c 2d 23 f0 bc
       0.00816289 -0.024652954 0.016222246 -0.029313648
000200 6b 61 02 3c 0c d6 07 3d 0f 2b 3d 3c 03 1e fc 3b
       0.007957797 0.033163115 0.0115459105 0.0076940074
000210 cc 6d 80 3c 1e b4 9b 3b 0c 27 6b bc 29 94 c2 3c
       0.015677355 0.0047516963 -0.014352571 0.023752289
000220 4b f0 a9 bc 2b 8f b8 3c 23 dc 13 3b e6 3f 36 3b
       -0.020744463 0.022529205 0.0022561632 0.0027809083
000230 bc f2 95 3c 8e b7 a2 3c 3b 0c 2b bc 93 5b 2e 3d
       0.018304221 0.019862916 -0.010439928 0.0425678
000240 4e 1c 59 3d c8 fb 94 3c ba e6 86 3c 2c fe f2 bb
       0.05300551 0.018186465 0.01646744 -0.0074155536
000250 9f e6 bf 3c 84 5a 27 3b 8c 51 9c 3a 0a 8a c5 3c
       0.023425398 0.002553613 0.0011926158 0.024113674
000260 c5 da 18 3d 92 fd 98 3c 85 f3 b4 3c e9 fb 45 3c
       0.03731801 0.0186756 0.022088775 0.012083986
000270 98 6b e6 bc 0e 31 d7 bb 72 dd 84 3c f0 75 d2 bb
       -0.028127477 -0.006567127 0.016218875 -0.0064227507
000280 83 0c 06 3d d8 9e 56 bc e3 af cf bc ca f5 a5 3c
       0.032726776 -0.013099395 -0.025352424 0.020258803
000290 08 a9 3e bc 42 79 f8 3b 2e 45 93 3c 7c 53 84 3c
       -0.01163698 0.0075828144 0.017977323 0.01615309
0002a0 73 af be bc 39 b9 6b bc 58 13 ba bc 8f b6 a3 bc
       -0.02327702 -0.014387422 -0.022714302 -0.019984512
0002b0 0f 16 80 3c d6 b3 55 bc 0c 40 b1 bb 1c 47 35 bb
       0.015635518 -0.0130433645 -0.0054092463 -0.0027660793
0002c0 f0 20 ba 3b 7b 4e 94 3c ba d8 3d bc 70 fa 96 3c
       0.005680196 0.018103829 -0.011587316 0.018429965
0002d0 ef 27 cb bc 1c 5c 81 3b 77 22 c5 bc 86 64 71 3a
       -0.024799315 0.003947748 -0.024064286 0.00092083996
0002e0 92 20 27 3d c5 64 b7 3c cf a1 10 3d 85 fc b4 bb
       0.040802546 0.022386918 0.035310563 -0.0055232667
0002f0 30 6d 43 3c 7f 30 af b9 73 bc a9 3b 83 fd 0e 3d
       0.011927888 -0.00033414733 0.0051799356 0.034909736
000300 bb 1f 13 3d 47 ba 1a bd 7e 8c 0c b8 31 c4 48 b9
       0.035918932 -0.037775304 -3.3509445e-05 -0.00019146573
000310 91 f4 99 bc 92 c8 ae 3c 4a 75 60 bc 73 7e 0e 3b
       -0.018793376 0.021335874 -0.013699839 0.002174285
000320 36 0d 1d bd 17 c6 c4 ba 60 f8 36 bd bc e6 6c bc
       -0.038342677 -0.0015012649 -0.044670463 -0.014459308
000330 e0 d5 58 3c 8c 62 c1 3c 85 be fd 3a ec fc 37 3d
       0.0132345855 0.023606561 0.0019359147 0.04491894
000340 7d cd 7c 3d 3f 72 7b 3d e1 81 fa 3b 94 aa 0f 3d
       0.061719406 0.06138825 0.0076448773 0.035074785
000350 e7 fe fa 3c 88 81 d2 bc bd 1a 44 bd 55 95 38 bc
       0.030639125 -0.025696531 -0.047877062 -0.011266072
000360 0c de 0f 3d 25 1f 96 bc 4c cb 9b 3c 5a af d1 3c
       0.03512387 -0.018325398 0.019017838 0.02559631
000370 89 92 96 bb cf 24 b2 bb b3 a9 61 bc 5b 86 2a 3d
       -0.004595105 -0.005436517 -0.01377337 0.041632038
000380 2e 95 8d 3c 79 7c 19 3c 72 6f 12 bd 4a 07 86 3c
       0.017283048 0.0093680555 -0.035750814 0.016360898
000390 d1 ec 84 bc fa 88 c9 3c bd b5 8a 3c 8c 46 15 3c
       -0.016226204 0.024601448 0.016932363 0.009111058
0003a0 60 19 d3 3c 36 bb c3 3b 07 b7 23 3c e5 13 c0 3c
       0.025768936 0.005973245 0.009992368 0.023446986
0003b0 b1 04 68 3c aa a5 c7 3b 96 62 8c 3d c7 bf 59 3d
       0.014161275 0.0060927467 0.06854741 0.05316141
0003c0 44 e9 b4 3c 3f d6 f8 3c 28 33 41 3d 36 09 e5 3c
       0.022083886 0.030375598 0.047167927 0.027958494
0003d0 7e 57 2e 3d 2e 57 e2 3c a5 f6 7a b9 d6 c1 c4 3c
       0.042563908 0.027629461 -0.0002393374 0.02401821
0003e0 e8 b4 40 bc d5 b7 05 3c cf 86 d2 3b 52 3e e7 3c
       -0.011761881 0.008161505 0.006424762 0.028227959
0003f0 87 9f 3b 3c 26 40 25 3c 9f 47 2d bd e7 5b ce bb
       0.0114516085 0.010086095 -0.04230463 -0.0062975767

fc.0.bias f4 [32]
000000 71 30 85 3e 38 cd 1a 3e 3a c3 0c be 58 e8 89 be
       0.2601352 0.15117347 -0.13746348 -0.26935077
000010 85 f5 0b bd 3d 25 64 bd 11 f1 2e be 50 6b 5e 3d
       -0.034169693 -0.055699576 -0.17084147 0.05430156
000020 bb 19 11 be 30 0c 82 3e 15 f6 82 3d 5b e3 83 3d
       -0.14169972 0.25399923 0.06394593 0.06439849
000030 8d 9f 34 3e 39 2a 69 be 94 a9 55 be be a4 ac 3e
       0.17638989 -0.22770013 -0.2086547 0.33719438
000040 3c c4 6b be fd d7 52 be d7 6a 71 be 66 03 21 bc
       -0.23024076 -0.20590205 -0.23575912 -0.00982747
000050 49 6c ca bc a9 eb e2 bd 55 36 01 bc 85 19 fb 3d
       -0.024709838 -0.11080105 -0.007886489 0.12260727
000060 21 4c a8 bd 43 8d 56 3c 84 7c 36 3e 5c 50 14 3e
       -0.082176454 0.013095203 0.17820936 0.1448378
000070 a0 d3 19 3e 6e 0a 24 3e ec 87 25 3e 1e b7 8f bd
       0.15022135 0.16019604 0.16165131 -0.07017349

prediction_layer.weight f4 [10, 32]
000000 13 21 00 3e 24 af 4d 3e b8 cb cd 3c fb 14 c4 bd
       0.12512617 0.20086342 0.025121555 -0.09574314
000010 45 6e 78 be ed 55 c5 bd 92 e0 a0 3d b5 ee 36 3e
       -0.24260814 -0.0963553 0.078553334 0.17864497
000020 cb 0d 47 be 43 b9 da 3c be 24 bb bd 3a 3b 28 be
       -0.19438855 0.026699668 -0.091378674 -0.16428843
000030 37 35 2f 3e f4 6d 1c 3e 57 a1 95 3d e7 13 25 be
       0.17110144 0.15276319 0.07306164 -0.16120873
000040 41 a9 e4 bd 48 b0 3f bd 58 6a e6 ba f5 2d 8f bd
       -0.11165095 -0.046798974 -0.00175793 -0.069911875
000050 8b 80 a3 bd a1 30 ab 3d 48 df 44 3e 68 14 02 be
       -0.07983502 0.083588846 0.192258 -0.12703097
000060 4c 1a 77 be 33 78 a7 bb aa 3a 2e 3e 28 d9 1f 3e
       -0.24131125 -0.0051107644 0.17014566 0.15610182
000070 ba 45 0d be aa c7 a8 3d 65 ad 99 bd 13 7a 62 3e
       -0.1379613 0.08241208 -0.075037755 0.2211688
000080 24 4d 8f bd c3 a3 8a 3c ad b9 36 bd 8d 76 54 3b
       -0.06997135 0.01692379 -0.044610668 0.0032419295
000090 fd d8 a6 bd 10 6f 51 bc 16 de 0f 3e 81 ae 69 3d
       -0.08146856 -0.012782827 0.14049563 0.057051186
0000a0 8e eb 0c be 49 33 f6 3d 66 f9 1a be e7 54 dc bd
       -0.13761732 0.120215006 -0.151342 -0.10758381
0000b0 cd 86 f3 bd 43 5f aa 3d 84 f2 1f 3e 5c 15 59 bd
       -0.118909456 0.08318951 0.15619856 -0.052998886
0000c0 23 14 94 3e 78 70 46 3e 37 e6 48 3d 77 f4 99 3d
       0.28921613 0.19378841 0.049047675 0.07517331
0000d0 3e 60 32 be df bc 25 3e 29 b6 1e 3d 67 c7 de bd
       -0.17419526 0.1618533 0.03874794 -0.10877877
0000e0 b5 ef 85 3d 60 27 cc bd c3 7a 5c be a8 00 4a bd
       0.06539861 -0.09968448 -0.21531205 -0.049317032
0000f0 0c e3 e6 3c c7 86 0a be dd 50 14 be cb 3b 4b 3e
       0.028184436 -0.13527976 -0.14483972 0.19847028
000100 e0 a8 1e 3e 3b 40 d9 3d de 23 24 be 89 5a 3a be
       0.15494108 0.10607954 -0.16029307 -0.18198599
000110 88 ed 8d bc 0d eb ac 3d fe 03 9c 3c 23 b3 ad bd
       -0.017325178 0.0844327 0.019044872 -0.08481433
000120 56 17 0a 3e d0 ec 3d 3e f9 5f fc bd 22 79 f3 bc
       0.13485464 0.18547368 -0.12322993 -0.029720847
000130 54 9d 14 bc e2 e0 eb bd 8f 03 c9 bd e2 e3 42 3d
       -0.009070713 -0.11517502 -0.09815132 0.047580607
000140 5b 5b 52 be 55 0a 02 be 6c 0c ed 3d 87 f5 a1 3d
       -0.20542662 -0.12699254 0.11574635 0.07908159
000150 f4 9f 17 3c 63 34 c9 3d c4 47 46 bc 46 a2 2d 3e
       0.009254444 0.09824445 -0.012102071 0.16956434
000160 4a 7a b2 bd bf 80 e8 bd 38 06 8c bc e0 52 0a bc
       -0.08714731 -0.11352681 -0.01709281 -0.0084426105
000170 80 e1 a3 bd 4f 2f 56 3e 3c a2 af 3d 3f 16 17 be
       -0.08001995 0.20916484 0.085758656 -0.1475458
000180 07 18 08 bd a0 87 54 bd 2f bb ff bd 21 7c 32 be
       -0.03322604 -0.051887155 -0.12486874 -0.17430164
000190 25 4f 45 3e 0b 63 a8 3b 0a 77 04 3e c4 77 03 be
       0.19268472 0.00513876 0.12936035 -0.12838656
0001a0 40 ed 47 3e 4e 50 df 3d 16 75 37 bc 20 dc 58 bd
       0.19524097 0.10903989 -0.011197349 -0.052944303
0001b0 ef 99 fe 3c 75 22 e6 bc 89 4d da bd 6d 22 a1 bd
       0.03107926 -0.028092602 -0.1065932 -0.07867894
0001c0 ed 2a b0 3d 8f 33 50 be 42 91 0e 3e e7 b5 44 3e
       0.086019374 -0.20332168 0.13922599 0.19210015
0001d0 04 74 02 3c 73 3b 21 3e d4 d5 0b 3e 2d 57 ac bd
       0.007962231 0.15745334 0.13655788 -0.08415065
0001e0 2c 51 5b 3d cd 9f c2 bc 36 fd 1c 3e b6 75 23 3d
       0.05354421 -0.02375784 0.15330967 0.03990718
0001f0 92 d3 14 3e 5f 54 50 3e 17 72 4f 3c 2b b7 5d be
       0.14533833 0.20344685 0.0126614785 -0.21651904
000200 e2 35 15 3e 80 a9 bc 3b be 46 4d bb eb 5c 88 bd
       0.14571336 0.0057575107 -0.0031322683 -0.06658348
000210 2b 10 f0 3c 50 8c 3f be f0 25 90 bd 57 d6 7f bc
       0.029304584 -0.18705869 -0.07038486 -0.015615067
000220 12 fc 9a bd 06 c9 30 3e a0 34 54 be 4b 48 06 3d
       -0.0756761 0.17264184 -0.207232 0.032783788
000230 8d 60 c8 bd 20 9b 26 3d d7 6a 52 3c 97 a7 26 3e
       -0.097840406 0.040675282 0.012842855 0.16274868
000240 69 5f 82 bd 62 57 5a be 88 39 5a be 46 4e fa bb
       -0.06365854 -0.21322396 -0.21311009 -0.0076387255
000250 20 6e 47 bc d8 70 f4 bb 7b da ef 3d ef 3c 8b 3c
       -0.012172252 -0.007459741 0.11711594 0.016996829
000260 77 3f c0 bb 70 e9 16 3e ce 80 10 3e d0 e0 a8 3d
       -0.0058669406 0.14737487 0.14111635 0.082460046
000270 51 82 62 3d 52 fa 05 3e 6d f1 bf bd 5e 0d 9b 3d
       0.05530006 0.13083771 -0.0937222 0.07570909
000280 03 65 1e 3e 37 1b 4b be 90 b7 d0 3d eb 27 55 be
       0.1546822 -0.198346 0.10191262 -0.20816009
000290 9a ea a5 3b da 4e 5d bd da cb 9d 3d ec 2f 05 be
       0.005063367 -0.054030277 0.07704897 -0.13006562
0002a0 2d 9a 11 3e f1 a4 fe 3c 27 ee 37 3d 46 01 ff 3d
       0.1421897 0.03108451 0.044904854 0.12451415
0002b0 aa 7b ab 3c d8 25 01 be a5 ab ec bd b9 97 8d bd
       0.020932991 -0.12612092 -0.11556176 -0.069137044
0002c0 2f 52 f9 3c 63 c4 22 be 5b ec 38 3e f7 fb 3b 3e
       0.030434696 -0.15895228 0.18058912 0.18357836
0002d0 f2 ba b1 3d 3b d8 eb 3d ce c3 b5 3d 26 24 21 bd
       0.08678235 0.11515852 0.088752374 -0.039341114
0002e0 d7 1b ad 3d 7d 9e 83 bc d6 d6 3b 3e 61 38 71 3c
       0.08452576 -0.016066784 0.18343672 0.014722914
0002f0 04 04 0e 3e 46 e1 35 3e be 4b f2 bc f6 97 60 be
       0.1386872 0.17761716 -0.029577132 -0.21932968
000300 73 66 41 3d 3a d3 17 3d f8 77 a1 bd b2 90 5d be
       0.047216844 0.037066676 -0.0788421 -0.21637228
000310 6e e9 35 3e 40 4d ac 3d 4b b2 ff bd 3b e3 d7 bd
       0.17764828 0.08413172 -0.124851786 -0.10541388
000320 cb 16 ec bd 36 c3 33 3e ce 77 5e 3e f4 78 f2 bd
       -0.11527785 0.17554936 0.2172539 -0.11839476
000330 87 62 41 3d 23 13 aa bd bf 5f 76 bd 5d 45 87 3d
       0.047213104 -0.08304431 -0.060149904 0.06605027
000340 6d 71 e7 3d 29 4f 50 be 83 fb 8b bd e6 1f 2d 3e
       0.11300931 -0.20342697 -0.068350814 0.169067
000350 ca e9 58 be f1 96 65 3d 1a 4d 1d be fb 7b 48 be
       -0.21182933 0.056052152 -0.15361443 -0.19578545
000360 f6 56 42 3d b5 96 a1 bd 9a 36 af 3d 1b bc 74 3c
       0.047446214 -0.07890073 0.08555336 0.014937426
000370 f2 ba f7 3d 56 1c 0f be ea 8d 4e 3e 82 0a 1f be
       0.12096204 -0.13975653 0.20171323 -0.15531352
000380 4d 81 14 be 3b a7 32 bd 03 de 27 3e a4 e2 a9 3d
       -0.1450245 -0.043616515 0.16393284 0.082951814
000390 f0 21 50 3e d3 e8 97 3c 0c af 69 bd 59 7a f3 3d
       0.20325446 0.018543636 -0.057051703 0.1188857
0003a0 f6 26 19 3c c5 59 a2 bd 72 d1 81 3d d8 fc e7 bd
       0.009347668 -0.079272784 0.06338777 -0.11327523
0003b0 7e 32 7d be da 4c 23 bd 95 b3 b6 bd 1b b3 e5 3d
       -0.24726292 -0.039868213 -0.08920971 0.11215802
0003c0 4d 47 9e bd ef 7a 0e be 3f 70 00 3e 03 f6 ad 3d
       -0.07728443 -0.13914083 0.12542818 0.08494189
0003d0 a6 ad 61 3e 41 aa ef bd a8 bb 47 3e 50 78 9f 3d
       0.22038898 -0.11702395 0.19505179 0.0778662
0003e0 24 b2 72 bd c5 72 df 3d aa 74 cb 3d ab 7d bf bd
       -0.05925192 0.109105624 0.09934361 -0.09350141
0003f0 ac 09 59 be f7 3d 1c 3e 5d 1f 88 bc a3 e5 3b 3e
       -0.21195096 0.15258013 -0.016616518 0.18349318

prediction_layer.bias f4 [10]
000000 3f 1c a0 3d a9 9d 1f be 71 0c 6c 3e b1 35 49 be
       0.078178875 -0.15587486 0.23051621 -0.19649388
000010 39 5e cb 3d 8a 1d a5 bd c0 22 a3 3d f8 a4 02 3d
       0.09930081 -0.08062275 0.079656124 0.031895608
000020 7b 22 f1 bd e1 8d df bd
       -0.11774155 -0.10915733
