Homeworks/HW1/results/trained_models/mlp_1[0].pt (torch, 134245 bytes, 4 tensors)

fc.0.weight f4 [32, 1024]
000000 e1 18 11 be a7 13 b5 bd 19 0e a2 bd 7a 97 19 bd
       -0.14169647 -0.08841639 -0.07912845 -0.037497975
000010 67 df a3 3c 49 38 89 3d 68 89 28 bd c4 49 e3 bd
       0.020003987 0.06700189 -0.041146666 -0.11098054
000020 7b e5 02 be 91 06 ee 3c 95 0a 0d 3b 51 8a 79 3d
       -0.12782852 0.029055865 0.00215212 0.060922924
000030 cf f2 5f 3e 5a 69 f1 3d fb 8f 91 3d e2 a6 6e bd
       0.21869968 0.11787672 0.0710754 -0.05826462
000040 bf 4e 43 be 7c e7 1d be 06 a6 ae bd 19 68 01 bd
       -0.19073008 -0.15420336 -0.0852776 -0.031593416
000050 bb a7 55 3c 12 d5 0c 3d 50 dd 08 3d 25 49 77 3d
       0.013040478 0.034382887 0.033414185 0.06037249
000060 55 9c 8e 3d f4 9b fc 3b 0b d9 8b 3b 10 6c 21 3c
       0.06963412 0.0077090207 0.004267817 0.009852424
000070 3e 4f 19 bb 38 94 5a 3d 7d 50 8a 3c ab d3 ee bc
       -0.002339318 0.05336401 0.016884083 -0.029153666
000080 f7 1f 82 bd 4e f8 b9 bc b9 7c eb bd 3c a0 83 bd
       -0.06353753 -0.022701409 -0.11498398 -0.06427047
000090 5a 40 98 3c f9 21 94 3d c8 bd a4 3c 89 ea 90 bc
       0.018585373 0.07233042 0.020110026 -0.01768996
0000a0 68 79 06 3c 2f dc 0c 3e cd 18 95 3d 03 bc fe 3d
       0.008207656 0.13755868 0.07280121 0.12438204
0000b0 48 ed 91 3e c2 78 1f 3e c4 2a 81 3d 7f 40 78 bd
       0.28501344 0.15573409 0.06306985 -0.060608383
0000c0 7e f4 28 be 27 62 32 be e9 95 f7 bd b7 57 55 bd
       -0.16499516 -0.17420255 -0.1208914 -0.052085605
0000d0 68 50 d3 3d ee 1c 1f 3e 2d 3a ee 3c 6b d5 b4 bd
       0.10318071 0.1553838 0.029080475 -0.08829769
0000e0 33 31 da bd b4 24 45 bc e6 e6 38 bc c2 42 ad bd
       -0.10653915 -0.0120326765 -0.011285519 -0.08459999
0000f0 ee d6 aa bd 58 6e 12 bb 20 c2 d1 3c 89 4b de bc
       -0.08341776 -0.0022343602 0.025605261 -0.027135627
000100 cc d1 ba bd f2 e4 95 b9 eb 36 03 be a5 4b c5 bd
       -0.09122047 -0.00028590072 -0.12813918 -0.09633569
000110 00 1a 8c bd 47 8c ab bc 95 0b 61 3d 23 5c 8d 3c
       -0.068408966 -0.020940913 0.054942686 0.017255848
000120 46 fa 9f 3d c9 a3 2e 3e 34 fd 1c 3d 73 5f f7 3d
       0.07811408 0.17054667 0.03832741 0.12078752
000130 07 57 0d 3e 0f 22 b8 bc c7 98 6c bd a0 f4 1e be
       0.1380273 -0.022477178 -0.057762887 -0.15523005
000140 a0 20 58 be 37 a0 0f be 44 39 87 bd 57 50 87 3d
       -0.21106195 -0.14025961 -0.066027194 0.066071205
000150 29 ac bb 3d d1 c0 eb 3d 07 48 c7 3d 57 57 09 bd
       0.09163696 0.11511386 0.09730535 -0.03353056
000160 97 79 e7 bd 92 00 01 be ec 5b 1b bd 0c 34 1a be
       -0.11302488 -0.12597874 -0.03792946 -0.15058917
000170 bd 7b 48 bd 26 f3 63 3d 48 ab 87 3d f5 8c 15 bc
       -0.04894613 0.055651806 0.06624466 -0.009127845
000180 cf f3 c3 bd a8 63 34 3d cb ec b9 bc 3a 02 3c 3d
       -0.09567987 0.044040352 -0.02269592 0.04590056
000190 ad a9 30 3d f0 41 de 3d 5a 9e 7e 3d 5e 3c aa 3c
       0.043130565 0.1085242 0.062162735 0.020780738
0001a0 73 b4 b5 3d e4 b1 23 3e 0b 57 5f 3c 76 df 72 3d
       0.088723086 0.15985829 0.0136315925 0.05929514
0001b0 0c 73 57 3d 28 d5 11 bd 7d 3d 8d bd 94 35 30 be
       0.05259995 -0.035603672 -0.068964936 -0.17207938
0001c0 8a 31 1a be ef 52 b8 bd ed 08 de 3b 03 69 08 3d
       -0.1505796 -0.09000193 0.0067759664 0.033303272
0001d0 77 23 d3 3d 17 a0 bf 3d fe 40 ae 3d 73 45 e3 3d
       0.10309499 0.093567066 0.0850849 0.11097231
0001e0 cb 27 83 bd ff e9 08 be 1f de b5 b8 b8 63 67 bc
       -0.06404074 -0.13370512 -8.672126e-05 -0.014122896
0001f0 a2 91 93 3d 0b 12 79 3d 22 de a1 bb 10 04 09 3c
       0.07205512 0.060808223 -0.0049398104 0.008362785
000200 c1 9c 22 be 0d 28 32 bd 5c 9c be bc dd 4d e3 3a
       -0.1588011 -0.043495227 -0.023267917 0.0017341931
000210 f0 b1 9f 3d f7 66 8d 3d 23 56 99 3d ec 20 b6 3d
       0.07797611 0.069044046 0.074871324 0.08892998
000220 6b e5 ec 3d 5a 7a db 3d b3 4d 6a 3c 06 8f 8a bd
       0.115671955 0.10716696 0.0143007515 -0.06765561
000230 36 83 8c 3c 0f bf 15 3c 2a 48 35 be b6 d3 5b be
       0.01715241 0.00913979 -0.1770331 -0.2146748
000240 bc 47 0e be ff 1f ab bd b4 01 0b 3d 0d 0a 78 3d
       -0.13894552 -0.08355712 0.03393717 0.06055646
000250 1a 76 65 bd 54 4d 21 bd fd a9 4c 3d 70 be ad 3d
       -0.056020834 -0.039380386 0.0499668 0.08483589
000260 c0 2b 1a 3d d2 de 20 3d 4f b4 10 3d 6f 90 ff bc
       0.03763938 0.039274998 0.035328206 -0.031196801
000270 8d d3 be 3d 3f 0b 2f 3d f6 28 9a 3b eb be 00 3d
       0.09317694 0.042735334 0.00470459 0.031432074
000280 0b 82 7f be c5 0a 11 be b9 ec fb bd 42 b1 81 bc
       -0.24951951 -0.14164265 -0.12301011 -0.015831593
000290 c1 da bc 3c 00 73 04 bc e0 b3 37 3d 63 4f 02 3e
       0.023053529 -0.008084059 0.044849277 0.12725596
0002a0 05 e4 b4 3d 0f 98 82 3d a3 1c cb 3d 98 80 41 bc
       0.08832554 0.06376659 0.099175714 -0.011810444
0002b0 07 94 35 bd 9c b1 11 be e7 09 6e be 61 62 80 be
       -0.044330623 -0.14227909 -0.23245965 -0.25075057
0002c0 64 95 54 be a5 c8 28 be 41 ad 95 3d 3a f2 5c 3d
       -0.20760113 -0.1648279 0.07308436 0.053941943
0002d0 9a ff 63 bd 39 01 1e bd f1 54 b9 bc ca 39 94 3d
       -0.055663683 -0.038575385 -0.022623511 0.07237585
0002e0 f2 a3 a1 3d 81 41 98 bd 5f 5c cb bc 8e a7 5c 3c
       0.07892598 -0.07434369 -0.02482432 0.0134676825
0002f0 e4 c4 e6 3c 00 d5 17 3d 73 7d 83 3c d9 3d 46 3a
       0.028170057 0.037068367 0.01605103 0.00075623166
000300 4d 02 a9 bd 21 86 37 3d 54 43 d7 3d 48 1c 22 3e
       -0.08252392 0.04480565 0.10510889 0.15831101
000310 5e 62 9d 3d bb 04 b5 3c 66 31 1c 3e 62 4c 4a 3e
       0.07684778 0.022096982 0.15253219 0.197557
000320 24 1f 6b 3d 7f 7c 3a 3d dd 7b f8 3d 37 95 b1 3d
       0.057402745 0.045528885 0.12133 0.086710386
000330 c5 4b 87 3d c0 26 df bc 1d d2 57 bd 51 3a 3c be
       0.06606249 -0.027240157 -0.052690614 -0.18381621
000340 7f c3 2a be 60 f8 13 be 17 7e 99 bb bb c2 f9 bd
       -0.16676138 -0.14450216 -0.0046842205 -0.12195345
000350 39 d7 0d be a8 61 cd bd 75 cf 3b bd 9e 22 84 3c
       -0.13851632 -0.10028392 -0.045852143 0.016129788
000360 82 8e 85 3d 9f a0 9c bd e0 50 1c 3d c4 d6 d2 3c
       0.06521322 -0.076478235 0.038163066 0.025737174
000370 28 69 cf bc 18 48 ff 3c 44 81 aa bc 9b 07 ca bd
       -0.025318697 0.031162307 -0.020813592 -0.09864732
000380 59 c0 e2 bd 59 81 9a bc ee e0 8d 3d 48 d8 35 3e
       -0.11071844 -0.018860506 0.069276676 0.17758286
000390 0e 5a a7 3d fb e0 23 3e 57 1e 41 3e a3 ce 35 3e
       0.081714734 0.16003792 0.1885923 0.17754607
0003a0 7c 22 be 3b 49 60 04 bd c7 98 b2 bb 49 ae e5 3c
       0.0058024507 -0.032318387 -0.0054503414 0.028037207
0003b0 5b dd 4f 3d 7b 37 3d 3d ed 3f 89 bd 39 44 5f be
       0.05074821 0.04619549 -0.06701646 -0.21803369
0003c0 75 9f 42 be c3 3a 32 be 3b f5 04 be 7e b5 ef bd
       -0.1900614 -0.17405228 -0.12984173 -0.11704539
0003d0 05 c3 3f be 0a 2a 5c bd 10 de 61 3d 88 8b ce 3c
       -0.18726738 -0.05375103 0.055143416 0.025213018
0003e0 51 22 b3 3d 4d a6 11 bc b1 4d 78 3d fe 16 d1 3c
       0.0874678 -0.008889747 0.060620967 0.025523659
0003f0 f9 2c 38 3d 8b 7b 44 3d e6 c0 18 bc be 83 c8 bd
       0.044964764 0.047969382 -0.009323334 -0.09790753

fc.0.bias f4 [32]
000000 e5 d5 0c bf 5f c2 71 3d da ce 8d bf d0 5f f2 be
       -0.5501388 0.059023257 -1.1078751 -0.47338724
000010 e0 2c b6 be ff 11 2c bd b1 12 1c bf 21 ee 12 be
       -0.35581112 -0.04200935 -0.6096602 -0.14348651
000020 47 e5 6a 3f 54 e6 5c 3f 21 71 fc be e1 a3 11 3f
       0.917561 0.8628895 -0.4930506 0.56890684
000030 08 6c 38 be d1 6d 2d 3f 33 c1 3d 3f 25 6f 35 3e
       -0.1800996 0.6774569 0.74122924 0.1771818
000040 7d 6e d5 3f 77 d7 e0 be e8 a6 de be 16 81 2a 3e
       1.6674343 -0.43914387 -0.43486714 0.16650805
000050 4f 2d 0f be 10 74 63 be c1 d0 2b bf 43 e9 d0 3e
       -0.13982128 -0.22212243 -0.6711541 0.40802965
000060 75 d0 25 bf 76 30 cf be 57 6b af be 56 d4 0f 3c
       -0.64771205 -0.4046666 -0.3426158 0.008778652
000070 63 be 2e bf 74 15 1e 3d 66 e4 11 be 73 80 47 bf
       -0.6825926 0.038594678 -0.14247283 -0.7793037

prediction_layer.weight f4 [10, 32]
000000 d9 99 48 3c 98 8e a5 3d 66 bb a8 3d b3 5e 95 be
       0.012243711 0.08083838 0.082388684 -0.29173812
000010 42 58 24 3d c0 c4 20 be de 9e b3 bd ae af 75 3e
       0.04012323 -0.15700054 -0.08770536 0.23992798
000020 50 8b 33 3e 64 7a 35 3e 21 37 d4 bd 1c da 15 bd
       0.17533612 0.1772247 -0.103620775 -0.03658496
000030 b2 af 6d 3e 3a 6c 57 3d 52 82 ea bd f8 78 94 3d
       0.23211554 0.052593447 -0.11450638 0.072496355
000040 e7 7b c7 3d 91 ee e9 bd 7e f6 66 3e fb ef 52 be
       0.09740429 -0.11422456 0.22554967 -0.20599358
000050 f4 1a 14 be 47 8a 0e be de 9a c0 bd 56 b1 f1 bd
       -0.14463407 -0.13919936 -0.094045386 -0.11801402
000060 de 86 1f be af f0 ef bb 1a ce 21 3e 61 4a 43 be
       -0.15578791 -0.007322393 0.15801278 -0.19071342
000070 33 53 97 be e9 3e 11 be 2d a5 71 be eb 83 0e 3e
       -0.29555663 -0.14184155 -0.23598166 0.1391751
000080 6a 6d 39 3e 8d c8 bc bd d1 b7 83 3e bb 3e 76 3e
       0.18108144 -0.092179395 0.25726178 0.24047367
000090 29 67 a4 bd 4a 8e bf bd 9c 27 9d 3e ff 98 0e 3e
       -0.08027489 -0.09353311 0.30694282 0.13925551
0000a0 f9 cd df bd f3 0c 8f 3c f9 a6 f5 3d 85 56 4e be
       -0.10927958 0.01746223 0.11994738 -0.20150192
0000b0 df 5e 8c 3c b2 02 90 3c 55 87 c5 be 72 79 9a bd
       0.017135082 0.01757941 -0.38579813 -0.07542695
0000c0 30 2c 53 be 27 c2 1d be e9 5b 93 3d fa cd 85 3e
       -0.20622325 -0.15406094 0.07195265 0.2613371
0000d0 54 41 4a be 82 f0 2b 3d 3e ed de 3d 76 81 1b be
       -0.19751483 0.041977413 0.10885094 -0.15186104
0000e0 c0 75 eb 3a 7e 5a b5 3e e7 f1 a2 3d 30 c1 44 bd
       0.0017964169 0.35420603 0.079562955 -0.0480358
0000f0 25 2f 5d 3e 06 73 a8 be 4a 0f 02 bd 46 cf 8f 3e
       0.21600015 -0.32900256 -0.031752862 0.28087825
000100 50 f0 73 3d 44 fe 02 3d 96 27 32 be a4 e5 6c be
       0.05955535 0.031980768 -0.17397913 -0.23134476
000110 ff dc 2f bd 76 48 81 bc 9e 72 3b be 22 5f 3c bd
       -0.042935368 -0.015781622 -0.18305442 -0.045989163
000120 f8 28 3f 3d e8 68 b1 3c 34 55 62 be d8 5e 08 3b
       0.04666993 0.021656469 -0.22102815 0.0020808484
000130 5b ad 66 3d 74 40 86 3c 06 97 2d 3e aa e0 4b bd
       0.05631767 0.016388156 0.16952142 -0.049774803
000140 50 11 d5 3c fa 64 2f 3e 22 a9 7b bd 39 46 3a 3d
       0.026009232 0.17128363 -0.061440594 0.045477126
000150 b0 1f 1d be d9 25 68 be 33 5f 85 be 3d 78 18 3e
       -0.15344119 -0.22670688 -0.26049194 0.14889617
000160 65 66 d0 bd 61 46 12 be e9 8a 28 be 4b b8 34 bd
       -0.1017578 -0.1428466 -0.1645924 -0.044121068
000170 08 78 40 bc ce 1a 07 3e 83 3b e5 3d 42 77 c2 3c
       -0.011747368 0.13193819 0.111929916 0.023738507
000180 01 07 bc 3c 2b b6 27 bd 55 94 5b be b5 20 7e 3c
       0.022952558 -0.040945213 -0.21443303 0.015510728
000190 aa d6 bc bb 54 7b 16 3e 45 85 96 bd b3 27 19 be
       -0.0057628946 0.14695483 -0.07349638 -0.1495655
0001a0 ee dc cc 3b 20 d9 1a be 45 85 cc bc a7 36 ad 3d
       0.006251923 -0.15121889 -0.024965892 0.0845769
0001b0 dc ba a5 3c 21 e2 75 bc cb 8b c1 3d 58 06 66 be
       0.020230703 -0.015007527 0.094504915 -0.22463357
0001c0 0a 08 9f 3c 04 7f 07 3e 39 21 c2 bd 87 11 f8 bb
       0.019413013 0.13232046 -0.09478993 -0.007570449
0001d0 69 66 07 3e f5 92 8a bd 2d 76 8d bd 3c 6c 25 3e
       0.1322266 -0.06766311 -0.06907306 0.1615457
0001e0 61 1d aa 3d 70 35 fd 3b bd 58 85 be 39 ac 00 3e
       0.08306385 0.0077273175 -0.26044264 0.12565698
0001f0 ac 57 d7 3d a7 31 cd 3d 60 03 4b 3e aa f7 24 3d
       0.10514769 0.10019236 0.19825506 0.040275253
000200 ed f9 84 be ff c7 cd bc 81 55 a9 bd 3d 26 06 be
       -0.25971928 -0.02511978 -0.08268262 -0.13100524
000210 e9 b2 38 3d 25 5d 89 3b cc 1c 64 be 7e b7 48 3d
       0.045092497 0.004192012 -0.2227661 0.049003117
000220 7a 4c 37 bd 30 b7 de 3c 52 e6 7a 3d 50 af 9d bd
       -0.044750668 0.02718696 0.061254807 -0.07699454
000230 0a 04 9a 3d 01 50 dd bc 2c 6f 46 3d 67 4f 80 bd
       0.07520302 -0.027015688 0.048445866 -0.06265145
000240 36 21 b2 3d 1b e3 b3 bc a3 fe cb bc ec 72 6b bd
       0.08697741 -0.021958878 -0.024901694 -0.057482645
000250 12 d3 5e be b1 46 db 3c 2b b4 ba bd ac 4d 4b 3e
       -0.21760204 0.026767107 -0.091163956 0.19853848
000260 6b 93 74 bd fd a4 4f be d4 0a 43 be 11 a7 0a be
       -0.0597109 -0.20277782 -0.190471 -0.13540293
000270 1b 09 5c be 4b d8 da 3c 3c 2e 0c 3d b3 20 c5 bc
       -0.21487848 0.026714465 0.03422378 -0.024063444
000280 0b fd 11 3e 53 b2 11 3e 0e da c6 bd 71 87 02 3e
       0.14256684 0.14228182 -0.097095594 0.1274698
000290 01 62 a8 bd d3 6d 5f 3d 1e 97 10 be ff 1e 14 be
       -0.08221818 0.054548096 -0.14120147 -0.14464949
0002a0 85 30 52 bd 1d 74 44 be 00 c7 27 bd 1c 6a 27 3e
       -0.051315803 -0.19184919 -0.040961266 0.16349071
0002b0 d9 24 c3 3d 9a ec 23 bd 2c c8 00 3e 8c 88 5b be
       0.095285125 -0.040020563 0.1257636 -0.21438807
0002c0 46 7e 99 bd 07 3b 63 3e c7 50 38 be d5 58 32 bb
       -0.07494788 0.22190486 -0.17999564 -0.0027213593
0002d0 ae 9e 3c 3e 0a 59 10 bd 85 20 29 be 93 ea 50 3d
       0.18419906 -0.035241164 -0.16516311 0.051004957
0002e0 c0 e5 63 3d 14 22 5b bc c6 0c 65 be f7 67 ef 3d
       0.05563903 -0.013374824 -0.22368154 0.116897516
0002f0 2f a1 e4 3d f8 0e 2a 3e c1 d1 58 3e 0a 97 5d bc
       0.11163556 0.16607273 0.21173765 -0.01352478
000300 1c 33 ca bd 0e b8 b7 be f0 58 f3 be 86 76 df 3d
       -0.098730296 -0.3588261 -0.4752879 0.109112784
000310 17 dd d3 be 72 9b cf 3d f4 a6 f0 bc 61 41 b1 be
       -0.41379616 0.10137071 -0.029376484 -0.34620193
000320 1e de a0 3d 44 75 7f 3e 71 d7 26 be 91 e8 2b 3e
       0.078548655 0.24947077 -0.16293122 0.16787936
000330 7d ba 09 be f9 c7 99 3c 21 8a 2c be ef e6 89 be
       -0.13450046 0.018772112 -0.16849567 -0.26934
000340 0c 05 be bc 79 99 46 be 0a fe 8a be f1 15 e1 3d
       -0.023195766 -0.19394483 -0.2714694 0.10990513
000350 67 9a 5d 3d 64 a0 4d bd 15 03 63 3d 75 fd 55 bc
       0.054102328 -0.05020179 0.05542286 -0.013060917
000360 e5 64 d3 3d bd b8 2b bd 87 59 08 be 11 64 3b 3e
       0.103219785 -0.041924227 -0.13315402 0.18299891
000370 33 19 0f 3c c3 37 02 be 30 d2 a7 3d b7 87 02 be
       0.008734035 -0.12716584 0.08194387 -0.12747084
000380 13 25 03 3e fa 32 49 3d f6 11 b1 39 79 8d 29 bd
       0.12807111 0.04912088 0.00033773453 -0.041394684
000390 68 d6 61 3e 2e 4f b4 bd 4c db b3 be 97 bf 0c 3e
       0.22054446 -0.08804165 -0.35128248 0.1374496
0003a0 dd 1f 80 be 6e 9e a8 3d 0d 5a 76 3e fe 70 ab bd
       -0.2502431 0.08233343 0.24057789 -0.08371161
0003b0 8b eb 94 3e 8f af 8f be b4 c9 94 3d 02 f0 d7 3d
       0.29085955 -0.28063628 0.07265034 0.10543825
0003c0 48 e7 8d be e7 3c 2e 3e 94 ae 7b bd 0c 3a a5 bd
       -0.27715516 0.1701542 -0.061445788 -0.08067712
0003d0 87 85 24 3e 80 23 14 3e 6d 9e 2b bd 9f 47 46 3e
       0.16066562 0.14466667 -0.041899133 0.19363259
0003e0 48 eb bf 3e f5 3c b3 be c2 dc 56 be c1 ce 13 bd
       0.37484193 -0.35007444 -0.2098265 -0.036085848
0003f0 74 97 a9 3c 32 05 92 3e 21 68 ee 3d 10 76 43 be
       0.020702101 0.2851959 0.11640955 -0.19088006

prediction_layer.bias f4 [10]
000000 19 d7 89 3e dc 08 7d bf 0c 21 46 3f 9f ac 0b bf
       0.2692192 -0.98841643 0.77394176 -0.54560274
000010 a5 65 97 3f 0e 64 e8 be ab fb 9c 3f e1 44 0f bf
       1.1827894 -0.45388836 1.2264303 -0.55964476
000020 27 63 b9 3c 9d f3 55 bf
       0.022630287 -0.8357485
