Homeworks/HW1/results/trained_models/mlp_1[3].pt (torch, 134245 bytes, 4 tensors)

fc.0.weight f4 [32, 1024]
-0.0018770853 -0.091058366 -0.041494884 -0.12209692 0.00524809 -0.028553981 0.0652424 0.028148782
-0.07115504 0.05612513 0.08580856 0.011609917 -0.020663207 -0.09096732 -0.0349169 -0.02681017
0.07006871 0.08134423 0.040720716 -0.002132579 -0.015507497 -0.004980463 -0.090528145 -0.105894335
-0.028332857 -0.030001188 0.024299663 -0.06603102 -0.17405653 -0.1967545 -0.053456806 0.14220552
-0.04609251 -0.060180504 0.02963075 0.054355957 0.09093063 0.018347666 0.22403438 0.051746316
0.028205933 0.11659089 0.06807484 0.038316887 -0.0066436897 -0.09929789 -0.07416721 0.027958807
0.06004129 -0.028184392 -0.049978487 8.518984e-05 -0.09726166 -0.0058172257 0.036248013 0.0062035746
0.059951335 -0.030132085 -0.025722444 -0.03955426 -0.062049247 -0.04528825 0.116876855 0.1010426
-0.09908573 -0.04667898 -0.08496257 -0.0032659771 0.0741353 -0.043418877 0.08381583 0.054777477
0.0340794 0.0255167 -0.042700127 0.014881397 0.025058342 -0.0031836235 0.015927665 -0.05970742
0.016523905 -0.050055034 -0.023456933 -0.007275376 -0.095068395 0.0062703914 0.031195384 -0.13858107
-0.16220807 -0.14447655 -0.16177338 -0.04558112 0.01345426 0.034622334 0.12900767 0.037994456
0.04046716 0.037260637 0.0054449923 -0.015844902 0.03633983 -0.030806025 0.08376376 -0.0038673342
0.07118428 0.08120519 -0.0051420513 -0.06659879 -0.06543629 -0.025361927 -0.03662798 -0.053194128
0.024377132 -0.026710363 0.038072325 0.08944858 0.011450016 0.026995895 -0.00022245686 -0.04402842
-0.10794578 -0.046716087 0.013702967 0.054686382 -0.038470108 -0.08820669 0.0645523 -0.07241183
-0.0055315075 0.1644786 0.15236661 0.023907868 -0.116307326 -0.049183704 0.08904161 0.06699775
0.034363862 -0.0045795157 0.051376216 0.12031045 -0.074550994 -0.054223824 0.028623339 0.03647457
-0.050551757 -0.0015633532 -0.04096994 0.057808932 0.049380373 -0.08320984 0.06096453 0.13700534
0.13945684 0.11843186 0.10795947 0.11489899 0.07536798 -0.032809168 0.06453336 -0.014123922
0.0638422 0.11652605 0.15827797 -0.019270645 -0.07930682 -0.03554108 -0.05056489 0.06613959
0.069547586 -0.111463115 0.0634069 0.1882407 -0.007850609 -0.070956685 0.004412586 0.05341673
-0.00524677 -0.09209136 -0.07762406 -0.062469516 -0.12868597 -0.11597899 -0.037491765 0.010392024
0.06481742 0.101554744 0.026827395 0.08374612 0.016392244 -0.012912663 0.042508055 0.06245704
0.057998944 -0.06009553 0.02694816 -0.062220223 -0.13033177 -0.0677283 -0.0849578 -0.02195337
0.056327157 -0.093842946 -0.058810946 0.05082145 -0.08110965 -0.03308567 -0.09845552 -0.087133735
0.012541532 0.004525688 -0.020634403 0.047836058 -0.036077794 -0.042954326 -0.084007666 -0.080208726
-0.001729373 0.0023476784 -0.052945744 0.024616487 -0.10101338 -0.12418425 -0.08276376 -0.08320569
0.053048015 -0.017302591 -0.0478066 -0.15106943 -0.050014842 -0.11959122 -0.17088771 -0.073571034
0.12627822 -0.11441009 -0.08604181 0.09798895 0.030793421 0.08203293 0.05260075 0.12802242
0.122296706 0.13672152 0.23479317 0.19962639 -0.022554386 0.024922421 -0.09029344 -0.04140348
0.15250382 0.012367497 -0.108802505 0.0184696 0.039766155 -0.0339549 0.04206425 -0.032795582
00000000: 8808 f6ba cf7c babd 8af6 29bd f30d fabd
00000010: 2bf8 ab3b 0aea e9bc cf9d 853d 4698 e63c
00000020: bcb9 91bd 77e3 653d 66bc af3d 8537 3e3c
00000030: e345 a9bc 134d babd 0605 0fbd 00a1 dbbc
00000040: 2f80 8f3d ce97 a63d c4ca 263d bdc2 0bbb
00000050: 2813 7ebc 2733 a3bb d266 b9bd 21df d8bd
00000060: 4f1a e8bc 0dc5 f5bc 1610 c73c 453b 87bd
00000070: e03b 32be 037a 49be 86f5 5abd 539e 113e
00000080: 80cb 3cbd d57f 76bd 30bc f23c 5aa4 5e3d
00000090: d739 ba3d d84d 963c 4569 653e f2f3 533d
000000a0: 2110 e73c 34c7 ee3d d26a 8b3d 2bf2 1c3d
000000b0: 4fb3 d9bb b15c cbbd fae4 97bd de09 e53c
000000c0: dbed 753d f4e2 e6bc 3eb6 4cbd f2a7 b238
000000d0: 1f31 c7bd 6d9e bebb cc78 143d 5b47 cb3b
000000e0: 888f 753d 90d7 f6bc e0b7 d2bc a603 22bd
000000f0: 5a27 7ebd 2c80 39bd 225d ef3d 6cef ce3d
00000100: 76ed cabd 7532 3fbd db00 aebd 010a 56bb
00000110: 40d4 973d fed7 31bd a2a7 ab3d 595e 603d
00000120: d796 0b3d 6608 d13c 54e6 2ebd 1ad1 733c
00000130: 2747 cd3c 57a4 50bb bc7a 823c c58f 74bd
00000140: 245d 873c 8206 4dbd c128 c0bc 4766 eebb
00000150: 38b3 c2bd db77 cd3b 768d ff3c 32e8 0dbe
00000160: df19 26be a9f1 13be eca7 25be 45b3 3abd
00000170: 426f 5c3c 26d0 0d3d 961a 043e 13a0 1b3d
00000180: e5c0 253d 9c9e 183d e86b b23b 2bcd 81bc
00000190: 13d9 143d eb5c fcbc 568c ab3d 1a73 7dbb
000001a0: 10c9 913d e84e a63d a77e a8bb f264 88bd
000001b0: 7603 86bd d1c3 cfbc 3907 16bd 16e2 59bd
000001c0: 8db2 c73c b1cf dabc baf1 1b3d d130 b73d
000001d0: d998 3b3c 7f26 dd3c 4f43 69b9 2557 34bd
000001e0: ad12 ddbd 5e59 3fbd 6982 603c d4fe 5f3d
000001f0: d592 1dbd b6a5 b4bd ff33 843d a74c 94bd
00000200: a641 b5bb 146d 283e fe05 1c3e 6fda c33c
00000210: 8932 eebd da74 49bd 735b b63d 1e36 893d
00000220: 1fc1 0c3d c30f 96bb de6f 523d 5365 f63d
00000230: 31ae 98bd cd19 5ebd 7e7b ea3c 5c66 153d
00000240: 5c0f 4fbd 6ee9 ccba 19d0 27bd 0fc9 6c3d
00000250: 1343 4a3d ec69 aabd f1b5 793d 214b 0c3e
00000260: c6cd 0e3e 678c f23d db19 dd3d 2950 eb3d
00000270: 875a 9a3d e862 06bd 112a 843d 0668 67bc
00000280: b3bf 823d 36a5 ee3d 9f13 223e 79dd 9dbc
00000290: 9d6b a2bd 8693 11bd 211d 4fbd 3274 873d
000002a0: f76e 8e3d c646 e4bd 7adb 813d 2cc2 403e
000002b0: d79f 00bc bd51 91bd 7497 903b 80cb 5a3d
000002c0: 19ed abbb 659a bcbd 5df9 9ebd 09e0 7fbd
000002d0: 41c6 03be 6586 edbd f790 19bd 4f43 2a3c
000002e0: ffbe 843d effb cf3d 20c5 db3c 1683 ab3d
000002f0: 0749 863c a28f 53bc ed1c 2e3d f4d2 7f3d
00000300: 4d90 6d3d bb26 76bd 63c2 dc3c a2da 7ebd
00000310: b175 05be 23b5 8abd 5bfe adbd 8ed7 b3bc
00000320: 4eb7 663d bb30 c0bd bfe3 70bd 272a 503d
00000330: d11c a6bd d784 07bd 0ca3 c9bd 2c73 b2bd
00000340: ff7a 4d3c 394c 943b 7b09 a9bc beef 433d
00000350: 4fc6 13bd e0f0 2fbd 360c acbd 7944 a4bd
00000360: 21ac e2ba 82db 193b a3dd 58bd 84a8 c93c
00000370: 1ae0 cebd 5054 febd 0c80 a9bd bf67 aabd
00000380: e048 593d 2abe 8dbc dad0 43bd f2b1 1abe
00000390: 5ddc 4cbd 3eec f4bd 30fd 2ebe 69ac 96bd
000003a0: 144f 013e d64f eabd b036 b0bd 6eae c83d
000003b0: 7c42 fc3c e100 a83d e273 573d 4f18 033e
000003c0: b276 fa3d ba00 0c3e 9f6d 703e dc6a 4c3e
000003d0: fac3 b8bc 1b2a cc3c c4eb b8bd b296 29bd
000003e0: f629 1c3e 0ba1 4a3c d9d3 debd 8f4d 973c
000003f0: d6e1 223d 4b14 0bbd 904b 2c3d a954 06bd

fc.0.bias f4 [32]
-0.9507109 -0.7337061 0.12843464 -0.8387212 0.22995204 -0.1476091 0.5395924 1.2434529
-0.96134996 -0.04707367 -0.5456159 -0.6452886 -0.65407217 0.26545775 -0.49857527 -0.14670646
1.159726 1.4678193 1.0556678 0.81354344 0.18519716 -0.7367319 -0.8078603 -0.27181956
-0.28833 -0.42093047 0.6644484 -0.2895101 -0.1347564 -0.5498127 -0.2558366 -0.21354826
00000000: ca61 73bf 2ad4 3bbf 5f84 033e 6fb6 56bf
00000010: 8c78 6b3e d726 17be ba22 0a3f 7729 9f3f
00000020: 081b 76bf 52d0 40bd 7cad 0bbf a231 25bf
00000030: 4671 27bf 14ea 873e 4245 ffbe 383a 16be
00000040: e771 943f 81e1 bb3f 1f20 873f 6244 503f
00000050: 53a4 3d3e 769a 3cbf efcf 4ebf ef2b 8bbe
00000060: fd9f 93be 3384 d7be 4a19 2a3f ab3a 94be
00000070: 95fd 09be 86c0 0cbf 04fd 82be 65ac 5abe

prediction_layer.weight f4 [10, 32]
0.25279716 -0.08819205 0.099107206 -0.039961018 -0.021014303 -0.10806594 -0.019041764 -0.049015474
0.22827323 -0.32865483 0.23918183 -0.41328502 -0.103491366 0.19931689 0.020294232 0.028675737
0.2430242 -0.03560282 7.557147e-06 -0.12794162 0.006139363 -0.24305294 0.059984434 0.04709018
-0.267381 -0.037414696 0.22314775 0.019598989 -0.2565813 -0.44056523 -0.14525095 0.15230222
0.31458497 0.29662028 0.20595111 0.022828938 -0.16885734 -0.18913598 -0.360804 -0.25720137
0.22105317 -0.019603856 -0.090994366 0.0996829 0.36141482 0.07085676 0.07528727 -0.13981177
-0.13272966 -0.1739446 0.0023911428 -0.38211444 -0.00025302696 -0.19611742 0.16429448 -0.00865248
-0.033114165 0.096698664 0.06972121 0.23798637 0.049024545 0.20890442 0.14540784 0.04515952
-0.1755756 -0.31459528 0.10675249 -0.19822508 0.14075102 0.17973952 0.13986263 -0.0337465
-0.20116234 0.017259544 -0.07346452 0.013635403 -0.16884492 -0.03184303 -0.21421963 0.058737755
0.13571298 0.086140834 0.0081368 0.20055874 0.12768473 -0.11764882 -0.24902649 -0.09708063
-0.089156576 0.012496706 -0.0063015884 -0.1761118 -0.09864756 -0.08894134 -0.17295863 -0.08851833
-0.22700171 0.035189006 0.0698274 -0.021481458 0.1251948 0.22382303 0.049973764 0.11125865
-0.2622927 0.075577535 0.0653628 -0.03247101 -0.058224205 -0.06581845 0.0020771185 0.05804482
-0.11762238 -0.010132554 -0.011164477 0.061904658 0.09375606 -0.0019502678 -0.22214927 -0.038980093
0.1418168 -0.043921117 0.11328077 -0.016190177 0.14084996 0.04259893 0.19510591 -0.20216636
-0.054040655 -0.13398272 -0.050496 -0.020891273 -0.038050756 -0.040646333 -0.03921142 0.051417153
-0.114086755 -0.10389591 -0.033483952 -0.22837335 -0.30801064 -0.06502437 -0.21860592 0.07747206
0.055852145 0.2502599 0.120541364 -0.013320657 0.1496922 -0.09528049 -0.13096426 0.10000075
-0.04295935 -0.17774774 0.03988677 0.08267853 -0.23003365 -0.22244582 -0.006268872 -0.029354248
-0.16350676 -0.03044721 -0.023869896 -0.10274664 0.13879053 0.14879337 0.103346564 0.13224591
-0.246122 0.15001315 0.09398676 0.077954404 -0.112226 -0.19849025 0.07216113 0.15194865
-0.13771337 -0.121055484 -0.07200592 0.1287148 0.01850497 0.18583031 -0.18822505 0.056635335
0.03554677 -0.10420744 0.092142865 -0.04581367 0.10455326 0.17006528 0.09364848 -0.21086615
-0.3820222 0.053823475 0.1306496 -0.29630956 -0.04178051 -0.0069941827 0.040658418 0.13504441
-0.4273685 0.13282648 -0.29629767 -0.035090357 -0.034968574 0.05023726 0.042197015 -0.23572549
0.1463494 0.14387575 -0.012346775 -0.19513655 -0.20395754 -0.1791327 -0.45475647 -0.2724484
0.14096306 -0.005029644 0.14738186 0.01300409 0.045677546 0.14084688 -0.052671164 -0.24471267
-0.060475796 -0.16997145 -0.21352375 0.23375598 -0.1835698 -0.046267014 0.16447167 -0.1326928
-0.05548076 0.18707964 0.075380825 0.06733138 -0.42636415 -0.2634828 0.30571422 0.26559868
-0.17897484 0.036357358 -0.086507626 0.0011960204 0.25861925 0.12830123 0.11533049 0.32435334
0.09062712 -0.30989453 -0.13917917 0.09180184 -0.030486291 0.21152169 -0.023123205 0.13754484
00000000: a16e 813e 099e b4bd b8f8 ca3d 2aae 23bd
00000010: 3026 acbc ad51 ddbd 79fd 9bbc 73c4 48bd
00000020: 75c0 693e 7245 a8be 15ec 743e 189a d3be
00000030: 48f3 d3bd ba19 4c3e 1740 a63c 61e9 ea3c
00000040: 56db 783e 43d4 11bd 6693 fd36 2103 03be
00000050: b62c c93b dfe2 78be 3db2 753d a2e1 403d
00000060: 2ae6 88be 2740 19bd d880 643e 0f8e a03c
00000070: a05e 83be c491 e1be aabc 14be 1df5 1b3e
00000080: 4811 a13e 9dde 973e d9e4 523e c103 bb3c
00000090: f0e8 2cbe ddac 41be 4dbb b8be e6af 83be
000000a0: c35b 623e 4498 a0bc 415b babd 8c26 cc3d
000000b0: 5d0b b93e 591d 913d 3630 9a3d d12a 0fbe
000000c0: 49ea 07be 891e 32be b8b4 1c3b 81a4 c3be
000000d0: b4a8 84b9 01d3 48be d03c 283e 22c3 0dbc
000000e0: b8a2 07bd f309 c63d fec9 8e3d b3b2 733e
000000f0: f6cd 483d 0aeb 553e cbe5 143e 30f9 383d
00000100: 17ca 33be a212 a1be 0da1 da3d 84fb 4abe
00000110: 0921 103e a30d 383e 2638 0f3e c539 0abd
00000120: 80fd 4dbe e363 8d3c 9174 96bd 0667 5f3c
00000130: afe5 2cbe d66d 02bd 645c 5bbe 0097 703d
00000140: 58f8 0a3e 9b6a b03d 3650 053c 455f 4d3e
00000150: c9bf 023e ddf1 f0bd cd00 7fbe 36d2 c6bd
00000160: b997 b6bd fcbe 4c3c 8e7d cebb a756 34be
00000170: bb07 cabd e126 b6bd 111c 31be 1949 b5bd
00000180: 2373 68be 5922 103d ab01 8f3d e2f9 afbc
00000190: 1133 003e dd31 653e 4ab1 4c3d 93db e33d
000001a0: 3b4b 86be 65c8 9a3d efdc 853d 5200 05bd
000001b0: 817c 6ebd d3cb 86bd 4420 083b 68c0 6d3d
000001c0: 01e4 f0bd 0303 26bc 36eb 36bc bd8f 7d3d
000001d0: 2d03 c03d 21a0 ffba 197b 63be 97a9 1fbd
000001e0: 6c38 113e a1e6 33bd c0ff e73d 43a1 84bc
000001f0: f93a 103e 377c 2e3d d8c9 473e b304 4fbe
00000200: bc59 5dbd c432 09be e5d4 4ebd 2d24 abbc
00000210: 1cdb 1bbd c57c 26bd 279c 20bd cb9a 523d
00000220: 51a6 e9bd 61c7 d4bd 7826 09bd b4da 69be
00000230: 92b3 9dbe 7f2b 85bd 3bda 5fbe aca9 9e3d
00000240: 38c5 643d 1122 803e 64de f63d e33e 5abc
00000250: e948 193e 6b22 c3bd 7f1b 06be 31cd cc3d
00000260: 25f6 2fbd 8103 36be 4f60 233d 5c53 a93d
00000270: f18d 6bbe d6c8 63be 1c6b cdbb 5278 f0bc
00000280: 516e 27be 6d6c f9bc cd8a c3bc d56c d2bd
00000290: 1b1f 0e3e 4a5d 183e 5da7 d33d 796b 073e
000002a0: 6807 7cbe 0c9d 193e 217c c03d 8fa6 9f3d
000002b0: bfd6 e5bd 0741 4bbe 37c9 933d 6d98 1b3e
000002c0: bc04 0dbe f0eb f7bd d777 93bd d0cd 033e
000002d0: bc97 973c 4d4a 3e3e 11be 40be 74fa 673d
000002e0: 7d99 113d b66a d5bd 66b5 bc3d 1da7 3bbd
000002f0: 0520 d63d 9825 2e3e c6ca bf3d 4ced 57be
00000300: 6a98 c3be 0176 5c3d 02c9 053e e3b5 97be
00000310: 0a22 2bbd 752f e5bb 7189 263d 1549 0a3e
00000320: 0bd0 dabe aa03 083e 54b4 97be e8ba 0fbd
00000330: 353b 0fbd 96c5 4d3d c7d6 2c3d 0662 71be
00000340: 9edc 153e 2a54 133e 214a 4abc e0d1 47be
00000350: 3fda 50be 906e 37be d7d5 e8be 5b7e 8bbe
00000360: 9f58 103e b6cf a4bb 45eb 163e 1b0f 553c
00000370: 6118 3b3d 2a3a 103e b8bd 57bd f595 7abe
00000380: 78b5 77bd ff0c 2ebe f8a5 5abe ba5d 6f3e
00000390: b9f9 3bbe 7b82 3dbd 436b 283e 9fe0 07be
000003a0: cb3f 63bd ce91 3f3e 4361 9a3d 09e5 893d
000003b0: 674c dabe 38e7 86be 9386 9c3e 8dfc 873e
000003c0: 2e45 37be 74eb 143d e92a b1bd c9c3 9c3a
000003d0: be69 843e 6661 033e 6432 ec3d a411 a63e
000003e0: b69a b93d 7faa 9ebe fc84 0ebe 9a02 bc3d
000003f0: 63be f9bc 2499 583e e06c bdbc 8ed8 0c3e

prediction_layer.bias f4 [10]
0.2795958 -0.92546225 0.7756558 -0.63522166 1.1339637 -0.3981945 1.1246557 -0.40770552
0.04904699 -1.0666177
00000000: 2e27 8f3e 18eb 6cbf 6191 463f e39d 22bf
00000010: b925 913f 26e0 cbbe b8f4 8f3f c7be d0be
00000020: 7fe5 483d ee86 88bf
