Homeworks/HW1/results/[cnn_5]weights.npy (npy, 416 bytes, 1 tensors)

array f4 [8, 1, 3, 3]
-0.28662378 -0.3546453 -0.06979419 -0.08968323 0.20003785 -0.09103943 0.083369695 0.36699507
0.11242668 -0.07490482 -0.5587578 0.24892698 0.07042911 0.5616079 0.5349717 -0.23165406
-0.28713754 -0.23020722 -0.19990815 0.1392473 0.52052784 0.40392488 -0.31106672 0.12012953
-0.108687066 -0.19137083 -0.4346919 0.16303769 -0.043668367 0.5023569 -0.17481813 -0.3941683
-0.076554164 0.18696877 -0.14874607 -0.13522702 -0.2082432 -0.24371113 0.13476063 0.115365945
0.04070046 -0.29872933 -0.041886084 -0.16893572 -0.27613983 0.14657088 0.03679419 -0.25425294
0.090496026 -0.4404591 -0.294351 -0.20916526 0.37867123 0.5317186 0.39769435 0.15383592
-0.30758375 0.25088307 0.14370611 -0.6054373 -0.10953069 0.029865023 0.022827905 0.16543517
0.40324378 -0.35811573 -0.18576795 0.3164467 -0.26044756 -0.11517605 0.13263509 -0.19269861
00000000: 5ac0 92be 1294 b5be 42f0 8ebd d7ab b7bd
00000010: b9d6 4c3e e172 babd bbbd aa3d c7e6 bb3e
00000020: f63f e63d b367 99bd c00a 0fbf b7e6 7e3e
00000030: 233d 903d 89c5 0f3f e8f3 083f b936 6dbe
00000040: b103 93be 71bb 6bbe b9b4 4cbe d896 0e3e
00000050: 5041 053f 3ecf ce3e 2344 9fbe 7906 f63d
00000060: 5397 debd b7f6 43be f08f debe 5af3 263e
00000070: 9add 32bd 769a 003f 8603 33be 6dd0 c9be
00000080: 6ec8 9cbd be74 3f3e e450 18be f478 0abe
00000090: b53d 55be 698f 79be b1fe 093e fb44 ec3d
000000a0: 87b5 263d 0df3 98be be90 2bbd 7cfd 2cbe
000000b0: 3362 8dbe ad16 163e 81b5 163d 712d 82be
000000c0: fb55 b93d db83 e1be 2db5 96be 6b2f 56be
000000d0: 32e1 c13e b61e 083f 989e cb3e 2a87 1d3e
000000e0: 9e7b 9dbe bf73 803e b227 133e f0fd 1abf
000000f0: a051 e0bd 7ea7 f43c 9601 bb3c d667 293e
00000100: f875 ce3e f25a b7be f439 3ebe 4d05 a23e
00000110: 6259 85be 6ce1 ebbd 7ed1 073e c952 45be
