Homeworks/HW1/results/[cnn_3]weights.npy (npy, 704 bytes, 1 tensors)

array f4 [16, 1, 3, 3]
00000000: 0236 cf3e 1327 c83e 0a3c 80be ad6c 87be
00000010: 68ce 33be 7971 2dbe d009 77be 86e1 35bd
00000020: 6385 bd3e e204 7ebd d7f0 6dbd 6b9e cabe
00000030: b0e9 e63b 1ea4 103e e2cc a73e 30da ea3d
00000040: 36ff cabe 3943 8c3e 9d6f 45be 1695 bdbe
00000050: 9ce4 193e c6f0 213d 74c3 abbd d700 80be
00000060: 233a 403e 61dd a8be afe9 b43e 991a 88be
00000070: 218e a0bc 3342 073e 6019 843e 03f7 4bbe
00000080: b09c e23e a7fa ca3d 06b1 95be b938 da3d
00000090: 3b70 a33e b309 803e 7a05 c53c b23b 5abe
000000a0: ea11 febd 103a 15bc 9745 f7bc a2af cfbe
000000b0: 969d 553e 8e85 28be 607f 703b d10e d0bd
000000c0: ebb3 9abe 6e2b 873e 5b10 993e 0ebb 3e3e
000000d0: 3f98 683e 3330 c8be 97e4 4d3d 9435 b53e
000000e0: ab20 97be ee6a 363e 0a2c 1d3d 968f babe
000000f0: 4b59 0dbe d3e7 8abe 31df 513e dbae 55be
00000100: b07a 65bd b576 b13e fabf 73be 11db f73c
00000110: 83eb 6dbd 0329 49bd 11e9 01be 2fb1 1d3e
00000120: 41fd b13e 42fe 4ebe b1b6 29be e81e 80be
00000130: 725c 74bd 3643 933e 7646 d3be 0207 073e
00000140: e07d bd3e 6b93 1ebd ecac 903e 6061 5fbe
00000150: 6e24 a93e bd2c 1cbe e561 7ebd becc 0d3f
00000160: 39f0 dcbe 7d04 5bbe 65fc 31be ab8d b1bd
00000170: cfe1 923e 78bf 01be 6f25 7f3a 414c 243e
00000180: 679a 403e 4a2b 6ebd a2a9 2f3e 1957 37be
00000190: 4a4f 9a3c 410f 1c3e 2301 8e3e f988 923e
000001a0: a75b 91be 87c6 a53e 4343 93be c40a c8be
000001b0: 4317 5ebe 092b f2be 2871 563e 1afd 2ebe
000001c0: c7ab 393e 38c7 023e d61e 543e 07b3 9f3e
000001d0: e83d 25be ccca 69be 650e 2f3c 262b 553e
000001e0: bda2 a2be eb18 d93d c330 0bbe 842b 1ebe
000001f0: f9e3 db3e b752 873d f33e 2d3c 4ff3 80bd
00000200: 2c07 e33a d2c1 553d b7cf e43d 4452 89bd
00000210: 3452 17be 7ad0 b73d 5456 4e3b fd1c 993e
00000220: d64f 22be 5852 8bbe 16e0 a93e 0823 55be
00000230: d25c 07be ffc3 953e fe5d b5be effe 493e
0.40470892 0.3909231 -0.25045806 -0.264501 -0.17559206 -0.16937818 -0.24124837 -0.04440453
0.37015828 -0.062016375 -0.05809101 -0.39573988 0.0070469007 0.14125106 0.327735 0.11467397
-0.39647835 0.27395037 -0.19280858 -0.37027806 0.15028614 0.03953626 -0.08386889 -0.2500064
0.18772177 -0.329814 0.35334536 -0.26582792 -0.019599022 0.13208847 0.2580061 -0.19918446
0.44260168 0.099110894 -0.2923662 0.1065535 0.31921563 0.250074 0.024050463 -0.21311834
-0.124057606 -0.009108081 -0.03018455 -0.40563685 0.20860896 -0.16457197 0.0036697015 -0.10159076
-0.30215392 0.26400322 0.2989529 0.18626043 0.22714327 -0.39099273 0.05026683 0.3539244
-0.2951711 0.17814228 0.038372077 -0.36437672 -0.13803594 -0.27129993 0.20495297 -0.20867483
-0.056025207 0.3466088 -0.23803702 0.030255826 -0.05808593 -0.049111377 -0.12686564 0.15399621
0.3476353 -0.20214179 -0.16573597 -0.2502358 -0.059658475 0.28762215 -0.41264695 0.13186267
0.37010098 -0.038714807 0.2825693 -0.2181449 0.33035606 -0.15251441 -0.06210508 0.55390537
-0.43152025 -0.21388431 -0.17381437 -0.08669599 0.28687903 -0.12670696 0.0009733056 0.16044714
0.188089 -0.058146752 0.17154554 -0.17904319 0.018836636 0.15240194 0.27735242 0.28620127
-0.28390238 0.32378027 -0.28762254 -0.39070714 -0.21688561 -0.47298458 0.20941603 -0.17088738
0.18131934 0.12771308 0.20714888 0.31191275 -0.16136897 -0.22831267 0.010684584 0.20817241
-0.31764784 0.10600456 -0.1359282 -0.15446287 0.42947367 0.066075735 0.01057409 -0.062964074
0.0017320863 0.052186795 0.11172431 -0.06705144 -0.14777452 0.089753106 0.003148456 0.2990493
-0.15850767 -0.2721126 0.33178777 -0.20814145 -0.13219002 0.29251096 -0.35423273 0.19726156
