Homeworks/HW1/results/[mlp_1]weights.npy (npy, 131200 bytes, 1 tensors)

array f4 [32, 1024]
00000000: b84e 90bc 15d8 87bc d7bb 033a f7d0 f0bb
00000010: c776 df3c d19b f3ba 78a3 c93c 1985 86bc
00000020: ced5 37bc 3c73 dc3b 3484 223c 9b64 a63c
00000030: 5f2b cabc a7ee 61bc dc98 01bd fbd2 67bc
00000040: fcb8 673b ad09 55bb 9e22 e23c 0316 003d
00000050: fb48 73bb f8d7 adbc 8a60 c4bb e3d5 05bc
00000060: a977 09bd 2366 253c 4b9e 4cbd bf0f 743b
00000070: c8e5 64bd 76ac 9dbc 5b54 40bd 54a5 efbc
00000080: d837 803c 4eb7 c1bc 0ffb 7fbc f9ae 533c
00000090: fd39 4a3c 43cd 6b3c e612 003c 7c51 c63c
000000a0: d354 e63b 51ea 533b 58a2 a43c 6842 023d
000000b0: 6d0c 08bc 5d4b 6abc 1283 35bc b13f 493c
000000c0: d932 733d dd2a 943d 9514 d63c 84f9 0e3d
000000d0: 7373 a23c b253 7cbc f397 69bc 7be4 a73c
000000e0: 24fb b13b 23c1 6eba 24f5 a0bb a330 55bb
000000f0: 8e93 34bd 7313 2dbd 037e 383c 9da4 33bd
00000100: 8d20 8dba 5bf2 853c caff 01bd df3d 9ebb
00000110: d772 143d 0131 86bc ceab c3bc 1598 2e3c
00000120: 8ab8 33bc 7d7f 7c3b 0e5f 193d 2982 063d
00000130: 7eaa 1c3b 54fd 633b 38b8 4c3d 94b4 c03c
00000140: 6e6a 053d 249b 9c3d dce4 913d 554d 773c
00000150: 6e31 003c ee58 603c 90c7 f13c 9aeb 46bb
00000160: 68fe a23c 0ec4 96bb d448 fe3b 1054 c63c
00000170: 578f b2bc e9c0 553c f929 4d3c 9589 ba3c
00000180: 672b 843c 4907 973c 29bc 0cbd b597 efbc
00000190: d6a0 56bc 5eeb c4bb 583a b43c bdb6 623c
000001a0: cf30 3dbc 61a9 2b3d 47f8 6c3d 5d77 933c
000001b0: b555 01bc 8726 11bc 8492 d13c 3295 7a3c
000001c0: 9ace ef3c 9912 4a3d c258 8d3c 351e a03d
000001d0: 53ba 953c f263 b73c 2c4d 3cbc be71 f23c
000001e0: 6fdb 743c b2d5 e7bc a853 43bc 54f3 c33b
000001f0: e315 503c c121 98bc 124b 633c e542 0dbd
00000200: d31b b338 aa3c 003d 7efd 693c 9350 8c3c
00000210: 2a79 943c 2e81 533c 4e97 3abb da1a ec3c
00000220: f518 94bc 742d f63c 4656 323c 3e5a 843b
00000230: 08d5 7f3c b0eb c23c 5bea edbb c18c e23c
00000240: 4780 133d aaea cd3b 8c1c e73b d420 8cbc
00000250: 724f 9a3c 26a8 95bb f3aa cabb b065 363c
00000260: e759 843c 8080 ebba 7f8a 5a3b c040 303b
00000270: cf02 c7bc 07b3 8f3b 80a6 9b3c 420f 07bc
00000280: 1959 9b3c cafe 96bc 29d8 d6bc 6027 af3c
00000290: c4e7 64bc 749f 823c a4e5 f93c 38d1 d83c
000002a0: 02ff 59bc 96a6 e7ba 5a52 9dbc 85aa dbbc
000002b0: 9c31 693c ed4c 75bb 3773 093a c679 8dbc
000002c0: 203c 17bc 4456 dd3b 36fb d9bc ab73 473b
000002d0: 906a 13bd 24ee 36bc 2efe 35bd 9694 99bc
000002e0: 694f 873c b4b4 5dbb e1fc 413c 1bf9 8dbc
000002f0: e05b 033c 91ea 2c3b 8697 0c3b 7590 b93c
00000300: b289 ab3c 6c44 22bd 07d5 883a 7243 66bb
00000310: 34e9 e9bc ed16 bb3c 2489 37bc 0948 153c
00000320: 8d4b cabc 6f97 813c e9c5 0abd acd1 a4bc
00000330: 8a4a 623c 647e b33c d88c fdbb 7786 ce3c
00000340: 29f2 293d 5f81 303d abac 0dbc 5071 aa3c
00000350: bb7d a03c bde0 31bd c384 86bd 804f cebc
00000360: 3552 903c 0b04 19bd 9b92 363a 0104 b93c
00000370: a301 dcba f21d 8739 c3fe 7ebc ebd3 ec3c
00000380: e02a 263c 9eb0 813c 2a86 d0bc 3d6c d43c
00000390: 88c3 77bc a493 d53c 2c35 723c 95bc 813b
000003a0: a85f 073d 0ee5 b93c 1b28 b53c 50c9 e63c
000003b0: c617 783c 831b 2ebc a684 433d 66ac d93c
000003c0: 011a e53b ec2d 9f3c b639 1a3d 79cc 8c3c
000003d0: 4085 ef3c f4c4 4f3c b531 a8bb 0714 b33c
000003e0: cbaf 84bc 4a51 4cba aa0f 0abc b3ec dc3c
000003f0: e05f b13c 5318 7b3c c5e4 30bd 7343 8abc
-0.017615661 -0.016582528 0.0005025244 -0.0073491293 0.027278317 -0.0018585866 0.02461408 -0.016420888
-0.011220409 0.006727604 0.009919215 0.020311644 -0.024678884 -0.013789809 -0.03163992 -0.014149423
0.0035358062 -0.0032506988 0.027604397 0.031270992 -0.0037122357 -0.021221146 -0.0059929537 -0.00816867
-0.033561382 0.010095152 -0.049955647 0.003724083 -0.0558832 -0.019247275 -0.046955448 -0.02925364
0.015651628 -0.023646977 -0.015623822 0.012920135 0.012342927 0.0143922 0.007817006 0.024208777
0.007029155 0.0032335708 0.020096943 0.03180161 -0.008303744 -0.014300195 -0.011078613 0.012283252
0.059374664 0.07234738 0.026132861 0.034905925 0.019830441 -0.015400814 -0.014257419 0.02049469
0.0054315496 -0.0009107759 -0.0049120355 -0.003253021 -0.04408603 -0.042254876 0.011260512 -0.04385816
-0.0010767147 0.016350916 -0.03173808 -0.004829153 0.036242332 -0.016380789 -0.023885634 0.010656376
-0.0109692905 0.0038528137 0.037444167 0.032838974 0.0023905332 0.0034788447 0.049980372 0.023523606
0.032572202 0.07646778 0.071237296 0.015094121 0.007824285 0.0136930775 0.029514104 -0.0030352832
0.019896701 -0.0046010083 0.0077601466 0.024210006 -0.021796865 0.013046482 0.012522214 0.022770682
0.016133977 0.018436091 -0.03435913 -0.029247144 -0.01309987 -0.0060095033 0.022000477 0.0138375135
-0.011547281 0.04190958 0.057853963 0.018001253 -0.007893969 -0.008859283 0.02558256 0.01529436
0.02927332 0.049334142 0.017254237 0.078182615 0.018277323 0.022386525 -0.011493009 0.029595252
0.014944895 -0.02830014 -0.011921801 0.0059799347 0.012700531 -0.018570783 0.013872879 -0.034487624
8.540568e-05 0.031307854 0.014281629 0.017128265 0.018124182 0.012909217 -0.0028471532 0.028821398
-0.018078307 0.03005097 0.010884827 0.004039078 0.015614755 0.023794025 -0.0072606034 0.027655007
0.036011007 0.0062840777 0.0070529636 -0.017105497 0.01883671 -0.004567164 -0.0061849295 0.011132643
0.01615615 -0.0017967373 0.003334671 0.0026894063 -0.024293331 0.0043853554 0.019000292 -0.008243384
0.018963384 -0.01843204 -0.02622612 0.02138108 -0.013971273 0.015945174 0.030505009 0.02646695
-0.0133054275 -0.0017673548 -0.019204307 -0.026814708 0.014233019 -0.0037429885 0.00052433036 -0.01726998
-0.0092306435 0.0067546684 -0.026609045 0.0030433934 -0.035990298 -0.011165176 -0.044431858 -0.01874761
0.016517358 -0.0033829631 0.011840076 -0.017330697 0.00801751 0.002638493 0.002145262 0.02265189
0.020939682 -0.039616033 0.0010439464 -0.0035135415 -0.028553583 0.02283808 -0.0112021305 0.009111413
-0.024694229 0.01581928 -0.033880148 -0.02011951 0.013811717 0.021910854 -0.007737737 0.025210602
0.041490708 0.043092128 -0.008647124 0.020805985 0.019591203 -0.043427218 -0.06568291 -0.025184393
0.017617324 -0.03735737 0.0006964595 0.022584917 -0.0016785156 0.00025771518 -0.01556367 0.028909644
0.010142058 0.015831288 -0.0254546 0.025930518 -0.015122302 0.026071377 0.014783185 0.0039592483
0.03305021 0.02269223 0.02211385 0.028172165 0.015142387 -0.0106266765 0.047733925 0.026571464
0.0069916253 0.019431077 0.037652694 0.017187344 0.029238343 0.012681235 -0.0051328787 0.021860136
-0.016197106 -0.00077940954 -0.008426586 0.026968336 0.021652162 0.015325624 -0.04318692 -0.016877865
