Homeworks/HW1/results/[mlp_1]weights.npy (npy, 131200 bytes, 1 tensors)

array f4 [32, 1024]
00000000: d07d 173b 8736 89bd 2ea0 c5bd 40b2 3bbb
00000010: 5b21 393d 8a1c 6e3d 3d87 56b8 5429 68bd
00000020: ae12 c3bd f011 07bd ccea 72bd ad5e f1bc
00000030: d8f6 8c3d 990c 773d 7885 2d3d f33f 63bd
00000040: 8289 0abe 464e 67bd ced3 cc3b ce1e 8d3c
00000050: 3529 0ebd 590e b1bc 8d09 443c 1c00 e73c
00000060: 5456 213d 5c87 6a3d 5946 743d aee0 69bd
00000070: f3e0 f5bd 2dba c0bc 01c6 c43a 6cbb 603d
00000080: 191e 19bc c3ea b8bc 0baa 26be 95e2 bdbd
00000090: b24a bab8 8e8a 443d 740f 103d 934f c83c
000000a0: 8655 8dbc 04a8 533d 7cb4 de3c 47fa ee3b
000000b0: 6221 b73d c7a5 f93d 6cf7 143d 9822 50bc
000000c0: 3fb8 8fbd e684 11bd 42ef fcbc bd75 043d
000000d0: 35cb a93d e704 1f3d 0a01 4cbd 1673 dbbd
000000e0: bcbe 9fbd 17b7 713d 3735 3a3d 35b2 b7bd
000000f0: 9e82 0cbe 5efb 82bd 3579 b03c e677 943d
00000100: 7f84 7b3a b038 683d 5ad3 e1bd a7a2 f5bd
00000110: a262 e1bc f58c 51bd 3617 2d3d 98e3 b73c
00000120: 3ec8 e93d f69b 403e 3cdb 723d 7b88 563d
00000130: 789e 843c abbc 0d3d bc1e d43c 97d6 e73b
00000140: f879 cbbc 3f5e f23c a1d1 b43c 73a8 eb3d
00000150: 7b6e 123e a9f3 c03d 0143 643d e9ad 613c
00000160: 4183 79bc 01da bd3c 9885 933d 6cec 5ebd
00000170: fee4 62bd 109a b2bc f167 a33d 7244 a33d
00000180: 37e2 ebbc 1681 a83d 8584 d5bc 5d74 02bb
00000190: d1df 98bd 048d 46bd 239d a53c 46ea 0abd
000001a0: 0bd1 c03d 1557 393e 6a52 c13d 7890 583c
000001b0: ff04 a23c fce5 683c 05be dd3b 5e56 843b
000001c0: ae36 47bc be29 f23c d50d 163e 9998 f43d
000001d0: e70d 023e 56ab 033e 3a27 9f3d f407 a83d
000001e0: 4745 523d 4434 8abc 741d 49bd 41e3 b9bd
000001f0: 522f 53bd 570d 67bd 34f9 bdb9 cbf7 e83d
00000200: d19b 3abd e3eb 2e3d 5f91 3b3d bbaf 42bc
00000210: ebb2 93bd eded b8bd 10b3 ee3a da22 c1bd
00000220: be1d 74bb e83d eb3d 7371 cf3d e3a5 f4bc
00000230: 0186 0a3d dfe1 113c 727f fbbd 7635 fcbd
00000240: 11cb 67bd 75ca bfbc f889 c93c 595e 8a3d
00000250: e72f 27bd 16a0 f93b a8b7 cabb 4674 06bc
00000260: 2ac7 8a3c 7d00 6bbc 36d7 43bd eb68 ddbd
00000270: a8b5 c5bd e398 98bd a7d6 463c a2d4 af3d
00000280: 5464 80bd cb3a 08bc d82b 943c 5fc9 a43d
00000290: ec99 f63b 31a8 a8bd 1ece 66bd 53c2 b4bd
000002a0: 3425 91bc e57f da3d 481a f13c 6a2c 1dbd
000002b0: a2d5 af3d 5f26 8d3d e6e3 97bd 086e dbbd
000002c0: b6ec 59bd 9e27 4dbd c82f 063b 7eae 01bd
000002d0: c5f8 93bd 32d0 26bd 679a ecbc 2985 b13c
000002e0: 23d3 d23c 464e 6bbd e92d 5fbd 2de2 97bd
000002f0: 1e9f 48bd 2f1e 9a3c 07f0 393d d1e6 073d
00000300: 1d48 953c 27c8 243d 3760 d43d 71b5 183e
00000310: be47 1e3d 7374 acbd ea00 573d 7a53 a03d
00000320: f0e6 e5bb c530 763d 724b ae3b 0413 cdb9
00000330: 448b 323e 7a19 133e 05a3 febc 4682 9dbd
00000340: fd3a 3a3d 24dd 013d edc6 dc3c ffcd 813b
00000350: b33f 7d3b c70f 93bd c881 5fbd aaec 1c3c
00000360: c9c9 c0bc b3b2 73bd de2c 5e3c 1f92 8dbc
00000370: 3f5d 013c 7315 e73d 3a40 443d ee97 9fbd
00000380: 18b4 59bc 3b72 b3bc 3f5b 8b3d c258 b73d
00000390: ffc9 bd3b 9539 4cbd f592 873c 15ce ea3d
000003a0: 60a0 6c3d 2c96 93bd 4f97 0bbe d575 44bd
000003b0: 52fc d13d 9dec 303d c68b 14bd b557 91bc
000003c0: 9265 ca3b de03 333d 2415 e3bd 300e 973c
000003d0: 52bd 123b 9a1f 06bc 1e6d 49bd b6a4 72bd
000003e0: 74bb a6bd 2593 dbbd 86de 20bc f841 fe3c
000003f0: c34d ba3c fe7a a43d 6412 983c 9630 67bd
0.0023115762 -0.066998534 -0.096496925 -0.002864018 0.045197826 0.058132686 -5.1147526e-05 -0.05668004
-0.09525047 -0.03297609 -0.05930595 -0.02946409 0.06883019 0.06031475 0.042363614 -0.05548091
-0.13529018 -0.05647113 0.006250835 0.017226603 -0.034707267 -0.021613287 0.011965168 0.028198294
0.03938897 0.057257995 0.0596374 -0.057099037 -0.12005796 -0.023526276 0.0015012623 0.05486624
-0.009345555 -0.02257288 -0.16275804 -0.09271733 -8.883084e-05 0.0479837 0.035170987 0.024452006
-0.017252695 0.051673904 0.027185671 0.007293019 0.08941914 0.12189823 0.036368772 -0.01270356
-0.07017564 -0.035527132 -0.030875806 0.032338846 0.08290712 0.038823035 -0.04980568 -0.1071531
-0.078000516 0.0590125 0.045460906 -0.08969537 -0.13721702 -0.06395601 0.021542171 0.07249431
0.00095946336 0.056694686 -0.1102664 -0.11993914 -0.027512852 -0.051159818 0.042258464 0.022447392
0.11415146 0.18809494 0.05929111 0.05237625 0.016188845 0.034603756 0.025893562 0.0070751416
-0.024838433 0.029585956 0.022072615 0.115067385 0.14299957 0.094214745 0.055727962 0.013774374
-0.015229047 0.023175241 0.07203215 -0.05442469 -0.055394165 -0.021801978 0.079788096 0.07972039
-0.028794391 0.08227746 -0.026064167 -0.0019905784 -0.074645646 -0.048474327 0.02021653 -0.033914827
0.09414872 0.18099625 0.09439547 0.013218038 0.019777773 0.014214989 0.006767037 0.004038616
-0.012159033 0.02956092 0.14653714 0.11943168 0.12700616 0.12858328 0.07771154 0.08204642
0.0513356 -0.016870625 -0.049100354 -0.09076548 -0.0515588 -0.056409206 -0.0003623456 0.11375388
-0.045558754 0.042705428 0.045792934 -0.011882718 -0.0721186 -0.09029756 0.0018211324 -0.094304755
-0.0037249173 0.11486417 0.101290606 -0.029864257 0.033819202 0.0089039495 -0.12280168 -0.12314884
-0.056590144 -0.023411969 0.024601921 0.06756277 -0.040817168 0.0076179607 -0.0061864443 -0.008206433
0.016940672 -0.014343378 -0.047812663 -0.10811027 -0.09653789 -0.07451036 0.012136138 0.08585478
-0.06269136 -0.008314799 0.018087313 0.08046221 0.007525673 -0.08235205 -0.056348912 -0.08826127
-0.017717935 0.10668925 0.029431477 -0.038372435 0.08585669 0.06892084 -0.07416515 -0.10714346
-0.05320426 -0.05008661 0.0020475257 -0.03166055 -0.072251834 -0.040725894 -0.028882219 0.021669941
0.025735443 -0.057447694 -0.054487143 -0.074161865 -0.04897987 0.01881322 0.045394924 0.033179108
0.018222863 0.040229943 0.10369914 0.14912964 0.038642637 -0.084206484 0.052491106 0.07828422
-0.0070160553 0.060105104 0.0053190524 -0.00039114815 0.17435938 0.14365187 -0.031083593 -0.07690863
0.04546641 0.031705037 0.026950324 0.003961324 0.0038642704 -0.07180744 -0.05456713 0.0095779095
-0.023533719 -0.059496593 0.013560502 -0.01728159 0.007895767 0.11283388 0.047912814 -0.0779265
-0.013287567 -0.021905055 0.06804513 0.08952476 0.005791902 -0.049859602 0.016549567 0.11465088
0.057770133 -0.072063774 -0.13631938 -0.047963936 0.102532044 0.043194402 -0.03626611 -0.017742017
0.006176659 0.04370486 -0.11088017 0.018439382 0.0022390676 -0.008186245 -0.049176328 -0.05923911
-0.081412226 -0.10721425 -0.009818679 0.031037316 0.022742158 0.080312714 0.018563457 -0.05644282
